saved_models/bSuperMRI_10.pth (torch, 29410 bytes, 25 tensors)

input_block.conv1.weight f4 [3, 1, 3, 3]
0.38384557 0.5879076 0.23263451 0.07709504 0.3156339 -0.0024632446 0.21435075 0.38351634
-0.15988845 0.44500202 0.45327783 0.2472455 0.389131 0.37627932 0.36867133 -0.19757271
-0.13967592 -0.23980702 -0.5139797 0.12709387 -0.02432832 0.7254878 -0.23514041 0.22701947
0.2764254 0.31833416 0.20981348
00000000: 6887 c43e 1d81 163f be37 6e3e 01e4 9d3d
00000010: c49a a13e 636e 21bb c37e 5b3e 415c c43e
00000020: ccb9 23be 4ed7 e33e 0814 e83e ed2d 7d3e
00000030: 2e3c c73e afa7 c03e 7dc2 bc3e 8050 4abe
00000040: 3407 0fbe f98f 75be 2c94 03bf e524 023e
00000050: 2f4c c7bc 92b9 393f a6c8 70be cb77 683e
00000060: a187 8d3e b2fc a23e 58d9 563e

input_block.conv2.weight f4 [3, 3, 3, 3]
-0.54407305 0.1271593 0.08284035 -0.20330991 -0.2749084 -0.5331552 0.21635978 0.3657458
0.16328606 0.27079988 0.18493241 0.1437063 0.48970187 0.47005367 0.6574578 0.05255173
0.0539529 0.05121601 -0.1940993 -0.15923114 -0.24156247 0.20843242 -0.086759984 0.47458884
0.1458487 0.15981832 0.011294417 0.105976135 0.6066401 0.124889895 -0.15113889 0.33711314
-0.19957432 -0.16843534 -0.16116878 -0.1393672 -0.1394244 0.27557877 -0.339807 0.13139692
0.13836819 0.2242425 0.37368745 0.28462455 0.21206212 -0.011229262 0.4090891 0.17794676
0.02686646 -0.5419057 0.26748943 0.27132326 0.36319894 0.031885583 0.033919897 -0.16212465
-0.10469963 -0.25141743 -1.2844142 -1.1591069 0.12931661 -0.6632749 0.004650924 0.011264703
-0.030080605 0.015346937 -0.018077599 0.037194725 -0.029701445 0.012380658 -0.087848134 -0.019967962
-0.06407346 -0.15457705 -0.005147652 -0.20771539 0.019491866 -0.53161454 0.001216178 0.009765728
-0.048620656
00000000: 5f48 0bbf 0c36 023e 34a8 a93d 7930 50be
00000010: cbc0 8cbe dc7c 08bf 6b8d 5d3e 0943 bb3e
00000020: 7634 273e 48a6 8a3e ec5e 3d3e bf27 133e
00000030: 34ba fa3e e0aa f03e 284f 283f 7c40 573d
00000040: b7fd 5c3d e1c7 513d f8c1 46be 7d0d 23be
00000050: 275c 77be 4f6f 553e 38af b1bd 4ffd f23e
00000060: 5d59 153e 6aa7 233e 380c 393c 040a d93d
00000070: c44c 1b3f 46c6 ff3d 27c4 1abe 189a ac3e
00000080: 365d 4cbe 507a 2cbe 6e09 25be 46b6 0ebe
00000090: 45c5 0ebe a918 8d3e 2ffb adbe ea8c 063e
000000a0: 64b0 0d3e d39f 653e f653 bf3e 4fba 913e
000000b0: d026 593e f0fa 37bc 2074 d13e ad37 363e
000000c0: 0d17 dc3c 55ba 0abf 60f4 883e e2ea 8a3e
000000d0: 36f5 b93e 759a 023d 97ef 0a3d 0104 26be
000000e0: c26c d6bd c9b9 80be af67 a4bf 9d5d 94bf
000000f0: 936b 043e 62cc 29bf c766 983b 978f 383c
00000100: 9a6b f6bc b871 7b3c 7917 94bc 7f59 183d
00000110: 7250 f3bc 3ed8 4a3c b9e9 b3bd da93 a3bc
00000120: f238 83bd 7249 1ebe a2ad a8bb 58b3 54be
00000130: 68ad 9f3c e417 08bf 2968 9f3a 6f00 203c
00000140: 7426 47bd

down_blocks.0.conv_block.conv1.weight f4 [6, 3, 3, 3]
-0.23673542 0.08167904 0.20395736 -0.6848027 -0.61152434 0.0952903 -0.6443083 -0.48112905
-0.0050235833 0.25643528 -0.0318744 0.14787127 -0.051663272 0.089068376 0.50274926 -0.6198471
-0.37571743 0.12698027 0.09348328 0.08528453 0.2102942 0.02930452 -0.0060563036 -0.14590935
0.16776814 0.1436073 -0.03555625 -0.066893585 -0.07476757 -0.006378759 -0.06405809 0.015711902
-0.35794887 0.2518965 0.47577843 -0.102308996 0.13241944 0.029795446 0.01127135 -0.06853657
-0.02277932 -0.12568586 0.3224022 0.59864366 0.13525175 -0.0014243622 -0.18711384 -0.052969255
-0.3028612 -0.3245786 -0.076114826 0.17126694 0.31830496 0.35635135 -0.09665394 0.05053859
0.06845573 -0.1506247 -0.11496373 -0.05742156 0.09490429 0.44154644 0.20588599 0.070438735
0.029818187 0.028592486 -0.1307904 0.11265088 -0.10753049 0.01648914 0.24445318 0.37135792
-0.22262523 0.2477032 -0.025881592 0.044448677 0.5815013 0.15556875 0.2439198 0.51188666
0.5359736 0.0814388 -0.1755047 0.13762245 0.184331 0.1920809 0.08947398 -0.07682402
-0.053353675 -0.23170006 -0.105322264 0.08262115 0.22226155 -0.39651126 -0.23282833 -0.4477013
0.054331247 -0.10328523 -0.0711769 -0.2701072 -0.36403137 0.4729227 0.013593071 0.23859502
0.68516797 0.063678436 0.045454927 -0.32903525 0.03391847 0.00058487535 -0.021305034 -0.09307434
0.05160218 -0.006602028 0.0037426732 0.26836658 0.016625421 0.0017832657 -0.025076425 -0.027684346
0.012787194 -0.040954255 -0.020788273 0.077906035 0.09922976 0.14398523 0.06020599 -0.0033962703
-0.048968405 -0.07528498 0.6120582 -0.13404924 -0.038597878 2.4299152 0.20710878 0.02533532
-0.2141307 0.018904472 -0.040709805 -0.28452504 -0.1587897 -0.11188703 -0.23641996 -0.16127431
-0.15410766 -0.027475692 -0.35468906 -0.11896076 -0.044999696 -0.1377775 -0.064705096 -0.16407561
-0.19617903 0.11295899 0.13572052 -0.2041005 -0.40504408 -0.41792595 -0.18059562 -0.13013558
-0.086063154 -0.14166936
00000000: c56a 72be 5747 a73d 33da 503e 3b4f 2fbf
00000010: dc8c 1cbf 9027 c33d 64f1 24bf 8c56 f6be
00000020: df9c a4bb 7c4b 833e bb8e 02bd 916b 173e
00000030: de9c 53bd 7b69 b63d 2db4 003f 4dae 1ebf
00000040: 095e c0be 1e07 023e 2974 bf3d a8a9 ae3d
00000050: 5d57 573e 0810 f03c f573 c6bb 4369 15be
00000060: 69cb 2b3e cb0d 133e 6ea3 11bd 81ff 88bd
00000070: bd1f 99bd e904 d1bb e330 83bd 3fb6 803c
00000080: 1345 b7be 94f8 803e 3b99 f33e 6187 d1bd
00000090: f698 073e 9415 f43c 78ab 383c e75c 8cbd
000000a0: b29b babc cbb3 00be e711 a53e b640 193f
000000b0: 6f7f 0a3e aab1 baba c59a 3fbe 4af6 58bd
000000c0: a010 9bbe 2b2f a6be 17e2 9bbd 9a60 2f3e
000000d0: def8 a23e af73 b63e 80f2 c5bd 8d01 4f3d
000000e0: 8532 8c3d 5d3d 1abe 1b72 ebbd df32 6bbd
000000f0: 2e5d c23d 6012 e23e c7d3 523e 2f42 903d
00000100: 4545 f43c ca3a ea3c ebed 05be 81b5 e63d
00000110: f238 dcbd 3c14 873c ef51 7a3e a022 be3e
00000120: def7 63be e8a5 7d3e a205 d4bc d10f 363d
00000130: 45dd 143f 6a4d 1f3e 1dc6 793e 010b 033f
00000140: 9135 093f 63c9 a63d 81b7 33be e6ec 0c3e
00000150: 44c1 3c3e dbb0 443e 223e b73d e955 9dbd
00000160: 6289 5abd c842 6dbe 33b3 d7bd 4735 a93d
00000170: 8898 633e 8603 cbbe 8d6a 6ebe 1b39 e5be
00000180: 718a 5e3d 3587 d3bd 32c5 91bd 7e4b 8abe
00000190: 5262 babe ed22 f23e 79b5 5e3c 4152 743e
000001a0: 2b67 2f3f d769 823d f22e 3a3d 4f77 a8be
000001b0: 18ee 0a3d 5252 193a e587 aebc c29d bebd
000001c0: cf5c 533d d355 d8bb a347 753b 5867 893e
000001d0: 0932 883c 78bc e93a 136d cdbc 48ca e2bc
000001e0: 6181 513c a6bf 27bd 2b4c aabc 338d 9f3d
000001f0: f938 cb3d dd70 133e 8e9a 763d f693 5ebb
00000200: 1893 48bd 032f 9abd d9af 1c3f 3444 09be
00000210: cf18 1ebd bb83 1b40 5314 543e 048c cf3c
00000220: 1445 5bbe 8ddd 9a3c 53bf 26bd 44ad 91be
00000230: c499 22be 0725 e5bd 1318 72be 1825 25be
00000240: 66ce 1dbe b414 e1bc ce99 b5be b3a1 f3bd
00000250: 9a51 38bd 8c15 0dbe 1b84 84bd 7003 28be
00000260: 28e3 48be 0b57 e73d 52fa 0a3e b9ff 50be
00000270: f061 cfbe 64fa d5be 0fee 38be 4342 05be
00000280: e141 b0bd c611 11be

down_blocks.0.conv_block.conv2.weight f4 [6, 6, 3, 3]
0.13900322 0.13854018 0.023222903 -0.051550925 -0.091411315 -0.0010472436 0.033403274 0.042605907
0.00037490035 0.19727874 0.3624462 0.38668036 -0.1362507 -0.046651423 -0.026460992 -0.09562831
-0.08674792 0.09601393 0.0675216 0.20023851 0.003093043 -0.2870982 0.10218065 -0.14612347
-0.20698678 -0.18506393 -0.07705671 0.05943029 0.062447056 0.01220486 0.25981843 0.23096332
-0.026555877 0.039296802 0.012889937 0.019280372 0.25454932 1.287293 0.30993834 0.0176396
0.34603202 0.059994277 0.070720054 0.16425626 0.064166635 -0.022017064 0.14258863 -0.11035915
-0.18194164 0.1837603 -0.11008162 -0.117700405 0.1498408 -0.009360389 0.18837287 0.114789166
0.23870848 -0.021825703 0.123192795 0.270278 0.004529433 -0.15345839 0.1472242 -0.021288434
-0.11199968 0.020029852 0.27682528 0.4317751 0.25206602 -0.38985637 -0.4552137 -0.3560313
-0.29105368 -0.30169147 -0.1026338 0.21022627 0.25787044 0.07534024 -0.32025626 -0.0637584
-0.032894697 0.21977794 0.25517607 -0.03538373 0.009187282 0.12897094 -0.10438816 0.37314
0.30186215 0.04248473 -0.05430727 -0.20099989 -0.12974988 -0.1289282 -0.102644816 0.050435767
0.034841992 0.30515236 0.14117894 0.01650742 0.002512188 -0.042369533 -0.007913028 -0.04557015
0.040676843 -0.06546211 -0.047315385 -0.03259307 -0.08577599 -0.074972644 0.14373124 0.031069826
0.21225828 0.18661319 -0.27510613 -0.17565733 -0.071961395 -0.08170538 -0.8907635 -0.8274077
0.06525546 -0.44349614 -0.33709666 0.053139154 -0.20524167 -0.27865705 0.060534187 -0.14811726
0.099895425 0.32308298 0.23944929 0.38281658 -0.18395166 -0.09592061 -0.033786595 -0.041382197
0.09483906 0.016106678 -0.15232186 0.06226455 -0.001787017 -0.2044208 -0.040316142 0.105872676
0.20637718 -0.017209372 0.0149097955 0.19752418 -0.0054619657 0.010551513 2.5365734e-06 0.010755335
-0.16022871 -0.21053755 -0.24896134 -0.081524566 0.058018785 -0.00960717 0.0025577326 0.0019680548
-0.27370724 -0.18892479 -0.026231062 -0.025595626 -0.008757373 -0.06500082 0.038237028 0.21637715
-0.15017465 -0.055142123 0.15950339 -0.24511072 0.017672407 -0.050402295 0.020095259 0.16858287
0.017890867 0.19118366 0.46602818 0.46644002 -0.033121645 0.021301351 -0.25198653 0.041152142
0.09252493 -0.08732614 0.29367226 0.43152595 -0.10202964 0.06859149 0.08623484 0.35888875
0.23151821 -0.007939723 -0.10619945 0.010929788 -0.1962182 -0.18432078 0.124057926 1.1939005
0.5876052 0.065299116 0.46473962 0.1836607 -0.18873465 0.056801397 -0.18840243 0.0073405956
0.08080325 -0.022606993 0.15285434 0.27162942 0.031140558 0.1580229 0.49406508 0.30674055
0.09858991 -0.33156428 -0.40742633 0.25954968 -0.4018746 -0.71314716 0.36401916 -0.21161154
-0.35644516 -0.18144324 0.05578026 0.056524392 0.13338178 0.44894317 0.3422915 -0.18432535
0.15966997 -0.057817005 -0.14335793 -0.018423144 -0.234313 0.6441349 0.5906052 0.08234123
0.027725592 -0.070631295 -0.26643848 -0.2879681 -0.05841383 -0.014468174 -0.19596991 -0.3957771
0.009169726 0.28586873 0.43770552 0.64788294 0.26720688 0.04219383 0.17474377 -0.13739295
00000000: dc56 0e3e 7add 0d3e f53d be3c 1027 53bd
00000010: db35 bbbd aa43 89ba dfd1 083d 8883 2e3d
00000020: 468e c439 7003 4a3e 8c92 b93e f8fa c53e
00000030: 4e85 0bbe 9015 3fbd b9c4 d8bc c7d8 c3bd
00000040: e5a8 b1bd f4a2 c43d c448 8a3d 530b 4d3e
00000050: a7b4 4a3b 89fe 92be 1744 d13d 64a1 15be
00000060: 58f4 53be 6681 3dbe e9cf 9dbd 2d6d 733d
00000070: 7cc8 7f3d e5f6 473c ec06 853e a681 6c3e
00000080: b68b d9bc aff5 203d 5030 533c dff1 9d3c
00000090: 4a54 823e 04c6 a43f 3db0 9e3e ec80 903c
000000a0: 1c2b b13e 8fbc 753d add5 903d cb32 283e
000000b0: cc69 833d 215d b4bc c102 123e fa03 e2bd
000000c0: e94e 3abe a92b 3c3e 7972 e1bd e90c f1bd
000000d0: de6f 193e 515c 19bc d1e4 403e 9516 eb3d
000000e0: ff6f 743e d1cb b2bc 814c fc3d e161 8a3e
000000f0: a36b 943b 3224 1dbe f1c1 163e 1565 aebc
00000100: 1760 e5bd a515 a43c 0bbc 8d3e a011 dd3e
00000110: cc0e 813e 419b c7be c511 e9be bc49 b6be
00000120: fd04 95be 4e77 9abe ab31 d2bd 8e45 573e
00000130: 9807 843e fc4b 9a3d a1f8 a3be c493 82bd
00000140: 97bc 06bd 780d 613e 70a6 823e 88ee 10bd
00000150: 4186 163c f510 043e 76c9 d5bd 350c bf3e
00000160: ad8d 9a3e 7804 2e3d 4d71 5ebd ead2 4dbe
00000170: 27dd 04be c105 04be 7237 d2bd bc95 4e3d
00000180: 7ab6 0e3d ee3c 9c3e 3691 103e 923a 873c
00000190: 85a3 243b ad8b 2dbd a5a5 01bc c4a7 3abd
000001a0: c39c 263d 0011 86bd c7cd 41bd 5080 05bd
000001b0: 52ab afbd 428b 99bd 482e 133e 2686 fe3c
000001c0: 3c5a 593e 8717 3f3e b6da 8cbe 84df 33be
000001d0: 7f60 93bd 2655 a7bd 1409 64bf fed0 53bf
000001e0: a8a4 853d ed11 e3be ef97 acbe 71a8 593d
000001f0: df2a 52be 23ac 8ebe b2f2 773d 0dac 17be
00000200: f995 cc3d 226b a53e 3232 753e 8900 c43e
00000210: d35d 3cbe 0672 c4bd d063 0abd 6180 29bd
00000220: fb3a c23d 27f2 833c 43fa 1bbe 1d09 7f3d
00000230: 573a eaba b053 51be 8a22 25bd c6d3 d83d
00000240: 8a54 533e abfa 8cbc 3748 743c c743 4a3e
00000250: 4afa b2bb 41e0 2c3c 003a 2a36 2537 303c
00000260: ff12 24be 2897 57be b9ef 7ebe 5af6 a6bd
00000270: 1ba5 6d3d 6467 1dbc a29f 273b 7bfa 003b
00000280: 5b23 8cbe 8075 41be 86e2 d6bc ebad d1bc
00000290: 167b 0fbc 261f 85bd 6e9e 1c3d f991 5d3e
000002a0: 62c7 19be b5dc 61bd db54 233e 4efe 7abe
000002b0: b9c5 903c a372 4ebd d09e a43c fda0 2c3e
000002c0: de8f 923c a6c5 433e 3f9b ee3e 3ad1 ee3e
000002d0: 90aa 07bd 2c80 ae3c 6104 81be 268f 283d
000002e0: b67d bd3d 0cd8 b2bd 365c 963e f8f0 dc3e
000002f0: eaf4 d0bd b279 8c3d e49b b03d 44c0 b73e
00000300: 1c13 6d3e 9d15 02bc 197f d9bd db12 333c
00000310: 6ced 48be 96be 3cbe 1512 fe3d bbd1 983f
00000320: 4b6d 163f 8bbb 853d 5af2 ed3e 8d11 3c3e
00000330: a843 41be 95a8 683d 91ec 40be 6189 f03b
00000340: 2d7c a53d 4d32 b9bc d985 1c3e 0313 8b3e
00000350: 7c1a ff3c c1d0 213e 19f6 fc3e 190d 9d3e
00000360: 82e9 c93d cbc2 a9be 2f9a d0be b2e3 843e
00000370: 82c2 cdbe d090 36bf b860 ba3e b2b0 58be
00000380: fb7f b6be 42cc 39be d879 643d 1f86 673d
00000390: 3c95 083e e1db e53e d540 af3e c9bf 3cbe
000003a0: 8680 233e 86d1 6cbd 6ccc 12be 22ec 96bc
000003b0: bfef 6fbe 06e6 243f e731 173f 85a2 a83d
000003c0: c820 e33c 24a7 90bd a06a 88be 8e70 93be
000003d0: 5743 6fbd ec0b 6dbc 56ac 48be 4ca3 cabe
000003e0: 9e3c 163c 635d 923e f01a e03e a8db 253f
000003f0: 57cf 883e 70d3 2c3d 08f0 323e bdb0 0cbe

down_blocks.1.conv_block.conv1.weight f4 [12, 6, 3, 3]
-0.08646637 0.10570153 0.16774793 -0.17860335 0.1590397 0.028695509 -0.02029524 0.2648056
0.30849978 0.06626338 0.37287462 0.18188477 0.0152599495 0.38313878 0.21541362 0.22475694
0.34634075 0.27819416 0.12307079 0.11350773 0.14557284 0.047319483 0.01490519 0.1263539
0.10033564 0.30826727 0.2465935 -0.10881162 0.124358594 -0.14174984 -0.014730974 0.024917323
0.0685018 -0.22508137 0.063058086 0.12373708 -0.08835499 -0.25928867 -0.27964038 -0.081641085
0.039732322 -0.11750035 0.02096284 -0.067240015 -0.086562835 0.054812945 0.020622792 0.2980267
-0.05487335 -0.10339766 0.14450304 0.26108822 0.21956919 0.34194297 0.14143251 0.067271374
-0.039558265 -0.05664414 -0.07667148 -0.001828197 0.022429919 -0.08022905 0.042453133 -0.40118757
-0.5577916 -0.26367822 -0.30037323 -0.6633581 -0.17045324 0.062453292 -0.07126419 0.21701342
-0.10550956 -0.05623956 -0.07973997 -0.30208004 -0.38288748 -0.29388875 -0.09813553 -0.113881856
-0.07723105 -0.13621914 -0.08946882 0.17047153 -0.34503385 -0.34122896 -0.3314085 -0.04286497
-0.056212734 -0.10783106 0.09150493 0.28057817 0.106612906 0.042444352 0.26388466 0.16164947
-0.011969771 0.0459905 0.089714274 0.3369032 0.1689724 0.1021203 0.1600713 0.04726651
0.16679609 0.2612724 0.0050503546 -0.06568967 -0.007682598 -0.046911035 0.12101672 0.009644545
0.010276529 0.19281223 0.0020948166 0.1327224 0.28839543 0.018119887 0.07356273 0.13098009
0.09284246 0.047804974 0.16397814 0.12759268 0.18356486 0.26428568 -0.27294257 -0.08538514
-0.118273094 -0.15158466 -0.2488534 -0.24127194 -0.22386126 -0.08666553 -0.17631333 -0.12592162
-0.33074638 -0.1933359 -0.11433045 -0.18136472 -0.026182665 0.13543849 0.03983951 -0.012021541
0.41424942 0.42602593 0.258248 0.41672888 0.29585418 0.3089719 0.2427383 0.21117622
0.29626665 -0.07808893 0.05354536 -0.15828706 -0.13208006 -0.16554147 -0.2518109 -0.12542893
-0.044950463 -0.17179658 -0.22996461 -0.2284512 -0.2791533 -0.12178771 -0.061411135 -0.1747857
0.00039753254 -0.1211892 -0.08209571 0.071473114 -0.13880895 0.23428 -0.536171 -0.24337922
-0.2807409 -0.3237292 -0.25620332 -0.05115351 -0.29206064 -0.32600227 -0.15451334 0.18053454
-0.2026179 0.16503175 -0.19984926 -0.23470776 -0.1593352 0.07015137 0.36578664 0.08217439
0.24517964 0.40694693 0.16680808 -0.1370135 0.045319993 -0.2625936 -0.07302565 0.15110393
0.22667228 0.06583726 0.12559696 0.075321145 -0.2036291 -0.03606108 -0.004254697 -0.3214366
-0.27448678 -0.10221601 -0.32273734 -0.21247807 -0.12145302 0.21358266 -0.014238931 0.2897773
-0.21731722 -0.044447664 -0.12478004 -0.15306559 -0.0702945 -0.143668 -0.12097214 0.24508423
0.03618686 -0.030353539 -0.43395993 -0.39414397 0.27161118 -0.024644814 0.12959711 -0.20933184
-0.68793404 -0.53455454 0.11723532 0.07202426 0.29336822 -0.3415512 -0.4390493 -0.06862046
0.12755768 -0.12452197 0.22844873 0.2153525 0.4723821 0.050838433 0.48424613 0.8079417
0.26351854 -0.04586336 0.23898406 0.19851331 -0.033139434 0.13824932 -0.051649842 0.16270678
00000000: 4815 b1bd 0b7a d83d 1dc6 2b3e cce3 36be
00000010: 4edb 223e d812 eb3c 3442 a6bc 9994 873e
00000020: aff3 9d3e 18b5 873d 6ce9 be3e 0040 3a3e
00000030: de04 7a3c c42a c43e 6395 5c3e af26 663e
00000040: 9353 b13e 776f 8e3e 8a0c fc3d be76 e83d
00000050: 0c11 153e 13d2 413d e634 743c eb62 013e
00000060: c67c cd3d 35d5 9d3e 0283 7c3e a0d8 debd
00000070: b8af fe3d df26 11be 2f5a 71bc 6a1f cc3c
00000080: ac4a 8c3d bb7b 66be 9924 813d de69 fd3d
00000090: 76f3 b4bd 7cc1 84be 062d 8fbe 7133 a7bd
000000a0: 5cbe 223d 06a4 f0bd 43ba ab3c 22b5 89bd
000000b0: db47 b1bd 8a83 603d 21f1 a83c f596 983e
000000c0: e1c2 60bd 27c2 d3bd 9bf8 133e 5bad 853e
000000d0: bfd6 603e 2613 af3e afd3 103e 93c5 893d
000000e0: d907 22bd b003 68bd f005 9dbd 1da0 efba
000000f0: f3be b73c 214f a4bd 56e3 2d3d 7568 cdbe
00000100: 6ecb 0ebf d500 87be 85ca 99be d6d1 29bf
00000110: 4b8b 2ebe 06cf 7f3d f6f2 91bd c438 5e3e
00000120: 6515 d8bd 745b 66bd b64e a3bd 3caa 9abe
00000130: d409 c4be 9678 96be 48fb c8bd e43a e9bd
00000140: 502b 9ebd 087d 0bbe 6e3b b7bd 1790 2e3e
00000150: 47a8 b0be 90b5 aebe 60ae a9be 2e93 2fbd
00000160: 533f 66bd 88d6 dcbd f066 bb3d f1a7 8f3e
00000170: de57 da3d 21da 2d3d e41b 873e 7087 253e
00000180: dc1c 44bc 8960 3c3d 1ebc b73d 947e ac3e
00000190: 1a07 2d3e 7324 d13d bbe9 233e 879a 413d
000001a0: 98cc 2a3e 7fc5 853e 727d a53b 4e88 86bd
000001b0: 4ebe fbbb c925 40bd 9dd7 f73d 2704 1e3c
000001c0: e35e 283c 9270 453e 3149 093b 61e8 073e
000001d0: 91a8 933e 2870 943c 0ea8 963d a51f 063e
000001e0: 3024 be3d 26cf 433d e3e9 273e a8a7 023e
000001f0: 6df8 3b3e 7450 873e 21bf 8bbe 67de aebd
00000200: 2a39 f2bd 0239 1bbe 6dd3 7ebe fe0f 77be
00000210: e33b 65be b37d b1bd 7b8b 34be 99f1 00be
00000220: 9757 a9be d9f9 45be 1526 eabd acb7 39be
00000230: 077d d6bc 63b0 0a3e c12e 233d fff5 44bc
00000240: 8018 d43e 1220 da3e 1539 843e 7d5d d53e
00000250: 337a 973e 9131 9e3e 6490 783e 943e 583e
00000260: 43b0 973e 17ed 9fbd 6152 5b3d 0116 22be
00000270: ff3f 07be b483 29be 5ced 80be 7170 00be
00000280: fa1d 38bd 71eb 2fbe d87b 6bbe 1def 69be
00000290: 2eed 8ebe d66b f9bd 3e8a 7bbd 06fb 32be
000002a0: ea6b d039 0b32 f8bd cc21 a8bd 7f60 923d
000002b0: ef23 0ebe 19e7 6f3e 8142 09bf 6738 79be
000002c0: 45bd 8fbe d5bf a5be 152d 83be 5886 51bd
000002d0: f988 95be c5e9 a6be bf38 1ebe 0cde 383e
000002e0: 117b 4fbe 15fe 283e 49a5 4cbe 3b57 70be
000002f0: c428 23be 85ab 8f3d 6348 bb3e 0c4b a83d
00000300: 5f10 7b3e 595b d03e bdcf 2a3e 444d 0cbe
00000310: 75a1 393d ab72 86be 798e 95bd fdba 1a3e
00000320: c71c 683e afd5 863d 7d9c 003e f941 9a3d
00000330: 2684 50be c8b4 13bd fc6a 8bbb 5793 a4be
00000340: 8889 8cbe a156 d1bd d43d a5be da93 59be
00000350: 5cbc f8bd 6ab5 5a3e 684a 69bc b15d 943e
00000360: 6888 5ebe c10e 36bd ad8c ffbd 3abd 1cbe
00000370: 90f6 8fbd b41d 13be 3ec0 f7bd 5cf7 7a3e
00000380: ac38 143d fca7 f8bc ff2f debe 3dcd c9be
00000390: 9f10 8b3e ece3 c9bc 1bb5 043e 165b 56be
000003a0: 721c 30bf 91d8 08bf 1219 f03d 7581 933d
000003b0: 5c34 963e cddf aebe 12cb e0be e288 8cbd
000003c0: 7b9e 023e 6005 ffbd 77ee 693e 5e85 5c3e
000003d0: 11dc f13e f63b 503d 1cef f73e 44d5 4e3f
000003e0: e7eb 863e 38db 3bbd 3db8 743e 1347 4b3e
000003f0: 37bd 07bd 3b91 0d3e c98e 53bd 9b9c 263e

down_blocks.1.conv_block.conv2.weight f4 [12, 12, 3, 3]
0.1171392 0.01175825 -0.16115856 0.06775294 0.13426279 -0.13709186 0.0889525 0.21535255
-0.12582554 -0.028107686 -0.3947393 0.011232235 -0.42774835 -0.8602303 -0.43011004 -0.2228297
-0.6856361 -0.21480267 -0.06705295 -0.14133997 -0.0617431 0.043803655 -0.12724943 -0.08447372
0.07556719 -0.23223594 -0.23258752 0.008751724 -0.5490049 -0.16204412 -0.49065274 -0.8760563
-0.5303714 -0.051156618 -0.3763126 -0.08044404 0.18814799 0.028276155 0.042387996 0.31850454
0.23689765 0.22272424 -0.072250016 0.0081105 -0.078834 -0.041890405 -0.16151409 0.028435765
-0.24178697 0.055055205 -0.22597496 -0.054217815 0.13348077 -0.025829354 0.13884646 0.1511129
0.19707356 -0.13759522 -0.07919763 -0.18707706 0.12911531 0.33782947 0.17907293 -0.10233736
-0.22441883 -0.07025593 -0.4126072 -0.24097124 -0.21963798 0.048742827 0.25333023 0.24893558
0.06366248 -0.08850482 -0.08209494 -0.03274769 0.26710463 0.057833157 -0.12220081 0.27418903
-0.09699274 0.079639494 0.06959141 0.047436584 -0.2126429 -0.27484614 0.067272194 -0.16174352
-0.050813716 0.14701776 0.18166436 -0.061150834 -0.11422432 0.038146447 0.032249663 -0.07502596
-0.24565631 -0.20381851 -0.22449598 -0.008785771 0.1495538 0.022711718 -0.084408045 -0.18924327
-0.23438671 -0.10786119 0.004674661 -0.18769252 0.020737734 0.028308492 -0.14537074 -0.06581593
-0.010762327 -0.13376857 -0.13045473 -0.087887034 -0.118035845 0.04810181 0.14439458 0.118146785
0.06707772 0.0064868196 0.09152499 0.18952009 0.0829323 0.07637007 -0.025463613 -0.001104755
0.046415888 -0.025611088 0.08960994 0.116718605 0.06655608 0.1670533 0.081835106 -0.0959441
0.1649238 0.014206918 -0.05710552 0.06564774 0.13547163 0.43711343 0.4987298 0.5294653
-0.052559324 0.10943445 0.108735025 0.18147492 0.48226097 0.360624 -0.31104526 0.108119704
0.01269727 0.4214739 0.43073258 0.07298954 -0.34164298 -0.36754563 -0.41972896 -0.12343767
-0.27331233 -0.2882926 0.47520024 0.57387125 0.54990196 0.020134808 0.108766414 0.09211818
0.024965448 0.1093212 0.09497817 0.014571695 0.063609935 -0.06027459 -0.2659378 -0.25292522
-0.2698308 -0.46029466 -0.48584235 -0.346144 0.17961425 0.14138068 0.08990844 0.061054584
0.07460556 0.0807836 0.2212151 0.3496051 0.1704501 0.39189056 0.41257834 0.47955108
0.06797421 0.23122598 0.34912202 0.22742736 0.33311078 0.4109066 -0.29379928 -0.16352685
-0.05973357 0.36521098 0.41962636 0.46415234 0.5846309 0.85966295 0.6697634 0.5034074
0.4179222 0.15547502 0.29970288 0.3272065 -0.00974208 0.3773928 0.35285896 0.22331567
0.30062997 0.19130346 0.10037578 0.20621568 0.10710746 0.042807717 0.21327227 -0.00339659
-0.025189888 -0.38328394 -0.49293792 0.06811251 -0.6140636 -0.9541997 -0.19074069 -0.6059802
-0.7634663 -0.14829063 0.03750662 -0.043943882 -0.10296567 0.018162202 -0.17293508 -0.1436248
-0.054554783 -0.19835429 -0.16650294 -0.087833 -0.21320027 0.0035779662 -0.258409 -0.43161058
-0.18731195 -0.104653575 -0.08119321 -0.036071423 -0.019490387 -0.013368193 0.041600257 0.10837366
00000000: ade6 ef3d ada5 403c c006 25be 0ec2 8a3d
00000010: 2f7c 093e cf61 0cbe ba2c b63d 6185 5c3e
00000020: 69d8 00be 1742 e6bc 451b cabe 6807 383c
00000030: d501 dbbe 0e38 5cbf 6237 dcbe 782d 64be
00000040: d985 2fbf 3bf5 5bbe 0f53 89bd 6dbb 10be
00000050: 55e6 7cbd 766b 333d ad4d 02be 8f00 adbd
00000060: f9c2 9a3d 42cf 6dbe 6c2b 6ebe 6463 0f3c
00000070: 968b 0cbf e5ee 25be d636 fbbe 3a45 60bf
00000080: 6cc6 07bf 9a89 51bd 0cac c0be d8bf a4bd
00000090: dea9 403e 65a3 e73c 099f 2d3d 0713 a33e
000000a0: 4c95 723e d311 643e d1f7 93bd e7e1 043c
000000b0: b873 a1bd 4695 2bbd f363 25be 1ff2 e83c
000000c0: 0197 77be 9181 613d fb65 67be 8013 5ebd
000000d0: 2faf 083e 1598 d3bc c42d 0e3e 57bd 1a3e
000000e0: a7cd 493e c3e5 0cbe 5e32 a2bd 2191 3fbe
000000f0: ce36 043e fcf7 ac3e e55e 373e 4096 d1bd
00000100: 0dce 65be 57e2 8fbd 4041 d3be 2ac1 76be
00000110: c7e8 60be 8fa6 473d 80b4 813e f8e8 7e3e
00000120: 7961 823d 0442 b5bd 6421 a8bd 7122 06bd
00000130: f0c1 883e 76e2 6c3d 6b44 fabd 8162 8c3e
00000140: 21a4 c6bd 081a a33d f185 8e3d dd4c 423d
00000150: 0fbf 59be a2b8 8cbe 01c6 893d 18a0 25be
00000160: 0b22 50bd d38b 163e 3906 3a3e 4c79 7abd
00000170: 71ee e9bd 733f 1c3d 3918 043d 36a7 99bd
00000180: 548d 7bbe cdb5 50be 46e2 65be 32f2 0fbc
00000190: a224 193e ed0d ba3c 20de acbd fdc8 41be
000001a0: 1203 70be 54e6 dcbd e62d 993b 7832 40be
000001b0: 2ee2 a93c 36e7 e73c 11dc 14be 81ca 86bd
000001c0: 7954 30bc a1fa 08be ed95 05be 1efe b3bd
000001d0: c7bc f1bd 6706 453d 2cdc 133e f1f6 f13d
000001e0: 0b60 893d 638f d43b 7471 bb3d 8e11 423e
000001f0: 69d8 a93d e967 9c3d 1199 d0bc 6dcd 90ba
00000200: 961e 3e3d 58ce d1bc 6b85 b73d 2a0a ef3d
00000210: 8e4e 883d 0510 2b3e 2a99 a73d 577e c4bd
00000220: c9e1 283e 22c4 683c 7ae7 69bd 5372 863d
00000230: 13b9 0a3e 55cd df3e 8359 ff3e 0a8b 073f
00000240: 7248 57bd 2b1f e03d 78b0 de3d 90d4 393e
00000250: e9ea f63e b5a3 b83e 5341 9fbe dd6d dd3d
00000260: 3608 503c 6dcb d73e fb88 dc3e 8a7b 953d
00000270: d4eb aebe f12e bcbe b7e6 d6be e4cc fcbd
00000280: 98ef 8bbe 169b 93be 724d f33e 3ae9 123f
00000290: 60c6 0c3f c1f1 a43c edc0 de3d 75a8 bc3d
000002a0: 5784 cc3c cbe3 df3d ea83 c23d 1ebe 6e3c
000002b0: ed45 823d 7de2 76bd 0029 88be 6a7f 81be
000002c0: 4327 8abe beab ebbe 54c0 f8be c939 b1be
000002d0: ccec 373e 19c6 103e eb21 b83d 5f14 7a3d
000002e0: cdca 983d df71 a53d 3686 623e 71ff b23e
000002f0: 798a 2e3e e1a5 c83e 783d d33e b887 f53e
00000300: 1036 8b3d 81c6 6c3e 1fc0 b23e b8e2 683e
00000310: 7f8d aa3e 5a62 d23e dc6c 96be 9573 27be
00000320: 30ab 74bd effc ba3e 44d9 d63e 60a5 ed3e
00000330: 5faa 153f df12 5c3f 9d75 2b3f 4fdf 003f
00000340: e6f9 d53e d834 1f3e a872 993e 9c87 a73e
00000350: 3f9d 1fbc a139 c13e eea9 b43e ddac 643e
00000360: 2cec 993e 0ee5 433e d191 cd3d 342a 533e
00000370: 285b db3d 2557 2f3d 0c64 5a3e 5399 5ebb
00000380: 065b cebc cb3d c4be 5c62 fcbe 927e 8b3d
00000390: 4633 1dbf 6e46 74bf 8751 43be 8521 1bbf
000003a0: 8772 43bf 80d9 17be 8ba0 193d 80fe 33bd
000003b0: aadf d2bd e6c8 943c e515 31be 6112 13be
000003c0: d674 5fbd 631d 4bbe bf7f 2abe cae1 b3bd
000003d0: 2c51 5abe 507c 6a3b 2f4e 84be 10fc dcbe
000003e0: b4ce 3fbe 9d54 d6bd a048 a6bd a1bf 13bd
000003f0: 4eaa 9fbc 4406 5bbc 0865 2a3d 02f3 dd3d

up_blocks.0.transpose_conv.weight f4 [12, 6, 2, 2]
-0.14036712 -0.41959402 -0.09204744 0.20189874 -0.22854564 -0.48943555 -0.34585747 -0.31516406
0.026019795 -0.18158163 -0.25053877 -0.2586031 -0.27846745 -0.08385516 -0.18202476 -0.065766536
-0.09985267 0.13858722 -0.061273877 -0.035761673 -0.32710677 -0.075354636 0.0024524885 0.24297707
-0.40548766 -0.76917636 0.34077615 0.3999541 -0.34399325 0.013674734 0.22840706 0.32788348
-0.04791014 -0.34661278 -0.021285469 -0.26210192 -0.41842654 -0.043750744 -0.27977216 -0.0061890394
-0.30508855 -0.030356802 -0.019041615 -0.31669784 -0.12676603 -0.40457216 0.3448435 0.0028560776
-0.27533773 -4.9195383e-05 0.15697646 -0.1108835 -0.09781965 0.080888435 -0.15995817 -0.016142732
0.061541412 -0.15939058 0.03703443 -0.0609545 -0.02147145 -0.1727315 0.06477056 -0.17123605
-0.22146532 0.17368726 -0.1822778 0.29654038 -0.23165196 0.084371224 -0.12806632 0.25173855
-0.06620493 0.11673488 -0.01586183 -0.5130383 0.018998088 -0.15169013 -0.035995945 -0.043565676
-0.120678216 -0.38428172 -0.12292983 -0.11504852 0.17717691 0.16746444 -0.11480724 -0.2019534
-0.17689972 0.563121 -0.2220028 0.14158505 -0.477363 -0.087990254 -0.21721591 0.14529504
0.42406625 0.63372546 -0.22758326 -0.04660255 0.21372475 0.066882536 -0.43808034 -0.42534792
0.6537295 0.8667064 -0.38029072 -0.19983682 -0.061596554 0.30264398 0.340259 -0.008511254
0.43308097 0.22092293 0.43611926 0.36212033 -0.25969887 -0.25074363 -0.3435459 -0.5133586
-0.24607243 0.11309596 0.0870027 0.045783535 -0.2797054 -0.29464778 -0.034619138 -0.17629787
0.07663966 -0.017555252 -0.13582158 0.21096148 0.16132435 0.026846956 -0.35594118 -0.47827965
-0.16193095 0.4889434 0.070681944 0.30800742 -0.20511824 0.06358275 0.006420275 0.2793723
-0.14343335 -0.022330051 0.22690088 0.16464707 -0.06737441 -0.18652256 0.15845503 -0.18903965
-0.22617744 -0.340557 -0.1020138 -0.06948925 -0.11525298 -0.26159638 -0.015738415 -0.2766008
0.1429921 0.16147283 -0.0694178 0.095255286 -0.12139017 0.33861658 0.1398769 0.12930895
-0.07417908 -0.11089515 0.21645926 0.13673283 -0.025675021 -0.01148381 -0.013119284 0.10099981
0.37254494 0.2510271 -0.12688462 0.09498156 0.06599929 -0.023201888 0.008507283 -0.19814445
0.13745497 -0.106131636 -0.017650574 -0.25167212 -0.30648717 -0.26305377 -0.3177773 0.0061222403
-0.38447315 -0.5511741 -0.3174291 0.12174376 0.14083718 0.15272395 -0.06440975 -0.06342805
-0.15555245 -0.05625496 0.48495796 0.27733353 -0.14251393 -0.2423984 0.0117021995 -0.09311913
-0.104566894 0.039315984 0.41702148 0.29029825 -0.009994671 0.04307719 -0.13118066 -0.44471702
0.16692556 0.34960258 0.2777686 0.0039748903 -0.20877075 0.36955884 -0.17405543 0.12049361
-0.14598837 -0.17215662 -0.120098025 -0.29296082 -0.009004954 -0.6531448 0.03389994 -0.58427304
0.05278754 0.39548618 -0.02425358 0.5193484 -0.23198734 -0.17624389 -0.32200193 -0.05021745
-0.34575987 -0.09115363 -0.024752961 0.025722856 -0.24388662 -0.32589114 -0.047949247 0.11786698
-0.0037602726 0.014497285 -0.22481693 0.12619719 0.13157171 -0.43196046 -0.0689758 -0.52803224
00000000: 66bc 0fbe 07d5 d6be 5e83 bcbd 8bbe 4e3e
00000010: de07 6abe 4c97 fabe 3b14 b1be 2f5d a1be
00000020: 7727 d53c 89f0 39be 9e46 80be a067 84be
00000030: 4993 8ebe 41bc abbd b364 3abe 9bb0 86bd
00000040: 8f7f ccbd cfe9 0d3e 51fa 7abd d57a 12bd
00000050: 8a7a a7be 8853 9abd eeb9 203b fbce 783e
00000060: 149c cfbe bee8 44bf 367a ae3e c9c6 cc3e
00000070: e21f b0be fe0b 603c 8ae3 693e 58e0 a73e
00000080: 6c3d 44bd 3b77 b1be dd5e aebc 3932 86be
00000090: 013c d6be fb33 33bd 4c3e 8fbe 6dcd cabb
000000a0: 9134 9cbe d4ae f8bc 29fd 9bbc 3826 a2be
000000b0: f4ce 01be 1524 cfbe 548f b03e 082d 3b3b
000000c0: 11f9 8cbe 2457 4eb8 70be 203e e316 e3bd
000000d0: ab55 c8bd d6a8 a53d 13cc 23be c33d 84bc
000000e0: d912 7c3d 4937 23be 6ab1 173d 6dab 79bd
000000f0: e5e4 afbc 87e0 30be 6da6 843d 8158 2fbe
00000100: cec7 62be 13db 313e 08a7 3abe 24d4 973e
00000110: 2c36 6dbe d2ca ac3d d123 03be e0e3 803e
00000120: 7396 87bd b212 ef3d abf0 81bc 7a56 03bf
00000130: e1a1 9b3c a854 1bbe 7c70 13bd ec71 32bd
00000140: 2426 f7bd 93c0 c4be a2c2 fbbd 8f9e ebbd
00000150: dd6d 353e cc7b 2b3e 0f20 ebbd dfcc 4ebe
00000160: 3325 35be b328 103f b454 63be acfb 103e
00000170: ec68 f4be 3c34 b4bd d96d 5ebe 39c8 143e
00000180: 361f d93e d53b 223f 960b 69be 51e2 3ebd
00000190: a9da 5a3e b6f9 883d 114c e0be 34c7 d9be
000001a0: d15a 273f 78e0 5d3f 77b5 c2be 06a2 4cbe
000001b0: ab4c 7cbd 27f4 9a3e 6d36 ae3e c972 0bbc
000001c0: cabc dd3e 9f39 623e 064b df3e d667 b93e
000001d0: 40f7 84be 7861 80be 40e5 afbe 786b 03bf
000001e0: 69fa 7bbe db9e e73d 792e b23d 8487 3b3d
000001f0: 8c35 8fbe 13dc 96be cccc 0dbd 6e87 34be
00000200: 41f5 9c3d 08d0 8fbc d014 0bbe 4906 583e
00000210: 3632 253e 26ee db3c ec3d b6be 12e1 f4be
00000220: 3ad1 25be ca56 fa3e b2c1 903d 26b3 9d3e
00000230: 840a 52be ac37 823d 2c61 d23b e309 8f3e
00000240: 31e0 12be 83ed b6bc b458 683e 3e99 283e
00000250: 98fb 89bd c5ff 3ebe 0942 223e 9c93 41be
00000260: 0f9b 67be 7d5d aebe 9cec d0bd 6150 8ebd
00000270: c109 ecbd f6ef 85be d9ed 80bc 9f9e 8dbe
00000280: 856c 123e 2259 253e eb2a 8ebd 3415 c33d
00000290: 699b f8bd 275f ad3e e43b 0f3e 9169 043e
000002a0: 34eb 97bd ff1c e3bd 7fa7 5d3e b103 0c3e
000002b0: 6c54 d2bc 9726 3cbc 44f2 56bc fdd8 ce3d
000002c0: 36be be3e a086 803e 0bee 01be b185 c23d
000002d0: a32a 873d e311 bebc 2262 0b3c 61e6 4abe
000002e0: ffc0 0c3e 8b5b d9bd f097 90bc 2bdb 80be
000002f0: e3eb 9cbe fcae 86be b5b3 a2be 139d c83b
00000300: aad9 c4be bf19 0dbf 1186 a2be cb54 f93d
00000310: 9f37 103e ab63 1c3e 42e9 83bd 91e6 81bd
00000320: 2449 1fbe 9a6b 66bd 694c f83e a9fe 8d3e
00000330: 2cef 11be 4937 78be 95ba 3f3c 3eb5 bebd
00000340: 2b27 d6bd cc09 213d d783 d53e f9a1 943e
00000350: b0c0 23bc b571 303d 3954 06be f3b1 e3be
00000360: 89ee 2a3e 1cff b23e b037 8e3e cc3f 823b
00000370: 00c8 55be d136 bd3e 963b 32be 5bc5 f63d
00000380: fa7d 15be d349 30be f4f5 f5bd f6fe 95be
00000390: 8489 13bc 7f34 27bf aada 0a3d eb92 15bf
000003a0: bf37 583d 2a7d ca3e 72af c6bc 04f4 043f
000003b0: 178e 6dbe 4779 34be 70dd a4be d0b0 4dbd
000003c0: 7007 b1be c1ae babd b9c6 cabc bdb8 d23c
000003d0: 6abd 79be 34db a6be 6e66 44bd 3e64 f13d
000003e0: e86e 76bb 0586 6d3c 6936 66be d639 013e
000003f0: bcba 063e ec29 ddbe 2f43 8dbd 1f2d 07bf

up_blocks.0.transpose_conv.bias f4 [6]
0.24974993 0.024979701 -0.023259303 -0.38207576 0.031152712 0.31155688
00000000: 72be 7f3e 3ba2 cc3c 4b8a bebc 6f9f c3be
00000010: f933 ff3c 6284 9f3e

up_blocks.0.conv_block.conv1.weight f4 [6, 12, 3, 3]
-0.03921502 -0.16388263 0.16789317 0.08077342 0.11058872 0.09456628 -0.45978323 -0.27662128
-0.516618 -0.20605311 -0.019391783 0.12204208 -0.25566122 0.062108066 -0.046583876 -0.06845309
-0.092055894 0.028387232 -0.52636874 0.27762035 -0.092843086 -0.091922246 0.29316923 0.33249703
-0.25152305 -0.50504935 -0.09661132 0.1281203 0.30906266 0.2813188 -0.10184102 0.36774188
0.093296714 -0.17754485 -0.0034425894 0.009218037 0.42441466 -0.050412145 0.259083 0.23774655
-0.42013383 0.048954003 0.040342867 -0.26616722 0.11542239 -0.018740362 -0.18173586 -0.17325707
0.5166709 -0.016928473 0.21000159 0.29473278 0.07265933 0.15067102 -0.41121805 0.49247187
0.23749176 -0.3435084 -0.06879662 0.06210129 -0.66934234 0.041854087 -0.15666251 -0.48622224
0.11567476 -0.31062078 -0.22880222 0.09625123 -0.04095575 -0.16704454 0.16698858 -0.13733871
0.27471572 0.6847562 0.7634562 0.20499535 0.26840383 0.6400847 -0.10674551 0.41989383
0.22907047 -0.48542216 0.09316947 0.07521404 0.03539284 0.30524984 0.49846438 -0.24862407
0.14944163 0.012146548 0.26916915 0.09420328 0.3156193 0.23323509 -0.08037201 0.074626535
-0.074251525 -0.36648995 -0.14342305 -0.06242046 0.28692096 -0.0934667 0.31867895 0.24362282
0.25689223 0.10729403 0.42630517 0.19952783 0.23185237 0.31923598 0.23273867 -0.27019474
-0.11880918 -0.13362786 -0.08297939 -0.021620966 -0.11085204 -0.11726209 0.08480481 -0.026046285
0.089188844 0.20985454 -0.05747999 -0.23194428 0.22160886 0.011477992 -0.122896634 0.0183035
-0.05331826 0.13750255 -0.029525544 0.106902555 -0.091213696 -0.23592289 0.008075459 0.12962519
-0.08090801 0.08280286 0.003053464 0.009692494 0.064372234 -0.07268335 -0.19511889 -0.039725214
-0.005670344 -0.3908885 -0.19286343 0.058522712 -0.36499083 -0.005835032 0.087926485 -0.31292963
-0.002975213 -0.21613543 -0.0017800676 0.10439231 0.03345891 -0.2689298 -0.08472585 -0.0979817
-0.044256605 -0.002651371 -0.09524022 -0.45087898 0.016324412 0.393693 -0.09268864 0.43906987
0.1044474 0.060594555 0.22267185 0.35541058 0.32631093 0.5663378 0.342331 0.059840742
0.26554772 -0.2196166 -0.5473925 -0.290971 0.107664175 -0.10742787 0.14957912 0.0011481895
-0.5583195 -0.19252236 -0.1760464 -0.47131693 -0.2934962 0.31669354 0.04515168 0.3641923
-0.16476478 -0.47075337 -0.061595634 -0.2942927 -0.23174429 -0.039649997 -0.26512688 -0.4215366
-0.41366968 -0.44452044 -0.28647706 -0.43780422 -0.73027885 -0.6506951 -0.49736083 -0.06953675
-0.2514797 0.17660251 0.20489846 -0.20881802 0.09600341 0.018209305 -0.38957077 -0.06207675
0.116538964 0.08911781 0.008130057 0.009855496 0.4685315 0.050453182 0.10977994 0.1376838
-0.030017585 0.20958252 0.23578757 0.0621 -0.006124516 0.24487123 -0.16595069 0.10255057
0.3069833 0.00568002 0.21776183 0.10258316 -0.00021184029 -0.030971924 0.31452206 -0.2997496
0.06783679 -0.13700992 -0.099862255 0.03706833 0.15410922 0.18300907 0.12490019 0.03182216
0.13981491 0.2522912 0.05221861 0.22287877 0.02499034 -0.057013944 -0.15331984 -0.064377084
00000000: ee9f 20bd d9d0 27be 30ec 2b3e 896c a53d
00000010: 577c e23d f7ab c13d b568 ebbe 4ea1 8dbe
00000020: 1441 04bf 96ff 52be 84db 9ebc 33f1 f93d
00000030: 07e6 82be 0765 7e3d bcce 3ebd 2231 8cbd
00000040: cd87 bcbd 578c e83c 1ac0 06bf 4124 8e3e
00000050: 8424 bebd bb41 bcbd 471a 963e 0d3d aa3e
00000060: a1c7 80be ea4a 01bf 28dc c5bd f831 033e
00000070: 763d 9e3e 0509 903e 0692 d0bd aa48 bc3e
00000080: 5912 bf3d 51ce 35be 119d 61bb 4007 173c
00000090: e14c d93e f77c 4ebd 87a6 843e d573 733e
000000a0: c81b d7be fe83 483d 903e 253d 1247 88be
000000b0: 9362 ec3d 6385 99bc f718 3abe 4d6a 31be
000000c0: 8b44 043f 95ad 8abc a80a 573e 37e7 963e
000000d0: 6ace 943d 8149 1a3e 2c8b d2be 4625 fc3e
000000e0: 0a31 733e 55e0 afbe 3ee5 8cbd ec5d 7e3d
000000f0: 055a 2bbf 316f 2b3d 236c 20be 1ff2 f8be
00000100: e3e6 ec3d b009 9fbe 214b 6abe 5d1f c53d
00000110: 37c1 27bd b90d 2bbe 0eff 2a3e 85a2 0cbe
00000120: 8aa7 8c3e 2f4c 2f3f de71 433f 4dea 513e
00000130: 3a6c 893e 97dc 233f 649d dabd 53fc d63e
00000140: 7391 6a3e 4189 f8be a3cf be3d d209 9a3d
00000150: 15f8 103d b549 9c3e b936 ff3e 4f97 7ebe
00000160: 3a07 193e 5102 473c 8ad0 893e a6ed c03d
00000170: da98 a13e 2ed5 6e3e 159a a4bd ccd5 983d
00000180: 2f11 98bd 92a4 bbbe 7edd 12be 99ac 7fbd
00000190: 4ee7 923e 786b bfbd e329 a33e 4378 793e
000001a0: 6187 833e f9bc db3d ac44 da3e 0651 4c3e
000001b0: b56a 6d3e e672 a33e 0c53 6e3e f756 8abe
000001c0: 3a52 f3bd bed5 08be 19f1 a9bd 741e b1bc
000001d0: 6506 e3bd 1b27 f0bd 25ae ad3d 055f d5bc
000001e0: a4a8 b63d 1ce4 563e 2370 6bbd cd82 6dbe
000001f0: 6fed 623e 300e 3c3c 3bb1 fbbd 39f1 953c
00000200: 3f64 5abd 78cd 0c3e 8edf f1bc baef da3d
00000210: 3fce babd c595 71be ee4e 043c 77bc 043e
00000220: 19b3 a5bd 8c94 a93d a01c 483b 44cd 1e3c
00000230: 97d5 833d 02db 94bd 3fcd 47be e8b6 22bd
00000240: 4bce b9bb 8a22 c8be fe7d 45be 83b5 6f3d
00000250: 14e0 babe cc33 bfbb cd12 b43d 5038 a0be
00000260: cbfb 42bb 9b52 5dbe 2851 e9ba a3cb d53d
00000270: 360c 093d 2bb1 89be bf84 adbd a1aa c8bd
00000280: 6a46 35bd a0c2 2dbb 4e0d c3bd 9cd9 e6be
00000290: c6ba 853c 2192 c93e 8bd3 bdbd c4cd e03e
000002a0: 85e8 d53d ff31 783d 1704 643e 60f8 b53e
000002b0: 3a12 a73e 84fb 103f 0246 af3e 911b 753d
000002c0: dff5 873e 2de3 60be ea21 0cbf 27fa 94be
000002d0: 097f dc3d 2503 dcbd 452b 193e d97e 963a
000002e0: 07ee 0ebf 9524 45be 8245 34be 7450 f1be
000002f0: 2245 96be a825 a23e f8f0 383d 6a77 ba3e
00000300: 19b8 28be 9606 f1be b44b 7cbd 88ad 96be
00000310: 604e 6dbe 0968 22bd b6be 87be a5d3 d7be
00000320: 83cc d3be 2f98 e3be 1fad 92be e027 e0be
00000330: 8ef3 3abf f493 26bf 14a6 febe 4969 8ebd
00000340: f2c1 80be 4ad7 343e e7d0 513e 64d4 55be
00000350: 709d c43d ae2b 953c d275 c7be 3144 7ebd
00000360: fbab ee3d 6683 b63d ee33 053c f278 213c
00000370: 5ce3 ef3e ffa7 4e3d 4ed4 e03d fbfc 0c3e
00000380: 70e7 f5bc cd9c 563e 4c72 713e 925c 7e3d
00000390: 2ab0 c8bb 86bf 7a3e faee 29be 0906 d23d
000003a0: ea2c 9d3e 761f ba3b f5fc 5e3e 1f17 d23d
000003b0: 7221 5eb9 d5b8 fdbc 0909 a13e c878 99be
000003c0: 04ee 8a3d 544c 0cbe 9584 ccbd f6d4 173d
000003d0: cfce 1d3e bb66 3b3e accb ff3d f457 023d
000003e0: a42b 0f3e 502c 813e 2ee3 553d 553a 643e
000003f0: 8bb8 cc3c 7487 69bd e0ff 1cbe 22d8 83bd

up_blocks.0.conv_block.conv2.weight f4 [6, 6, 3, 3]
0.075375274 -0.05000783 0.34292993 0.13852672 -0.26203525 0.052559365 -0.042941738 -0.73405105
0.08231711 -0.16494489 -0.23770854 -0.06646505 0.27650997 0.3245934 0.26761177 -0.24504752
-0.14490466 -0.25381497 -0.18016338 0.14800397 -0.087433316 0.020955626 -0.030144831 0.14909098
-0.13206123 0.09120392 0.0014181371 -0.08353986 -0.17858738 0.057220664 0.38680184 0.3858669
0.35171667 0.08222891 0.16034418 0.10021917 -0.076432936 0.13357186 -0.13005432 -0.06036181
-0.018218689 -0.12718026 -0.12544012 0.26131755 -0.10015567 -0.14102468 -0.025854222 -0.27642247
0.26330832 0.57132894 0.10547069 -0.05662518 0.11572957 -0.08437672 -0.40637526 -0.6444367
-0.4004185 -0.34581542 -0.052454088 -0.066093735 0.15459149 0.0139165195 -0.1710563 0.27877414
0.18546022 0.1116871 0.19311817 0.017047124 0.015601367 0.061044205 0.23116706 0.12287924
-0.12083981 -0.06411421 0.017757684 0.07082747 0.17941883 0.13135564 -0.022983316 -0.111566745
0.055430766 0.25764924 0.17907977 -0.016939558 -0.008581579 -0.2458727 -0.06719937 -0.12837581
-0.44973862 -0.29301956 -0.19931895 0.07003552 -0.010789741 -0.31512582 -0.00911852 -0.24851052
-0.016283253 0.23999733 0.29620314 0.32405972 0.33937106 0.25553113 0.009497627 0.14727956
-0.01949845 0.13806877 0.1947422 0.027924374 0.087075934 0.15830813 -0.28279975 0.21140845
-0.11002854 -0.4314606 0.092313275 -0.06954372 -0.30089235 0.09538818 0.08124753 -0.16626854
-0.1769328 -0.289698 0.06626125 -0.12687194 -0.16880466 0.014078454 -0.024990885 0.54089725
0.14057533 0.20784326 1.2130967 0.47055328 0.24099691 0.41225293 0.33673137 -0.023472551
0.1815992 -0.018228887 -0.15243262 0.04885772 -0.053773087 0.12280515 0.05717308 0.050488163
-0.08945402 -0.14812584 0.0044920184 -0.23726864 -0.007094126 -0.24726921 -0.1073076 -0.18190622
-0.20347485 -0.018225823 0.3977546 0.31990188 0.114942074 -0.16506428 0.13137373 -0.2856991
-0.4058459 -0.066898644 -0.17477597 0.15131222 0.04753445 -0.21023968 0.09856102 -0.1592597
-0.25552633 0.030540662 -0.21260217 -0.17205796 0.19753681 -0.18470831 -0.17633292 -0.2649491
-0.2885139 0.0026497676 -0.022165475 -0.07914862 0.4380953 0.2454642 0.26938632 0.12672126
0.1287799 0.07177448 0.21540336 0.25183025 0.31292146 -0.40208653 0.2640572 -0.33622032
-0.41552916 -0.037194986 -0.2911505 -0.31419843 0.12554526 -0.2581363 0.59745383 0.4459802
0.2806216 0.59103775 0.09971603 0.29964638 0.16899297 0.156171 -0.24863605 -0.119159296
-0.38120812 0.10936237 -0.38750923 -0.6097572 -0.13506678 -0.19956495 -0.013194219 0.09515986
0.24218564 0.09897701 0.12426882 -0.39168248 0.23328063 -0.41280678 -0.6488421 -0.028404381
-0.3108933 -0.0910129 -0.021307332 0.09450562 0.06318024 0.33892304 0.35350275 -0.2576641
-0.15164873 -0.15310948 0.18426265 -0.20691629 0.117253415 0.07262635 -0.23475288 0.011780821
0.20324305 -0.14885996 0.18904047 -0.22266188 0.025259169 -0.12900165 0.43437943 0.3095696
0.46245784 0.045881152 0.12949574 0.1221496 -0.114657275 0.0067030247 0.051624987 -0.18540877
00000000: 5a5e 9a3d 03d5 4cbd 8394 af3e f3d9 0d3e
00000010: 7c29 86be 7d48 573d ade3 2fbd c5ea 3bbf
00000020: df95 a83d 50e7 28be de69 73be d41e 88bd
00000030: b792 8d3e 1b31 a63e 6904 893e bded 7abe
00000040: e361 14be 09f4 81be c07c 38be 5a8e 173e
00000050: 3d10 b3bd 22ab ab3c 4bf2 f6bc 4eab 183e
00000060: 0f3b 07be 1fc9 ba3d c9e0 b93a f216 abbd
00000070: 9cdf 36be 3760 6a3d e40a c63e 5990 c53e
00000080: 3514 b43e a167 a83d 4431 243e b53f cd3d
00000090: df88 9cbd 10c7 083e f62c 05be f23d 77bd
000000a0: 5c3f 95bc 8b3b 02be 6073 00be 6acb 853e
000000b0: 6a1e cdbd c668 10be 3ccc d3bc 3f87 8dbe
000000c0: 59d0 863e 9d42 123f 0401 d83d ceef 67bd
000000d0: a003 ed3d b4cd acbd 6b10 d0be cef9 24bf
000000e0: a703 cdbe b80e b1be 19da 56bd 275c 87bd
000000f0: 3b4d 1e3e 1d02 643c 6229 2fbe 7cbb 8e3e
00000100: 49e9 3d3e 35bc e43d c5c0 453e 69a6 8b3c
00000110: e09c 7f3c 7d09 7a3d 0fb7 6c3e 1ca8 fb3d
00000120: dd7a f7bd 504e 83bd 9078 913c fe0d 913d
00000130: 92b9 373e 1882 063e 8247 bcbc 1b7d e4bd
00000140: 5f0b 633d 9aea 833e b060 373e d4c4 8abc
00000150: c099 0cbc 0ec6 7bbe d39f 89bd f374 03be
00000160: 2444 e6be a906 96be 441a 4cbe c86e 8f3d
00000170: 74c7 30bc 2c58 a1be d865 15bc 8b79 7ebe
00000180: 7564 85bc dcc1 753e f0a7 973e 28eb a53e
00000190: 0bc2 ad3e fad4 823e ef9b 1b3c 74d0 163e
000001a0: 37bb 9fbc e661 0d3e 806a 473e a8c1 e43c
000001b0: de54 b23d 871b 223e 21cb 90be 757b 583e
000001c0: a556 e1bd 67e8 dcbe be0e bd3d f06c 8ebd
000001d0: 900e 9abe e15a c33d 1b65 a63d 4d42 2abe
000001e0: df2d 35be 4c53 94be fab3 873d b8ea 01be
000001f0: 21db 2cbe 51a9 663c afb9 ccbc 3e78 0a3f
00000200: fbf2 0f3e ddd4 543e c146 9b3f 5cec f03e
00000210: e5c7 763e d112 d33e 0e68 ac3e 8249 c0bc
00000220: 24f5 393e bf54 95bc 4c17 1cbe 081f 483d
00000230: 2b41 5cbd 4481 fb3d 522e 6a3d adcc 4e3d
00000240: ab33 b7bd 4dae 17be c831 933b 8df6 72be
00000250: d875 e8bb 2434 7dbe 16c4 dbbd a045 3abe
00000260: b65b 50be 524e 95bc 7ea6 cb3e 2eca a33e
00000270: c066 eb3d 9c06 29be d686 063e 2747 92be
00000280: 09cb cfbe 2802 89bd 79f8 32be 97f1 1a3e
00000290: 7cb3 423d 1249 57be 5cda c93d fa14 23be
000002a0: 59d4 82be 6930 fa3c 62b4 59be f62f 30be
000002b0: 1747 4a3e 2d24 3dbe 9e90 34be 69a7 87be
000002c0: 18b8 93be b9a7 2d3b 5f94 b5bc ac18 a2bd
000002d0: 074e e03e f85a 7b3e 01ed 893e 38c3 013e
000002e0: e1de 033e 80fe 923d b392 5c3e e5ef 803e
000002f0: 3e37 a03e 49de cdbe 8132 873e 1225 acbe
00000300: 3dc0 d4be c559 18bd ae11 95be 9ede a0be
00000310: f08e 003e 712a 84be bcf2 183f 8457 e43e
00000320: a2ad 8f3e 404e 173f eb37 cc3d 406b 993e
00000330: 7e0c 2d3e 4aeb 1f3e 739a 7ebe ca09 f4bd
00000340: b62d c3be 61f9 df3d 9c67 c6be 0c19 1cbf
00000350: f24e 0abe c15a 4cbe 912c 58bc 2ce3 c23d
00000360: 83ff 773e 75b4 ca3d a780 fe3d 9b8a c8be
00000370: 1ee1 6e3e 695b d3be 841a 26bf 4eb0 e8bc
00000380: 682d 9fbe f964 babd b78c aebc 2a8c c13d
00000390: a464 813d 5287 ad3e 50fe b43e 8dec 83be
000003a0: ce49 1bbe bbc8 1cbe 59af 3c3e dde1 53be
000003b0: 8f22 f03d 20bd 943d 0f63 70be 5804 413c
000003c0: f21e 503e bf6e 18be d393 413e 7a01 64be
000003d0: 51ec ce3c 0219 04be fb66 de3e e87f 9e3e
000003e0: 46c7 ec3e e0ed 3b3d 889a 043e 9229 fa3d
000003f0: 6fd1 eabd 0ca5 db3b b974 533d ccdb 3dbe

up_blocks.0.attention_gate.gating_conv.weight f4 [6, 6, 1, 1]
-0.12870857 -0.44460487 -0.2250378 -0.5494528 -0.25830555 0.38777846 -0.15701653 0.03351626
-0.31035596 -0.49262235 -0.29718983 0.6432492 0.1955465 -0.10589466 0.028711472 -0.06456865
-0.13878039 0.7426891 0.60613406 -0.3010191 -0.057396032 0.24734855 -0.054051287 -0.31805506
0.663841 0.08917276 0.02066329 0.2627027 -0.2570951 -0.6480639 -0.17349465 0.066902995
-0.03178191 -0.12686618 0.56566495 -0.74318737
00000000: 2ecc 03be 40a3 e3be 4f70 66be f0a8 0cbf
00000010: a040 84be e68a c63e f1c8 20be 5948 093d
00000020: fae6 9ebe ff38 fcbe 4429 98be fbab 243f
00000030: 573d 483e 4ddf d8bd 5234 eb3c 923c 84bd
00000040: 721c 0ebe df20 3e3f 9a2b 1b3f 2d1f 9abe
00000050: 1a18 6bbd f048 7d3e e264 5dbd 1dd8 a2be
00000060: 7cf1 293f 35a0 b63d 0f46 a93c f880 863e
00000070: f8a1 83be 84e7 25bf 95a8 31be 7004 893d
00000080: c02d 02bd 35e9 01be 6bcf 103f 8741 3ebf

up_blocks.0.attention_gate.gating_conv.bias f4 [6]
-0.28257978 -0.12543799 0.16522463 0.06446831 0.30385786 -0.17851956
00000000: 4cae 90be d172 00be a530 293e f607 843d
00000010: 4293 9b3e d5cd 36be

up_blocks.0.attention_gate.input_conv.weight f4 [6, 6, 1, 1]
-0.20833902 0.06943898 -0.17731903 0.8623674 -0.4388858 -0.1549006 0.36058652 0.09045169
-0.27238858 0.120835625 0.26240835 0.82537234 -0.4212508 0.3719649 -0.056442376 0.77694696
0.24595635 0.17300121 0.1184368 0.6360553 -0.34672418 -0.39558303 0.5272207 -0.24469954
-0.5963197 -0.33542576 0.07326568 0.4913962 -0.16092281 -0.5507671 0.6165618 0.007993561
0.20617396 0.34816557 -0.02001341 0.7143845
00000000: d356 55be 0636 8e3d 1f93 35be 1cc4 5c3f
00000010: a4b5 e0be 439e 1ebe cc9e b83e bc3e b93d
00000020: 8476 8bbe ab78 f73d 635a 863e 9a4b 533f
00000030: 2fae d7be 2f72 be3e 1f30 67bd ffe5 463f
00000040: fbdb 7b3e 3b27 313e fe8e f23d 85d4 223f
00000050: d585 b1be dc89 cabe f0f7 063f 8492 7abe
00000060: 68a8 18bf edbc abbe 510c 963d 4898 fb3e
00000070: f3c8 24be 13ff 0cbf fed6 1d3f 6df7 023c
00000080: 441f 533e c242 b23e 2af3 a3bc e7e1 363f

up_blocks.0.attention_gate.input_conv.bias f4 [6]
0.26484835 -0.11413175 -0.263513 0.019641202 0.33603084 0.14540707
00000000: 349a 873e e8bd e9bd 2deb 86be 96e6 a03c
00000010: 3c0c ac3e 97e5 143e

up_blocks.0.attention_gate.conv.weight f4 [1, 6, 1, 1]
0.40240324 0.3157398 -0.12200175 0.4697964 0.40394315 0.44431216
00000000: cc07 ce3e a6a8 a13e 0edc f9bd 2789 f03e
00000010: a3d1 ce3e e27c e33e

up_blocks.1.transpose_conv.weight f4 [6, 3, 2, 2]
-0.09412014 -0.2778791 0.71546686 0.34774184 0.11887314 0.043929983 0.11150322 0.09633869
-0.0879708 0.0033643972 0.32164836 0.110896505 -0.18272732 -0.15562396 0.06736759 0.4449172
0.21643467 0.33929384 0.23827268 -0.34642294 0.32308254 0.3608914 0.041078936 0.34107926
-0.10133866 0.0059872326 -0.1426727 -0.4249734 -0.11149687 0.007287409 -0.41219524 0.19475588
0.46767712 0.11165045 -0.059583522 -0.3309404 0.07707789 0.03889536 0.6694809 0.05426185
-0.68467486 -0.75686485 -0.17508382 0.025636083 -0.43779665 -0.44917932 -0.11226039 -0.05108304
-0.34391302 -0.41397923 0.7068497 0.5447861 0.14212438 0.017211959 0.15852572 0.044546038
-0.15050526 0.14824733 0.1490526 0.16255563 -0.026422769 0.027845724 0.67392236 0.33977336
-0.6259406 -0.7102431 -0.124076396 -0.091579325 -0.36117676 -0.4033551 -0.38975957 -0.025851686
00000000: 0fc2 c0bd 2b46 8ebe d628 373f 380b b23e
00000010: c373 f33d edef 333d cd5b e43d 384d c53d
00000020: 092a b4bd 387d 5c3b 18af a43e b51d e33d
00000030: df1c 3bbe e35b 1fbe 05f8 893d 30cc e33e
00000040: 0da1 5d3e ecb7 ad3e c1fd 733e 595e b1be
00000050: 136b a53e c2c6 b83e 6342 283d f1a1 ae3e
00000060: a58a cfbd 8c30 c43b cb18 12be 1d96 d9be
00000070: 7958 e4bd 38cb ee3b 410b d3be 166e 473e
00000080: 6073 ef3e fea8 e43d da0d 74bd 0571 a9be
00000090: 03db 9d3d be50 1f3d 1a63 2b3f ac41 5e3d
000000a0: da46 2fbf e5c1 41bf 2c49 33be c302 d23c
000000b0: e226 e0be d5fa e5be c6e8 e5bd 733c 51bd
000000c0: 5e15 b0be 16f5 d3be 1af4 343f 1a77 0b3f
000000d0: 0e89 113e 1800 8d3c 9154 223e e875 363d
000000e0: 0d1e 1abe 26ce 173e 3fa1 183e fc74 263e
000000f0: 9074 d8bc b71c e43c 2d86 2c3f c6f6 ad3e
00000100: a53d 20bf 7ed2 35bf c41b febd f18d bbbd
00000110: 29ec b8be 8f84 cebe 918e c7be eac6 d3bc

up_blocks.1.transpose_conv.bias f4 [3]
0.15013541 0.120887496 -0.7677086
00000000: 19bd 193e dd93 f73d 8d88 44bf
