saved_models/bSuperMRI_0.001.pth (torch, 29506 bytes, 25 tensors)

input_block.conv1.weight f4 [3, 1, 3, 3]
-0.0651593 -0.23435621 -0.009059907 0.083015375 -0.09626413 -0.06390211 0.011595061 -0.47092423
0.14097618 0.00435904 0.08507367 0.23759718 -0.07316805 0.2173177 0.13064072 0.14871009
0.31806272 0.18701501 0.085262 -0.20024692 0.02716197 0.070742175 0.051250227 -0.1595651
-0.0072329687 -0.61541396 -0.017227186
00000000: 3d72 85bd 13fb 6fbe 0170 14bc f703 aa3d
00000010: 2126 c5bd 1cdf 82bd 36f9 3d3c fb1c f1be
00000020: 0f5c 103e 47d6 8e3b 1b3b ae3d ad4c 733e
00000030: 21d9 95bd 8888 5e3e aec6 053e 7547 183e
00000040: 1ed9 a23e dd80 3f3e d89d ae3d 870d 4dbe
00000050: c882 de3c 46e1 903d c2eb 513d 0965 23be
00000060: 8a02 edbb c58b 1dbf 0720 8dbc

input_block.conv2.weight f4 [3, 3, 3, 3]
0.0024357454 0.051312942 -0.021941809 0.16044955 0.19985072 0.1729537 0.14397793 0.07853113
0.15272547 -0.18319862 -0.19481277 -0.12893024 -0.12081437 -0.19038285 0.03616974 0.04731958
-0.07767308 0.019416202 0.14398795 0.09159661 -0.03298743 0.20381783 0.106602445 0.0059351474
0.034411065 0.100949295 -0.099181585 -0.049091376 -0.012491518 -0.18496385 0.03181162 -0.18635304
-0.032564264 0.008547833 -0.1987681 -0.11374133 -0.083973564 0.15878461 0.12502334 -0.10663166
0.013757381 -0.015898753 0.12840803 -0.13165902 -0.10281722 -0.18425065 0.00609193 -0.03331236
-0.04177864 -0.25990152 -0.33577862 0.054372203 -0.014887541 -0.19082078 0.12533982 -0.07293937
-0.044184487 -0.13411665 -0.21688691 -0.24802402 -0.06822273 -0.099805556 -0.13963024 0.20508483
0.04542453 -0.013751258 0.033687044 -0.013191681 0.100409865 0.00879406 0.20889108 0.016813822
0.10320779 0.011364715 -0.16746324 -0.017366119 -0.13151287 -0.03586179 0.14897576 0.11153587
0.067105904
00000000: 07a1 1f3b 852d 523d 4fbf b3bc e34c 243e
00000010: aba5 4c3e c61a 313e f36e 133e eed4 a03d
00000020: 1164 1c3e 6b98 3bbe 007d 47be 4a06 04be
00000030: 866d f7bd b9f3 42be b926 143d 2dd2 413d
00000040: 1013 9fbd ba0e 9f3c 9471 133e 0197 bb3d
00000050: d41d 07bd 9fb5 503e 6252 da3d a07b c23b
00000060: 9ef2 0c3d 81be ce3d b71f cbbd 0a14 49bd
00000070: 39a9 4cbc 2a67 3dbe e74c 023d 55d3 3ebe
00000080: 1b62 05bd 360c 0c3c dd89 4bbe 37f1 e8bd
00000090: 55fa abbd 6f98 223e 1e06 003e b361 dabd
000000a0: a366 613c 1a3e 82bc 657d 033e 9fd1 06be
000000b0: d691 d2bd 34ac 3cbe d09e c73b 8b72 08bd
000000c0: 1420 2bbd d011 85be 2deb abbe 63b5 5e3d
000000d0: dfea 73bc 8666 43be 1559 003e 3d61 95bd
000000e0: cbfa 34bd e055 09be 9a17 5ebe 02fa 7dbe
000000f0: 5cb8 8bbd db66 ccbd 3bfb 0ebe c201 523e
00000100: 120f 3a3d f54c 61bc 6dfb 093d ec21 58bc
00000110: b0a3 cd3d f614 103c 8be7 553e 24bd 893c
00000120: 9b5e d33d 1233 3a3c 7c7b 2bbe 6443 8ebc
00000130: 4fab 06be d0e3 12bd 1a8d 183e eb6c e43d
00000140: d26e 893d

down_blocks.0.conv_block.conv1.weight f4 [6, 3, 3, 3]
-0.05541865 -0.055458304 -0.34342137 0.07224146 -0.1650391 -0.19075055 0.02826416 -0.18940163
-0.21576487 0.04463085 0.025723232 -0.17054033 -0.015886107 0.054570198 0.07937601 0.005131638
0.023061208 -0.15353306 0.067192525 0.06387657 -0.10228215 -0.08254429 0.19180806 0.06271637
-0.08821855 -0.05534067 0.10671931 -0.15225035 0.021178998 0.016894924 -0.21112326 -0.1355236
0.111541994 -0.08780948 0.13812998 0.19143578 0.08859767 0.1705893 -0.008595745 0.006967403
0.056475837 0.18749876 0.20281889 0.023272872 -0.13389772 0.16553216 0.15342914 4.1118474e-05
-0.14702658 0.0460876 0.013883054 0.035225272 0.12441143 -0.04509243 0.11877137 -0.042886976
-0.0714436 -0.20821875 0.03676413 -0.24500129 -0.062266976 -0.21960035 -0.14071965 -0.057168555
-0.08638723 -0.1325152 0.13381132 0.04019452 -0.10539802 -0.05551372 -0.029737087 -0.16419722
0.21467507 -0.027981646 0.16841823 0.11553398 -0.0050114836 -0.12587054 -0.009014347 0.19530942
0.17375258 -0.04026077 -0.062090445 0.06128372 0.14686531 0.09780671 -0.11566576 -0.09460284
-0.1315824 -0.17482452 -0.11777541 0.062159374 -0.07067964 -0.12405101 -0.2550542 -0.21268944
-0.16095188 -0.102471195 0.045260668 0.024191644 0.14110258 0.19864082 0.24550731 0.10901664
0.16768141 -0.01406713 0.010484626 -0.028445832 -0.01551729 0.21142103 -0.10303922 0.01626576
0.115708195 0.19594425 0.041492008 0.03217773 -0.13634123 0.08317545 0.03420166 0.011596907
-0.13235427 0.110675946 -0.02281839 0.13815558 0.15146522 0.22602887 0.04451984 -0.043441184
0.022759343 0.09349243 -0.10118235 0.10813294 0.08398779 0.023059238 0.08746309 -0.02056734
-0.09323799 -0.018417714 0.015628781 0.17576869 0.20148242 -0.0045608534 -0.017173886 -0.1636939
-0.029932749 0.05729926 0.14696424 -0.07859228 -0.06698227 -0.17964743 0.061229557 -0.020830883
-0.111286655 -0.025474302 0.03718355 0.026301553 0.121863194 -0.09515078 0.20695588 0.22980233
-0.045644026 0.2537534
00000000: abfe 62bd 3f28 63bd edd4 afbe 55f3 933d
00000010: 0300 29be 1d54 43be 3d8a e73c 80f2 41be
00000020: 77f1 5cbe d7ce 363d 87b9 d23c 20a2 2ebe
00000030: 9523 82bc 0085 5f3d e48f a23d 4d27 a83b
00000040: dcea bc3c c537 1dbe 3c9c 893d b8d1 823d
00000050: 4e79 d1bd fb0c a9bd 5569 443e 7171 803d
00000060: edab b4bd e6ac 62bd a78f da3d 84e7 1bbe
00000070: 947f ad3c 3967 8a3c b230 58be b3c6 0abe
00000080: 2170 e43d 75d5 b3bd f271 0d3e be07 443e
00000090: b272 b53d f6ae 2e3e 2bd5 0cbc d04e e43b
000000a0: 3553 673d adff 3f3e c1af 4f3e c0a6 be3c
000000b0: 7c1c 09be 4381 293e 871c 1d3e a076 2c38
000000c0: 238e 16be 5ac6 3c3d c075 633c 6048 103d
000000d0: 6bcb fe3d d7b2 38bd 673e f33d 41aa 2fbd
000000e0: 0651 92bd 4c37 55be fc95 163d 9ee1 7abe
000000f0: a80b 7fbd eade 60be d018 10be 9329 6abd
00000100: caeb b0bd 11b2 07be d605 093e 02a3 243d
00000110: ebda d7bd 5b62 63bd 319b f3bc 5123 28be
00000120: c8d3 5b3e c439 e5bc d475 2c3e 149d ec3d
00000130: 5f37 a4bb 35e4 00be e9b0 13bc 31ff 473e
00000140: 32ec 313e 7ae8 24bd 8d52 7ebd a304 7b3d
00000150: dc63 163e e24e c83d 2ce2 ecbd 22bf c1bd
00000160: 89bd 06be 3305 33be 3c34 f1bd d49a 7e3d
00000170: 7dc0 90bd 750e febd 7796 82be 43cb 59be
00000180: 92d0 24be 6bdc d1bd 4063 393d 8e2d c63c
00000190: 327d 103e 8068 4b3e 4566 7b3e 1e44 df3d
000001a0: adb4 2b3e d279 66bc b5c7 2b3c 3c07 e9bc
000001b0: 3b3c 7ebc c17e 583e 3a06 d3bd c53f 853c
000001c0: 6bf8 ec3d 9ca5 483e 86f3 293d cccc 033d
000001d0: 099d 0bbe e457 aa3d 0a17 0c3d f400 3e3c
000001e0: e187 07be 12aa e23d a2ed babc a878 0d3e
000001f0: b319 1b3e 1d74 673e 705a 363d 62ef 31bd
00000200: cd71 ba3c f678 bf3d b138 cfbd ce74 dd3d
00000210: ca01 ac3d bae6 bc3c d91f b33d d77c a8bc
00000220: 8ff3 bebd bfe0 96bc ee07 803c b5fc 333e
00000230: 6851 4e3e 3673 95bb 40b0 8cbc 609f 27be
00000240: 8635 f5bc a1b2 6a3d cb7d 163e fdf4 a0bd
00000250: 002e 89bd 7ff5 37be d8cb 7a3d 87a5 aabc
00000260: 42ea e3bd 7caf d0bc c74d 183d 5b76 d73c
00000270: 6993 f93d 6ade c2bd 3eec 533e 4d51 6b3e
00000280: 3bf5 3abd f7eb 813e

down_blocks.0.conv_block.conv2.weight f4 [6, 6, 3, 3]
0.048792344 0.011800771 -0.008043184 0.071650036 -0.041572355 -0.027186414 -0.06729811 0.028753601
-0.09296529 -0.0039991452 0.023092218 -0.14552735 0.061995316 -0.09751128 -0.14809443 -0.099257
-0.18085945 -0.14515072 -0.14165021 -0.026644029 0.005573436 0.08751905 -0.039612394 -0.10462696
0.07841044 -0.13507183 -0.09847906 0.06469981 0.0820472 -0.10305524 -0.11373188 -0.023088345
0.071743086 0.13219817 0.06860778 0.0051689344 0.14576487 0.10423235 0.099269874 0.097812556
0.14881317 0.09721147 -0.06919139 0.051495966 -0.012543598 -0.006570852 0.080466814 0.027493661
-0.14598691 -0.1450866 -0.1406125 -0.025096048 -0.088329114 0.102767475 -0.10082375 -0.051575378
-0.086017445 0.035789277 -0.07095736 -0.109809436 -0.014987032 -0.093022026 -0.019351289 0.0024035738
-0.19723293 -0.090959884 0.03306156 -0.14542492 -0.059115008 0.0635979 -0.10837822 -0.022035483
-0.05807336 -0.014285076 0.05315517 -0.058028996 -0.13763039 -0.017192965 -0.013547077 -0.010941003
-0.06988029 -0.091339484 -0.11136252 0.010046976 -0.031643905 -0.112696715 -0.1652894 -0.05667018
-0.0945593 -0.16039446 -0.03737244 0.084208295 -0.025763841 0.017745081 0.07206164 -0.030875407
-0.0719574 -0.038816325 -0.0919178 -0.06725493 -0.014289165 -0.05949727 -0.0702998 -0.24668275
-0.070427075 -0.15967725 0.022948965 -0.06764103 -0.13923848 0.02955408 -0.010105816 -0.03648324
-0.1214498 -0.044847976 0.057735514 -0.086721756 0.03872502 -0.037184738 0.057078447 0.0875435
-0.012703808 -0.060542278 -0.0038139597 -0.057315446 0.042078484 0.06638014 0.08961276 0.088905536
0.10189555 0.06583879 -0.09718912 -0.030375632 -0.11216353 -0.1487575 0.09829345 -0.02961907
-0.022097526 -0.07779219 0.115262225 0.11861764 0.047959644 -0.084952995 0.08336723 -0.09841632
-0.122809164 -0.12769063 0.032868493 -0.06990285 -0.049820192 -0.031287372 -0.034809887 -0.031355806
-0.0045071375 -0.016451478 0.1779945 0.07786695 0.031416535 0.07484234 0.18536489 0.112835936
0.072298184 0.063079976 0.15309644 0.12943918 0.15749598 0.20419699 0.08779755 0.16605376
0.12258373 0.0915198 0.14145206 -0.033932544 0.010084204 -0.035345394 -0.0677454 -0.08426613
0.12233643 0.04348893 0.113010146 0.038100097 0.023306465 0.08076035 -0.054029066 0.17577085
0.06829323 0.01734215 0.116115525 0.2751557 0.13945799 -0.055666137 0.024376972 0.13530193
0.12218852 -0.06683128 0.068776146 -0.0024993937 -0.02723713 0.012294861 -0.10121915 0.0016740558
-0.021233 0.10605478 0.08899038 0.104290865 0.0032572635 -0.025738066 0.061529975 -0.03796317
0.14818142 -0.050100155 -0.020661758 -0.04147299 0.010219573 -0.091099046 -0.06151313 0.02043663
0.063357435 0.096467465 0.14340518 -0.074070856 0.12550123 0.15668672 0.074521884 -0.0044048238
-0.015311077 -0.058743913 0.15864553 -0.027871361 -0.09216749 -0.054203197 -0.065704815 -0.070745856
0.017651744 -0.13929328 0.14040413 0.035229355 0.10431156 0.071145535 0.05225782 -0.048146512
0.026446108 -0.048599638 0.026997525 -0.023861086 0.1807589 0.003899486 0.033379547 0.054010056
0.21463653 0.07703413 0.09281209 0.07748063 -0.04972991 0.041422978 0.024221309 -0.08638251
00000000: 7bda 473d 0558 413c 8fc7 03bc 41bd 923d
00000010: c647 2abd 0bb6 debc 97d3 89bd ac8c eb3c
00000020: 9664 bebd 430b 83bb e42b bd3c 1f05 15be
00000030: cdee 7d3d feb3 c7bd 11a6 17be 4147 cbbd
00000040: 3833 39be 64a2 14be c10c 11be 9444 dabc
00000050: 5fa1 b63b 303d b33d 9b40 22bd a946 d6bd
00000060: a795 a03d 4550 0abe 64af c9bd 5681 843d
00000070: 5d08 a83d a00e d3bd 43ec e8bd c523 bdbc
00000080: 0aee 923d f55e 073e 3c82 8c3d 2a60 a93b
00000090: 6343 153e c577 d53d 014e cb3d f351 c83d
000000a0: 7b62 183e cf16 c73d 37b4 8dbd 6fed 523d
000000b0: aa83 4dbc 4d50 d7bb c9cb a43d 633a e13c
000000c0: 987d 15be 9591 14be b9fc 0fbe 3a96 cdbc
000000d0: e5e5 b4bd c177 d23d af7c cebd b440 53bd
000000e0: ea29 b0bd c797 123d 1852 91bd c5e3 e0bd
000000f0: 2b8c 75bc 5582 bebd 9886 9ebc 4785 1d3b
00000100: 6ef7 49be 2d49 babd 8f6b 073d 45ea 14be
00000110: 9422 72bd 9e3f 823d 66f5 ddbd c283 b4bc
00000120: 55de 6dbd f40b 6abc 3cb9 593d d0af 6dbd
00000130: fbee 0cbe 43d8 8cbc 8ff4 5dbc e541 33bc
00000140: 661d 8fbd 3210 bbbd 0812 e4bd 129c 243c
00000150: 0a9d 01bd 89cd e6bd a041 29be fe1e 68bd
00000160: 4ea8 c1bd 723e 24be d813 19bd 6675 ac3d
00000170: b10e d3bc 225e 913c 0e95 933d 6cee fcbc
00000180: 675e 93bd defd 1ebd 663f bcbd f4bc 89bd
00000190: 1a1d 6abc 69b3 73bd 57f9 8fbd 679a 7cbe
000001a0: 123c 90bd 6f82 23be 78ff bb3c 6187 8abd
000001b0: 8894 0ebe 661b f23c dd92 25bc 736f 15bd
000001c0: acba f8bd 83b2 37bd 137c 6c3d 2d9b b1bd
000001d0: 209e 1e3d 064f 18bd 17cb 693d 024a b33d
000001e0: a223 50bc 2efb 77bd a0f3 79bb 9ac3 6abd
000001f0: 7d5a 2c3d 50f2 873d e586 b73d 1b14 b63d
00000200: 9dae d03d 7dd6 863d 170b c7bd 51d6 f8bc
00000210: feb5 e5bd e353 18be 144e c93d b1a3 f2bc
00000220: df05 b5bc 8351 9fbd 9a0e ec3d ceed f23d
00000230: 5571 443d d6fb adbd 70bc aa3d 7f8e c9bd
00000240: 5f83 fbbd 55c1 02be 1da1 063d 3a29 8fbd
00000250: 4210 4cbd 3027 00bd d094 0ebd f26e 00bd
00000260: 9cb0 93bb 40c5 86bc 3144 363e b578 9f3d
00000270: a0ae 003d f146 993d 4bd0 3d3e 8716 e73d
00000280: 1211 943d 1330 813d 50c5 1c3e b48b 043e
00000290: a046 213e 0419 513e 34cf b33d ff09 2a3e
000002a0: 2e0d fb3d bc6e bb3d cfd8 103e dafc 0abd
000002b0: 3838 253c 55c6 10bd 1abe 8abd b993 acbd
000002c0: 868b fa3d 7321 323d dd71 e73d d90e 1c3d
000002d0: 33ed be3c af65 a53d 954d 5dbd 46fd 333e
000002e0: 52dd 8b3d 2011 8e3c facd ed3d 35e1 8c3e
000002f0: 13ce 0e3e 2d02 64bd 37b2 c73c 978c 0a3e
00000300: fa3d fa3d d7de 88bd 82da 8c3d decc 23bb
00000310: 6720 dfbc 6270 493c fc4b cfbd fe6b db3a
00000320: d4f0 adbc 4033 d93d 9740 b63d 7396 d53d
00000330: d077 553b a3d8 d2bc db06 7c3d 457f 1bbd
00000340: dfbc 173e d235 4dbd d942 a9bc 95df 29bd
00000350: ff6f 273c 2392 babd 31f5 7bbd b86a a73c
00000360: 8bc1 813d bc90 c53d cfd8 123e 76b2 97bd
00000370: 6583 003e 7c72 203e ee9e 983d 5756 90bb
00000380: 50db 7abc 759d 70bd f973 223e 7b52 e4bc
00000390: 4fc2 bcbd 2c04 5ebd 3f90 86bd 34e3 90bd
000003a0: 649a 903c e6a2 0ebe 1ac6 0f3e a84c 103d
000003b0: 4da1 d53d c0b4 913d 4c0c 563d 4735 45bd
000003c0: 82a5 d83c 6a10 47bd ea29 dd3c 5378 c3bc
000003d0: dc18 393e 858e 7f3b feb8 083d a639 5d3d
000003e0: aec9 5b3e 12c4 9d3d 4414 be3d 2aae 9e3d
000003f0: 97b1 4bbd 24ab 293d c46b c63c 50e9 b0bd

down_blocks.1.conv_block.conv1.weight f4 [12, 6, 3, 3]
0.0047116517 -0.0029966433 -0.065158404 -0.08612019 -0.11342022 -0.24766845 0.11531705 -0.045642767
0.07911075 0.1276239 -0.0022373174 0.053269412 -0.044574182 -0.1236292 0.048699096 -0.04163108
-0.097584635 0.15245038 0.0024966507 -0.03176907 -0.035957232 -0.09592434 -0.08981954 0.106648274
-0.16722652 0.02786098 -0.12442301 -0.028739635 0.10936501 -0.07879294 -0.03387897 0.12782082
0.009096509 0.08257858 0.13765046 0.09329001 0.15117033 -0.055265415 -0.05055359 -0.03770614
-0.017012777 0.106461175 0.032344215 0.1105714 0.08930834 -0.07219814 0.072136804 0.062334765
-0.12940654 -0.069790445 -0.19619352 0.07359509 -0.0014116322 -0.086556226 0.01670494 -0.09687255
-0.13315766 -0.08769507 -0.49896505 -0.21924391 -0.049918503 -0.08009702 0.006684175 0.010532646
0.057257105 0.026378296 0.093143694 -0.051351424 0.095645644 -0.008045906 -0.10862831 -0.021534396
-0.11347449 0.009469398 -0.12352194 -0.10100059 -0.1210097 0.10053013 -0.012893133 0.027691962
-0.037839785 -0.10776143 0.14746134 -0.016085546 -0.09901225 -0.04758768 0.06821831 0.059707925
0.16841726 0.057866912 -0.016221693 0.027233016 -0.031177046 0.051369928 0.06953478 0.014946011
0.010127177 -0.08187637 0.0472259 -0.039516397 0.07160513 0.03673607 0.0023944105 -0.16826023
0.0319947 -0.016418098 -0.19295917 -0.1326261 -0.18366352 -0.26387993 -0.20881918 0.066674605
0.026989615 0.2133803 -0.02083445 0.035772253 0.1559115 -0.09605138 0.006619184 0.07748547
-0.18414421 -0.07719949 -0.12403951 0.014072816 -0.10962032 0.0058702896 0.050874904 0.021381877
0.03189806 -0.08911872 0.068584576 -0.13907266 -0.11620359 0.11549733 -0.039331537 0.025805391
-0.035170652 0.13678278 0.15189226 0.032116085 0.11769726 0.010655719 -0.0857165 0.039930854
0.046667878 0.020408995 0.026537 0.008018379 -0.06527958 -0.042334083 0.13037638 0.088981465
0.111429386 0.03361349 -0.21084175 -0.12051973 0.064981505 -0.14888155 -0.015044847 -0.08084988
-0.11822357 0.014880747 -0.04985659 -0.018390575 0.09278355 -0.096880384 0.12519911 -0.032503676
-0.012444135 0.034620028 0.14766401 0.025479829 0.17107573 -0.08111313 0.076299824 0.123466864
0.017365599 -0.03638633 -0.023380687 0.040618587 0.17493527 0.12894823 0.06441791 0.073729284
0.23934573 0.13667421 0.070572995 0.105282865 -0.043053873 0.02973294 -0.0944512 0.025881285
-0.10455111 0.12517637 -0.08446671 0.13091692 0.17032161 0.027175583 0.0236463 0.0379585
0.0059345723 0.049838822 0.054246545 -0.071173444 -0.13664766 -0.022758363 0.0016511937 0.11653348
-0.10593599 0.06512338 0.039430648 -0.07232532 -0.08167056 -0.055928253 0.12554505 -0.0903803
-0.013325362 -0.03859669 0.004968742 0.06132293 -0.07537185 0.050885055 -0.07486815 -0.04373735
-0.018639471 0.025445452 0.048143193 -0.0037554966 -0.04585876 -0.17180845 -0.10041284 0.054754406
-0.065940835 -0.13002087 -0.2025609 -0.28936255 -0.17612061 0.13419761 -0.115603745 0.09424095
-0.021345804 -0.117160335 -0.03725559 -0.13785633 -0.12793744 -0.15008335 0.009790153 -0.1821961
-0.024150103 -0.072278276 -0.18836264 -0.11729362 -0.120921455 -0.24620846 0.0039460817 0.012722316
00000000: 3364 9a3b 5563 44bb c571 85bd c85f b0bd
00000010: dc48 e8bd cc9c 7dbe 582b ec3d e9f3 3abd
00000020: d104 a23d d7af 023e f59f 12bb 0731 5a3d
00000030: 6b93 36bd 4e31 fdbd b478 473d 5a85 2abd
00000040: 74da c7bd f41b 1c3e d99e 233b 4920 02bd
00000050: e447 13bd fb73 c4bd 4ff3 b7bd 696a da3d
00000060: 6e3d 2bbe b63c e43c 7ed1 febd 626f ebbc
00000070: c3fa df3d 315e a1bd adc4 0abd 76e3 023e
00000080: 8609 153c f51e a93d 3ef4 0c3e d50e bf3d
00000090: 65cc 1a3e fd5d 62bd 4811 4fbd c171 1abd
000000a0: 615e 8bbc 5108 da3d 5e7b 043d 4273 e23d
000000b0: 4ae7 b63d 9edc 93bd 76bc 933d bd52 7f3d
000000c0: 2683 04be 4bee 8ebd f4e6 48be 06b9 963d
000000d0: 8406 b9ba 6444 b1bd ccd8 883c 1e65 c6bd
000000e0: 7b5a 08be 7999 b3bd 5978 ffbe 7a81 60be
000000f0: 5877 4cbd e809 a4bd ed06 db3b 1f91 2c3c
00000100: 6d86 6a3d 4c17 d83c 1fc2 be3d df55 52bd
00000110: dde1 c33d fad2 03bc 8578 debd e768 b0bc
00000120: 5065 e8bd 8925 1b3c 12f9 fcbd 66d9 cebd
00000130: efd3 f7bd bee2 cd3d b83d 53bc 41da e23c
00000140: e4fd 1abd 06b2 dcbd 1b00 173e d6c5 83bc
00000150: efc6 cabd 4deb 42bd 0bb6 8b3d 4c90 743d
00000160: 9375 2c3e db05 6d3d 5be3 84bc c617 df3c
00000170: 0167 ffbc 4669 523d 4068 8e3d 1de0 743c
00000180: 76ec 253c ccae a7bd f26f 413d f2db 21bd
00000190: b6a5 923d 9078 163d 8beb 1c3b 694c 2cbe
000001a0: e00c 033d 3f7f 86bc 1797 45be 23cf 07be
000001b0: 4a12 3cbe 451b 87be b2d4 55be b28c 883d
000001c0: 5319 dd3c 5e80 5a3e 02ad aabc ed85 123d
000001d0: 44a7 1f3e 96b6 c4bd bde5 d83b b4b0 9e3d
000001e0: 4d90 3cbe c41a 9ebd 6d08 febd ab91 663c
000001f0: 9e80 e0bd 8f5b c03b 3462 503d 0c29 af3c
00000200: 8aa7 023d e083 b6bd 1276 8c3d 1069 0ebe
00000210: 26fc edbd dd89 ec3d 1b1a 21bd d465 d33c
00000220: 1a0f 10bd c910 0c3e a589 1b3e 288c 033d
00000230: 430b f13d 5395 2e3c 228c afbd 898e 233d
00000240: d126 3f3d c430 a73c 1f64 d93c 855f 033c
00000250: 4db1 85bd 8166 2dbd 6381 053e ea3b b63d
00000260: 1735 e43d 4dae 093d e6e6 57be 0cd3 f6bd
00000270: 0615 853d 6874 18be a97e 76bc 9f94 a5bd
00000280: 331f f2bd 60ce 733c 6c36 4cbd d5a7 96bc
00000290: 4d05 be3d 3969 c6bd 3234 003e 9322 05bd
000002a0: 7ce2 4bbc bbcd 0d3d 3c35 173e 13bb d03c
000002b0: 7a2e 2f3e a41e a6bd 1543 9c3d 32dc fc3d
000002c0: 4d42 8e3c d509 15bd db88 bfbc ad5f 263d
000002d0: 3b22 333e 010b 043e 8aed 833d 61ff 963d
000002e0: 0c17 753e 53f4 0b3e 9388 903d 8b9e d73d
000002f0: 4259 30bd 7f92 f33c a16f c1bd fd04 d43c
00000300: e41e d6bd 3c2e 003e e2fc acbd 160f 063e
00000310: ca68 2e3e 549f de3c e3b5 c13c 5f7a 1b3d
00000320: cd76 c23b cb23 4c3d a031 5e3d 62c3 91bd
00000330: 5ded 0bbe bf6f babc de6c d83a 1ba9 ee3d
00000340: f8f4 d8bd 685f 853d 0882 213d 4c1f 94bd
00000350: e542 a7bd 0615 65bd e28e 003e 4f19 b9bd
00000360: 9e52 5abc 9017 1ebd d4d0 a23b c12d 7b3d
00000370: 8e5c 9abd d96c 503d 7954 99bd ef25 33bd
00000380: ceb1 98bc fb72 d03c cc31 453d c71e 76bb
00000390: 65d6 3bbd 8eee 2fbe 3fa5 cdbd 2846 603d
000003a0: fd0b 87bd 3124 05be 206c 4fbe 5427 94be
000003b0: f658 34be 196b 093e a8c1 ecbd 6601 c13d
000003c0: 65dd aebc c2f1 efbd 5199 18bd 362a 0dbe
000003d0: 0802 03be 73af 19be e166 203c 9d91 3abe
000003e0: 70d6 c5bc a206 94bd 23e2 40be a337 f0bd
000003f0: aba5 f7bd 121e 7cbe 224e 813b 4371 503c

down_blocks.1.conv_block.conv2.weight f4 [12, 12, 3, 3]
0.027219996 0.09257916 -0.050106775 0.02136519 -0.061314423 0.06304657 0.04907329 0.07387488
-0.07273901 -0.010374309 0.027572026 0.10673302 -0.022825634 0.021630276 -0.031981695 0.007879643
0.04045099 0.16540444 -0.021503977 0.105737135 -0.060537223 0.10996183 -0.043780122 0.062094003
0.00836994 0.010833863 -0.020511914 -0.031991143 -0.1460762 0.051883657 0.017076716 0.0040914747
-0.11362615 -0.112296976 -0.14190803 -0.14355984 0.08164114 0.061716188 0.030984633 -0.062035892
-0.032433365 -0.10101984 0.037653305 0.10063945 0.047390766 -0.035874017 -0.009221656 0.04088924
0.14064318 0.09498883 0.09726916 -0.021814363 0.022769677 0.009885118 0.029872531 -0.06717226
0.04418235 0.059285946 0.00959295 0.004172174 0.027692018 -0.064361304 0.05527026 0.057501983
-0.02322364 0.024172986 -0.044858042 -0.023905108 0.09205164 0.012914024 0.1174796 0.193935
0.009534363 0.026482534 0.06663357 -0.011896103 0.10154032 -0.04244761 0.11098831 0.06449404
-0.011517659 0.00037941537 0.045230947 0.046110086 0.018901514 0.0735814 0.14338866 -0.056100715
-0.023123303 0.05581675 0.015540196 0.08853069 -0.026972812 0.08573651 -0.0033253806 0.12704188
0.107726514 0.016723013 0.20483726 0.004691192 0.0007355862 -0.012227044 0.033970237 -0.019364534
-0.04101451 -0.031123323 -0.060615864 -0.040292684 0.030687442 0.038609385 -0.0065871193 0.10293298
0.078486785 0.06678121 -0.0343561 -0.0100895045 0.13190773 0.10880052 0.033265296 0.0024594427
0.105724804 0.056357775 -9.25512e-05 0.032487277 -0.03523996 -0.020361792 0.014304197 0.054654684
-0.041548025 0.0021220942 -0.020815704 0.10816019 -0.027398849 0.09112109 0.114960566 0.03248438
0.064651266 0.027819835 -0.01978261 0.054857597 -0.08119178 0.012837951 -0.0023696364 0.13595808
-0.08037475 -0.09826583 -0.029184857 0.025542865 -0.07352781 -0.023718221 -0.1276938 -0.128218
-0.016173415 -0.062025636 -0.18885343 -0.0058572153 -0.06258351 -0.1402633 -0.0064625666 -0.08923673
-0.09699534 -0.11456087 -0.0042768433 0.075309336 0.03410765 -0.015494563 0.12931976 -0.03804092
0.01891906 0.011423651 -0.047223885 0.08752615 -0.09256016 -0.06532035 0.07346765 -0.15392403
0.008529714 0.04102446 -0.08960479 0.06293139 0.091291726 -0.0041477904 -0.09806911 -0.05239249
0.033924147 0.0771375 -0.01395671 -0.010483755 0.04863454 -0.074712574 -0.32649958 -0.07077669
-0.13033427 -0.26596105 -0.13563995 -0.0946215 -0.2098438 -0.060374238 0.09922481 -0.03265575
0.008976866 -0.08101413 -0.017349556 -0.17230743 0.08743215 -0.06232198 -0.0075918804 0.06339154
0.11084058 -0.03678809 -0.06099219 -0.021326013 0.09215752 -0.08668231 0.04246202 -0.09290551
0.10163465 0.12041884 0.020514812 -0.0925418 -0.097921126 0.016628185 -0.10999918 -0.056554582
-0.07679298 -0.14744718 -0.109818034 -0.059891615 0.04814781 -0.15675372 -0.01248391 -0.12911111
0.049775757 -0.087325685 -0.021838924 -0.024816183 0.10658134 -0.029452458 0.0959748 0.08115458
0.022850879 -0.11268106 0.105070844 -0.029616058 -0.109369144 0.06966624 -0.06654248 -0.015283368
0.014642319 -0.061776757 -0.09712244 0.025947606 -0.050691567 -0.27247858 -0.08344129 0.008658394
00000000: 78fc de3c 259a bd3d c33c 4dbd 0d06 af3c
00000010: d524 7bbd 8f1e 813d 1301 493d b74b 973d
00000020: 31f8 94bd 01f9 29bc bbde e13c d796 da3d
00000030: d3fc babc fa31 b13c 3dff 02bd 9e19 013c
00000040: f0af 253d c85f 293e 1c29 b0bc b68c d83d
00000050: e1f5 77bd ab33 e13d c952 33bd 4856 7e3d
00000060: 1322 093c 8480 313c 9a08 a8bc 2509 03bd
00000070: 0095 15be f583 543d 78e4 8b3c c711 863b
00000080: d4b4 e8bd f5fb e5bd 5750 11be 5a01 13be
00000090: 7833 a73d 1dca 7c3d 7cd3 fd3c 5919 7ebd
000000a0: d9d8 04bd 7de3 cebd 5a3a 1a3d 0e1c ce3d
000000b0: d21c 423d a2f0 12bd 6e16 17bc 7a7b 273d
000000c0: c404 103e 8189 c23d 0e35 c73d 09b4 b2bc
000000d0: 7987 ba3c 31f5 213c 3db7 f43c 9c91 89bd
000000e0: 8df8 343d d2d5 723d c02b 1d3c bbb6 883b
000000f0: 5fda e23c dccf 83bd 1163 623d 3387 6b3d
00000100: 813f bebc 6d06 c63c 11bd 37bd a5d4 c3bc
00000110: 9285 bc3d 5895 533c 2599 f03d e696 463e
00000120: 0436 1c3c e6f1 d83c 2e77 883d dfe7 42bc
00000130: 5ff4 cf3d 8cdd 2dbd d74d e33d 7415 843d
00000140: 90b4 3cbc 45ec c639 1644 393d eedd 3c3d
00000150: 59d7 9a3c d8b1 963d 7ad4 123e ddc9 65bd
00000160: 156d bdbc 1ba0 643d 4e9c 7e3c 944f b53d
00000170: 16f6 dcbc a096 af3d a1ee 59bb 4417 023e
00000180: b89f dc3d b3fe 883c dcc0 513e 92b8 993b
00000190: 5bd4 403a f153 48bc 6024 0b3d 5fa2 9ebc
000001a0: d5fe 27bd 57f6 febc 5748 78bd f109 25bd
000001b0: 3b64 fb3c e024 1e3d c3d8 d7bb 87ce d23d
000001c0: aebd a03d 96c4 883d fbb8 0cbd 734e 25bc
000001d0: d212 073e cfd2 de3d 3141 083d 9a2e 213b
000001e0: 3f86 d83d 69d7 663d 0c18 c2b8 6111 053d
000001f0: c757 10bd c6cd a6bc 275c 6a3c 97dd 5f3d
00000200: 432e 2abd d512 0b3b b285 aabc 1783 dd3d
00000210: 8d73 e0bc b29d ba3d 7270 eb3d 570e 053d
00000220: e267 843d 6ce6 e33c 240f a2bc 5cb2 603d
00000230: e047 a6bd 4556 523c e74b 1bbb 9838 0b3e
00000240: 849b a4bd 983f c9bd 1515 efbc 453f d13c
00000250: c095 96bd b74c c2bc 2ac2 02be 944b 03be
00000260: 1c7e 84bc 980e 7ebd cb62 41be e2ed bfbb
00000270: c92b 80bd 2fa1 0fbe f0c3 d3bb bfc1 b6bd
00000280: 7ea5 c6bd e49e eabd c324 8cbb c83b 9a3d
00000290: 77b4 0b3d e8dc 7dbc 666c 043e ccd0 1bbd
000002a0: 25fc 9a3c 442a 3b3c d56d 41bd e940 b33d
000002b0: 2e90 bdbd adc6 85bd 3576 963d 439e 1dbe
000002c0: 37c0 0b3c 4409 283d b782 b7bd 2ce2 803d
000002d0: 28f7 ba3d 30ea 87bb 75d8 c8bd 8299 56bd
000002e0: 0cf4 0a3d 44fa 9d3d afaa 64bc 0ec4 2bbc
000002f0: 0335 473d e802 99bd f42a a7be 5ff3 90bd
00000300: 5976 05be 0c2c 88be 33e5 0abe ebc8 c1bd
00000310: 4be1 56be fa4a 77bd 6136 cb3d 09c2 05bd
00000320: b413 133c bcea a5bd a820 8ebc 5c71 30be
00000330: a10f b33d 5545 7fbd 4fc5 f8bb 6cd3 813d
00000340: 6300 e33d 1caf 16bd f2d2 79bd e4b3 aebc
00000350: 15bd bc3d 7f86 b1bd a8ec 2d3d 3e45 bebd
00000360: d425 d03d 279e f63d ae0e a83c 8e86 bdbd
00000370: df8a c8bd d537 883c 4047 e1bd c7a5 67bd
00000380: a345 9dbd 65fc 16be 47e8 e0bd e950 75bd
00000390: a336 453d 0c84 20be 5089 4cbc b435 04be
000003a0: aae1 4b3d cfd7 b2bd 8be7 b2bc 4f4b cbbc
000003b0: 5147 da3d 4846 f1bc 708e c43d 5f34 a63d
000003c0: c431 bb3c 54c5 e6bd 622f d73d 609d f2bc
000003d0: eefc dfbd 2cad 8e3d 6c47 88bd 1767 7abc
000003e0: 56e6 6f3c a009 7dbd 21e8 c6bd 1390 d43c
000003f0: f6a1 4fbd 5082 8bbe 44e3 aabd f0db 0d3c

up_blocks.0.transpose_conv.weight f4 [12, 6, 2, 2]
0.24835052 -0.070959955 -0.014758272 -0.07990086 -0.12032585 -0.21491285 0.1675738 -0.21167572
-0.15807137 0.14048582 0.054874364 -0.052170172 -0.1698672 0.100082636 -0.077310406 0.14826736
0.03170722 -0.084371924 0.053682975 0.15931411 0.06528985 0.055418696 -0.14222483 -0.03661962
-0.013171027 -0.14501762 -0.27019256 -0.025934057 0.20527126 -0.04971213 -0.08277327 -0.06466351
-0.23375057 -0.13488752 0.03210451 -0.1110173 0.07622734 -0.005499279 -0.09123068 0.05257548
-0.015733797 -0.0072237263 0.1883506 0.158998 -0.089150205 0.046683576 -0.08299813 -0.19751506
-0.2058805 -0.12376933 -0.22015233 -0.06806937 0.15752259 -0.028898131 0.29098922 0.05469305
0.054702796 0.13701001 -0.30501023 -0.09735661 -0.20056161 -0.09988425 -0.19761932 -0.06045741
-0.13167475 0.17014529 0.088292286 0.21546222 -0.01632915 0.16511111 0.06688261 0.088008836
0.036208432 0.075029835 -0.12624341 0.11476368 -0.13855703 0.10169424 -0.077634014 0.2323556
0.0803542 0.10938535 -0.25974864 0.07007838 -0.18037355 -0.10169195 0.022314558 -0.09880692
0.024377415 -0.064230174 0.19804353 0.08029653 -0.12128497 0.10550808 -0.009928338 -0.06448288
-0.14219962 -0.042850595 -0.11585477 0.06264433 0.08879333 0.026236331 0.17554253 -0.080624394
-0.03713455 0.052692514 -0.17348827 0.1724977 0.025451334 -0.006321133 -0.008691126 0.03126209
0.052337267 0.1214083 -0.14895877 -0.17688806 -0.20801094 0.07321022 -0.02272379 0.094572596
0.13640971 -0.060087733 -0.19464529 -0.03974764 0.16971134 -0.090698026 0.2726348 -0.08899779
0.020069651 0.08697964 -0.13611774 -0.16122347 0.043355167 0.024671167 0.058269046 -0.11664665
0.08051141 0.15851699 0.016751023 -0.08736615 0.061173946 0.029533084 0.12699127 0.07652226
0.020384429 0.018671848 -0.025196357 0.07264329 0.12864219 0.10346558 0.15639654 0.04416634
0.00334536 0.08906099 -0.10649839 -0.25793064 0.11689514 -0.035376985 -0.12425961 -0.12535352
0.19666824 0.0064114896 -0.15604652 0.24339218 0.113256894 0.23262517 -0.029747132 0.027272489
-0.21236189 -0.008707134 -0.055868827 0.061205044 -0.08099767 -0.009416643 0.24735132 -0.14293784
0.047920316 0.025236495 -0.24421939 -0.07109037 0.14125204 -0.0022052105 0.11234642 0.10394228
0.072827905 -0.1628113 -0.02600546 0.02750151 -0.14416754 -0.1148459 0.14720672 -0.058050398
-0.10950491 -0.12089459 0.01914667 0.106546596 0.07626085 -0.12917966 0.050366282 0.16532144
-0.031459887 0.16219695 -0.07008582 0.18942234 -0.22424239 0.067822136 0.008880327 0.05468389
-0.14423828 0.045013864 -0.041356985 0.082106724 0.12982568 -0.08101761 -0.038911022 0.15345304
-0.06968714 -0.115278535 -0.07655962 -0.042028487 0.25468782 -0.04102805 0.08073042 0.103353165
-0.027092498 0.17817824 0.040337685 -0.10575579 -0.024933724 0.009004808 0.18307915 -0.13176349
-0.17275777 0.07948736 0.06608594 0.17361178 0.09642888 0.030852998 -0.034869708 -0.07107471
-0.15908633 0.044552635 0.23320031 0.2869776 0.012091115 0.08691609 0.11390929 -0.06406521
0.2334259 -0.1331453 0.32502928 0.05305348 0.12534471 -0.18263963 -0.054063555 0.0367178
00000000: 994f 7e3e 7453 91bd aecc 71bc 10a3 a3bd
00000010: 666d f6bd 1d12 5cbe 7798 2b3e 85c1 58be
00000020: 76dd 21be 84db 0f3e f1c3 603d 64b0 55bd
00000030: abf1 2dbe 20f8 cc3d eb54 9ebd 66d3 173e
00000040: 6edf 013d 30cb acbd aee2 5b3d 3d23 233e
00000050: afb6 853d b7fe 623d 63a3 11be 74fe 15bd
00000060: 4bcb 57bc 807f 14be ae56 8abe a973 d4bc
00000070: a132 523e f29e 4bbd 0885 a9bd 4d6e 84bd
00000080: 4f5c 6fbe f41f 0abe 0580 033d 0a5d e3bd
00000090: 141d 9c3d 4c33 b4bb 27d7 babd 6359 573d
000000a0: 2ae4 80bc 02b5 ecbb fbde 403e 5fd0 223e
000000b0: 6294 b6bd 4737 3f3d ecfa a9bd 6341 4abe
000000c0: 56d2 52be c67a fdbd 9d6f 61be f467 8bbd
000000d0: 9a4d 213e c6bb ecbc 8afc 943e d205 603d
000000e0: 0a10 603d 5a4c 0c3e 4d2a 9cbe e762 c7bd
000000f0: 0660 4dbe 1d90 ccbd b85c 4abe 30a2 77bd
00000100: bfd5 06be 913a 2e3e 96d2 b43d 21a2 5c3e
00000110: b6c4 85bc e312 293e c0f9 883d fa3d b43d
00000120: 4b4f 143d 3ea9 993d f445 01be 3809 eb3d
00000130: e5e1 0dbe 1245 d03d 95fe 9ebd a0ee 6d3e
00000140: be90 a43d 6d05 e03d c6fd 84be 4185 8f3d
00000150: d8b3 38be de43 d0bd 05cd b63c 485b cabd
00000160: 25b3 c73c 1c8b 83bd eccb 4a3e 8272 a43d
00000170: 4164 f8bd 9f14 d83d 78aa 22bc 9a0f 84bd
00000180: c79c 11be 1b84 2fbd 4445 edbd ac4b 803d
00000190: 47d9 b53d 93ed d63c 6cc1 333e 671e a5bd
000001a0: 661a 18bd 1bd4 573d e9a6 31be 3da3 303e
000001b0: 517f d03c 8221 cfbb 3965 0ebc ad0c 003d
000001c0: 9a5f 563d eaa4 f83d a688 18be 2522 35be
000001d0: d200 55be 3def 953d 3e27 babc 47af c13d
000001e0: fdae 0b3e 8e1e 76bd 1851 47be 6cce 22bd
000001f0: cfc8 2d3e e3bf b9bd ca96 8b3e 7944 b6bd
00000200: 1c69 a43c 6222 b23d 7362 0bbe c417 25be
00000210: 3095 313d 301b ca3c 86ab 6e3d 70e4 eebd
00000220: 2be3 a43d 4752 223e 7139 893c 06ed b2bd
00000230: 8891 7a3d 5eef f13c 000a 023e b4b7 9c3d
00000240: 3ffd a63c b4f5 983c 9768 cebc 01c6 943d
00000250: c7ba 033e c3e5 d33d 6a26 203e c4e7 343d
00000260: d43d 5b3b 9c65 b63d d41b dabd 7c0f 84be
00000270: b866 ef3d 75e7 10bd d37b febd ac5c 00be
00000280: 6663 493e 7917 d23b a9ca 1fbe cd3b 793e
00000290: 3bf3 e73d 4b35 6e3e 42b0 f3bc 8e6a df3c
000002a0: 6575 59be 5ea8 0ebc b6d6 64bd 24b2 7a3d
000002b0: 1be2 a5bd 4348 1abc aa49 7d3e 4c5e 12be
000002c0: 1848 443d c4bc ce3c a614 7abe d497 91bd
000002d0: 60a4 103e 4b85 10bb e115 e63d b1df d43d
000002e0: cc26 953d 01b8 26be 6709 d5bc d94a e13c
000002f0: a8a0 13be 5434 ebbd 5cbd 163e 41c6 6dbd
00000300: 1c44 e0bd 9597 f7bd 7ad9 9c3c 1a35 da3d
00000310: a62e 9c3d ac47 04be e04c 4e3d 064a 293e
00000320: 15dc 00bd f516 263e 2889 8fbd eef7 413e
00000330: cc9f 65be 55e6 8a3d cb7e 113c 37fc 5f3d
00000340: 33b3 13be 7560 383d f165 29bd 9227 a83d
00000350: 06f1 043e 90ec a5bd 2a61 1fbd cb22 1d3e
00000360: 22b8 8ebd 2717 ecbd 4acb 9cbd 1026 2cbd
00000370: 7166 823e 070d 28bd fe55 a53d d3aa d33d
00000380: 16f1 ddbc 5b74 363e 2139 253d 7e96 d8bd
00000390: cf41 ccbc e788 133c 1a79 3b3e 02ed 06be
000003a0: 6ae7 30be 45ca a23d 1158 873d 49c7 313e
000003b0: 817c c53d 6dbf fc3c 8ad3 0ebd 9e8f 91bd
000003c0: 87e7 22be d37c 363d 10cc 6e3e baee 923e
000003d0: d019 463c 1001 b23d 4649 e93d 9f34 83bd
000003e0: 3307 6f3e 3e57 08be 3d6a a63e 9b4e 593d
000003f0: 5d5a 003e e205 3bbe bf71 5dbd 6765 163d

up_blocks.0.transpose_conv.bias f4 [6]
0.1092911 0.17455335 -0.04230548 -0.45345905 0.08698833 -0.019130403
00000000: 03d4 df3d 1dbe 323e 8348 2dbd c92b e8be
00000010: f026 b23d 5db7 9cbc

up_blocks.0.conv_block.conv1.weight f4 [6, 12, 3, 3]
0.09316264 -0.014995553 0.05444495 0.08718213 0.054022763 -0.07925904 0.0077777486 0.062206518
-0.02169448 -0.0792657 0.05854404 -0.009364202 -0.07043139 0.046882 -0.05228828 0.015908701
0.07753201 0.040898386 -0.027040914 0.20598395 0.021315608 -0.0052590896 0.074748546 -0.006092049
0.005261265 0.13300501 0.0010013933 0.060579315 0.08390468 -0.043589044 0.009268679 0.0026275876
-0.051699355 -0.0058892774 -0.023636993 -0.1247526 -0.21121702 -0.12684391 -0.056493834 -0.1353287
-0.13186266 -0.095648944 -0.13905236 -0.053414866 0.040948797 0.02309983 0.098356545 0.123438746
0.008695238 -0.11960305 0.05897137 0.061921895 -0.0076105813 0.038932193 0.05791838 -0.048695445
0.0153332185 0.07220284 -0.066337414 0.042581763 0.07820941 -0.09993487 -0.04340478 -0.021604871
-0.06397757 -0.13166788 0.035095245 -0.15416849 0.017006421 -0.06744822 -0.11261026 -0.04232586
0.020337565 0.010548583 -0.05318843 -0.020104941 0.100240864 -0.006293187 0.021107223 -0.020205485
0.047222067 -0.016160717 -0.07274561 -0.115464896 -0.044338077 -0.02803963 0.04875168 0.02662174
-0.08148404 0.03478884 0.037068613 0.06687208 0.09656664 0.06413004 0.021549502 -0.020256486
-0.045925464 -0.035606433 -0.06445479 -0.0021601538 -0.007036978 0.045742832 0.088846035 -0.21190774
-0.048988327 0.027300354 -0.1657266 0.04639832 -0.101147525 0.026644291 -0.16156039 -0.07182842
0.03152611 0.032598797 0.0065852585 -0.00075633725 0.07903511 -0.054475714 -0.0019580966 -0.11038065
-0.0686087 0.060654365 -0.17593123 -0.008155202 0.09642076 -0.06672996 -0.016495287 0.0010091584
0.124290735 0.0884433 0.06334034 0.10229806 0.07793319 -0.05090446 0.14460681 0.017066645
0.0648703 0.07093165 0.07132378 -0.04147476 0.068093084 0.08061265 0.12847118 0.19109052
-0.09010688 -0.009557953 0.0235777 0.03186983 -0.023284541 0.08828694 0.010494705 -0.12267128
0.050705384 0.0326461 -0.090368725 -0.041152414 -0.029066147 0.045898613 0.0054983753 0.07022832
-0.06944737 0.023737652 0.0010599843 0.07572203 0.037204843 0.05319516 -0.08204754 0.0322256
0.00077374926 -0.062338524 -0.09161089 0.067280434 0.06566134 -0.030417908 0.034785308 0.09841248
-0.045512587 0.096691884 -0.07105091 0.04311844 -0.017887063 0.02166763 -0.0084772045 0.062401507
-0.017943112 0.00824687 0.053426713 0.14547458 0.08417604 -0.0158534 -0.046826765 -0.06987217
-0.057048842 -0.099409774 0.036263824 -0.016244423 -0.0085241515 0.0070263557 0.030015897 -0.07129709
-0.012922586 0.049433492 0.106827624 0.10197101 0.0560023 -0.024734078 0.029520271 0.075244024
-0.071876824 0.007240259 -0.031034363 -0.12589699 0.013159583 0.043158513 -0.021629414 -0.05794436
-0.021950766 0.05186928 -0.031503886 0.11148437 0.080069326 0.09022234 0.02480287 -0.022846285
0.15887386 -0.14557628 0.038532354 -0.1294341 -0.08564695 0.09963928 -0.054510735 -0.06460043
-0.012205105 -0.13188867 0.009959493 -0.058729764 0.031135965 0.04375475 -0.06527066 0.121115394
-0.043493148 -0.09841463 0.12282938 -0.026869502 -0.079618804 -0.057680596 -0.09119907 -0.035354212
0.072071865 -0.103656165 3.8561888e-05 0.105477646 -0.056421082 -0.022839671 -0.1180683 0.005910846
00000000: 0ecc be3d e8af 75bc ab01 5f3d 8b8c b23d
00000010: f946 5d3d 9052 a2bd 7cdc fe3b 43cc 7e3d
00000020: 9fb8 b1bc 0e56 a2bd e0cb 6f3d 4f6c 19bc
00000030: 553e 90bd 5707 403d 3c2c 56bd f752 823c
00000040: 1ac9 9e3d 1185 273d e884 ddbc 75ed 523e
00000050: 129e ae3c 7154 acbb c415 993d d09f c7bb
00000060: b166 ac3b 7732 083e 2f41 833a 0422 783d
00000070: 38d6 ab3d 6d8a 32bd a8db 173c 9b33 2c3b
00000080: b4c2 53bd d7fa c0bb 5ea2 c1bc 4b7e ffbd
00000090: 4649 58be 5fe3 01be 1466 67bd 9b93 0abe
000000a0: 0107 07be 98e3 c3bd be63 0ebe 8cc9 5abd
000000b0: edb9 273d db3b bd3c 286f c93d 74cd fc3d
000000c0: 7976 0e3c 72f2 f4bd f78b 713d d0a1 7d3d
000000d0: 2f62 f9bb 5d77 1f3d d33b 6d3d e074 47bd
000000e0: 2e38 7b3c 15df 933d e9db 87bd 376a 2e3d
000000f0: 412c a03d a7aa ccbd 36c9 31bd b3fc b0bc
00000100: ac06 83bd f2d3 06be 08c0 0f3d 58de 1dbe
00000110: 0d51 8b3c 4b22 8abd 35a0 e6bd e25d 2dbd
00000120: f79a a63c f7d3 2c3c 1cdc 59bd 1eb3 a4bc
00000130: 154b cd3d 1437 cebb 0ee9 ac3c f985 a5bc
00000140: ed6b 413d 7b63 84bc a6fb 94bd dc78 ecbd
00000150: d89b 35bd 5eb3 e5bc d7af 473d d615 da3c
00000160: 1be1 a6bd be7e 0e3d 42d5 173d 3bf4 883d
00000170: bbc4 c53d 9c56 833d 9588 b03c eef0 a5bc
00000180: 571c 3cbd 0dd8 11bd df00 84bd 5e91 0dbb
00000190: 7396 e6bb d65c 3b3d e9f4 b53d 58fe 58be
000001a0: fca7 48bd fea4 df3c 3cb4 29be 2a0c 3e3d
000001b0: 6f26 cfbd 2145 da3c 1670 25be c71a 93bd
000001c0: 8621 013d 5186 053d 27c9 d73b ef44 46ba
000001d0: 29dd a13d ed21 5fbd 6953 00bb 400f e2bd
000001e0: b882 8cbd b670 783d 5127 34be 659d 05bc
000001f0: 3f78 c53d b8a9 88bd 2021 87bc bd45 843a
00000200: 248c fe3d c321 b53d 95b8 813d a581 d13d
00000210: 709b 9f3d 3281 50bd cf13 143e 59cf 8b3c
00000220: b8da 843d 9d44 913d 3412 923d 70e1 29bd
00000230: 6374 8b3d 3f18 a53d f38d 033e 3cad 433e
00000240: f589 b8bd f698 1cbc 0526 c13c f089 023d
00000250: 39bf bebc c8cf b43d fcf1 2b3c 143b fbbd
00000260: 73b0 4f3d ebb7 053d 3d13 b9bd 6f8f 28bd
00000270: 211c eebc 2f00 3c3d b72b b43b ded3 8f3d
00000280: 6c3a 8ebd 7775 c23c 2cef 8a3a 2714 9b3d
00000290: 1b64 183d 2be3 593d 8a08 a8bd fefe 033d
000002a0: 6fd5 4a3a ae56 7fbd 7e9e bbbd 53ca 893d
000002b0: 7479 863d fa2e f9bc 0a7b 0e3d 7b8c c93d
000002c0: 686b 3abd 6506 c63d 2483 91bd f69c 303d
000002d0: e487 92bc 5080 b13c f9e3 0abc b998 7f3d
000002e0: 6ffd 92bc e11d 073c f8d5 5a3d 4af7 143e
000002f0: 7d64 ac3d fdde 81bc 6ccd 3fbd 2419 8fbd
00000300: 0cac 69bd 5a97 cbbd 6089 143d 0613 85bc
00000310: e2a8 0bbc 583d e63b e6e3 f53c 3504 92bd
00000320: 41b9 53bc c67a 4a3d 71c8 da3d 2dd6 d03d
00000330: ab62 653d 1f9f cabc 7fd4 f13c 8a19 9a3d
00000340: 2834 93bd b23f ed3b c73b febc 24eb 00be
00000350: 4b9b 573c fbc6 303d 2b30 b1bc 1157 6dbd
00000360: 18d2 b3bc e274 543d 380a 01bd eb51 e43d
00000370: 63fb a33d 7dc6 b83d 632f cb3c 2228 bbbc
00000380: d4af 223e f311 15be 1ad4 1d3d 5f8a 04be
00000390: ab67 afbd ae0f cc3d a646 5fbd 3b4d 84bd
000003a0: ecf7 47bc d30d 07be 242d 233c 9f8e 70bd
000003b0: da10 ff3c 2e38 333d a0ac 85bd 590b f83d
000003c0: df25 32bd 9c8d c9bd f88d fb3d 6e1d dcbc
000003d0: 2f0f a3bd 7d42 6cbd 94c6 babd 94cf 10bd
000003e0: 6a9a 933d af49 d4bd 83bd 2138 aa04 d83d
000003f0: cb19 67bd 431a bbbc cbcd f1bd c5af c13b

up_blocks.0.conv_block.conv2.weight f4 [6, 6, 3, 3]
-0.056325104 -0.16203175 0.023118272 -0.046951625 -0.19450918 -0.023289952 -0.022677716 -0.13257988
0.059556745 -0.05011738 0.11279124 0.012810708 -0.13436936 0.064430445 -0.0316078 -0.09155869
-0.08517672 0.049189866 0.0024115448 0.022754714 -0.09041105 0.073023826 0.08201123 -0.1621018
0.089991994 0.13860959 -0.04903563 0.06821386 0.05665035 0.042146876 0.05396243 0.052042976
0.08611162 0.028729806 0.0212219 -0.033213183 -0.047758564 -0.0021452738 -0.15787657 -0.021892412
-0.13918109 -0.077862434 0.010197601 0.09833619 0.07080787 -0.13160509 -0.07425531 -0.10418764
-0.15844975 -0.10309831 -0.09539004 0.10563241 0.1048208 -0.053697094 0.060965404 0.07047691
0.0018067086 0.016463103 0.10236246 -0.056112092 -0.043728307 0.097848706 -0.016651958 -0.005590805
-0.099155515 -0.07639095 -0.18932392 -0.18763284 0.013404954 0.010326607 -0.025335416 -0.068564184
-0.056190822 0.020531269 0.06358775 -0.22986121 -0.22502296 -0.18465024 -0.08905146 -0.10458986
0.006151371 0.10838983 0.07285545 -0.051501267 0.15657514 -0.0068184775 0.11840375 0.037545327
0.07579823 0.056516364 -0.041550547 0.07573729 0.051331177 0.01905387 -0.017913286 -0.05508575
-0.100270465 0.10986578 -0.023204962 0.0014800376 -0.02897202 -0.0821239 -0.012962087 0.049043894
0.08843027 0.05865198 0.17281714 0.015819788 -0.057121813 -0.050271325 0.04020311 -0.20837039
-0.012499435 -0.027183529 -0.12586594 -0.16241743 -0.0102783535 0.03693742 0.08746417 0.13167384
0.07523394 0.23460594 0.050364453 0.08536102 0.18137595 0.15360835 -0.0009322963 0.046014294
0.07208205 0.059967685 -0.025255341 0.097913966 -0.03082103 0.07547503 0.059069518 0.033188008
0.035337325 0.11070993 0.08859162 -0.052314363 -0.031836808 0.07772552 -0.11441612 0.09064676
0.010074119 0.066640824 0.07535127 -0.07551244 0.050783817 0.071630426 0.087852776 -0.07434681
-0.0057401676 -0.07572605 -0.17638259 -0.035460617 -0.15136558 -0.19507279 -0.18349172 0.0018903214
-0.12834263 0.011486483 -0.0068096602 -0.13185076 -0.07666847 -0.11771573 -0.0967865 0.08284417
-0.08370968 -0.12778042 -0.08294989 0.07437843 -0.0012473572 -0.122004054 0.19232053 0.18544008
0.08656559 0.105667174 0.033998918 0.029083425 0.00947509 0.060256235 -0.019318884 -0.015956413
0.025362892 -0.042338077 -0.08947164 0.18213207 0.041706976 0.18032621 -0.025012784 0.050296005
-0.103149116 -0.099653594 -0.08668146 -0.026875516 -0.0069713946 0.09877644 0.057348736 0.109783456
-0.10286099 0.03042072 -0.02541282 0.016951226 -0.031558715 -0.009704411 0.048601493 -0.09100192
-0.061055407 0.040606678 0.039615218 0.020113176 0.06792417 -0.1628253 -0.09869796 -0.23381582
0.0023189026 0.0041238056 -0.01608329 0.081137255 0.16598247 -0.054518826 -0.048343405 0.15135945
0.06069039 0.058125697 0.08967112 -0.13724084 -0.000627885 0.10107502 0.0036946065 -0.09412684
-0.1095916 0.034700383 -0.07508558 -0.093766674 0.06980961 0.06382393 -0.10255104 -0.06405396
-0.06593677 -0.052134678 -0.12335533 0.024762081 0.04960359 -0.058909707 0.09551602 0.14461322
0.041578513 0.052007675 0.010701574 0.107852876 -0.0012072754 0.16381796 -0.0028557647 0.13485464
00000000: 27b5 66bd a7eb 25be 8862 bd3c 5950 40bd
00000010: 6a2d 47be 92ca bebc 9ec6 b9bc 05c3 07be
00000020: c6f1 733d e247 4dbd 18ff e63d 01e4 513c
00000030: 1f98 09be 1cf4 833d 2e77 01bd 1f83 bbbd
00000040: 2271 aebd 507b 493d 020b 1e3b 1868 ba3c
00000050: 6e29 b9bd 848d 953d 81f5 a73d 04fe 25be
00000060: b94d b83d acef 0d3e 96d9 48bd b5b3 8b3d
00000070: 330a 683d 34a2 2c3d b607 5d3d 042b 553d
00000080: 4a5b b03d c55a eb3c 8dd9 ad3c 8c0a 08bd
00000090: 7c9e 43bd b997 0cbb 65aa 21be b757 b3bc
000000a0: 7d85 0ebe 5776 9fbd d713 273c 7c64 c93d
000000b0: b703 913d 7cc3 06be 2b13 98bd 5460 d5bd
000000c0: a740 22be 3525 d3bd da5b c3bd ce55 d83d
000000d0: 4aac d63d 7cf1 5bbd dcb6 793d 3356 903d
000000e0: 15cf ec3a a1dd 863c 69a3 d13d cbd5 65bd
000000f0: 741c 33bd e764 c83d b069 88bc 1233 b7bb
00000100: 0c12 cbbd dc72 9cbd 21de 41be d322 40be
00000110: 74a0 5b3c ee30 293c 388c cfbc 616b 8cbd
00000120: 5928 66bd 3131 a83c 4b3a 823d bd60 6bbe
00000130: 6b6c 66be f414 3dbe 9d60 b6bd 3533 d6bd
00000140: 7191 c93b 7dfb dd3d 3d35 953d fef2 52bd
00000150: 3c55 203e 896d dfbb aa7d f23d 21c9 193d
00000160: 1a3c 9b3d b47d 673d e830 2abd 271c 9b3d
00000170: a440 523d dd16 9c3c e2be 92bc 98a1 61bd
00000180: 9a5a cdbd 4f01 e13d 5518 bebc d2fd c13a
00000190: bb56 edbc 9330 a8bd ef5e 54bc 40e2 483d
000001a0: ee1a b53d 0f3d 703d faf6 303e 8098 813c
000001b0: 90f8 69bd 4ee9 4dbd 04ac 243d 0c5f 55be
000001c0: 6eca 4cbc feaf debc 00e3 00be c150 26be
000001d0: 8a66 28bc b14b 173d 6a20 b33d 82d5 063e
000001e0: 4014 9a3d 8a3c 703e f54a 4e3d c2d1 ae3d
000001f0: 9eba 393e 824b 1d3e 5865 74ba 7c79 3c3d
00000200: c19f 933d ada0 753d 4ae4 cebc 1e87 c83d
00000210: 627c fcbc a792 9a3d e1f2 713d 26f0 073d
00000220: dfbd 103d e3bb e23d 866f b53d 9647 56bd
00000230: 5067 02bd 8f2e 9f3d 0053 eabd 02a5 b93d
00000240: eb0d 253c fc7a 883d c451 9a3d 44a6 9abd
00000250: b102 503d f9b2 923d 28ec b33d 2443 98bd
00000260: 0418 bcbb 4216 9bbd a39d 34be 273f 11bd
00000270: 94ff 1abe 29c1 47be 41e5 3bbe a9c4 f73a
00000280: 406c 03be cd31 3c3c 9223 dfbb e303 07be
00000290: 5c04 9dbd f214 f1bd 0038 c6bd 34aa a93d
000002a0: fb6f abbd dfd8 02be a2e1 a9bd b853 983d
000002b0: 5d7e a3ba 43dd f9bd acef 443e 01e4 3d3e
000002c0: 4d49 b13d 0868 d83d 7342 0b3d 5d40 ee3c
000002d0: 683d 1b3c 3ecf 763d a342 9ebc 06b7 82bc
000002e0: d7c5 cf3c b16a 2dbd e83c b7bd d480 3a3e
000002f0: efd4 2a3d 6fa7 383e 9ce7 ccbc 2f03 4e3d
00000300: d83f d3bd 2f17 ccbd 0d86 b1bd 0b2a dcbc
00000310: 4c70 e4bb 4d4b ca3d 82e6 6a3d 26d6 e03d
00000320: c8a8 d2bd e034 f93c 8c2e d0bc 4cdd 8a3c
00000330: b643 01bd 40ff 1ebc 5c12 473d 375f babd
00000340: 3c15 7abd 3053 263d 9143 223d 63c4 a43c
00000350: d41b 8b3d adbb 26be 2822 cabd 6a6d 6fbe
00000360: bbf8 173b fd20 873b 1bc1 83bc 4a2b a63d
00000370: 4ff7 293e 224f 5fbd bc03 46bd f9fd 1a3e
00000380: 7d96 783d 3615 6e3d 7ea5 b73d dd88 0cbe
00000390: a698 24ba 6c00 cf3d 3621 723b 93c5 c0bd
000003a0: 9071 e0bd fd21 0e3d 78c6 99bd be08 c0bd
000003b0: 57f8 8e3d 1fb6 823d 4806 d2bd b92e 83bd
000003c0: db09 87bd 2c8b 55bd b8a1 fcbd d9d9 ca3c
000003d0: 222d 4b3d 4e4b 71bd e79d c33d 7d15 143e
000003e0: 3b4e 2a3d 0006 553d a855 2f3c f8e1 dc3d
000003f0: 713d 9eba e5bf 273e c827 3bbb 5617 0a3e

up_blocks.0.attention_gate.gating_conv.weight f4 [6, 6, 1, 1]
0.25442132 0.15018632 -0.37751067 -0.29010156 0.28499392 -0.2693598 0.2605294 0.14004228
0.49838564 -0.24863963 -0.22392692 -0.20096639 -0.14101171 0.18461579 -0.17355014 0.28141737
-0.3984632 -0.13682948 -0.05941842 0.31553385 0.2130344 0.4079046 -0.12099163 -0.10019781
-0.044933666 0.07940445 -0.38872835 0.2543323 -0.17332108 -0.315425 0.32095486 0.047402553
-0.17309394 -0.25785664 -0.008925413 0.36995375
00000000: 8343 823e 71ca 193e 1449 c1be 3188 94be
00000010: b9ea 913e 87e9 89be 1c64 853e 3e67 0f3e
00000020: 672c ff3e 639b 7ebe 194d 65be 22ca 4dbe
00000030: 6065 10be ec0b 3d3e 21b7 31be f015 903e
00000040: 5e03 ccbe 071d 0cbe bb60 73bd a78d a13e
00000050: b125 5a3e dfd8 d03e 76ca f7bd 8234 cdbd
00000060: 5d0c 38bd cd9e a23d 6707 c7be d837 823e
00000070: 157b 31be 637f a1be 3254 a43e 2e29 423d
00000080: 8a3f 31be c905 84be e53b 12bc 946a bd3e

up_blocks.0.attention_gate.gating_conv.bias f4 [6]
0.08811407 -0.09653137 -0.31962943 0.36024556 -0.403542 -0.3046368
00000000: 2675 b43d 3db2 c5bd 78a6 a3be 1b72 b83e
00000010: 0f9d cebe 5bf9 9bbe

up_blocks.0.attention_gate.input_conv.weight f4 [6, 6, 1, 1]
0.18389158 0.027502721 -0.19339548 0.26826978 0.38902897 0.14749655 0.15579154 -0.17601213
0.22229804 -0.31678098 -0.4705074 -0.029010447 -0.4850421 -0.34075293 -0.2899107 0.022552613
-0.14457195 0.24811842 -0.1464137 0.11959258 -0.13208573 0.3245941 0.027874736 -0.3090391
0.16324335 -0.26056263 -0.115931496 -0.48640463 0.045428168 -0.10188181 0.023052048 -0.055078015
0.062582955 0.3176996 0.17664427 0.02625223
00000000: 134e 3c3e 634d e13c 7709 46be a85a 893e
00000010: ce2e c73e 5609 173e d187 1f3e 863c 34be
00000020: 19a2 633e 1e31 a2be 59e6 f0be 51a7 edbc
00000030: 7057 f8be 2b77 aebe 2d6f 94be 42c0 b83c
00000040: ab0a 14be c112 7e3e 79ed 15be f4ec f43d
00000050: 7b41 07be 3331 a63e 8f59 e43c 5f3a 9ebe
00000060: 4429 273e 7768 85be 7e6d edbd 070a f9be
00000070: e312 3a3d 69a7 d0bd a6d7 bc3c 7c99 61bd
00000080: 7e2b 803d 86a9 a23e 3ce2 343e eb0e d73c

up_blocks.0.attention_gate.input_conv.bias f4 [6]
-0.16303262 -0.021583164 0.1399898 -0.007648518 0.20850812 -0.17172374
00000000: 06f2 26be 2dcf b0bc 7c59 0f3e 6ba0 fabb
00000010: 2783 553e 59d8 2fbe

up_blocks.0.attention_gate.conv.weight f4 [1, 6, 1, 1]
0.27862594 0.21772304 0.38855478 -0.10730252 0.4236687 0.19270569
00000000: 0fa8 8e3e caf2 5e3e a7f0 c63e 6cc1 dbbd
00000010: 1beb d83e a454 453e

up_blocks.1.transpose_conv.weight f4 [6, 3, 2, 2]
0.112519115 0.14483999 0.14242776 0.01617538 -0.08100067 0.15040493 -0.07352751 0.09762419
0.30124998 0.22038493 -0.0007089506 0.075059876 -0.112724416 0.1711108 0.18265086 0.15940459
0.34748057 0.15136425 0.13550286 0.11646043 0.2472818 0.21199638 0.28597167 0.09159753
-0.045614053 -0.2615809 0.1513838 -0.048207127 -0.078553244 0.12695853 0.21398896 -0.08677341
0.4044214 0.182852 -0.2777718 -0.14282058 0.1394756 -0.19551799 0.2478113 0.071849644
-0.03996712 -0.10989467 -0.105333574 0.09135472 -0.02802569 -0.19539237 -0.22313333 0.14066657
0.28237557 0.17087656 -0.15015358 0.23226003 -0.12703003 -0.095049515 -0.31677887 -0.23697957
-0.23471837 -0.106860764 -0.18793446 -0.032134376 -0.17982274 -0.31547728 0.23465948 0.18306638
-0.4124444 -0.18257365 0.14780423 -0.186828 0.2531248 0.25413144 -0.23393978 0.32546186
00000000: 6c70 e63d ef50 143e 95d8 113e 3b82 843c
00000010: aee3 a5bd c003 1a3e 9795 96bd 31ef c73d
00000020: 703d 9a3e 96ac 613e dfd8 39ba feb8 993d
00000030: 0fdc e6bd ab37 2f3e d408 3b3e f53a 233e
00000040: f9e8 b13e 3bff 1a3e 43c1 0a3e ce82 ee3d
00000050: 7137 7d3e 9415 593e e16a 923e 7c97 bb3d
00000060: cdd5 3abd efed 85be 5b04 1b3e d674 45bd
00000070: 86e0 a0bd 6b01 023e ec1f 5b3e 42b6 b1bd
00000080: 5210 cf3e 8e3d 3b3e 1b38 8ebe 8f3f 12be
00000090: b1d2 0e3e de35 48be 3fc2 7d3e e825 933d
000000a0: 90b4 23bd 7510 e1bd 21b9 d7bd 2f18 bb3d
000000b0: 2296 e5bc f014 48be 107d 64be e60a 103e
000000c0: 8893 903e 44fa 2e3e dcc1 19be 93d5 6d3e
000000d0: 2914 02be 52a9 c2bd d730 a2be c6aa 72be
000000e0: 035a 70be d1d9 dabd e471 40be 569f 03bd
000000f0: 7423 38be 3d86 a1be 934a 703e c175 3b3e
00000100: ea2b d3be 96f4 3abe fe59 173e d74f 3fbe
00000110: 9399 813e 841d 823e e98d 6fbe f0a2 a63e

up_blocks.1.transpose_conv.bias f4 [3]
-0.4341767 0.14975926 -0.3814291
00000000: 694c debe 7e5a 193e ad4a c3be
