saved_models/conv_autoencoder.pth (torch, 16364 bytes, 8 tensors)

encoder.0.weight f4 [16, 3, 3, 3]
000000 cd ed da 3d 31 81 70 3e ea 78 3d 3e 4d 2c 29 bd
       0.10689888 0.23486783 0.18503156 -0.041302014
000010 12 60 22 3d e6 08 52 bd 78 41 4d 3e 40 6f 27 3e
       0.0396424 -0.051278017 0.20044506 0.16351032
000020 d9 18 25 bb bb e0 4e 3e fb df 9b 3e 07 fd b7 bd
       -0.0025191812 0.20202915 0.3044432 -0.08983808
000030 95 0b 85 3e 89 e0 70 3e 02 38 83 3e cc f9 2b 3e
       0.259854 0.23523153 0.25628668 0.16794509
000040 ae 3e 92 3e 14 09 11 3d 96 c6 84 3d 1a eb ec 3c
       0.28563446 0.03540905 0.0648319 0.028920699
000050 80 81 94 3c 92 23 21 bd 5e f6 08 3c 9a 85 2f 3e
       0.018128157 -0.039340563 0.00835952 0.17140809
000060 75 72 7a 3e 17 2e 37 3e da 6f 06 3d 13 a4 11 3e
       0.24457724 0.17888676 0.032821514 0.14222746
000070 3f d2 96 bd eb be 24 3e e5 9c 74 3d dd ce 8e 3e
       -0.0736432 0.16088454 0.05971994 0.278922
000080 5e 27 d5 3c 7a e2 74 3e 9c 03 b1 bb f4 8e b6 3d
       0.026019748 0.23914519 -0.0054020416 0.08913985
000090 be f0 3f 3e 58 69 c4 bc 2a 5c 0b 3e e1 83 f2 3b
       0.1874418 -0.023976013 0.13609377 0.007400975
0000a0 32 e8 5c 3e 43 e3 ce 3b 45 6e 55 3e a5 e9 24 3e
       0.2157295 0.006313713 0.20842846 0.16104753
0000b0 c2 4a 6c 3e 79 6a 93 3d 30 8d 8a 3e 71 a2 2e 3e
       0.23075393 0.071980424 0.27060843 0.17054154
0000c0 f9 a0 73 3e 82 9b 81 3e 3b ad 3e 3e 70 45 68 bd
       0.23791875 0.25313956 0.1862077 -0.056706846
0000d0 df 60 4a bd 22 ed 81 3e e1 df 0e 3d bc 0e 8e be
       -0.04940879 0.2537623 0.034881476 -0.27745616
0000e0 1b 44 28 be 2d eb b5 3d 26 57 9b be f9 76 6b be
       -0.1643223 0.08882747 -0.30339926 -0.22994603
0000f0 1c b7 d1 3d c2 f5 46 3e 0e ad 26 3e 88 6e 16 be
       0.102400035 0.19429687 0.16276953 -0.14690602
000100 75 2d 0f be 16 70 a4 bc b1 31 09 be f6 7d 59 be
       -0.13982184 -0.020072978 -0.13397862 -0.21239457
000110 57 57 19 be 3c a8 0f 3d 05 b4 7b 3e 00 19 2e 3e
       -0.14974724 0.03507255 0.24580391 0.17001724
000120 97 8c 66 be 81 82 df bd da 6c e0 3b de 00 b2 bd
       -0.22514568 -0.109135635 0.0068489136 -0.08691572
000130 3c d2 7a bd 97 a7 28 3d 0b 28 c8 3e 23 97 f9 3d
       -0.06123565 0.04117545 0.3909305 0.1218703
000140 0d b7 aa 3e ee 75 5a 3d fc 18 56 3d 3c 3c da 3d
       0.33342782 0.053335123 0.05226992 0.1065602
000150 35 13 82 3d 4b 19 8f bb f9 25 81 3e 87 12 2c 3e
       0.0635132 -0.004367029 0.25224283 0.16803943
000160 b5 d5 95 bb cf a3 7f 3e 68 3c 6c bd 27 2f 17 3e
       -0.004572595 0.24964832 -0.057674795 0.14764081
000170 d5 c8 0f 3e 26 1e 16 3e dc d8 6b 3e c0 7d 76 3e
       0.14041455 0.14659938 0.23031944 0.24071407
000180 ba 9e 2d bd a1 57 83 3e 4b 47 17 3e 9b 72 a6 bc
       -0.0423877 0.25652793 0.1477329 -0.02031832
000190 e7 d0 59 3e 3c 21 06 3e b0 01 0f 3e 86 3f 72 3e
       0.21271096 0.13098615 0.13965487 0.23657045
0001a0 61 b6 8e 3e 6c b0 44 3d 33 31 4b 3d 5b 0e 24 3e
       0.2787352 0.04801981 0.049607467 0.16021101
0001b0 16 c8 19 bc f3 85 37 be 3d 56 bd 3c e1 c4 48 be
       -0.009386083 -0.17922191 0.02311241 -0.19606353
0001c0 a5 94 c8 3d 32 62 5c 3c 00 1e 61 be 35 40 ff bd
       0.09793977 0.013451146 -0.219841 -0.124634184
0001d0 78 fc 12 be fe ce 6e be 9c f0 90 3c c4 64 00 be
       -0.14354122 -0.23321149 0.017692856 -0.12538439
0001e0 8d e7 11 be 6b de cf 3d 3f 15 31 3d e8 79 84 be
       -0.14248486 0.10149845 0.043233152 -0.25874257
0001f0 78 a7 92 be 5f c1 b9 bc c0 5b ce bd f3 45 da bd
       -0.28643394 -0.022675214 -0.10076094 -0.10657873
000200 74 d2 b1 3d 60 19 88 be d8 28 30 bd 3b 52 1d be
       0.08682719 -0.2658186 -0.0430077 -0.153634
000210 20 10 90 be ac a3 19 be b1 d5 d9 bd 41 71 a2 bd
       -0.28137302 -0.15003842 -0.106364615 -0.07931758
000220 5e ab 50 be 09 4a 33 be 19 cf af bd a5 23 11 be
       -0.20377871 -0.17508711 -0.085844226 -0.14173754
000230 e2 17 52 bd 7c bb 8f bd ec 9f 8b bd ec 15 8b bb
       -0.051292308 -0.07018182 -0.06817612 -0.0042445567
000240 5e d9 40 be 31 f9 74 be 47 28 31 be 72 ba 88 bc
       -0.18832919 -0.23923184 -0.17300521 -0.016690467
000250 64 1e ae 3c b1 1e 3b be c5 0c f4 bb 13 a9 1e 3d
       0.021254726 -0.18273427 -0.0074478113 0.03873546
000260 10 14 0b 3e 41 ff c9 3d 9a 8d 56 be 69 f5 a4 3d
       0.13581872 0.09863139 -0.20952454 0.08054621
000270 e1 8a d2 bd b1 ff 80 be 3d fc 58 be 33 e4 6c 3d
       -0.10280395 -0.25195077 -0.21189971 0.057834815
000280 c8 94 6d 3d 36 b8 2d be 0e 25 0d bd c3 ec 9d 3e
       0.058003217 -0.16964802 -0.034459166 0.30844697
000290 52 b8 60 3e ee 27 49 bd 3e 0a 08 3d 56 50 0a 3d
       0.21945313 -0.049110346 0.033212893 0.03376802
0002a0 4d 0d 2d 3e 4d 9c 1c 3e 18 7e 86 3d 62 65 55 3e
       0.16899605 0.15293999 0.06567019 0.20839456
0002b0 33 9d aa 3e 8a f3 8c 3e 84 13 2d 3e 83 ff 0a 3e
       0.33323058 0.27529556 0.16901976 0.13574032
0002c0 42 50 99 bc bb 5f 75 3d c5 93 67 bd 99 62 48 3e
       -0.018715028 0.05990575 -0.05653741 0.19568862
0002d0 77 46 49 bc fc 8f e2 3d f6 bd 96 3e b7 ed 15 3d
       -0.0122848665 0.11062619 0.29441804 0.036603656
0002e0 b2 fd f0 3c 25 a1 8b 3e 0e 5f 1b be 80 f7 ff 3d
       0.029417846 0.2727138 -0.15172979 0.12498379
0002f0 fd 95 36 3e 2b a0 5d 3d d4 58 b8 3c 76 2d 78 3d
       0.17830653 0.054107826 0.022503294 0.06059023
000300 63 37 c6 bd 8b 6f 8e be 51 45 ce bd 95 87 54 be
       -0.09678533 -0.27819476 -0.10071815 -0.20754845
000310 51 75 0d bd d1 f3 90 3d 54 25 bc bd 6d 82 83 3c
       -0.03453571 0.07077754 -0.09186807 0.016053403
000320 b9 a3 32 3e a5 66 1f be 02 8a 82 be cf fa 6a bd
       0.17445268 -0.155665 -0.25495917 -0.057368096
000330 9c 1e 83 be 76 dd a6 bd 34 45 0b be 55 06 22 be
       -0.2560929 -0.08147709 -0.13600618 -0.15822728
000340 5f 9a 0f bd b9 af 92 3d 93 b8 8f bd f9 76 07 be
       -0.03505933 0.07162423 -0.070176266 -0.13228978
000350 9f 13 8c bd 71 15 81 be 1d 1e b1 bd 86 dd 3b bd
       -0.0683968 -0.2521167 -0.08648322 -0.045865558
000360 8e 9e 74 bd d9 66 b0 bd f7 0e 7e bd ac 12 b0 bd
       -0.059721522 -0.08613367 -0.06202599 -0.085973114
000370 e1 1e 51 bd 4f 39 b9 bc ed 4f 36 be 4d 86 92 bd
       -0.05105484 -0.022610335 -0.17803927 -0.07154522
000380 06 d2 83 be e4 f0 5f be a7 01 b7 bd bc 2d 66 be
       -0.25746173 -0.21869236 -0.08935862 -0.22478384
000390 6a e3 aa 3d 94 d3 09 be 53 4a 06 be d3 49 96 3d
       0.08344157 -0.13459617 -0.1311429 0.073382996
0003a0 e5 79 7c be 9a db e9 bd 52 1e 88 3c 7b 04 21 be
       -0.24655874 -0.11418839 0.01661602 -0.15724365
0003b0 7d f6 44 bd da 16 a8 bd f0 ae 7c 3d 4b 20 c8 bd
       -0.048086632 -0.082074836 0.06169027 -0.097717844
0003c0 05 31 60 bd 75 1f 80 be fe 7e 50 be 8d e1 33 be
       -0.05473425 -0.25024 -0.20360944 -0.1756651
0003d0 0d 63 23 be f5 5e 4b be bf e9 c7 3a db 01 a5 ba
       -0.15955754 -0.19860442 0.0015252157 -0.0012589054
0003e0 e1 21 58 bd 7f 5a e5 3c d0 ce 98 3d cc f1 19 be
       -0.052766684 0.027997253 0.07461321 -0.15033644
0003f0 26 1a 02 3d ae 8e 5d 3d c0 a3 51 be 43 eb 49 be
       0.03176322 0.054091148 -0.20472622 -0.19718651

encoder.0.bias f4 [16]
000000 cd 1c 28 3f 69 fb 5d 3e 13 6f d2 3e 67 da 71 be
       0.65668947 0.21677937 0.41100368 -0.2361847
000010 94 83 bd 3e 29 90 a7 3e 68 2d a2 be 81 0f bf 3e
       0.3701445 0.32727173 -0.31675267 0.37316516
000020 bb 48 d3 3e 52 8c 52 3e ff 27 6d 3e 07 cb e9 3e
       0.41266426 0.2056134 0.23159789 0.4566271
000030 d8 43 5e 3f 77 ec 9a 3e 29 c8 ac 3e 95 88 c4 be
       0.8682227 0.30258533 0.3374646 -0.38385454

encoder.3.weight f4 [8, 16, 3, 3]
000000 f9 31 93 3d 8c 18 c8 3c 9c 94 08 3c 88 6f 29 3e
       0.07187266 0.024425767 0.0083362125 0.16546452
000010 bf b6 0c 3e 63 e9 14 3e a4 bb e5 3d ae 09 4f 3d
       0.13741587 0.14542155 0.1121743 0.05054634
000020 e0 12 a7 3d 65 32 d1 3d 74 d1 3e 3d 7e d9 59 3d
       0.08157897 0.1021469 0.04658647 0.053185932
000030 a3 07 d0 3d 41 f4 07 3e ce fc df 3c e7 ce ad 3d
       0.101577066 0.13276769 0.027342226 0.08486729
000040 44 47 d5 3d 78 4e a4 3d 65 0e 46 3e 88 81 a5 3d
       0.104139835 0.08022779 0.19341429 0.08081347
000050 bc 36 2d 3d 45 7e ba 3e 39 2b 40 3e fa 0f 28 be
       0.042288527 0.3642446 0.18766488 -0.16412345
000060 7a a6 3f be 1d 77 0d bf 8e ef aa be 22 0a 55 3d
       -0.1871585 -0.5525988 -0.3338589 0.052011617
000070 b8 27 e7 3d 0a 44 09 3e eb 16 ed 3d 1d c9 d5 3d
       0.112868726 0.13404861 0.11576637 0.1043875
000080 77 04 76 3d cf 84 89 3d be b1 05 3e e1 18 de 3d
       0.06006285 0.06714784 0.13056085 0.10844589
000090 f2 eb d1 3d b9 d1 b8 3e 8f ce a2 be 8e f7 9d bc
       0.10250081 0.36097506 -0.31798217 -0.019283082
0000a0 45 d7 d9 3d fd 85 18 bf 9c c1 54 3e 60 b6 e8 3e
       0.106367625 -0.5957945 0.20776981 0.4545164
0000b0 f3 b1 ef 3e da f8 63 3e 3a 36 22 ba f7 3e b2 bd
       0.46815452 0.22262898 -0.000618789 -0.08703416
0000c0 41 08 e8 3e 18 0d f5 3d 0d 71 1b bd 5d a6 34 be
       0.45318797 0.11965388 -0.03794961 -0.17641588
0000d0 04 97 17 bf 37 50 ab bc c6 70 1e 3d 8c a2 2c 3d
       -0.59214807 -0.020912273 0.038681768 0.042147204
0000e0 0a d7 d8 3d a0 8c 81 3d d9 42 db 3d eb d6 55 3d
       0.105878904 0.0632565 0.107061096 0.052206915
0000f0 33 f7 1e 3e 7f 94 b1 3d d6 86 fe bc 8b 3c 3b 3e
       0.15523987 0.086709015 -0.031070154 0.18284814
000100 2b d1 e4 3e 80 3d 70 be ab 96 fc bd b1 ad 06 bd
       0.44690832 -0.2346096 -0.12333425 -0.03288049
000110 21 89 2a bf f6 6f 1a 3e f5 d5 a5 3e ce d5 a3 3e
       -0.6661549 0.15081772 0.323898 0.31999058
000120 e5 b3 13 3e 8c fd d5 3b c5 10 54 bd 68 5f 95 3e
       0.14424093 0.0065304693 -0.051773805 0.29174352
000130 75 25 8d bd 7c be 44 3d 30 5b 29 3e 8d 42 6f 3c
       -0.0689191 0.048033223 0.16538692 0.014603269
000140 7e 1a fb 3e cd e1 0b bc 2d de eb bd 81 50 7e bd
       0.4904365 -0.008537722 -0.11516986 -0.062088493
000150 11 c8 18 3e b8 44 7d 3c b7 70 a6 3e 60 03 0f be
       0.1492007 0.015458278 0.3250787 -0.13966131
000160 79 6f 14 bf 6c af 5e 3e d6 07 da 3d a5 b3 2c 3e
       -0.57982594 0.21746606 0.10646026 0.16865404
000170 bd 48 02 be 04 4c 08 3e 06 a6 a9 3e 92 01 9c bd
       -0.1272306 0.13310248 0.33134478 -0.07617487
000180 8e 85 92 be 35 7a 0a bf e6 e4 df be 9b 02 ed 3c
       -0.2861752 -0.54092723 -0.43729323 0.028931906
000190 1b 7a 29 bd 1c 91 2f 3c fd fe cb 3d 94 a3 5f bd
       -0.041376214 0.010715749 0.099607445 -0.05459936
0001a0 4e ee 34 bd 33 87 05 bd bf d7 ce bd 23 e7 c7 3e
       -0.044172578 -0.03259964 -0.10099744 0.3904353
0001b0 bc b9 c4 3d 4d d7 7a 3d 5d e7 82 3d 90 2d eb 3d
       0.096057385 0.061240483 0.06391785 0.114833
0001c0 48 85 9c 3d f3 d2 31 3d e2 90 07 3d 5c 64 81 3d
       0.07642609 0.043414067 0.033097155 0.0631797
0001d0 d3 52 b6 bc 32 d7 13 bc d6 0a 16 3e f9 56 0d be
       -0.02225629 -0.0090234745 0.14652571 -0.13802709
0001e0 93 60 a1 3c a2 89 1d 3e 1d 83 15 be f4 73 12 be
       0.01969937 0.15384534 -0.14600797 -0.14302045
0001f0 9d ef a0 be 4a 4b 8d be b4 17 c8 3d 13 76 71 3e
       -0.3143281 -0.27596503 0.09770146 0.23580198
000200 6b 93 22 be 0c 77 23 3e f6 e2 b6 3d 5e 55 b2 be
       -0.15876548 0.15963382 0.08930008 -0.34830755
000210 bb 75 0c be 88 6b 97 be a8 98 2f bf 16 a9 ed 3d
       -0.13716786 -0.29574227 -0.6859231 0.11604516
000220 62 18 fc 3d 1a a9 08 3d 25 bd 97 3d 23 2a 41 3d
       0.12309338 0.033364393 0.07409123 0.047159325
000230 3a c2 05 3e ec 39 ef 3d e5 ed 7f 3b 2d 46 ad 3d
       0.13062373 0.116809696 0.0039051708 0.084606506
000240 a0 40 b1 3d a3 2a 51 bd 38 54 06 bc 8b c2 4c 3e
       0.08654904 -0.051066052 -0.00819879 0.19996087
000250 1e 99 19 3e c9 a4 b9 3b f5 e6 e5 3d f8 e5 94 3b
       0.14999816 0.005665396 0.11225692 0.004544016
000260 2f 9a e9 3d 41 51 b3 3d c6 5c 48 3b 51 ed b9 3d
       0.11406361 0.08755732 0.0030572875 0.09078468
000270 3f b0 e6 3d c3 2f 6f 3d db 95 69 3d 62 f8 1a 3e
       0.11264085 0.05839516 0.05702768 0.15133813
000280 b9 65 00 3e b6 dd 61 3d 1e 9a 14 3e 7d 0f 27 3e
       0.12538804 0.05514308 0.14511916 0.16314502
000290 69 9f c6 bd 89 26 dd be 53 c1 04 3e 19 d2 02 3e
       -0.09698374 -0.43193462 0.12964372 0.12775458
0002a0 22 14 d6 be 03 6d 43 be 53 2a 86 be b4 cd a6 3c
       -0.41812235 -0.19084553 -0.26204166 0.020361759
0002b0 32 86 6d bd 4f 72 7b 3d 3b 57 a3 3c 4a 44 fd 3d
       -0.057989307 0.06138831 0.019939056 0.12366541
0002c0 84 5b 83 bc 71 fe de 3d 8f 97 69 3d 0b d9 19 3d
       -0.016034849 0.108883746 0.057029303 0.037560504
0002d0 09 85 d8 be 5b a5 ba 3d 91 ec 91 3e 05 05 1b bf
       -0.42288998 0.0911357 0.28500798 -0.60554534
0002e0 79 aa c6 be f3 b8 22 bc d8 11 97 3e e2 77 55 3e
       -0.38801935 -0.009931791 0.295058 0.20846513
0002f0 59 9e 9c 3e b9 b7 0f be f3 91 fb 3e c9 dd dd 3c
       0.3058956 -0.14034928 0.49134788 0.027083294
000300 79 24 1c bf 61 e9 c8 3e 3e 84 3a 3d 96 64 9e bd
       -0.6099315 0.39240554 0.045536272 -0.07734029
000310 9f 23 94 3e ff 8e a6 bd 76 b1 92 3b f3 f0 fd bd
       0.28933427 -0.08132743 0.0044767214 -0.12399473
000320 7d 6c d1 bc 88 2f 16 3e c8 c8 f4 3d 72 e9 c8 3d
       -0.025564427 0.14666569 0.119523585 0.09810151
000330 b2 21 e7 3d 23 89 51 bc 21 2b 0b 3e ff 9f 19 bf
       0.11285724 -0.012789044 0.13590671 -0.6000976
000340 91 0a 0f be 1e a2 df 3d b7 86 18 bf ec 86 6a be
       -0.13968875 0.10919593 -0.5958056 -0.22903031
000350 cd 67 94 3d 00 7b 6b 3e df ad a0 3e d4 5b 20 3e
       0.07246361 0.2299614 0.31382653 0.1566003
000360 5f 3c 38 be b0 e7 ee 3e a0 3b e0 3c 58 43 14 bf
       -0.1799178 0.4666114 0.027372181 -0.5791526
000370 88 77 68 3e 4d 3a e0 bd 4d 4d d5 3d 87 e7 b2 3e
       0.22701848 -0.1094862 0.104151346 0.34942266
000380 f3 fc f1 bd 5b 28 c2 bb 10 aa 0c 3f 15 64 09 3e
       -0.11815824 -0.005925221 0.54946995 0.13417085
000390 68 c6 05 bf f6 c1 ec 3e 5a 50 3e bd b1 bd 37 3d
       -0.5225587 0.4624173 -0.046463348 0.04485864
0003a0 0c 6c f5 3e 40 5c 8d bc 8e 90 4b bd 83 ae 9e 3e
       0.47933996 -0.017255902 -0.049698405 0.30992517
0003b0 d4 e1 ac 3e c5 3c 4a bf 3a 43 1c bd ca cb 70 3e
       0.33766043 -0.78998977 -0.03815005 0.2351524
0003c0 8e 33 4c be 32 9f 59 bb 20 d8 89 3e cc f7 57 be
       -0.19941542 -0.003320646 0.26922703 -0.21090621
0003d0 0a 8b ef 3d 4e 12 36 be a1 72 00 bf 15 d2 1d bd
       0.116964415 -0.1778042 -0.5017491 -0.038530428
0003e0 b5 90 9e be 0f 22 61 bc 84 69 f2 3d e3 dd 8f be
       -0.30969778 -0.01374103 0.11836532 -0.28098974
0003f0 8f 4c 62 3d 8a b9 2f bd 38 66 a9 bc af 21 44 3e
       0.055248793 -0.042901553 -0.020678625 0.19153474

encoder.3.bias f4 [8]
000000 9f 23 0b bd 89 87 e6 bc 45 6d 88 3e 03 a9 53 bc
       -0.033969518 -0.0281408 0.26645866 -0.0129187135
000010 d7 de 64 3e d7 61 b3 3c cf 59 4c 3d 10 7c c3 3e
       0.22350632 0.02189724 0.049890336 0.3818059

decoder.0.weight f4 [8, 16, 3, 3]
000000 3d dd 9c 3d 04 db a4 bd 1c d9 0f bb 3c c1 b7 3c
       0.07659385 -0.080495864 -0.0021949476 0.022431009
000010 12 06 11 3d 14 73 be be 5c 1b d3 3b de 65 e4 bc
       0.03540618 -0.37197173 0.0064424705 -0.027880605
000020 36 10 80 bd 2d f4 c6 3c e9 11 34 3e 4d a5 31 bb
       -0.06253092 0.024286354 0.17584957 -0.0027106584
000030 c4 69 45 3e 56 3b 3e 3e 6d b5 e8 3d 6d f4 22 bd
       0.19278628 0.18577322 0.11362729 -0.039783884
000040 db 96 49 3d 03 5a ab bd e5 7a 3a be ae 80 40 3d
       0.049216133 -0.08366778 -0.18210943 0.04699772
000050 06 cf 29 be d7 42 9d bd 1a 3b ca 3d 38 2b 4c bd
       -0.1658288 -0.07678764 0.09874554 -0.049845904
000060 d1 e3 fa 3d f4 41 0a 3e 46 d6 7a be d2 4a 9e bb
       0.12250484 0.13501722 -0.24495801 -0.0048306966
000070 4d b6 79 be 09 a2 81 3d 38 7c b4 3d d5 c2 8d 3d
       -0.24385948 0.06329734 0.08812755 0.06921927
000080 16 b9 ce bb 2d ab a0 3c cc ce 90 bd 76 df e9 3c
       -0.006308685 0.019612873 -0.070706934 0.028548937
000090 f3 56 de 3d f4 8c 7d bd 54 75 98 3d 66 14 d0 3c
       0.10856428 -0.061902 0.074442536 0.025400352
0000a0 10 49 98 3d ed ae ff 3c 53 cc d6 3d d1 bd 99 bd
       0.074358106 0.03121134 0.104881905 -0.07506908
0000b0 b0 b1 01 3e a9 f5 e5 3c c7 e0 e7 3c 47 1d c3 3c
       0.12665439 0.028071241 0.028305424 0.023817671
0000c0 64 13 28 3d fb af d8 3c ba 37 ec 3c f8 8f dd 3c
       0.041034117 0.026451102 0.028835166 0.027046189
0000d0 5f da db 3d a7 48 b3 3d 6f 90 3b 3d 39 7e 6c 3d
       0.1073501 0.08754092 0.04579204 0.057737563
0000e0 f3 7c 9b bc c0 14 cb 3c 00 01 04 3e d9 ae a9 3d
       -0.018980479 0.024790168 0.12891006 0.08285303
0000f0 99 06 02 3e f3 ad 22 3e 2e 06 45 bc a6 30 f4 bd
       0.1269783 0.15886669 -0.012025399 -0.119233415
000100 37 db 4b 3e d7 8b 26 3d bd 7e 1e 3e d3 52 b0 3e
       0.19907843 0.040660705 0.15478034 0.3443819
000110 e3 6a f0 3d 10 e8 08 bd 8e 38 ad 3d 8b 49 28 be
       0.11739137 -0.033424437 0.084580526 -0.16434304
000120 fc 9a 5d 3d 90 a0 9d bc e4 40 d5 3d 56 db 20 bd
       0.054102883 -0.019241601 0.104127675 -0.039271675
000130 64 61 9c 3d 80 88 11 3d cf fb c7 3d 10 2b 31 bd
       0.07635763 0.035530567 0.097648256 -0.04325396
000140 e8 22 19 3e 1b 4b 91 bc 8b 92 90 be 3f e1 8f 3d
       0.14954722 -0.017736008 -0.28236803 0.07025384
000150 9c aa a3 3d ad ac 12 bf 0a e6 9c 3d a5 18 60 3d
       0.079915255 -0.5729473 0.07661064 0.054711003
000160 02 37 95 3d c5 a3 99 3d 95 d9 a6 3c 84 35 50 bd
       0.072858825 0.0750194 0.020367423 -0.050832286
000170 6a 4b be 3d fb 2d 8e 3b f7 64 0d 39 a2 86 0f 3e
       0.09291728 0.0043389774 0.0001348442 0.14016202
000180 e5 7c b3 3d 21 b5 46 bd a4 41 67 3d 76 d4 b0 3d
       0.08764056 -0.04851258 0.056459084 0.08634274
000190 46 cc 2f 3e 43 85 27 be d5 3b 74 3e fe 1e c3 3e
       0.17167768 -0.16359429 0.23850949 0.38109583
0001a0 d4 47 bd 3d 49 62 73 3c 8b 74 31 3e ba 44 d4 be
       0.09242216 0.014854976 0.17329614 -0.41458684
0001b0 d3 e5 13 3d 4a 8f ae 3d 7b e3 27 3d f1 8b 80 3d
       0.03610785 0.08523424 0.040988427 0.06276692
0001c0 23 d6 be 3d c5 36 7e 3d ac c2 c6 3d a8 c3 a6 3d
       0.09318187 0.06206395 0.097050995 0.08142787
0001d0 cb 39 c8 ba 45 37 0d 3d 02 48 89 3d bc d1 7b 3d
       -0.0015276013 0.034476537 0.067031875 0.061479315
0001e0 d8 93 5a bd 2c bc 97 3d 08 d5 01 bd 6f 07 73 3d
       -0.05336365 0.07408938 -0.031697303 0.05933326
0001f0 5c ba ea 3d 79 fc 3a bc b2 8b bd bc 4f 6e 8b bd
       0.114613265 -0.011412733 -0.023137901 -0.06808149
000200 27 6c 96 3d f5 96 a0 bc 03 72 ce bd 2b b8 5e 3d
       0.07344847 -0.019603232 -0.1008034 0.054374855
000210 3c 1f d7 3c 86 0b b2 3d ab a9 73 3d 2b c6 da 3d
       0.02626001 0.08693604 0.05948798 0.10682329
000220 ff ff e0 bd 83 5d b1 3d 81 75 59 3d 4a 67 87 bd
       -0.109863274 0.08660414 0.053090576 -0.06611498
000230 ba 5c a7 bb 6b 3b d7 3b 1d 87 cb bd 47 4b cf 3d
       -0.0051074894 0.0065683625 -0.0993788 0.1012178
000240 3f 89 e8 3c 21 a8 a9 bd f1 4f 18 3e 6d f2 d3 bc
       0.028385757 -0.08284021 0.14874245 -0.025872434
000250 46 f0 11 bd f2 32 f6 bd 76 95 d0 bb 04 eb d9 3c
       -0.035629533 -0.12021436 -0.0063654734 0.026601322
000260 b8 0e 5e 3d 5b 70 5e 3d e2 32 11 bd ad 60 13 3e
       0.054213256 0.05430637 -0.035448916 0.14392348
000270 0f 9d 73 be 1d a8 c0 3d ad 88 32 3e 9f a5 b2 bd
       -0.23790382 0.09407065 0.1743495 -0.08722996
000280 06 d2 01 be 88 09 af 3d f0 fa 80 be bc 4f 41 3b
       -0.12677774 0.0854674 -0.2519145 0.0029496988
000290 cc 34 46 3e 43 22 2d 3d ba 41 77 3d 3e 1d bc bd
       0.19356078 0.042269003 0.060365416 -0.09185265
0002a0 49 6d 14 3d 60 35 de 3d 69 d7 08 3f fa b0 b0 3d
       0.036237035 0.10850024 0.5345369 0.086275056
0002b0 b4 2f 2d 3e fd 80 37 3d 00 cb 3f 3d 5f 9a d8 3d
       0.16912729 0.044800747 0.046824455 0.10576319
0002c0 19 ea c6 3d 51 a9 b2 3c cc 7e 80 3e 32 d5 ff 3b
       0.09712619 0.021809252 0.25096738 0.0078073973
0002d0 32 67 a3 3d 0e 04 b7 bc 55 9e 9b 3d 6e 0c a6 3d
       0.07978667 -0.0223408 0.07598559 0.081078395
0002e0 08 d2 0b 3e d6 e5 c1 3d 1d 9c 93 3d 85 ff 2d bd
       0.1365434 0.09467666 0.072075106 -0.04248001
0002f0 6d 3f 6d bb eb 56 18 3d 6d 7e 37 3e a5 0f 4b 3d
       -0.0036201135 0.037192266 0.17919321 0.049575467
000300 39 9d 8d 3d 11 0e 1e 3e 7b 6b bf 3c a0 48 95 3d
       0.069147535 0.15435053 0.02336668 0.07289243
000310 1b e1 3a 3e 17 6a 1a bd 54 1e be 3d b9 07 6c 3c
       0.18249933 -0.03769883 0.092831284 0.014406138
000320 37 a1 4f 3c f4 83 fd 3d e7 93 11 3e 16 b1 12 3d
       0.012672714 0.12378684 0.14216577 0.035813414
000330 e2 db 11 bb a8 95 9e 3d b1 2a 93 bc c5 a2 82 be
       -0.0022256305 0.077433884 -0.017964693 -0.25514808
000340 48 d2 03 3d f5 b5 07 3e ee dc df bd af b1 b6 bd
       0.03218296 0.13253005 -0.10930811 -0.08920609
000350 60 12 a3 3e 35 bb ea be 63 99 19 be 40 b8 06 3e
       0.31849957 -0.45845953 -0.14999919 0.13156223
000360 ed 75 05 3d 9c ab 4a 3d 9e ab 9c 3d b2 ff 98 3d
       0.032583166 0.049480066 0.07649921 0.07470645
000370 e1 f9 8a 3c 98 99 7a bd 00 b7 81 bc fb 0b a2 bc
       0.016964855 -0.061181635 -0.015834332 -0.019781103
000380 ee 1b 44 3c 55 24 96 3d 03 25 bc be 65 85 8f 3d
       0.01196955 0.073311485 -0.36746988 0.07007865
000390 18 78 87 3d 22 50 b1 3e 2b 62 92 b9 c5 73 0f 3e
       0.06614703 0.3463145 -0.0002792043 0.14009006
0003a0 56 b1 6a 3e e6 b5 33 bb 6f 58 70 3d 30 62 8f bc
       0.22919211 -0.0027421652 0.058678087 -0.017502874
0003b0 bd 76 dc 3d 7a 7f 10 bd 91 67 05 3e c5 1f bc 3d
       0.10764835 -0.03527782 0.13027789 0.09185747
0003c0 fc 9c 71 3d d3 65 96 3c 33 2b c8 3d 9b 1a 0a 3d
       0.058987603 0.0183591 0.097738646 0.03371678
0003d0 eb 0f c5 bd d1 86 51 bc a2 e3 b7 3d 81 ed dc bd
       -0.09622177 -0.01278849 0.089789644 -0.10787488
0003e0 66 86 3d 3d d0 ee ba bc 03 ff 1a be 54 fe 7d be
       0.04627075 -0.022818953 -0.15136342 -0.2480405
0003f0 db 43 8c 3d 56 52 e9 3c 86 21 12 bd f0 b9 dc 3c
       0.0684888 0.028481644 -0.0356765 0.02694413

decoder.0.bias f4 [16]
000000 39 4f d0 3d 90 3e 58 3e d3 9b bc bd a1 04 60 bd
       0.101713605 0.21117616 -0.092094086 -0.054691914
000010 f6 2e 59 bd b5 4b 0e be de 45 00 bc 73 28 65 3e
       -0.0530233 -0.13896067 -0.007829158 0.22378711
000020 ad 4d b4 bd 27 ce ce be b4 42 d2 bd 75 7f c8 3d
       -0.08803878 -0.40391657 -0.10266629 0.097899355
000030 4b 52 b4 bd 26 66 45 3c d0 b6 f7 bd a3 9d db bd
       -0.08804759 0.01204828 -0.120954156 -0.10723426

decoder.2.weight f4 [16, 3, 3, 3]
000000 d6 d0 dd bd a2 f7 2f be 20 62 f0 bd 62 b7 f0 bc
       -0.10830848 -0.17184308 -0.11737466 -0.029384319
000010 5d ce 69 be 8a ec 5d be 4b 42 23 be 97 ff de bd
       -0.22832628 -0.21672264 -0.15943258 -0.10888594
000020 f2 ee be bd 5e 61 3b be ad 5c 44 be 5f 90 f1 bd
       -0.09322919 -0.18298861 -0.19175978 -0.11795115
000030 ce 4c 6b be eb bb 68 be 3e e8 a4 be 66 e7 45 3d
       -0.22978517 -0.22727935 -0.32208437 0.048316382
000040 f0 ba e7 3b 8c d9 3a be 2a 29 90 bd 9e 4a 45 be
       0.0070718452 -0.1824705 -0.070391014 -0.19266745
000050 bc e1 54 be 4f fd cc bc 0f a6 7c be 08 09 a4 bd
       -0.20789236 -0.02502313 -0.24672721 -0.08009535
000060 b6 eb 18 be 48 86 95 bd 6b 71 12 be e0 49 0d bd
       -0.14933667 -0.07301003 -0.14301078 -0.03449428
000070 2a 6d e7 bd 34 e7 90 bd 44 81 d8 bd 7a 4b 7b be
       -0.11300118 -0.070753485 -0.105715305 -0.24540511
000080 f2 36 31 be e6 e3 cf 3d 3f ba 16 be 63 2c f6 bd
       -0.17306116 0.1015089 -0.14719485 -0.12020185
000090 b9 58 3c 3d de 58 cd bd b4 49 37 be f6 2a 51 3b
       0.04598305 -0.10026716 -0.1789921 0.0031916476
0000a0 88 36 89 be 2d 0d 83 3b 11 77 35 be 46 d9 6f be
       -0.26799417 0.0039993734 -0.17721201 -0.23422727
0000b0 b4 3b 41 be 6d 54 52 bd 74 73 cf bd 88 85 c9 bc
       -0.18870431 -0.051350046 -0.10129443 -0.024599805
0000c0 87 c3 41 be 3b e4 89 be c9 c0 6e be f1 83 5c 3d
       -0.18922244 -0.2693194 -0.23315729 0.053836767
0000d0 34 71 df bd 20 4b 93 bd 1c 18 41 3e e8 d5 88 3e
       -0.10910264 -0.07192063 0.18856853 0.26725698
0000e0 ff 78 a1 3d 4f f2 e7 3d c2 7f 7e 3d ee 3b 68 3e
       0.07884406 0.113255136 0.062133558 0.22679111
0000f0 e4 08 16 3e df 5d 24 3e c1 e2 c3 3d 07 c7 39 3e
       0.14651829 0.16051434 0.09564734 0.18142329
000100 71 c4 a1 3e 4a bd c7 bc a3 48 59 3e c4 d2 8b 3d
       0.31595185 -0.024382252 0.21219115 0.0682731
000110 6e 53 95 3d 28 1b 8b 3e 38 23 94 3e db 30 9d 3d
       0.072913036 0.27169156 0.2893312 0.07675334
000120 c8 af 11 3e ce 1d 63 bc cf 25 2b 3e d9 3f cc 3c
       0.14227211 -0.013862086 0.16713642 0.024932789
000130 6c 1b a7 3e 20 c0 15 3e b8 b3 ad 3d 82 8a 13 3e
       0.3263811 0.14624071 0.08481544 0.14408305
000140 24 42 80 3e af 60 c6 bd d4 42 a7 3d 6c 75 5c 3e
       0.2505046 -0.0968641 0.08167043 0.21529168
000150 e2 49 77 3e ba c2 07 bd 33 6e 7d 3e 7e 1b 6f 3e
       0.24149278 -0.03314469 0.24749069 0.23350331
000160 ab 68 cd 3d cb 3b a1 3d 29 3e a5 bd 93 92 f6 bd
       0.100297295 0.07872733 -0.08068497 -0.120396756
000170 23 b1 15 3d 09 d3 c0 3d 7d b0 84 3e 3a 86 41 3e
       0.036545884 0.09415252 0.259159 0.1889886
000180 eb 63 98 bd 1c 65 53 3e 18 c5 fd bb 21 0b 09 3e
       -0.07440933 0.20644039 -0.0077444427 0.13383152
000190 87 38 a1 bc 60 f5 5a 3e 91 91 bd 3d db ec 33 3e
       -0.019680275 0.21382666 0.0925628 0.17570822
0001a0 9b b1 0f 3e 6c 0c 2b 3e 27 0a 2a 3e df cc 8a bd
       0.14032595 0.16703957 0.16605435 -0.06777357
0001b0 6c a9 cf bd 51 52 5e bd b4 2c b2 bd ac 2b 0b 3e
       -0.101397365 -0.05427772 -0.08699933 0.13590878
0001c0 40 41 b8 3e c3 46 c0 3d c0 59 a7 3a 16 5f a6 bd
       0.35987282 0.09388497 0.0012767836 -0.08123605
0001d0 5d 6c 5b 3d 4f ca 8b bd 83 ab d6 3d 4f 7f e7 3d
       0.05357014 -0.06825697 0.10481932 0.11303579
0001e0 3c 5b 0d 3e e0 49 39 3e b3 9f 1d 3e c8 92 b5 3d
       0.13804334 0.18094587 0.15392952 0.08865887
0001f0 dd e7 96 3d 71 16 fc bd a4 f7 06 3e 70 91 c2 bc
       0.07368443 -0.12308968 0.13180405 -0.02375099
000200 b2 40 11 3d 4c 3b 86 3b d2 5f 8c 3e 85 d5 76 3e
       0.03546209 0.004096424 0.27416855 0.24104889
000210 a6 32 84 bd fd 39 86 bb b9 a6 84 bc 8e c9 34 3e
       -0.06454973 -0.004096268 -0.01619278 0.17655012
000220 fc 1f bd 3d c5 66 8c bb 02 b6 9f 3d a5 2d 22 3e
       0.09234616 -0.004284712 0.07798387 0.15837725
000230 39 61 4d 3d 79 5d 7f 3d d8 8a 69 3d 5f 1a b5 3d
       0.050141547 0.062345 0.057017177 0.088429205
000240 83 54 c7 bd 54 80 05 3e f8 f2 a7 3d 05 dd 48 3e
       -0.09732916 0.13037235 0.082006395 0.19615562
000250 de b3 82 3e 03 a3 00 3e 29 25 c6 bd 05 39 92 3d
       0.25527853 0.12562184 -0.096750565 0.07139782
000260 c9 4a 9e bb 81 2d 10 3e 6e f6 5e 3e 79 25 8d bc
       -0.0048306924 0.14079858 0.21773693 -0.017229782
000270 4d de 56 3d 89 73 9a 3e 5d e7 46 3b 63 14 5c 3d
       0.052458096 0.3016627 0.0030350306 0.05373038
000280 f1 44 a8 3e 1b 53 b8 3d d5 df d9 bc ad a0 e6 3d
       0.32865098 0.09000226 -0.02659599 0.11261115
000290 84 8b ca 3d e4 eb a0 bc 84 6e 9e 3e 16 e4 c5 3d
       0.09889892 -0.019643731 0.30943692 0.096626446
0002a0 5c be b2 3c 24 21 47 3c e5 42 bf 3c bc fb 09 3e
       0.021819286 0.012153897 0.023347327 0.13474935
0002b0 fc 64 13 3e bd fb b6 bd 3d 8f 27 3d 02 64 28 3e
       0.14393991 -0.08934734 0.040908087 0.164444
0002c0 f4 d0 16 3d af d2 8f bd f3 c9 05 3e 00 f4 3e 3e
       0.036820367 -0.070226066 0.13065319 0.18647766
0002d0 53 64 b6 3d 4a 48 6a 3d fd a5 e7 3d f1 e8 3f 3d
       0.08905854 0.057197846 0.113109566 0.04685301
0002e0 7f 2a b6 3e 13 6f 18 3e 14 3c 0f be 9f be 40 3e
       0.35579297 0.14886121 -0.13987762 0.18822716
0002f0 2c c4 de 3d e1 6a d3 bd c5 c3 4e be a9 25 33 be
       0.108772606 -0.1032312 -0.20191868 -0.17494835
000300 d8 f4 71 bd ce 7d 9d be 37 9d 73 be fc 23 e1 bd
       -0.05907139 -0.30760044 -0.23790441 -0.109931916
000310 08 2c 8f bd f6 49 6b bd f3 a9 ed bc e9 c9 2f be
       -0.0699082 -0.05744358 -0.029011702 -0.17166866
000320 d9 65 46 3d 9f f7 11 be dc b9 28 be e0 3b 93 be
       0.048436973 -0.14254616 -0.1647715 -0.28756618
000330 bd 3f 84 3d 7b aa 03 bc 4d dc fe bd e9 a0 af bd
       0.064574696 -0.008036251 -0.12444363 -0.08575613
000340 32 44 65 be 6b 8a 41 be ac d5 3d 3d 2b 1f 64 be
       -0.22389296 -0.18900459 0.04634635 -0.22277515
000350 9f 0b 28 be e1 94 ae bd 6a 4f bb bc d4 ef d2 bc
       -0.16410683 -0.0852449 -0.022865016 -0.025749125
000360 11 f7 32 3d 8e d2 4d 3d 5f 24 8d 3e 90 67 7b bc
       0.043692652 0.05024963 0.2756681 -0.015344515
000370 52 de d6 3d 3f ca 82 3e 99 23 de 3d d2 6b 70 3e
       0.10491623 0.25544927 0.108466335 0.2347863
000380 5c 73 1e 3e 07 11 dd 3c 7d a4 2a 3d 1b a3 17 3e
       0.15473694 0.026985658 0.041660774 0.14808314
000390 c7 0b 64 3e 9d f1 50 3e 4d 1a 25 3e 1c f8 53 bd
       0.22270118 0.20404668 0.16123314 -0.051750287
0003a0 54 1d 99 3d 86 1d 76 3e d2 13 06 bd 05 af db 3d
       0.07476297 0.240347 -0.032733746 0.10726742
0003b0 ac 83 ca 3d b4 09 7b 3e 20 14 91 3d 73 7b 18 3d
       0.09888396 0.2451542 0.07083917 0.037227105
0003c0 a3 a3 36 3e 4f b3 73 3e 9b 1a 89 3e c1 8c e7 3c
       0.1783586 0.2379887 0.2677811 0.028265359
0003d0 75 49 25 3e dc 41 7b 3e c6 7b 22 3e 75 54 8d 3e
       0.16141303 0.24536842 0.15867528 0.27603498
0003e0 ce f4 8c 3e 03 a8 bd 3d 0c 7a 78 3e 29 29 26 3e
       0.2753052 0.09260561 0.24265307 0.16226639
0003f0 7b 8b db 3d 70 09 6e 3e 71 74 14 3e be 2c 30 3e
       0.10719963 0.23245788 0.14497544 0.17204568

decoder.2.bias f4 [3]
000000 8d 49 47 bd b0 75 1a be 23 c0 2e be
       -0.048654128 -0.15083957 -0.17065482
