saved_models/nSuperMRI_50.pth (torch, 29410 bytes, 25 tensors)

input_block.conv1.weight f4 [3, 1, 3, 3]
-0.77136016 0.0034799734 -0.91297823 -0.6948686 -0.7324626 -1.3978825 -1.0474381 -0.74648243
-0.88226324 3.6472015 -0.12222521 -0.20396155 0.051549744 0.19429742 -0.057126686 -0.025117848
-0.09324041 -0.16153155 0.04705058 -2.2973778 -0.49712622 -1.3629756 -0.5698516 -0.3904968
-0.13566865 -0.6523359 0.33019963
00000000: dc77 45bf 4410 643b f1b8 69bf e9e2 31bf
00000010: ab82 3bbf d0ed b2bf 7412 86bf 7919 3fbf
00000020: 01dc 61bf c06b 6940 3651 fabd 4cdb 50be
00000030: d325 533d e7f5 463e acfd 69bd f2c3 cdbc
00000040: d4f4 bebd 8768 25be 1cb8 403d 3d08 13c0
00000050: 5487 febe fc75 aebf cbe1 11bf 32ef c7be
00000060: b9ec 0abe 7cff 26bf ed0f a93e

input_block.conv2.weight f4 [3, 3, 3, 3]
-1.6104213 -0.7133681 0.005062868 -1.4709002 -0.93828595 -0.42252827 -0.8777902 -0.5436584
0.110774696 0.030025808 -0.46570855 -0.47262064 0.25914025 0.25040364 -0.5029869 -0.14488053
-0.5327763 -0.65038496 -0.97787595 -0.008181549 0.1514303 -0.86612445 0.008830635 0.0720062
-0.40755612 0.34788856 0.41874713 -0.78497154 -0.20757003 -0.42586175 0.8791843 0.87959284
1.5037079 -0.43735427 0.6273286 -1.0809212 -0.01633979 0.072694376 0.5057269 -0.17126049
0.38112563 0.7052772 -0.010340333 -0.09249087 1.0579046 1.5164641 1.8681597 -0.36579818
1.476635 2.9498906 1.5297761 -0.3026864 1.431942 0.7218168 -0.12676838 -0.3903154
-0.37779108 -0.4751802 -0.46677023 -0.43977532 -0.48547792 -0.5729118 -0.25429514 -0.29350302
0.19785903 0.5696465 -0.08221237 0.5368477 1.1873626 -0.09791981 0.599856 1.0615115
0.01389798 0.7324808 -0.10541455 0.32597983 -0.24984083 -0.17208092 0.36485696 -0.28555372
-0.48467287
00000000: 4922 cebf 4b9f 36bf 6ae6 a53b 7546 bcbf
00000010: 8233 70bf a055 d8be dcb6 60bf 322d 0bbf
00000020: d8dd e23d aff8 f53c 5a71 eebe 55fb f1be
00000030: 08ae 843e e834 803e c0c3 00bf 905b 14be
00000040: 0764 08bf a17f 26bf 1456 7abf e70b 06bc
00000050: 8b10 1b3e 55ba 5dbf 5eae 103c fd77 933d
00000060: 32ab d0be 731e b23e 0666 d63e e5f3 48bf
00000070: 3d8d 54be 8d0a dabe 3912 613f ff2c 613f
00000080: 8079 c03f e6ec dfbe 9b98 203f a05b 8abf
00000090: 06db 85bc cae0 943d 5177 013f e95e 2fbe
000000a0: e622 c33e 0c8d 343f 806a 29bc da6b bdbd
000000b0: 6b69 873f 7f1b c23f db1f ef3f e649 bbbe
000000c0: 6002 bd3f 02cb 3c40 b4cf c33f b6f9 9abe
000000d0: e049 b73f fcc8 383f 92cf 01be 6cd7 c7be
000000e0: d56d c1be d24a f3be 82fc eebe 3b2a e1be
000000f0: 9090 f8be 59aa 12bf f932 82be 0746 96be
00000100: 8f9b 4a3e 5ad4 113f f65e a8bd da6e 093f
00000110: 7ffb 973f 2e8a c8bd 2a90 193f 9cdf 873f
00000120: 5ab4 633c dd83 3b3f 95e3 d7bd d4e6 a63e
00000130: 46d6 7fbe fb35 30be 88ce ba3e 1934 92be
00000140: 0b27 f8be

down_blocks.0.conv_block.conv1.weight f4 [6, 3, 3, 3]
-0.27265066 0.54227585 0.2049667 0.44401768 0.5685058 0.09079553 0.07564999 1.5179803
0.859181 -0.9158285 -0.24695511 1.4913626 -0.37926754 0.5759597 1.7140266 -1.2455891
-0.9789184 0.44889045 -0.42696595 -0.3781869 -0.4049944 -0.804631 -0.7456673 -0.70199287
0.703078 0.30407733 -0.23602048 0.035330087 -0.9263764 -1.0879476 1.3699249 1.03399
1.0286062 0.20875694 -0.6723097 0.20460863 -0.15173928 -0.74949515 0.5205637 0.03265322
-0.9374297 0.19572367 0.05735303 -1.3819889 -0.063174695 -0.22311778 -0.68241656 1.2578139
-0.27173114 -0.4771876 0.6932746 -1.6762916 -0.9482215 -0.20275812 -0.3440446 0.17990784
0.41092542 0.21949856 0.98806894 1.2646804 0.2855514 0.9944655 1.0651265 0.16478616
-0.66981006 0.14940149 0.19466853 -1.1790756 -0.14295796 0.4408006 -0.5565921 0.25539207
-0.322135 0.46419355 -0.34695578 0.6727236 1.465628 0.45300648 0.3691818 1.0624716
-0.3997615 0.8129181 0.62792885 0.7262971 0.63440406 0.7058117 0.7248307 0.2874028
0.2873298 0.38322863 0.22201245 0.7309365 0.45958972 0.5927056 0.78652775 0.44220817
-0.010971717 -0.05234554 -0.09839906 -1.2057635 0.89575297 -1.8121873 -1.0624996 3.094971
-0.32261616 -1.0111624 0.6947034 -0.5011918 -0.63738424 -0.93897355 -0.075084925 -0.7912835
-0.9024226 -0.016570412 -0.75564927 -1.3102113 -0.95561016 0.39322987 -0.67356354 -0.34838575
-0.69663405 -1.7631433 -1.376874 0.47792172 -0.25302544 0.59843504 -0.5371896 -0.3887784
-0.21137646 -0.79886717 -0.97262156 -0.5693537 -0.1436419 -0.7058718 -0.9449529 0.5247309
0.47389433 0.20814191 -0.23786654 -0.5491466 -1.0575795 -0.0956136 -0.8414348 -1.6750487
-0.5424361 -1.0426074 -0.16025734 0.7189292 0.1211614 0.6420153 0.16771866 -0.24651448
0.3081254 -1.3146874 0.22816843 -0.12261953 -0.030185413 1.3617216 1.0297406 -0.0026953504
1.5066434 1.0421253
00000000: de98 8bbe 97d2 0a3f cae2 513e 4956 e33e
00000010: 9989 113f 02f3 b93d 62ee 9a3d 2e4d c23f
00000020: 49f3 5b3f bd73 6abf cde1 7cbe f8e4 be3f
00000030: 5b2f c2be 1872 133f 3965 db3f 776f 9fbf
00000040: 659a 7abf f8d4 e53e 489b dabe b7a1 c1be
00000050: 6d5b cfbe 4cfc 4dbf 0de4 3ebf ceb5 33bf
00000060: ebfc 333f 06b0 9b3e 5aaf 71be 48b6 103d
00000070: 0127 6dbf de41 8bbf b359 af3f c959 843f
00000080: 5ea9 833f 61c4 553e 7d1c 2cbf ed84 513e
00000090: 8b61 1bbe eade 3fbf aa43 053f 62bf 053d
000000a0: 65fb 6fbf c96b 483e 03eb 6a3d 03e5 b0bf
000000b0: bc61 81bd fd78 64be dab2 2ebf 0c00 a13f
000000c0: 5820 8bbe ef51 f4be 727a 313f b990 d6bf
000000d0: a5be 72bf d39f 4fbe 9d26 b0be c339 383e
000000e0: d164 d23e 3bc4 603e 16f2 7c3f 0ce1 a13f
000000f0: cb33 923e 4a95 7e3f 1156 883f b4bd 283e
00000100: ac78 2bbf b4fc 183e 3057 473e f3eb 96bf
00000110: 9263 12be 9eb0 e13e d27c 0ebf c0c2 823e
00000120: e1ee a4be c7aa ed3e 30a4 b1be 9d37 2c3f
00000130: b399 bb3f 77f0 e73e 6605 bd3e 12ff 873f
00000140: 8aad ccbe 671b 503f f2bf 203f 9bee 393f
00000150: 4e68 223f 13b0 343f 818e 393f 7626 933e
00000160: e41c 933e 8b36 c43e 3b57 633e a81e 3b3f
00000170: 584f eb3e 8ebb 173f e259 493f 1c69 e23e
00000180: b7c2 33bc 4768 56bd 7285 c9bd 7556 9abf
00000190: 1150 653f c1f5 e7bf fdff 87bf 0114 4640
000001a0: f22d a5be c56d 81bf 15d8 313f 1b4e 00bf
000001b0: 9d2b 23bf 9260 70bf 20c6 99bd 8e91 4abf
000001c0: 2b05 67bf acbe 87bc 3b72 41bf 01b5 a7bf
000001d0: dea2 74bf 6d55 c93e a96e 2cbf 9e5f b2be
000001e0: 9c56 32bf aeae e1bf 683d b0bf 28b2 f43e
000001f0: 8d8c 81be 0a33 193f 4285 09bf f60d c7be
00000200: 1273 58be 8f82 4cbf bafd 78bf 2ac1 11bf
00000210: dd16 13be 04b4 34bf 6fe8 71bf c454 063f
00000220: 47a2 f23e 2723 553e 4993 73be df94 0cbf
00000230: c45e 87bf 10d1 c3bd 4568 57bf ff67 d6bf
00000240: 18dd 0abf 2974 85bf 801a 24be be0b 383f
00000250: 7823 f83d 1d5b 243f 71be 2b3e 4b6e 7cbe
00000260: 9dc2 9d3e ad47 a8bf fca4 693e f31f fbbd
00000270: 6647 f7bc e54c ae3f 8ace 833f 7aa4 30bb
00000280: b1d9 c03f 5d64 853f

down_blocks.0.conv_block.conv2.weight f4 [6, 6, 3, 3]
-1.1546417 -0.28683794 1.590218 -0.9856837 -0.166701 1.6642594 -1.0597577 -0.14934531
1.1083016 -0.47862 0.23674467 0.3863375 -0.3563602 0.6867122 1.1767275 -0.43784657
0.4466045 1.0813782 -0.23252116 -0.6194486 -0.9835329 -0.15109727 -0.4127866 -1.1301045
0.37602696 -0.06520759 -0.71835047 -0.30084136 0.3649061 0.3033094 -0.12890647 0.054079257
0.02266771 -0.6841083 -0.29942188 0.0065754047 0.2159487 -0.21872638 -0.9855774 0.063635185
0.1659262 -0.3860681 -0.21166152 -0.19214742 -0.07295081 1.1817914 1.9510972 0.8234028
0.3566369 1.2940184 -0.29054123 1.1569829 2.1324086 0.3742642 0.68148756 0.4575634
0.12270195 0.17571087 0.011634154 -0.56937635 0.15221682 -0.11606585 -1.0525613 0.27170628
0.3225098 0.6054724 0.22236183 0.5575155 0.74840695 0.45697102 0.40580326 0.62548494
-0.39457414 0.31495675 0.08184511 0.1475217 0.8532003 0.57232577 0.5491394 0.8867983
0.81560385 -0.00657194 0.63044494 0.26409218 0.4631105 1.0523553 0.60795736 0.21339956
0.7397462 0.75510466 0.5926008 0.74422026 1.0394706 0.03627835 0.3231138 0.19487567
0.4340992 0.6524548 0.14665295 0.5797597 1.0278529 0.19609568 0.72169834 1.0967216
0.040299043 0.55640423 0.7424783 -0.3437655 -0.04710882 -0.16090228 -0.46404994 0.39923248
-0.10109541 0.7432659 0.24845271 -0.42859915 -0.0172354 -0.97738546 -1.3020552 -0.21956901
-1.4089389 -1.4379747 -0.475206 -1.5312598 -2.1326828 -0.92248106 -2.4541488 -1.6191192
-1.4269025 -2.1169515 -1.2159972 -1.1218596 -2.6991367 -1.8578953 -1.4914963 -0.25350133
-0.27718678 -0.19194677 0.17094342 0.17882536 -0.034468494 -0.20073704 -0.37438527 -0.39650032
-0.7221097 -0.85059416 -0.7154609 -0.89929676 -0.9482364 -1.1367152 -0.5253419 -0.81792194
-0.85599524 -0.0782118 0.07182181 0.2422694 -0.2512434 0.10193706 0.09579454 -0.228996
0.06636863 0.23944335 0.3981462 0.07220663 -2.4678094 0.6146041 0.2746343 -1.3313428
0.46836036 0.50130165 -0.42302042 -0.18050455 -0.51166385 0.35414964 -0.6712391 -1.0310568
0.0066068345 -0.89683986 -1.0391967 0.52559674 -0.7516758 -0.7013574 -0.6702195 -0.9478501
-0.68090284 -0.8629445 -0.5132528 -0.2855621 -0.24195988 -1.1151356 -0.58570236 -0.2539192
0.8417195 1.9705429 1.9399664 0.08860721 1.055738 1.0236169 -0.524605 -0.61916256
-0.17243493 -0.058415446 -0.19439743 -0.25453582 0.03375639 -0.15226774 -0.3568405 1.1225783
0.34451059 1.294194 0.3422575 -0.5749361 0.23221529 -0.42191437 -1.36492 -1.0650074
-1.240211 -1.3825626 0.44271958 0.883202 0.19668742 1.1525983 -0.32254303 -0.44908324
0.34316415 -0.604202 -1.1452701 -0.9454909 -0.7464722 -1.2967579 -0.88137954 -0.5847119
-1.1621231 -0.897596 -0.73122996 -0.99244195 -1.0593146 -0.8085611 -0.5152596 -0.5642019
-0.43830118 -0.357508 -0.3311844 -0.42999998 -0.67969996 -0.46149814 -0.8674716 -1.0287715
-0.5179982 -0.4042028 -0.7199404 -0.24606355 -1.0565094 -0.35708228 -1.0161005 0.032869432
00000000: 4dcb 93bf 6cdc 92be 438c cb3f c455 7cbf
00000010: abb3 2abe 7406 d53f 24a6 87bf faed 18be
00000020: d4dc 8d3f ae0d f5be 326d 723e 07ce c53e
00000030: d874 b6be 5fcc 2f3f 029f 963f 6d2d e0be
00000040: 58a9 e43e 9a6a 8a3f 071a 6ebe 2f94 1ebf
00000050: d0c8 7bbf 3eb9 1abe c458 d3be 44a7 90bf
00000060: 9b86 c03e 8f8b 85bd d1e5 37bf e107 9abe
00000070: f9d4 ba3e 5f4b 9b3e 0f00 04be 3682 5d3d
00000080: a2b1 b93c b921 2fbf d34d 99be 7e76 d73b
00000090: a821 5d3e cff9 5fbe cd4e 7cbf 2a53 823d
000000a0: 8fe8 293e b8aa c5be ccbd 58be 4bc2 44be
000000b0: 3c67 95bd f144 973f 8ebd f93f 87ca 523f
000000c0: 1d99 b63e 65a2 a53f d2c1 94be 0418 943f
000000d0: 6279 0840 8f9f bf3e f875 2e3f c045 ea3e
000000e0: 294b fb3d 8ded 333e 2e9d 3e3c a6c2 11bf
000000f0: bade 1b3e efb3 edbd 54ba 86bf 161d 8b3e
00000100: 0120 a53e 3d00 1b3f d2b2 633e 56b9 0e3f
00000110: 9997 3f3f 1bf8 e93e 72c5 cf3e c81f 203f
00000120: 9f05 cabe 0342 a13e 699e a73d ee0f 173e
00000130: 566b 5a3f f183 123f 6694 0c3f 3705 633f
00000140: 6acb 503f 6e59 d7bb d764 213f 1737 873e
00000150: d21c ed3e 94b3 863f 18a3 1b3f 6a85 5a3e
00000160: 0260 3d3f 8a4e 413f b0b4 173f 3885 3e3f
00000170: 5f0d 853f 9b98 143d 2c6f a53e 7d8d 473e
00000180: 4042 de3e 4707 273f 312c 163e 226b 143f
00000190: af90 833f 4ecd 483e 39c1 383f 6061 8c3f
000001a0: 9c10 253d 8270 0e3f 0f13 3e3f 0802 b0be
000001b0: 2ef5 40bd 91c3 24be f497 edbe 3368 cc3e
000001c0: 1c0b cfbd ad46 3e3f 636a 7e3e 5971 dbbe
000001d0: 4131 8dbc ef35 7abf bfa9 a6bf b3d6 60be
000001e0: 1c58 b4bf 8e0f b8bf 334e f3be 5200 c4bf
000001f0: e07d 08c0 b827 6cbf c610 1dc0 4c3f cfbf
00000200: bea4 b6bf 227c 07c0 cca5 9bbf 1899 8fbf
00000210: a8be 2cc0 83cf edbf 5ae9 bebf edca 81be
00000220: 6deb 8dbe b28d 44be cb0b 2f3e ff1d 373e
00000230: d62e 0dbd 038e 4dbe 6daf bfbe 1702 cbbe
00000240: 2edc 38bf 8ac0 59bf 7228 37bf 5038 66bf
00000250: 9fbf 72bf e27f 91bf cf7c 06bf 5563 51bf
00000260: 8122 5bbf 822d a0bd 5017 933d 7815 783e
00000270: faa2 80be 61c4 d03d ee2f c43d ed7d 6abe
00000280: 47ec 873d a330 753e d2d9 cb3e 12e1 933d
00000290: 97f0 1dc0 b256 1d3f de9c 8c3e 7169 aabf
000002a0: eecc ef3e 4e55 003f 2296 d8be 2fd6 38be
000002b0: 67fc 02bf 1a53 b53e 53d6 2bbf abf9 83bf
000002c0: 257e d83b 4c97 65bf 6604 85bf 828d 063f
000002d0: d36d 40bf 298c 33bf 8193 2bbf 4ea6 72bf
000002e0: a64f 2ebf eee9 5cbf 8964 03bf 3235 92be
000002f0: 55c4 77be c3bc 8ebf 97f0 15bf b301 82be
00000300: ee7a 573f c03a fc3f d250 f83f b277 b53d
00000310: 6c22 873f e105 833f 834c 06bf 7081 1ebf
00000320: c892 30be 0945 6fbd 1f10 47be 8552 82be
00000330: 2444 0a3d 13ec 1bbe ccb3 b6be a5b0 8f3f
00000340: b163 b03e 26a8 a53f 603c af3e 032f 13bf
00000350: d8c9 6d3e 2905 d8be b3b5 aebf 2a52 88bf
00000360: 3cbf 9ebf d0f7 b0bf 24ac e23e 8719 623f
00000370: 6d68 493e 5788 933f 5c24 a5be 3dee e5be
00000380: 36b3 af3e fbac 1abf 3698 92bf b10b 72bf
00000390: cd18 3fbf 2afc a5bf 17a2 61bf aeaf 15bf
000003a0: 73c0 94bf dac8 65bf e331 3bbf ad10 7ebf
000003b0: 9f97 87bf dcfd 4ebf 0ee8 03bf 896f 10bf
000003c0: 0369 e0be 4a0b b7be 0091 a9be f528 dcbe
000003d0: d100 2ebf 7c49 ecbe 9e12 5ebf c9ae 83bf
000003e0: 889b 04bf abf3 cebe 044e 38bf 15f8 7bbe
000003f0: b33b 87bf 7dd3 b6be 950f 82bf 19a2 063d

down_blocks.1.conv_block.conv1.weight f4 [12, 6, 3, 3]
-2.365525 -2.1338177 -1.82543 -1.4432719 -0.7785109 -0.00825279 -0.8622641 -0.17598403
0.68571687 -0.61843526 -0.34806496 -0.25571972 -0.96630365 -0.7641867 -0.64640045 -0.4193569
-0.24771942 -0.2294414 0.12428245 0.01910994 0.031230506 0.47467768 0.43364674 0.3193426
0.5899691 0.46444532 0.26755092 0.07652678 0.07960498 0.018180361 0.51995945 0.21592437
0.2809518 0.33157787 0.18275249 0.510472 -0.08825516 -0.7421537 -1.0000157 0.45528796
-1.0300283 -1.3869756 -1.0730872 -1.8703527 -2.2197504 -0.7137453 -0.5521338 -2.6125915
0.60368395 0.58893657 -1.3631965 0.24851704 0.06510731 -1.5934658 -0.28035644 -0.056042064
0.66780806 0.13854933 -0.08437002 0.7359573 -0.03759766 -0.25032112 0.70853025 -0.051157534
0.12157781 0.4375779 0.6768493 0.91257817 1.2371997 0.6192738 0.5970664 1.0606626
-0.6716058 -0.9586099 -0.41015926 -1.5052439 -1.9304687 -1.0496938 -1.5070909 -1.8523114
-0.7930387 -0.6723922 -0.74508804 -0.09643851 -1.2850696 -1.465516 -0.997535 -0.97839636
-1.388649 -0.46980667 0.883118 -0.03749614 0.34904784 1.0106952 0.007611893 0.51629895
1.3412814 0.69070375 1.7026957 0.2614783 -0.31271943 -0.092126295 0.07873707 -0.57059306
-0.15142469 0.34653836 -0.23149718 -0.2036589 0.7165639 0.31729698 -0.23724838 0.90772307
0.105083115 -0.56429213 1.5547819 1.0720385 0.25791496 -0.24614587 -0.54555637 -0.48373666
-0.32263604 -1.4587909 -1.9052093 0.6076401 -1.2616788 -1.5567945 0.048342906 -0.0978368
-0.59027195 -0.07801401 0.012576858 -0.6151835 -0.725447 0.4155198 0.18493637 -0.5266459
1.0746074 0.2601864 -1.3279841 0.40821683 -0.07928688 -1.639616 -0.09268268 0.42616215
-0.8730451 0.03488722 -0.75209224 -0.9265427 -0.18084674 -0.52972656 -1.2757951 0.36897263
-0.086756535 -0.01774883 0.87202835 -1.0253849 -0.0813425 0.4340184 -1.3639598 0.59033686
0.94180536 -1.0229106 -0.5356561 0.08415404 0.78576976 -0.49479488 -0.33657652 -0.049475014
-0.9316631 -0.71421564 0.26155183 -0.02421468 0.68950206 0.025819726 0.8022048 1.3477525
0.64473784 -0.2848496 0.09561691 -0.45918018 -1.0432107 -1.312742 -1.1717529 -1.3154972
-1.2579733 -1.3448563 -0.9381653 -1.0471878 -1.081316 0.27738675 0.56099343 0.31500557
0.48888838 1.041561 0.4868676 -0.06604468 0.26700705 -0.18190345 0.60838294 0.31185514
-0.27116665 0.8545508 0.9187948 -0.06283148 1.2134517 2.0167723 1.1897022 0.03593673
-0.45407423 -0.72401935 -0.30798933 -1.2378808 -1.5835791 0.3101581 -0.13834925 -0.51164484
-1.5345606 -2.4613557 -0.18456282 -1.6635919 -1.530253 -0.014471145 -1.7532686 -1.6361687
-1.0688443 -0.034218144 0.05176211 1.127631 0.46620688 0.42558017 0.87917036 0.025905933
-0.8317053 -0.6175348 0.026140926 0.051828995 -0.39395744 0.4268324 0.52176255 -0.047390606
0.25744808 0.3044966 -0.3512849 -1.5962247 -0.1079771 -0.09528539 -0.20234887 0.72984
0.28528556 -0.048832223 0.22010154 -0.10792353 1.2102292 0.9949682 0.4579729 1.1377792
00000000: c364 17c0 7890 08c0 b1a7 e9bf 22bd b8bf
00000010: 7e4c 47bf b636 07bc 57bd 5cbf 2835 34be
00000020: 248b 2f3f c651 1ebf 9235 b2be b2ed 82be
00000030: ad5f 77bf bda1 43bf 807a 25bf f3b5 d6be
00000040: 29aa 7dbe b0f2 6abe cc87 fe3d 738c 9c3c
00000050: 1ed7 ff3c f408 f33e f206 de3e e080 a33e
00000060: 3708 173f c7cb ed3e 6ffc 883e 13ba 9c3d
00000070: f007 a33d fbee 943c 101c 053f 471b 5d3e
00000080: ead8 8f3e 93c4 a93e 7823 3b3e 4bae 023f
00000090: 1fbf b4bd c9fd 3dbf 8400 80bf 811b e93e
000000a0: f8d7 83bf 6b88 b1bf ec5a 89bf b867 efbf
000000b0: 6410 0ec0 03b8 36bf a458 0dbf b334 27c0
000000c0: 088b 1a3f 8cc4 163f 397d aebf 407b 7e3e
000000d0: fb56 853d b0f6 cbbf e18a 8fbe 5d8c 65bd
000000e0: 78f5 2a3f e0df 0d3e 30ca acbd b367 3c3f
000000f0: 0100 1abd 172a 80be 3d62 353f 908a 51bd
00000100: c9fd f83d 360a e03e ff45 2d3f b99e 693f
00000110: 8f5c 9e3f ba88 1e3f 58d9 183f cbc3 873f
00000120: 5cee 2bbf 7567 75bf 6500 d2be d5ab c0bf
00000130: 9919 f7bf 5e5c 86bf 5be8 c0bf 8a18 edbf
00000140: 9604 4bbf e521 2cbf 17be 3ebf 8e81 c5bd
00000150: 297d a4bf 0796 bbbf 745e 7fbf 2f78 7abf
00000160: 40bf b1bf 808a f0be 0514 623f 8d95 19bd
00000170: 66b6 b23e 765e 813f 306d f93b 2b2c 043f
00000180: 1caf ab3f f6d1 303f eff1 d93f 7ce0 853e
00000190: c31c a0be b6ac bcbd e740 a13d 6312 12bf
000001a0: 130f 1bbe 7a6d b13e 990d 6dbe f58b 50be
000001b0: bb70 373f c074 a23e 3df1 72be 8a60 683f
000001c0: d135 d73d 7375 10bf 1803 c73f 8f38 893f
000001d0: 6e0d 843e aa0d 7cbe 95a9 0bbf 55ac f7be
000001e0: 8d30 a5be a9b9 babf e6dd f3bf 4d8e 1b3f
000001f0: b17e a1bf 0b45 c7bf 3603 463d a95e c8bd
00000200: 101c 17bf cfc5 9fbd 2a0f 4e3c aa7c 1dbf
00000210: e5b6 39bf 03bf d43e f65f 3d3e 44d2 06bf
00000220: bc8c 893f 2737 853e 62fb a9bf cc01 d13e
00000230: 2961 a2bd f0de d1bf 6bd0 bdbd ed31 da3e
00000240: e27f 5fbf e7e5 0e3d 1e89 40bf e731 6dbf
00000250: e32f 39be 299c 07bf 414d a3bf fbe9 bc3e
00000260: 69ad b1bd ff65 91bc 403d 5f3f d03f 83bf
00000270: e696 a6bd a937 de3e 3c96 aebf 5120 173f
00000280: 281a 713f bcee 82bf c220 09bf f458 ac3d
00000290: 3528 493f c155 fdbe c253 acbe 50a6 4abd
000002a0: 7981 6ebf d6d6 36bf 1fea 853e dd5d c6bc
000002b0: 3583 303f e483 d33c 4b5d 4d3f 2783 ac3f
000002c0: 8a0d 253f cfd7 91be ccd2 c33d aa19 ebbe
000002d0: ee87 85bf ee07 a8bf 00fc 95bf 3662 a8bf
000002e0: 4505 a1bf 4024 acbf 9a2b 70bf 400a 86bf
000002f0: 9068 8abf a305 8e3e 449d 0f3f 6948 a13e
00000300: 944f fa3e df51 853f b646 f93e 6f42 87bd
00000310: 26b5 883e e644 3abe fcbe 1b3f 7aab 9f3e
00000320: 5bd6 8abe d7c3 5a3f 2336 6b3f caad 80bd
00000330: 6352 9b3f cc12 0140 2948 983f 6532 133d
00000340: 6b7c e8be 5559 39bf c7b0 9dbe e172 9ebf
00000350: b8b2 cabf 0bcd 9e3e 6dab 0dbe 28fb 02bf
00000360: 7b6c c4bf da86 1dc0 09fe 3cbe 94f0 d4bf
00000370: 55df c3bf 6218 6dbc 1b6b e0bf fa6d d1bf
00000380: e4cf 88bf 5328 0cbd 8204 543d 3656 903f
00000390: abb2 ee3e a5e5 d93e 4f11 613f ae38 d43c
000003a0: a3ea 54bf c316 1ebf 7f25 d63c a44a 543d
000003b0: cab4 c9be c789 da3e 3b92 053f a71c 42bd
000003c0: 3cd0 833e fae6 9b3e 9ddb b3be 1751 ccbf
000003d0: 1923 ddbd fd24 c3bd 8b34 4fbe cbd6 3a3f
000003e0: f310 923e 4c04 48bd 4c62 613e 0307 ddbd
000003f0: cae8 9a3f 3cb6 7e3f 6d7b ea3e c0a2 913f

down_blocks.1.conv_block.conv2.weight f4 [12, 12, 3, 3]
0.8094372 0.1213067 0.30234623 0.12524451 -0.52662134 -0.41333434 -0.07822212 -0.63368744
-0.8588848 0.49670655 0.15711664 0.25571826 -0.06270918 -0.38521102 -0.30129462 -0.5932045
-0.82048 -0.8847412 1.6191374 0.37301838 -1.1965687 0.21572448 0.10289434 -1.3780435
-0.7460444 -0.21238177 -0.84162855 0.66266257 -0.17681791 -1.3235239 0.446289 -0.039871078
-0.7698523 0.31560308 -0.5023037 -1.5012082 -2.1128075 -1.2562746 -1.7722125 -0.61466515
0.218397 0.11654802 0.32636008 2.0712457 1.6381172 -0.16780016 -0.214906 0.12020918
-0.58947617 -0.53491306 -0.4592436 -0.12739427 0.04319313 -0.022174321 0.84290767 0.7399438
0.1310092 -0.6405848 -0.2880831 -0.73864496 -0.7872965 -0.3581883 -0.2926465 -0.49902216
-0.12386265 -0.0677877 -1.6711681 -0.95912224 -0.87701344 -0.893921 -0.53431165 -0.8267716
-0.6649343 -0.5244238 -0.4011354 -1.0922977 -1.0495632 -0.83272505 -1.244156 -1.2803442
-0.87635136 -0.94756025 -0.41492018 -0.5998036 -1.7227378 -1.0932922 -1.4597045 -1.3145192
-0.39532208 -1.3531425 1.3608736 0.73798615 0.83151925 -0.3941564 -0.8538505 -0.09326257
-1.8335218 -1.2742057 -0.49633965 -0.776263 0.472537 0.063223384 0.23250414 1.103919
-0.043823235 0.059798703 0.9807433 -0.28418478 0.4969177 0.17019372 0.37652904 -0.039746482
-0.29674664 -0.16560979 -0.36739224 -0.46450308 -0.733411 0.64479375 0.28460124 0.11167009
0.0654365 -0.15817162 -0.284957 -0.46064472 -0.882757 -0.8079291 0.8748003 0.32604334
-1.1683849 0.046641733 -0.08552879 -1.7119936 -0.9434782 -0.41704807 -0.723141 2.1790414
0.915769 -0.20418498 1.1602287 -1.3984087 -1.863132 1.269147 -1.5053147 -2.3045213
-1.3882626 -0.3339827 -0.2579869 -0.8002939 0.13187629 -0.040149696 -0.2941625 0.9786737
0.9997423 0.11207806 -0.26199585 0.035339426 -0.1381934 -0.7332949 -0.86946934 0.16097409
-0.55089146 -0.78159595 -0.068950556 -0.68406093 -1.1658661 -0.3844181 -0.90134645 -1.4670192
-0.047212712 -0.058595918 -0.12211821 -0.5674259 -0.71289945 0.7458236 -1.0757216 -0.93757635
0.43292788 -0.100243405 0.2108538 0.8684465 -0.675559 -1.1563066 -1.3687708 -1.3423934
-1.7106653 -2.1858728 -0.43933588 -0.7635368 -1.4699217 -1.6123135 -2.2874124 -1.4354874
-2.1461916 -2.8635979 -2.0482354 -0.441138 -0.7925263 -0.92201364 0.30081245 -0.17798437
0.17791615 -0.7852736 -0.9623484 -0.54003143 -0.6743782 -0.48943886 0.08052386 0.09659233
-0.08844023 0.46411484 0.24886571 -0.049381018 -0.42733085 0.0049413466 -0.20614143 -0.88176125
-1.2458788 -0.81451464 -0.68377316 -0.6360036 -0.36386612 -0.52760994 -0.58390296 -0.49951044
-0.51242524 -0.6201255 0.26915252 0.08579278 -0.3178845 0.683322 0.6462296 -0.5083046
0.623079 0.51492846 0.39284378 -0.104060926 0.44751838 0.9502609 0.29548198 0.72276044
0.70462096 0.520648 0.78197324 0.43063208 0.5691536 -0.48611644 0.26105598 0.7449725
-0.17644627 -0.09257057 0.46302184 -0.1916428 0.277498 -0.5673703 -0.41203436 -0.48673612
00000000: 4737 4f3f a66f f83d 20cd 9a3e 1940 003e
00000010: a8d0 06bf 8fa0 d3be eb32 a0bd 5739 22bf
00000020: e0df 5bbf 5250 fe3e 2fe3 203e 81ed 823e
00000030: ac6d 80bd 613a c5be 4a43 9abe 40dc 17bf
00000040: fa0a 52bf 667e 62bf e53f cf3f 44fc be3e
00000050: 2a29 99bf e1e6 5c3e 45ba d23d bb63 b0bf
00000060: c4fc 3ebf 9b7a 59be f874 57bf 41a4 293f
00000070: c10f 35be 3b69 a9bf fe7f e43e db4f 23bd
00000080: 0a15 45bf ba96 a13e fa96 00bf 9727 c0bf
00000090: 3d38 07c0 9bcd a0bf dcd7 e2bf b25a 1dbf
000000a0: 77a3 5f3e bab0 ee3d ab18 a73e 4a8f 0440
000000b0: d3ad d13f ced3 2bbe 5210 5cbe 3b30 f63d
000000c0: e9e7 16bf 10f0 08bf fa21 ebbe a573 02be
000000d0: 48eb 303d eca6 b5bc ccc8 573f f56c 3d3f
000000e0: 4727 063e 5efd 23bf a17f 93be d617 3dbf
000000f0: 438c 49bf 7564 b7be c3d5 95be d57f ffbe
00000100: b3ab fdbd 47d4 8abd d6e8 d5bf 0989 75bf
00000110: f483 60bf 02d8 64bf a6c8 08bf 4ea7 53bf
00000120: 2239 2abf a340 06bf 9f61 cdbe 69d0 8bbf
00000130: 1658 86bf 782d 55bf 8140 9fbf 52e2 a3bf
00000140: 9058 60bf 4f93 72bf 6b70 d4be bb8c 19bf
00000150: ac82 dcbf 00f1 8bbf 99d7 babf 2a42 a8bf
00000160: a867 cabe c633 adbf 1b31 ae3f a9ec 3c3f
00000170: 72de 543f dece c9be f295 5abf 7200 bfbd
00000180: d8b0 eabf 2c19 a3bf 3b20 febe 2cb9 46bf
00000190: 5ff0 f13e 437b 813d 9115 6e3e 384d 8d3f
000001a0: fe7f 33bd 7cef 743d fe11 7b3f ab80 91be
000001b0: ff6b fe3e 4347 2e3e 6ac8 c03e 35cd 22bd
000001c0: 2def 97be 9d95 29be d61a bcbe 59d3 edbe
000001d0: d3c0 3bbf 3411 253f 41b7 913e 4ab3 e43d
000001e0: 9203 863d bef7 21be e2e5 91be a0d9 ebbe
000001f0: 5dfc 61bf 71d4 4ebf eaf2 5f3f 27ef a63e
00000200: a38d 95bf 670b 3f3d b829 afbd 9b22 dbbf
00000210: ca87 71bf 5387 d5be c51f 39bf 6a75 0b40
00000220: d66f 6a3f de15 51be 6082 943f 0eff b2bf
00000230: 1c7b eebf 6973 a23f 27ae c0bf 477d 13c0
00000240: 97b2 b1bf c8ff aabe dc16 84be 10e0 4cbf
00000250: 940a 073e 0274 24bd 789c 96be 5c8a 7a3f
00000260: 1def 7f3f 2f89 e53d 5224 86be 13c0 103d
00000270: 9282 0dbe 37b9 3bbf 8b95 5ebf 64d6 243e
00000280: 3907 0dbf ac16 48bf f335 8dbd 9e1e 2fbf
00000290: 1a3b 95bf 73d2 c4be a4be 66bf 49c7 bbbf
000002a0: 1e62 41bd 4602 70bd 1d19 fabd d342 11bf
000002b0: 9480 36bf 4cee 3e3f 3fb1 89bf 0105 70bf
000002c0: b9a8 dd3e 6a4c cdbd 0fea 573e 8352 5e3f
000002d0: 6ff1 2cbf db01 94bf e233 afbf 8cd3 abbf
000002e0: 15f7 dabf 57e5 0bc0 a2f0 e0be 2677 43bf
000002f0: 6526 bcbf 4a60 cebf f764 12c0 0dbe b7bf
00000300: 345b 09c0 3045 37c0 4a16 03c0 d7dc e1be
00000310: 01e3 4abf 1609 6cbf 1704 9a3e 8941 36be
00000320: a72f 363e b107 49bf 775c 76bf 803f 0abf
00000330: 0da4 2cbf bb97 fabe b2e9 a43d 33d2 c53d
00000340: 2720 b5bd 76a0 ed3e a7d6 7e3e c043 4abd
00000350: 1ccb dabe 05eb a13b bd16 53be 1bbb 61bf
00000360: f578 9fbf 0884 50bf c20b 2fbf 22d1 22bf
00000370: a94c babe 7211 07bf aa7a 15bf d5bf ffbe
00000380: 4d2e 03bf 8bc0 1ebf 5cce 893e 20b4 af3d
00000390: c2c1 a2be 31ee 2e3f 4e6f 253f 4020 02bf
000003a0: 1b82 1f3f 5ad2 033f d222 c93e e51d d5bd
000003b0: 2121 e53e 4c44 733f 6a49 973e d406 393f
000003c0: 0a62 343f 3049 053f 662f 483f cf7b dc3e
000003d0: 0db4 113f 41e4 f8be 21a9 853e 85b6 3e3f
000003e0: 55ae 34be a495 bdbd 3311 ed3e 033e 44be
000003f0: 3814 8e3e 2e3f 11bf 2bf6 d2be 7a35 f9be

up_blocks.0.transpose_conv.weight f4 [12, 6, 2, 2]
-0.5553442 -0.16789435 -0.5412837 -0.44046786 -0.2479325 -0.14557615 0.12705477 0.10606087
-0.098767 0.3983896 0.27250677 -0.51510143 0.2750238 0.315752 0.096836045 -0.5881583
0.2036125 0.18281193 -0.48390642 -0.103390194 0.37171307 -0.18666764 -0.6761049 -0.21368979
-0.47997418 -0.6842427 -0.3408796 -1.127185 -0.2638921 -0.47158393 0.44695106 0.13035768
-0.89000076 0.16462867 -1.2054334 -0.5247006 -0.68495333 0.66723204 -0.26325345 1.457861
-0.15627448 -0.881053 -0.71323013 0.47594437 -0.10968546 -0.24826105 0.20533058 0.3694844
0.497754 -0.039907858 -0.19659124 -0.65245336 0.097338535 0.89678526 -0.07612021 -0.26659545
-0.15551487 1.3732257 -0.64616776 0.37947175 -0.532562 0.20283832 0.52085 -0.16565129
-0.39054412 0.75509155 0.10528482 -0.3165567 0.5663659 -0.59796447 0.39911804 -0.93817836
-0.048708014 -1.1828113 -0.212841 -0.15037724 -0.814749 -1.0777562 0.21696356 0.4272948
-0.2855637 -0.53647965 -0.34180737 0.7103862 0.02911994 -0.17093775 -1.1601095 0.81770337
-1.2579396 -0.21477404 -0.28119767 0.5084546 0.049618084 -1.0400816 -0.011214887 0.5412933
-0.37460694 -1.2402753 0.7938408 -0.7055458 0.544065 0.91381824 0.86057836 -1.273571
-0.5192421 0.3182773 -0.40398127 -0.5099489 0.19444284 0.7324948 -0.38157097 -0.14924648
0.44752368 0.7060765 -1.112967 0.06206466 0.5353697 1.1658581 0.20909394 0.22557749
-0.3900216 -0.3098281 -0.16693018 -0.65958446 0.070069924 0.674652 0.2989583 0.20101506
-0.7746482 -0.8116858 -0.67923754 -0.5061821 -0.31147066 0.681228 0.6054642 -0.01595894
0.021438248 0.12010071 -0.521776 -0.025911223 0.6165365 -1.0658935 0.29463312 -1.0847912
0.41023213 -0.33210668 0.4752869 0.30525097 -0.91875255 -1.0758891 -0.62395626 0.3822093
0.013234863 -0.3501858 -0.44315094 0.44820833 0.46173748 0.2654815 -0.25606537 0.074135326
-1.057173 -0.6937563 -0.48681828 0.6143498 -0.1430797 -0.7605059 -0.41301066 0.090592705
0.7252125 -0.14035496 -0.44114706 0.47978786 -0.6087428 -1.0613835 -0.3637568 1.0074282
0.061129984 -0.32336158 -0.32505193 0.2438997 0.084616184 -0.62189287 0.30396584 -0.031708818
-1.0530838 -1.0847182 0.5552316 -0.04092399 -0.67041934 -0.80261457 0.47138405 0.3598993
1.526133 0.9197849 0.8355138 1.0143896 0.14608493 -0.064828046 -0.9579932 0.33795986
-0.6077203 -0.052871063 -0.36732945 0.461667 -0.09982369 -0.099338815 0.8672378 0.050843056
-0.29389676 -0.2900905 0.80049783 -0.046179987 0.2751236 0.0030322312 0.4779306 -0.022849333
-0.17496392 -0.36167613 -0.05439406 0.5349309 -0.24491765 -0.5939126 -0.18692125 0.42906836
-0.73443556 0.30064377 -0.57558745 0.8251261 -0.046632607 -1.386995 -0.076341435 -0.41939622
-0.49080506 -0.062067833 0.30640525 -0.50729513 0.41179326 -1.2428943 -0.041428614 0.026892029
-0.5227988 1.2621385 0.38394672 -0.38981384 0.9669988 1.3768455 0.14377934 -1.1764243
0.29472148 1.1127523 0.47476062 -0.49975505 0.47038022 0.10276916 -0.28487664 -0.902017
00000000: 0a2b 0ebf 7fec 2bbe 9291 0abf 0185 e1be
00000010: 04e2 7dbe ea11 15be a51a 023e 7136 d93d
00000020: 5a46 cabd b9f9 cb3e 0286 8b3e b0dd 03bf
00000030: ebcf 8c3e 3faa a13e fa51 c63d 8b91 16bf
00000040: cc7f 503e 0d33 3b3e 95c2 f7be 3dbe d3bd
00000050: 2d51 be3e cd25 3fbe 3615 2dbf 7fd1 5abe
00000060: 2dbf f5be 882a 2fbf c587 aebe 9947 90bf
00000070: de1c 87be 7373 f1be c5d6 e43e 7c7c 053e
00000080: 17d7 63bf 6b94 283e a44b 9abf c752 06bf
00000090: 1a59 2fbf b8cf 2a3f 28c9 86be 309b ba3f
000000a0: 6b06 20be b08c 61bf 4096 36bf fbae f33e
000000b0: c5a2 e0bd 2538 7ebe 2e42 523e 0f2d bd3e
000000c0: 9dd9 fe3e 6c76 23bd 374f 49be 2f07 27bf
000000d0: 6d59 c73d b893 653f eae4 9bbd 337f 88be
000000e0: 4a3f 1fbe dcc5 af3f 406b 25bf 1f4a c23e
000000f0: fc55 08bf d9b4 4f3e 6d56 053f 7ea0 29be
00000100: 66f5 c7be ae4d 413f 919f d73d b813 a2be
00000110: 5bfd 103f 3314 19bf 3359 cc3e 752c 70bf
00000120: 0e82 47bd 5c66 97bf fef2 59be 7efc 19be
00000130: 6493 50bf eaf3 89bf b22b 5e3e 62c6 da3e
00000140: 6835 92be bb56 09bf 6001 afbe dfdb 353f
00000150: f18c ee3c 4e0a 2fbe 787e 94bf 0255 513f
00000160: 2a04 a1bf baed 5bbe 24f9 8fbe 152a 023f
00000170: 553c 4b3d 6521 85bf a5be 37bc 3392 0a3f
00000180: 7bcc bfbe 57c1 9ebf 2739 4b3f a69e 34bf
00000190: d847 0b3f feef 693f dd4e 5c3f 6004 a3bf
000001a0: 0ded 04bf 3ef5 a23e a2d6 cebe 038c 02bf
000001b0: 061c 473e c784 3b3f 455d c3be 12d4 18be
000001c0: d321 e53e 6ec1 343f b475 8ebf 8337 7e3d
000001d0: fd0d 093f d73a 953f b91c 563e c9fd 663e
000001e0: e9b0 c7be caa1 9ebe bfef 2abe 87da 28bf
000001f0: d280 8f3d feb5 2c3f 1011 993e e4d6 4d3e
00000200: 584f 46bf a4ca 4fbf 83e2 2dbf 2695 01bf
00000210: 1579 9fbe f564 2e3f b4ff 1a3f 53bc 82bc
00000220: 449f af3c 5cf7 f53d 1d93 05bf c643 d4bc
00000230: 56d5 1d3f 336f 88bf 27da 963e 70da 8abf
00000240: f209 d23e e309 aabe ce58 f33e db49 9c3e
00000250: 5e33 6bbf bcb6 89bf 99bb 1fbf f0b0 c33e
00000260: 0ad7 583c 8e4b b3be aee4 e2be 907b e53e
00000270: db68 ec3e 31ed 873e 001b 83be 43d4 973d
00000280: 7251 87bf 039a 31bf 3f40 f9be 0746 1d3f
00000290: 7c83 12be 84b0 42bf 2276 d3be ab88 b93d
000002a0: 87a7 393f 36b9 0fbe 07de e1be c1a6 f53e
000002b0: 91d6 1bbf 6adb 87bf 553e babe 68f3 803f
000002c0: 6f63 7a3d a68f a5be 356d a6be d8c0 793e
000002d0: 404b ad3d 5f34 1fbf 69a1 9b3e 1be1 01bd
000002e0: 73cb 86bf 0cd8 8abf a823 0e3f ea9f 27bd
000002f0: 9aa0 2bbf 2678 4dbf 4059 f13e b944 b83e
00000300: 5358 c33f 0677 6b3f 3be4 553f 85d7 813f
00000310: 4a97 153e 91c4 84bd 0b3f 75bf 1309 ad3e
00000320: 8f93 1bbf 548f 58bd 9b12 bcbe 9e5f ec3e
00000330: 5d70 ccbd 2672 cbbd 4c03 5e3f cf40 503d
00000340: a379 96be be86 94be 6ded 4c3f 3a27 3dbd
00000350: 00dd 8c3e 66b8 463b 52b3 f43e 862e bbbc
00000360: be29 33be 9d2d b9be 4ecc 5ebd 3bf1 083f
00000370: b1cb 7abe a80a 18bf 4968 3fbe d9ae db3e
00000380: f803 3cbf fbed 993e b359 13bf 773b 533f
00000390: d501 3fbd 0d89 b1bf e658 9cbd 1abb d6be
000003a0: cd4a fbbe d73a 7ebd 26e1 9c3e 18de 01bf
000003b0: 91d6 d23e 2917 9fbf 0db1 29bd ac4c dc3c
000003c0: 24d6 05bf c18d a13f aa94 c43e ae95 c7be
000003d0: 3c8d 773f 793c b03f e43a 133e 1295 96bf
000003e0: bce5 963e ab6e 8e3f d313 f33e e5df ffbe
000003f0: add5 f03e a378 d23d 5adb 91be 96ea 66bf

up_blocks.0.transpose_conv.bias f4 [6]
-0.5317963 2.5010068 1.3990129 -1.5200292 -1.7094274 -0.34729895
00000000: cd23 08bf 7f10 2040 db12 b33f 5190 c2bf
00000010: 84ce dabf 2bd1 b1be

up_blocks.0.conv_block.conv1.weight f4 [6, 12, 3, 3]
0.5342734 -0.5640283 0.39497337 0.087468766 0.092912704 -0.26277065 1.2545767 -0.51150733
1.0911608 0.09762799 1.7886816 -0.11402993 -0.11567332 0.7905385 -0.11302135 -0.11839576
0.6420198 0.039311048 0.3605876 0.6305423 0.21344875 0.20092182 0.7348345 -0.012068432
0.42093304 1.1965191 0.28473347 0.1392803 -0.12102868 0.22880554 -0.16819364 0.82436115
-1.2120923 -0.8072718 -1.1012778 -0.64894307 0.6283905 1.8803792 0.3094658 0.0033595497
-0.01839059 -0.46127203 0.0018604003 -0.0005238768 0.027373321 0.42777383 0.034676738 1.4976821
0.10437134 0.22228475 0.27193394 0.43829647 -0.5012804 1.5001045 -0.24906157 0.26027274
0.21450837 -1.0127808 -0.03526847 -0.32801 -0.10217503 0.5360186 0.013790225 -0.28271767
-0.40962493 -0.2475639 1.958402 1.7100405 1.0776207 0.7971354 0.829978 0.4294734
-0.32664755 -0.034684718 0.8258379 0.63253814 0.69788027 0.658446 -0.87129 -0.31718934
0.7749712 -1.9001719 -1.6949183 -1.5837088 1.3466636 0.8056339 0.2581038 -1.676531
-1.7613997 -1.2855278 0.800429 1.6702785 0.5163339 -0.108281046 0.90736777 -0.3136884
-0.041497007 1.1929992 -0.15535924 0.18696181 0.9836677 0.78258616 -0.0139571205 1.0167577
0.5375873 0.3158414 1.205611 0.33834073 -0.32097942 0.7382884 0.0062069166 0.01089593
0.38826784 0.22434522 0.2304125 0.41072142 0.19432546 -0.01776206 0.48186004 0.43459374
-0.11258939 1.1645756 0.50179034 -0.21409544 0.9248502 0.025314156 0.73139846 -0.06969053
1.0940912 0.19065799 -0.18789594 0.47295526 0.48332337 0.065742545 0.5480031 -0.090632975
0.3159546 -0.16298304 0.08799654 -0.1536426 0.2614697 0.57194376 -0.55963403 0.76520115
0.33192223 0.07540425 0.6453078 0.20917764 0.15352093 0.42914057 -0.22401382 0.36582425
0.15811974 -0.110210136 -0.5145291 -0.399666 -0.14077178 -0.4225379 -0.26717037 -0.36477777
-0.3133179 -0.7952491 0.9044574 0.20960464 0.79045296 -0.0016928277 -0.098342285 0.028695492
0.6612686 0.24445297 0.5017981 1.3359596 0.63394946 0.8796231 0.22615047 -0.21170259
-0.009572597 1.1019062 0.41143036 0.5158814 0.41143236 1.6048919 1.0871674 1.2319033
2.4823697 1.1708258 0.6836142 1.2540003 -0.4588995 -0.8807546 1.030723 0.7636203
0.18672803 2.246809 1.4578408 -0.36154374 1.0299366 -0.07815859 -0.31976727 -0.25322497
0.9230602 0.35155675 0.40542176 1.174322 -0.1986383 -0.24342814 0.917976 0.53560483
-0.058909185 0.7600687 0.092407934 -0.16539627 0.21601482 0.3517227 -0.3586345 0.6289518
0.1768532 0.23885033 -0.274588 0.19339673 -0.6191924 0.018433204 0.18822743 0.14681807
-0.14101297 -0.36194998 0.34363338 -0.19726977 -0.70386505 0.17314158 -0.54767036 -0.10836086
0.3355449 -0.096679494 -0.805838 -0.09319706 -0.56332606 -0.9753401 -0.15629174 -0.5279256
-1.2615715 0.031431355 -0.9697061 0.253213 0.937378 -0.33995622 1.5704284 0.56877977
0.90845764 -0.2360034 -0.7639293 -0.19376269 1.6657546 -0.17330691 1.0689024 0.21068972
00000000: 24c6 083f 2964 10bf f339 ca3e d322 b33d
00000010: 0449 be3d e089 86be f895 a03f 25f2 02bf
00000020: 28ab 8b3f 2ff1 c73d 85f3 e43f 8688 e9bd
00000030: 22e6 ecbd bb60 4a3f bd77 e7bd 7a79 f2bd
00000040: 695b 243f 9f04 213d f09e b83e 386b 213f
00000050: 4f92 5a3e 73be 4d3e 1d1e 3c3f acba 45bc
00000060: 8984 d73e 8a27 993f 96c8 913e 7f9f 0e3e
00000070: e2dd f7bd 004c 6a3e f43a 2cbe 5509 533f
00000080: d725 9bbf 5da9 4ebf acf6 8cbf 2221 26bf
00000090: 33de 203f 44b0 f03f 4d72 9e3e e42b 5c3b
000000a0: dda7 96bc d92b ecbe add8 f33a c754 09ba
000000b0: 043e e03c 2c05 db3e 3209 0e3d 0cb4 bf3f
000000c0: a4c0 d53d 9d9e 633e ed3a 8b3e 6568 e03e
000000d0: ea53 00bf 6d03 c03f ff09 7fbe 7842 853e
000000e0: 15a8 5b3e cda2 81bf ac75 10bd edf0 a7be
000000f0: 2441 d1bd 8438 093f 65f0 613c 5fc0 90be
00000100: 5cba d1be 6481 7dbe ebac fa3f 9be2 da3f
00000110: 7aef 893f 1111 4c3f 7079 543f f0e3 db3e
00000120: 593e a7be 9011 0ebd 1d6a 533f 05ee 213f
00000130: 48a8 323f eb8f 283f dd0c 5fbf a466 a2be
00000140: 8364 463f d538 f3bf 15f3 d8bf f8b6 cabf
00000150: 795f ac3f 063e 4e3f 2e26 843e 9198 d6bf
00000160: 8c75 e1bf 2d8c a4bf eae8 4c3f b0cb d53f
00000170: 752e 043f 74c2 ddbd 4149 683f c49b a0be
00000180: c4f8 29bd 33b4 983f 7e16 1fbe eb72 3f3e
00000190: a5d1 7b3f 9157 483f 68ac 64bc 1e25 823f
000001a0: 529f 093f f7b5 a13e 7651 9a3f ff3a ad3e
000001b0: 6a57 a4be 7800 3d3f 6463 cb3b d884 323c
000001c0: 0bcb c63e c1ba 653e 41f1 6b3e 144a d23e
000001d0: 41fd 463e bd81 91bc 5cb6 f63e 1283 de3e
000001e0: 4495 e6bd d010 953f 5575 003f d63b 5bbe
000001f0: fcc2 6c3f a25f cf3c ee3c 3b3f e9b9 8ebd
00000200: 2e0b 8c3f d93b 433e cb67 40be 3127 f23e
00000210: 2976 f73e 07a4 863d ee49 0c3f c89d b9bd
00000220: cdc4 a13e 07e5 26be 8837 b43d 7c54 1dbe
00000230: 5bdf 853e e86a 123f 2d44 0fbf 39e4 433f
00000240: b6f1 a93e 8b6d 9a3d e432 253f aa32 563e
00000250: 9734 1d3e 50b8 db3e e163 65be 514d bb3e
00000260: 24ea 213e dab5 e1bd 2eb8 03bf 06a1 ccbe
00000270: 7a26 10be e356 d8be 8eca 88be 27c4 babe
00000280: 346b a0be 7295 4bbf 858a 673f 99a2 563e
00000290: 205b 4a3f dfe1 ddba ae67 c9bd cf12 eb3c
000002a0: e648 293f e151 7a3e d775 003f b900 ab3f
000002b0: 834a 223f fb2e 613f fd93 673e 90c8 58be
000002c0: 62d6 1cbc 430b 8d3f 00a7 d23e ce10 043f
000002d0: 43a7 d23e 196d cd3f 4d28 8b3f 02af 9d3f
000002e0: 25df 1e40 9fdd 953f 5701 2f3f 1583 a03f
000002f0: e0f4 eabe 2279 61bf bbee 833f 9f7c 433f
00000300: a235 3f3e b8cb 0f40 879a ba3f 431c b9be
00000310: f6d4 833f 9c11 a0bd 89b8 a3be b4a6 81be
00000320: ac4d 6c3f 3fff b33e 7193 cf3e 2f50 963f
00000330: d767 4bbe 3a45 79be 7a00 6b3f 661d 093f
00000340: c24a 71bd dd93 423f 5f40 bd3d a45d 29be
00000350: fd32 5d3e ff14 b43e f19e b7be fc02 213f
00000360: 0119 353e 2e95 743e cc96 8cbe cb09 463e
00000370: 6583 1ebf 3b01 973c b1be 403e 7a57 163e
00000380: b465 10be 8251 b9be b7f0 af3e 1601 4abe
00000390: 8030 34bf 074c 313e 2034 0cbf 4cec ddbd
000003a0: 8bcc ab3e e6ff c5bd 664b 4ebf 1ade bebd
000003b0: 2336 10bf e4af 79bf f10a 20be 2226 07bf
000003c0: 2d7b a1bf 2abe 003d a93e 78bf 22a5 813e
000003d0: 01f8 6f3f be0e aebe cc03 c93f 8d9b 113f
000003e0: ae90 683f e0aa 71be df90 43bf ba69 46be
000003f0: 7237 d53f 5e77 31be cbd1 883f 0cbf 573e

up_blocks.0.conv_block.conv2.weight f4 [6, 6, 3, 3]
-0.45009255 -1.9933046 -0.23386373 -0.445338 -2.0883377 -0.1582452 -0.344736 -1.5206863
0.23723827 -0.076938964 0.20412359 -0.101168506 -0.51136225 -0.6104293 0.2630514 -0.6567197
-0.16510509 -0.121080145 0.16137823 -0.7063345 0.11815832 -0.12260607 -1.2779524 -0.13781443
-0.06294281 -0.3576038 -0.1147478 0.123714 -1.3157432 0.5733584 0.6006582 -1.4613214
1.5980529 0.211934 -1.2398123 0.8433034 -2.2016027 -0.93007505 -1.395021 -2.71613
0.07849746 -1.3759314 -2.3016455 0.595615 -1.3983477 0.005658305 0.01537987 -0.13837087
-0.22823904 -1.0111349 -0.1908853 0.022500359 -0.16268614 0.13350078 -0.30035046 0.20213231
-0.24170907 -0.31798863 0.35616854 -0.41709334 -0.22334582 0.40814853 -0.5837882 0.14688121
-0.21427958 -0.018943066 -0.80684423 1.5101398 -0.42814705 -1.0304904 1.1919653 -0.3940386
-0.2297642 -0.26808205 -0.3271061 -0.17270157 0.19458546 -0.5366178 -0.07837106 0.25639483
-0.43683663 -0.3268726 -0.19490238 -0.34522134 -0.29108852 0.0010355134 0.6627401 0.038212318
-0.14073884 -0.16139665 0.3458497 0.54943085 0.08750961 0.48736048 -0.5708941 -0.11078313
0.21230118 -0.5559501 -0.49855265 -0.4312202 0.4795131 -0.501514 0.9037758 2.7994955
1.3068646 -0.1617873 1.7145796 -0.8181279 0.47776806 0.15245768 0.37346092 0.43718565
-0.25981897 0.250613 0.13754877 -0.5579737 -0.027494028 0.16871655 0.5228004 -0.17812645
0.19700916 0.30938956 -0.28257746 0.099469826 0.06567594 0.115355514 -0.13739708 -0.38574255
-0.26455498 -0.04692159 -0.45120403 -0.117292285 0.13521461 -0.0699836 -0.009268947 -0.0007350965
-0.14593664 -0.04641206 -0.12973344 0.25936198 -0.1771731 -0.12366804 0.030760236 -0.45194137
-0.7068383 -0.45296767 -0.7040858 -1.1722574 -0.45544833 -0.7251392 -0.22847547 0.12818033
-0.4075386 -0.043116417 -3.3203511 -0.02587274 -0.41636273 -7.115805 -0.5121908 -0.4650353
-6.5639095 0.29369035 -0.40396148 0.83742046 0.46323946 -0.82267594 1.4818248 -0.057132892
-0.9715027 1.0208539 -0.25777808 -0.47941405 -0.4248377 -0.23538938 -0.6493266 -1.5624942
-0.6443462 -0.90316355 -1.3922123 -0.55103683 0.105453804 -0.13040449 -0.25292456 0.30955362
0.14306234 0.11529455 0.12947431 0.11925119 0.2689666 -1.222825 0.7130312 -1.3369677
-1.6636224 0.5045663 -1.8224127 -1.0848926 0.658678 -0.24935254 0.7633093 -3.0982594
0.2667545 1.2743526 -2.5456772 0.83857596 1.0269613 -2.0119097 0.3672753 0.48731235
0.2883482 0.31602168 0.39387676 -0.18144728 -0.01391919 0.64835584 0.23231904 0.17625523
-1.2698218 -0.15603721 -1.9498769 -1.99175 0.1726189 -2.6097355 -1.1852148 0.25214818
-1.6593926 0.7249808 -0.38950786 0.6081399 0.985242 -1.7534117 0.54598063 0.85052526
-2.179685 0.9847757 0.63508046 0.44043162 0.5907729 0.54946 0.3396573 0.6465056
0.29629084 0.021586604 0.3575198 -0.37338823 -0.5514139 -1.7734244 -0.6737854 -0.7344502
-2.2408774 -0.87178636 -0.975829 -1.6031942 -0.46351224 -0.92633575 -0.1790087 -0.554475
00000000: 8872 e6be 9b24 ffbf f979 6fbe 5803 e4be
00000010: 53a7 05c0 080b 22be 3d81 b0be d9a5 c2bf
00000020: 97ee 723e 2d92 9dbd c605 513e 6f31 cfbd
00000030: a3e8 02bf 1845 1cbf acae 863e c81e 28bf
00000040: 4f11 29be def8 f7bd 5640 253e 56d2 34bf
00000050: fdfc f13d e418 fbbd f293 a3bf 3a1f 0dbe
00000060: 29e8 80bd d817 b7be e500 ebbd c45d fd3d
00000070: 466a a8bf 9ec7 123f bcc4 193f 940c bbbf
00000080: ff8c cc3f 3a05 593e 2bb2 9ebf bbe2 573f
00000090: 0fe7 0cc0 6619 6ebf 0c90 b2bf 13d5 2dc0
000000a0: 47c3 a03d 851e b0bf 294e 13c0 3a7a 183f
000000b0: 0ffd b2bf 4d69 b93b dafb 7b3c 18b1 0dbe
000000c0: 7fb7 69be de6c 81bf 7077 43be ac52 b83c
000000d0: 3297 26be 6eb4 083e 89c7 99be c6fb 4e3e
000000e0: 9582 77be 68cf a2be b95b b63e 428d d5be
000000f0: c4b4 64be d8f8 d03e 2573 15bf 0768 163e
00000100: 1b6c 5bbe 7d2e 9bbc 588d 4ebf 434c c13f
00000110: 1736 dbbe 1ce7 83bf 5292 983f 6dbf c9be
00000120: 4e47 6bbe 0d42 89be 737a a7be aed8 30be
00000130: 6941 473e c95f 09bf 0281 a0bd 2f46 833e
00000140: 0da9 dfbe d85b a7be 7d94 47be dac0 b0be
00000150: 8e09 95be 10ba 873a 56a9 293f 8584 1c3d
00000160: d81d 10be 2a45 25be 3613 b13e 80a7 0c3f
00000170: 3d38 b33d 5087 f93e 1e26 12bf 44e2 e2bd
00000180: 7b65 593e bf52 0ebf 4b42 ffbe e5c8 dcbe
00000190: be82 f53e 3963 00bf da5d 673f ef2a 3340
000001a0: 5747 a73f 92ab 25be 5877 db3f d470 51bf
000001b0: 049e f43e de1d 1c3e 4536 bf3e ccd6 df3e
000001c0: fe06 85be 5950 803e 96d9 0c3e 5dd7 0ebf
000001d0: 283b e1bc 08c4 2c3e 3fd6 053f c866 36be
000001e0: c5bc 493e 4f68 9e3e fead 90be d6b6 cb3d
000001f0: 1b81 863d 833f ec3d d2b1 0cbe 0c80 c5be
00000200: c073 87be da30 40bd 3704 e7be f036 f0bd
00000210: b375 0a3e 9053 8fbd c8dc 17bc 7eb3 40ba
00000220: 6a70 15be 921a 3ebd d8d8 04be 18cb 843e
00000230: dd6c 35be ab45 fdbd e4fc fb3c dc64 e7be
00000240: 5bf3 34bf 61eb e7be f83e 34bf 880c 96bf
00000250: 8630 e9be b9a2 39bf 79f5 69be b441 033e
00000260: e6a8 d0be d79a 30bd a280 54c0 12f3 d3bc
00000270: 7f2d d5be adb4 e3c0 f01e 03bf 1b19 eebe
00000280: 8c0b d2c0 955e 963e 0ad4 cebe 3061 563f
00000290: b92d ed3e e49a 52bf 6fac bd3f 2e04 6abd
000002a0: 67b4 78bf 57ab 823f 7dfb 83be c275 f5be
000002b0: 5484 d9be ea09 71be 453a 26bf cfff c7bf
000002c0: dff3 24bf ba35 67bf 0334 b2bf c010 0dbf
000002d0: 2af8 d73d c188 05be 547f 81be d07d 9e3e
000002e0: ef7e 123e 8d1f ec3d ea94 043e f839 f43d
000002f0: fdb5 893e 8885 9cbf 3689 363f c221 abbf
00000300: 94f1 d4bf 422b 013f d244 e9bf c3dd 8abf
00000310: 1f9f 283f 4656 7fbe 3d68 433f e249 46c0
00000320: 0c94 883e fc1d a33f 60ec 22c0 eaac 563f
00000330: 7873 833f 21c3 00c0 820b bc3e 0181 f93e
00000340: 60a2 933e 98cd a13e 37aa c93e 51cd 39be
00000350: 500d 64bc a6fa 253f 0be5 6d3e 407c 343e
00000360: 8589 a2bf 38c8 1fbe 9195 f9bf aaf1 febf
00000370: 02c3 303e e805 27c0 1eb5 97bf 9119 813e
00000380: fa66 d4bf 5798 393f 936d c7be 0eaf 1b3f
00000390: d238 7c3f cb6f e0bf 63c5 0b3f 06bc 593f
000003a0: f67f 0bc0 431a 7c3f a294 223f 4180 e13e
000003b0: e53c 173f 69a9 0c3f 90e7 ad3e 6481 253f
000003c0: 6fb3 973e 64d6 b03c d60c b73e be2c bfbe
000003d0: 7629 0dbf 92ff e2bf 337d 2cbf ee04 3cbf
000003e0: 896a 0fc0 642d 5fbf eecf 79bf 7835 cdbf
000003f0: 7a51 edbe 5724 6dbf 0f4e 37be 13f2 0dbf

up_blocks.0.attention_gate.gating_conv.weight f4 [6, 6, 1, 1]
-1.3219022 -0.8083245 -0.98655635 -0.024389394 0.31227767 -0.9134132 -0.2884052 -0.34369496
-1.0775522 -0.08304759 -2.4051592 -0.3928525 -1.2305132 -0.33020478 0.56640613 0.15797015
-1.3033962 -1.2172351 -0.49478412 -0.76893586 0.7539974 0.3056588 -1.5100977 0.16039163
-0.42488262 -0.64001256 -0.30120915 0.8444005 -2.2389946 -0.5766745 0.7234737 0.28315923
0.73299265 0.66194344 2.104773 0.44206417
00000000: 1734 a9bf 5bee 4ebf f58e 7cbf 44cc c7bc
00000010: dce2 9f3e 73d5 69bf d9a9 93be c9f8 afbe
00000020: 3bed 89bf db14 aabd 21ee 19c0 f623 c9be
00000030: 7581 9dbf 9a10 a9be feff 103f edc2 213e
00000040: b0d5 a6bf 5cce 9bbf 5854 fdbe fbd8 44bf
00000050: f905 413f 4f7f 9c3e e24a c1bf b43d 243e
00000060: 378a d9be ddd7 23bf 1638 9abe a22a 583f
00000070: b04b 0fc0 f1a0 13bf 9335 393f 3ffa 903e
00000080: 68a5 3b3f 2075 293f 9ab4 0640 3c56 e23e

up_blocks.0.attention_gate.gating_conv.bias f4 [6]
0.26191744 -0.26906523 -0.0076513733 0.15952165 0.29873434 -0.39046243
00000000: 0b1a 863e ebc2 89be 5fb8 fabb a559 233e
00000010: b5f3 983e b1ea c7be

up_blocks.0.attention_gate.input_conv.weight f4 [6, 6, 1, 1]
0.5958156 2.2472165 0.47583562 0.1542883 -0.5820477 0.63168746 1.7796546 0.9942388
0.20780922 0.31597173 -0.6113612 -0.08259279 0.5456398 -1.6524541 0.09555133 0.17846201
-0.6787605 -0.41093925 1.2537584 0.72171783 0.7236235 0.25927767 1.0841391 0.5157853
-0.5081762 0.43776536 0.50989664 0.461848 1.3667628 0.7925431 -0.37594044 0.107208386
-0.58005506 0.3177309 1.8031695 0.4547921
00000000: 5f87 183f 65d2 0f40 baa0 f33e c1fd 1d3e
00000010: 1401 15bf 45b6 213f b9cb e33f 6f86 7e3f
00000020: f1cb 543e 0cc7 a13e 2b82 1cbf 6926 a9bd
00000030: 0daf 0b3f 9e83 d3bf 6ab0 c33d bfbe 363e
00000040: 40c3 2dbf a166 d2be 287b a03f 80c2 383f
00000050: 643f 393f 0bc0 843e 12c5 8a3f 810a 043f
00000060: d617 02bf c822 e03e 9688 023f 5777 ec3e
00000070: 15f2 ae3f 1be4 4a3f 447b c0be 1290 db3d
00000080: 7d7e 14bf a0ad a23e 42ce e63f 83da e83e

up_blocks.0.attention_gate.input_conv.bias f4 [6]
0.12902187 0.05571046 -0.20158745 -0.3719477 0.33591598 0.23297925
00000000: 4f1e 043e a730 643d f16c 4ebe ee6f bebe
00000010: 2efd ab3e 1d92 6e3e

up_blocks.0.attention_gate.conv.weight f4 [1, 6, 1, 1]
-0.8816894 -0.4850612 0.22844921 1.8348838 -0.71039677 -0.37796322
00000000: 66b6 61bf f159 f8be 97ee 693e 79dd ea3f
00000010: 90dc 35bf 6584 c1be

up_blocks.1.transpose_conv.weight f4 [6, 3, 2, 2]
-0.8208239 0.2305034 -0.79074985 -0.045642424 0.9266246 0.7095798 0.75656396 1.1015222
0.56649095 0.228079 0.17157464 -0.0701402 -0.64886594 -0.17084251 -1.1225413 -0.40706393
0.1651601 0.11793944 0.15352099 0.17814532 -0.27895856 -0.9283147 -0.6915451 -0.3897509
-2.0414612 -0.024472812 -2.1034014 -0.25082874 -0.32173556 1.3288012 0.7824931 0.7984224
0.5682612 -0.09465741 0.33879912 -0.56955457 -0.40211982 0.14569543 -0.7125914 -0.029461319
0.9124068 0.24451871 0.52190894 0.8591979 0.5692267 0.6237563 0.5863699 0.23601481
-1.4249812 -0.13323422 -1.3157719 0.029196179 0.122566156 0.5576253 0.23471315 2.0459607
-0.9196562 -1.90381 -1.1474555 -1.3084046 0.70468056 0.66616493 0.9282138 -0.14603986
-0.11608017 0.32032192 0.22959323 0.008644316 0.9832325 1.4957721 1.185507 1.035835
00000000: 8421 52bf 1509 6c3e 956e 4abf 8df3 3abd
00000010: 4537 6d3f 06a7 353f 2dae 413f aefe 8c3f
00000020: 8d05 113f 8b8d 693e 43b1 2f3e aaa5 8fbd
00000030: 141c 26bf 57f1 2ebe 6faf 8fbf af6a d0be
00000040: bb1f 293e 3c8a f13d 9b34 1d3e ba6b 363e
00000050: a8d3 8ebe 08a6 6dbf 1a09 31bf 6e8d c7be
00000060: 4da7 02c0 357b c8bc 219e 06c0 a06c 80be
00000070: 86ba a4be 2816 aa3f 7851 483f 6965 4c3f
00000080: 9179 113f bfdb c1bd 1477 ad3e 54ce 11bf
00000090: a6e2 cdbe 2f31 153e 646c 36bf dd58 f1bc
000000a0: 7e93 693f 1d63 7a3e d39b 053f 65f4 5b3f
000000b0: d7b8 113f 7eae 1f3f 561c 163f dead 713e
000000c0: c965 b6bf 8d6e 08be 376b a8bf d32c ef3c
000000d0: f703 fb3d 88c0 0e3f a558 703e 05f1 0240
000000e0: 976e 6bbf 0cb0 f3bf d2df 92bf cd79 a7bf
000000f0: f265 343f c989 2a3f 6b9f 6d3f 798b 15be
00000100: 71bb edbd 3c01 a43e 7d1a 6b3e e4a0 0d3c
00000110: 20b5 7b3f 7675 bf3f b2be 973f 3e96 843f

up_blocks.1.transpose_conv.bias f4 [3]
-0.44129255 -3.7455273 0.11827664
00000000: 19f1 e1be b8b6 6fc0 063b f23d
