saved_models/SkidFCN_10.pth (torch, 970594 bytes, 81 tensors)

encoder.0.weight f4 [32, 1, 3, 3]
000000 30 da cc 3d 7b a7 64 be 98 aa b9 3e b7 4a 79 3e
       0.100025535 -0.22329514 0.36262965 0.24344908
000010 d5 a1 bd 3e e5 f7 a4 bd b9 78 7f bd bd 18 30 3e
       0.3703753 -0.08055095 -0.06237099 0.17196937
000020 eb 00 86 3e 27 b4 45 bd f8 60 81 be 4b 5e 84 be
       0.26172575 -0.04826751 -0.25269294 -0.2585319
000030 1d ba 85 3e b5 aa 6c bd 6f d5 3f be c7 d5 95 be
       0.26118556 -0.057779986 -0.18733762 -0.29264662
000040 e8 37 25 bd 4a 07 ee bd cf e6 27 be ad 9a 27 3e
       -0.04033652 -0.11622484 -0.1639664 0.16367598
000050 53 ac 34 3e 2a 03 1d be 6d a6 c8 be 1e a2 5f be
       0.17643861 -0.15333238 -0.39189473 -0.21839187
000060 49 be 74 be a6 85 b9 be 38 80 23 3c 77 af b2 3e
       -0.23900713 -0.36234778 0.0099793 0.34899494
000070 ba 7e 00 3e ff ad c8 3e d6 94 61 3e 8b b2 68 be
       0.12548342 0.39195248 0.22029433 -0.22724359
000080 8b 1c 1d be 08 23 87 3e 42 d6 a8 3e 9b 7e f2 bc
       -0.1534292 0.26393914 0.32975966 -0.029601386
000090 af f5 50 3b fa 7f a0 3d fd cf b9 3a 5d f9 f1 3d
       0.003188472 0.078369096 0.0014176365 0.118151404
0000a0 0c b9 63 3e 62 f0 a6 bd 22 0c aa bd 4d 29 8d 3e
       0.22238559 -0.08151318 -0.083030954 0.27570572
0000b0 08 c0 5c 3e 56 35 55 3e 79 c9 85 3d 62 4a 2d bd
       0.21557629 0.20821127 0.065325685 -0.042307265
0000c0 d8 f4 76 3d 16 02 46 3e c2 a4 5b 3e 75 4e f3 3d
       0.060292095 0.19336733 0.21449569 0.11880199
0000d0 ca 5c be 3e 2e 9e 21 be 03 91 af be 40 4a 51 3e
       0.37180167 -0.15782997 -0.34290323 0.2043848
0000e0 c2 e1 c4 3d e0 f6 ae be 8e 18 4a 3d db b9 1f 3e
       0.096133724 -0.34172726 0.049339823 0.15598242
0000f0 9c 64 7f be 21 db c4 be d6 f5 e2 bd 53 cc 1e be
       -0.24940723 -0.38448432 -0.11082046 -0.15507631
000100 50 8e a7 3d 78 5e dc 3c 5d 91 30 3d 4b 14 5c be
       0.08181441 0.026900515 0.04310738 -0.21492116
000110 22 14 d8 3d 6a 78 ac be 15 a4 79 bd ef 38 ab be
       0.10550715 -0.3368562 -0.060947496 -0.33441874
000120 e0 e7 24 be 26 02 b4 be 2c 51 08 3e 6c 66 b3 bd
       -0.16104078 -0.3515789 0.13312215 -0.0875977
000130 ed a7 ae be d7 1d 9e be 51 30 3a 3e 0e d5 2b ba
       -0.34112492 -0.3088214 0.18182494 -0.000655488
000140 7a 47 51 3e d5 d9 c6 3e cd df c7 3e cd bf 28 3e
       0.20437422 0.38838068 0.39037934 0.16479416
000150 ef 2e 0f be 9d d7 08 bc 99 35 82 3e 79 20 a3 bd
       -0.13982747 -0.008352187 0.25431517 -0.07965178
000160 10 e4 9c 3e 50 fc 80 3d 02 09 ca 3e 95 78 19 3e
       0.30642748 0.06298125 0.39459997 0.14987405
000170 8f 63 cb 3e 47 9e 38 3e 5e 08 ae bd 03 02 80 bd
       0.39724395 0.18029128 -0.0849769 -0.06250384
000180 36 1e c2 bd 36 59 0f be b6 ed d5 3e 7f f2 47 be
       -0.094784185 -0.13998875 0.41782922 -0.19526099
000190 e0 09 7e be 30 cb 83 be fb ff 90 3d 16 f0 3a be
       -0.24808455 -0.25740957 0.070800744 -0.18255648
0001a0 0d 1b dc bd cc f1 b5 3d 61 85 90 be d2 8e de bd
       -0.10747347 0.0888401 -0.2822676 -0.108670846
0001b0 43 0f aa bd 47 d8 28 3e 01 00 5b 3e 6a 99 49 3e
       -0.08303692 0.16488753 0.2138672 0.19687429
0001c0 ba f6 a0 3e 8a c5 1c 3e 8f 8a 8a 3d 28 07 fe 3d
       0.31438237 0.1530973 0.06764709 0.12403709
0001d0 6d 07 2a be 1c 36 59 be e9 5a 70 3d 91 96 b8 3e
       -0.16604395 -0.21212047 0.05868045 0.36052373
0001e0 48 37 30 bc 91 2d 06 3e 4d a8 ad bc d9 63 e0 3d
       -0.010755368 0.1310332 -0.021198416 0.109565444
0001f0 ca 0b 64 3e 06 ba c7 3e d6 36 b3 3e 27 2b de 3d
       0.22270122 0.39009112 0.35002774 0.108480744
000200 eb c7 93 3c f2 36 b0 3d 68 10 35 be fc 00 75 3e
       0.018039664 0.0860423 -0.1768204 0.23926157
000210 b4 d7 5f 3e 97 38 85 3e 4b 5f d5 bd f7 7b 2b bd
       0.21859628 0.26019737 -0.10418566 -0.04186627
000220 d4 66 97 bd c0 8e 89 3e e7 fa c0 3e 75 97 87 3d
       -0.0739266 0.26866722 0.37691423 0.06620685
000230 65 5e 83 3d 8a 7d 69 3c e8 19 03 3e be e9 50 3e
       0.06414489 0.014251122 0.12802851 0.20401666
000240 95 5f 85 3e a0 dc 83 3e 9d 41 3e be 58 9a ea 3d
       0.26049486 0.2575426 -0.18579717 0.1145522
000250 ca 36 bb 3e 08 62 8e bc 65 eb 14 3e 18 91 a4 3d
       0.36565238 -0.01738073 0.14542921 0.08035487
000260 65 0d 12 3c e9 29 6e bc ab 86 af be ab cc 93 be
       0.008914326 -0.014536359 -0.3428243 -0.28867087
000270 c1 c1 28 bc ae 82 b0 be 55 5f b4 3d 18 ee 3d bd
       -0.010300101 -0.344747 0.08807246 -0.046369642
000280 90 8e 07 be 81 5e a6 bd 2d ba c1 bc e0 5e 5a 3e
       -0.13237977 -0.08123494 -0.023648346 0.21325254
000290 ce 86 cf be 4b 70 2d be 73 8b 5a be ce 04 cf be
       -0.40532535 -0.16937368 -0.21342258 -0.40433353
0002a0 29 de cf 3d c3 6c 74 3c 6e d4 c9 3c e2 db a2 3e
       0.101497956 0.014918509 0.024637427 0.31808382
0002b0 6b 57 99 3e 52 7c 64 3e bb 1a 28 3e 09 74 6f 3e
       0.29949507 0.2231305 0.16416447 0.23384108
0002c0 8c 2c 82 3c 31 b5 41 3e 9b 9b 0d 3e 58 74 7f 3e
       0.015890382 0.18916775 0.1382889 0.24946725
0002d0 0f 37 57 bd 1f 21 95 3d 50 2a 39 be e6 f8 2a 3e
       -0.052542742 0.07281708 -0.18082547 0.1669651
0002e0 98 4f bd 3e c5 fe bd bc 94 bb 68 bd e9 e4 86 3e
       0.36974788 -0.023192773 -0.056819513 0.2634652
0002f0 50 b1 96 3e a7 9b f7 bd b5 56 0f 3e 2d 4f ff 3d
       0.29432154 -0.12090235 0.1399792 0.124662735
000300 c2 22 b3 3e bb 42 94 3e 0c bd c8 3d 4e 00 89 3e
       0.34987456 0.2895716 0.09801683 0.26758045
000310 05 3c cb 3e f0 28 a5 3d 94 47 68 3e 6d 53 86 3e
       0.3969423 0.08064449 0.22683555 0.26235524
000320 6d 71 0f be 99 30 5c 3e fb 19 a4 3e e0 0b 56 3e
       -0.14008112 0.21502914 0.32051072 0.20902967
000330 83 e3 30 be 67 10 61 be d6 45 b6 3e d7 83 9e 3e
       -0.17274289 -0.21978913 0.35600156 0.3095996
000340 93 e1 9f bd b2 77 0f 3e a9 59 ea 3d 60 ca ab bd
       -0.07806697 0.14010504 0.114428826 -0.08388209
000350 74 18 c0 3d 58 14 45 3d e5 79 a1 3e 5e 7f 33 bd
       0.09379664 0.048115104 0.3153831 -0.04382264
000360 b1 26 9e 3e b7 8d f7 bd c8 14 3b be ee d2 d4 3e
       0.30888894 -0.12087577 -0.18269646 0.41567177
000370 42 3b 42 bd bd 04 41 3e 3d 5e 9e 3d ec 20 81 3e
       -0.047419794 0.18849464 0.07732818 0.2522043
000380 78 65 93 3e 47 73 a8 be 41 7b b0 be 71 bb f0 3d
       0.28788352 -0.3290045 -0.34469035 0.117545016
000390 b9 97 25 3d 78 99 9e 3d 2e ea d6 be 6d dd 84 bd
       0.040427897 0.077441156 -0.4197554 -0.06487546
0003a0 39 7b b6 bd 2b 0c 45 be c6 70 2f be 31 31 af 3e
       -0.089102216 -0.19242923 -0.17132863 0.34217218
0003b0 b3 31 d3 3d 30 a0 71 3e 74 86 73 3d 35 56 f7 bd
       0.10312214 0.23596263 0.059454396 -0.120769896
0003c0 b0 54 29 bd 1f 3a 50 3e 41 81 a9 3e 73 8b a7 3c
       -0.04134053 0.20334671 0.33106425 0.020452237
0003d0 46 90 34 3d 29 12 bb be 90 16 42 be 5d aa ea bd
       0.044082902 -0.36537293 -0.1895392 -0.114582755
0003e0 d2 60 5c 3e 1c 56 01 be 7d 5a c1 be 58 b8 6a be
       0.21521309 -0.12630504 -0.3776435 -0.22921884
0003f0 28 40 02 bd 56 2f c7 3e 8c 3b a2 3e 7d 52 c4 3e
       -0.031799465 0.38903302 0.31686056 0.38344184

encoder.0.bias f4 [32]
000000 43 b2 80 3d fd 10 c2 be 2d 9f 89 3e e7 a8 86 3e
       0.06284001 -0.37903586 0.26879254 0.26300737
000010 ec 20 9f be 2a 0b 55 3d ad d9 6a be bd f4 3c 3d
       -0.31079805 0.0520126 -0.22934599 0.046131838
000020 2e 13 4a 3e 2a fd 2f be 35 31 36 3d 17 94 e5 be
       0.19733879 -0.17186418 0.04448052 -0.44839546
000030 9c 76 88 be 29 4c 56 be 40 97 97 be 3b 73 47 be
       -0.26652992 -0.2092749 -0.29607582 -0.1947755
000040 cc 3c ef 3d 35 79 51 3d ad 0a 73 3e 32 3e c6 3e
       0.11681518 0.051140983 0.23734541 0.38719326
000050 a9 a1 65 be 4b bc fc 3d 83 d1 21 3c 02 85 cb bd
       -0.2242495 0.123406015 0.009876612 -0.099374786
000060 05 66 17 be fc c0 d8 bd 04 74 a5 be bb 57 1f 3e
       -0.14785011 -0.10583684 -0.32315075 0.1556081
000070 7e aa 14 bd 23 d0 19 be c8 c5 94 be f5 0b d1 3d
       -0.036295407 -0.15020804 -0.29057145 0.10207359

encoder.1.weight f4 [32]
000000 d1 0a 55 3f 94 3a 67 3f 14 0c 59 3f 2c dc 57 3f
       0.8321963 0.9032376 0.84784055 0.8432033
000010 df 1d 62 3f a7 d3 54 3f b5 dd 5b 3f 6f 25 5e 3f
       0.8832683 0.83135456 0.85885173 0.8677587
000020 2e 8e 63 3f fa 07 50 3f fb 7e 54 3f af ad 46 3f
       0.88888824 0.8126217 0.83006257 0.7760877
000030 b2 82 6a 3f ec 4f 61 3f c3 80 5d 3f 32 13 63 3f
       0.91605675 0.88012576 0.865246 0.88701165
000040 e1 4d 59 3f 80 46 4c 3f 7b a0 61 3f a1 e0 5c 3f
       0.8488446 0.79795074 0.881355 0.86280257
000050 19 f2 6a 3f 15 8f 5f 3f 39 30 6a 3f 50 e8 6c 3f
       0.9177566 0.873277 0.9147983 0.9254198
000060 2e 0a 66 3f 07 de 59 3f 8e c6 63 3f df f7 4f 3f
       0.8985928 0.8510441 0.88974845 0.81237596
000070 db 85 54 3f 2b f6 65 3f aa 10 5d 3f b1 75 51 3f
       0.8301675 0.8982875 0.8635355 0.8182021

encoder.1.bias f4 [32]
000000 ad 7d 4a be 2d fb db bd cd fb 15 be 27 a2 24 be
       -0.19774504 -0.10741267 -0.14646836 -0.16077481
000010 ba 24 24 be 84 48 4a be 9f ce 1e be 5e c4 30 be
       -0.16029635 -0.19754225 -0.15508507 -0.17262408
000020 96 1c df bd ec 59 4a be e3 63 47 be f4 52 54 be
       -0.10894124 -0.19760865 -0.19471698 -0.20734769
000030 cf f4 e2 bd db 6b 18 be c5 ad 3b be 47 7f 03 be
       -0.1108185 -0.14884894 -0.18328007 -0.12841521
000040 98 01 41 be aa fa 46 be 02 bd 1c be 95 3c fc bd
       -0.18848264 -0.19431558 -0.15306476 -0.123162426
000050 51 f3 d1 bd f7 7a fd bd b1 55 c9 bd de 93 c5 bd
       -0.10251487 -0.12376969 -0.098307975 -0.09647344
000060 14 0f ee bd 28 19 08 be 49 6a 0e be 32 55 4a be
       -0.1162397 -0.13290846 -0.13907732 -0.19759062
000070 da 08 3c be 33 d2 fc bd c5 2a 38 be 47 fd 41 be
       -0.18362752 -0.1234478 -0.17985065 -0.18944274

encoder.1.running_mean f4 [32]
000000 b3 b2 41 3f 3c e5 7a bf c0 d5 e5 be 81 09 84 3f
       0.756633 -0.98006034 -0.4488964 1.03154
000010 96 80 14 3e f3 bd 2d 3f f1 2e 4a bf 41 7f ee be
       0.14502177 0.67867965 -0.78977877 -0.46581462
000020 b5 29 7d be 25 dd 23 3f 11 82 3e 3f 08 06 98 bf
       -0.24722941 0.64009315 0.74417216 -1.187684
000030 f5 c8 a9 3e db 40 d4 3e 67 7a 9e 3e 01 25 d5 3e
       0.3316113 0.4145573 0.3095276 0.41629794
000040 1e f5 3d 3f 51 23 29 bf bc 33 92 be 09 b7 bf 3f
       0.74202144 -0.66069514 -0.28555095 1.4977733
000050 79 7c 97 3e 4c 37 8e 3f 19 cf 26 3f 09 bd c9 3e
       0.29587153 1.1110625 0.65159756 0.39402035
000060 80 b4 11 3f 03 1f 56 bf 8c 1f 7e 3e 82 6b 06 bf
       0.56916046 -0.8364107 0.24816722 -0.52507794
000070 ea 42 35 3f 9c 65 01 3f a2 f3 4d bf 30 78 9b 3f
       0.7080523 0.5054567 -0.8044988 1.2146053

encoder.1.running_var f4 [32]
000000 34 01 a4 3d ee 77 76 3d 12 b8 ad 3d b9 44 cb 3d
       0.08008042 0.060172968 0.08482374 0.09925217
000010 04 ac 0c 3d 5a 93 82 3d 27 31 69 3d af fa 37 3d
       0.034343734 0.06375761 0.05693164 0.044916805
000020 a5 e1 1b 3d fb 5a dd 3d 13 c0 ac 3d f8 31 b4 3d
       0.03805699 0.10808369 0.08435073 0.08798593
000030 4b 76 6f 3d 2a b8 86 3d a6 2f 7a 3d c0 e7 77 3d
       0.058462422 0.06578095 0.061080597 0.06052375
000040 af ce 83 3d 5a e4 a7 3d dc d2 49 3d b8 2d 45 3e
       0.06435906 0.081978515 0.049273357 0.19255722
000050 8b 0f 3d 3d 53 7c 1d 3e 42 b3 90 3d f2 5c 27 3d
       0.0461574 0.15379457 0.07065441 0.040860124
000060 4b 5a ae 3d 09 b6 b3 3d 91 9c 61 3d 66 37 9d 3d
       0.08513316 0.08774955 0.055080954 0.07676582
000070 2a a0 bd 3d d0 25 98 3d cf d7 3d 3d 35 72 49 3e
       0.092590645 0.07429087 0.04634839 0.19672473

encoder.2.weight f4 [64, 32, 3, 3]
000000 7f cf b3 bd 4a c2 b1 bd e5 0b 6e bd d2 b1 9e bc
       -0.08779811 -0.08679636 -0.058116812 -0.0193719
000010 6a 35 cb bd a3 99 2e bd 63 20 2a bc 7a f7 e6 bc
       -0.09922297 -0.04262699 -0.010383698 -0.028194178
000020 05 2f 85 bd d5 92 e7 3d c9 2c bf 3d 2e 81 d4 3d
       -0.06503109 0.11307303 0.09334714 0.103762016
000030 77 f5 1b 3d ec c7 ae 3d 76 5c cd 3d 18 25 f1 3d
       0.03807589 0.08534226 0.10027401 0.11774653
000040 4b cb e6 3d fa b3 bb 3d 0e 22 ad 3c 95 0b 16 3d
       0.11269244 0.09165187 0.021134403 0.03663214
000050 a8 cc a7 3d b7 28 8f 3d 65 b2 b7 3d 5a bd cf 3d
       0.08193332 0.069901876 0.08969573 0.10143538
000060 76 72 98 3d e5 ec bc 3c b7 9e a7 3d 06 db 98 bd
       0.07443707 0.023062179 0.08184569 -0.074636504
000070 ea 29 df bc c0 b2 3d bc 83 6b c6 bd 04 24 ae bd
       -0.027241666 -0.011578262 -0.09688475 -0.08502963
000080 86 bf cf bd 58 06 9a bd ae 80 2f bd b2 43 ca bd
       -0.10143952 -0.07520741 -0.042847328 -0.09876193
000090 70 8b c8 bd ec 26 8f 3b d0 21 5b bc ed 19 a5 bd
       -0.097922206 0.0043686535 -0.013374761 -0.080615856
0000a0 49 c7 8c bd 9d b9 5e 3c c2 98 4f bd 26 29 0d bd
       -0.06873948 0.013594058 -0.05068279 -0.03446307
0000b0 3b 60 f9 bd f4 a9 42 bd 7c 2a 64 bd e1 96 ae bd
       -0.12176558 -0.04752536 -0.05570458 -0.085248716
0000c0 eb 43 10 bd c5 30 ba bd f4 50 70 bd e8 19 8d bd
       -0.03522102 -0.09091333 -0.058670953 -0.06889707
0000d0 32 a2 c9 bd 21 ae 8c bd 43 5d 02 3e e1 b1 c1 3d
       -0.098453894 -0.0686915 0.12730889 0.09457756
0000e0 d7 7f af 3c b5 9d 6e 3d 98 28 d1 3d 42 b6 b1 3d
       0.021423263 0.05825587 0.10212821 0.08677341
0000f0 ba 9d f8 3d f6 b0 b4 3d 95 d9 dc 3d 43 45 9c bd
       0.12139459 0.08822815 0.10783688 -0.07630398
000100 b6 2a 24 3d 7a 09 1a 3d f3 ee 53 bd 8f b9 a1 3d
       0.040079795 0.037606694 -0.05174155 0.078967206
000110 78 30 1d 3e cd d2 e6 3d b7 75 43 bd 85 7b d8 3d
       0.1535052 0.11270676 -0.047719683 0.105704345
000120 55 c5 8f 3d 7e fe f2 3d d7 22 80 bc 93 63 2f 3d
       0.0702006 0.11864947 -0.015641613 0.04281957
000130 15 dc 9d 3d c8 72 15 bc 17 0e 90 bd 5b c0 60 bd
       0.07707993 -0.009121604 -0.070339374 -0.054870944
000140 9d 08 95 3d 9a 06 cf bc b7 8d 20 bd 55 83 47 bd
       0.072770335 -0.025271703 -0.03919765 -0.048709232
000150 28 d4 19 bd 72 3d fa bd 05 a7 db bc 07 99 8d bd
       -0.037555844 -0.12218751 -0.02681304 -0.06913953
000160 25 62 0c 3b 68 29 00 bd 51 78 cc bd 73 39 91 bd
       0.0021420803 -0.031289488 -0.09983886 -0.07091036
000170 51 45 78 bd de 56 63 bd c7 d8 26 bc 11 5e cb bd
       -0.06061298 -0.055502765 -0.01018352 -0.09930051
000180 41 1e c6 bd ab d1 a7 bc 60 96 f5 bc d2 5e 84 3d
       -0.09673739 -0.02048572 -0.029978931 0.06463398
000190 da 46 bd 3c f7 9e 8c 3c 7e 71 b7 3d 1f c1 a0 3d
       0.023105074 0.017165644 0.08957194 0.07849335
0001a0 ea 5e 8a 3d 42 1f 30 3d c3 be 9a 3d e4 1d 89 3d
       0.06756385 0.04299856 0.07555916 0.06695154
0001b0 c5 e1 4a bd be 8e 83 bd 94 70 4c 3c f3 b7 63 3b
       -0.049531717 -0.0642371 0.012478013 0.0034747093
0001c0 d5 20 c9 bd 99 e5 56 bc bf 7e eb bc 85 a1 c8 bd
       -0.09820715 -0.013116264 -0.02874696 -0.097964324
0001d0 ec c2 08 bc 22 2d 38 bd e8 0f 40 bc 74 62 66 bd
       -0.008347254 -0.044964917 -0.011722542 -0.056246236
0001e0 2d 79 f7 bc 99 13 91 bd 71 91 43 3b a9 24 95 bd
       -0.030209148 -0.07083816 0.0029841329 -0.07282383
0001f0 56 51 ce bd 01 1f 86 bd 5e 9f 9a bd f6 26 38 bd
       -0.10074107 -0.06548882 -0.07549928 -0.04495903
000200 ff 0b c1 bc c8 d0 5a bd 72 05 ba bd b3 ac 44 bd
       -0.02356529 -0.053421766 -0.0908307 -0.04801626
000210 a7 8d d1 bd ee 03 c5 bd 03 aa 15 bd eb b9 6c bd
       -0.10232096 -0.0961989 -0.03653909 -0.057794493
000220 01 34 a5 bd 93 5a 99 bd b2 76 b1 bd 0c a5 bf bd
       -0.080665596 -0.07487979 -0.086652175 -0.09357652
000230 15 b9 cf 3a 08 98 e2 bb 6f 7c 61 bd 73 c7 e7 bc
       0.0015848005 -0.006915096 -0.05505031 -0.028293347
000240 77 69 a7 bd 2f 4e a1 bd 92 c7 91 bd 8d bf cf bd
       -0.08174413 -0.078762405 -0.07118143 -0.10143957
000250 0a df f8 bc 80 1a a9 bd 1d 73 fd bc 99 25 1c bc
       -0.03037979 -0.082570076 -0.03093868 -0.009530448
000260 8d 2f 9b bd 19 ba c3 3d e0 08 be 3c c6 45 d8 3c
       -0.07577429 0.0955698 0.023197591 0.026400458
000270 c7 7c d3 3c f6 69 6f 3d 01 8e 8a 3d 73 f8 5c 3d
       0.025816334 0.05845066 0.06765366 0.053947877
000280 ba 5c f1 3c 74 55 b2 3d 9b e0 c3 3d a7 64 24 3d
       0.02946316 0.08707705 0.095643245 0.040135052
000290 4c 3c f3 3d 08 28 1c 3d 50 2e 52 3e 7c ce 04 3d
       0.11876735 0.038124114 0.2052548 0.03242348
0002a0 65 9c cd 3d dc e3 e6 3c d1 fa f5 3d 35 de 8f bd
       0.100395955 0.028184824 0.1201073 -0.070248045
0002b0 75 d7 32 3c 92 04 6b bd 0f 65 b3 bc db 4f 9b bc
       0.010915627 -0.057377405 -0.021898774 -0.018958976
0002c0 5b 6b 22 bd e6 3d 7b bc 8a 83 1b bd ca 93 42 bc
       -0.039653163 -0.015334582 -0.037967242 -0.011876056
0002d0 71 41 be bd a9 87 96 bd 55 53 a3 bd e8 64 f6 bc
       -0.09289826 -0.07350094 -0.07974879 -0.030077413
0002e0 c5 a5 a1 bd 8b 8e fc bb 38 dc bd bd 56 7a 10 bd
       -0.07892946 -0.007707422 -0.09270519 -0.03527292
0002f0 30 d7 1b bd f4 e7 07 3b 5f 6e e8 bb 92 bc 32 bd
       -0.038047016 0.002073762 -0.0070932354 -0.043636866
000300 c6 e7 ae bd 5b 7a af bc 9f 67 a3 bd 75 ab 44 bd
       -0.08540301 -0.021420648 -0.079787485 -0.048015077
000310 f9 72 93 bd f6 f0 6c bd 24 c9 61 bd 8a 4c 6d 3c
       -0.07199664 -0.057846986 -0.055123463 0.01448358
000320 ee fa a0 bd ca ea 11 bd 92 7d bc 3a df db aa bd
       -0.07860361 -0.035624303 0.0014380685 -0.08342718
000330 98 fb 12 bd 8f 73 62 3c e6 fe 9f bc 47 3b c9 3b
       -0.03588447 0.013821497 -0.019530725 0.0061410996
000340 f1 41 96 bd f2 eb ac bc d9 f9 d8 bc e2 44 b6 bd
       -0.07336796 -0.021108601 -0.026486324 -0.08899857
000350 c6 04 10 bd c6 fc 3c bd 52 37 ff 39 ee 9d a6 3b
       -0.035160802 -0.0461395 0.00048678607 0.0050847447
000360 74 ed 05 bd 11 c1 49 bd a4 4b c9 bc a9 66 19 bd
       -0.032697156 -0.049256388 -0.024572201 -0.03745142
000370 52 93 37 bd b9 49 92 bc 8a 47 83 bd b4 90 8e bd
       -0.04481823 -0.01785742 -0.06410129 -0.06961194
000380 29 9e c5 bd 9b e0 c9 3d cc 63 de 3d 0e 9d f0 3d
       -0.09649307 0.09857293 0.108588785 0.11748706
000390 9f 56 e4 3d 17 35 f8 3c 9b f6 8d 3d 36 3d 99 3d
       0.11149334 0.030298753 0.06931802 0.07482378
0003a0 dc 57 b9 3d 57 a0 c6 3d 62 27 86 3b cf 0f a7 bd
       0.09049961 0.09698551 0.0040940503 -0.08157312
0003b0 77 ad a6 bd f6 bb bc bd 79 91 af bd c8 8c 8b bd
       -0.081385545 -0.09215538 -0.085726686 -0.06813961
0003c0 82 a4 d0 bd 55 77 ef bb 1f 62 6b 3c 24 16 dd 3d
       -0.101876274 -0.0073079267 0.014366656 0.107952386
0003d0 55 a4 01 3d 06 e6 cb 3d 20 ea 4c 3d 2b 3c e5 3d
       0.03165086 0.09955983 0.050027966 0.11193117
0003e0 29 11 b2 3d 60 d3 48 3d 15 43 80 3d 8f 7e dd 3d
       0.08694679 0.049029708 0.06262795 0.10815155
0003f0 b2 97 1b 3c 11 62 a0 bd 04 30 20 bd 6b 8c 0d bc
       0.009496616 -0.07831205 -0.03910829 -0.008639435

encoder.2.bias f4 [64]
000000 9a e6 0e 3d 8d 07 a3 3d 5d fd 0c be e9 32 91 3d
       0.034887888 0.079604246 -0.13768525 0.070897885
000010 60 1c a7 bc d4 76 24 bd 97 ec b2 bd 31 03 24 bd
       -0.020399272 -0.040152386 -0.08736532 -0.040042106
000020 16 51 7f bd 4b 15 11 be c2 f6 16 3c 87 cb a8 3d
       -0.06233319 -0.14168279 0.009214105 0.08241945
000030 ef c2 be 3d d1 e9 e9 3c 89 3d bc 3b 75 4a f0 3d
       0.093145244 0.028553875 0.0057446402 0.117329516
000040 20 4d 9c 3d a2 2c ca 3d f6 70 70 3d cf c7 ca bd
       0.07631898 0.09871794 0.058701478 -0.09901392
000050 9d c2 ab 3d d0 ec 12 3e bc 38 92 bc 79 3f c5 3d
       0.08386729 0.1434815 -0.017849319 0.09631247
000060 13 e4 b1 bd 77 ac dd 3c c5 a7 74 3d b8 27 44 bd
       -0.0868608 0.027059777 0.05973031 -0.04788944
000070 19 27 87 bb 70 48 6a 3d 6e bf 0d bd 43 b6 d5 3c
       -0.004124534 0.057197988 -0.03460639 0.026087886
000080 ae 44 ae bc 23 4b c1 bb 7c 25 46 bd 5f 51 db 3d
       -0.021272983 -0.0058988496 -0.04837559 0.1070888
000090 a6 7a 06 3d 62 a6 90 bc 05 e6 04 3d 74 62 ea bb
       0.03283181 -0.017657463 0.032445926 -0.00715285
0000a0 54 1b 72 3c 09 22 99 bd 47 c7 66 bd 1b 7b 82 bc
       0.014777023 -0.07477195 -0.05634239 -0.015927842
0000b0 a7 7f ad 3c d3 87 e8 bd fb 9c ad bd 7a 18 ca bd
       0.021179033 -0.113540314 -0.08477207 -0.0986795
0000c0 b0 fd 86 3d 75 ae c7 3d c4 37 9e 3d 3c fb ab bc
       0.06591356 0.09750072 0.0772548 -0.020993821
0000d0 ba 8c 90 3c e1 85 92 3d 36 dc d4 bd 52 cd b2 bd
       0.017645229 0.071544416 -0.103935644 -0.08730568
0000e0 a9 da 4c 3d a0 e4 56 3d e4 77 42 3c 4a 70 48 bc
       0.050013218 0.052464128 0.011869404 -0.012233803
0000f0 14 bb 00 3d d2 25 0e 3e 8c c5 9b bd c4 df de bd
       0.03142841 0.13881615 -0.076060385 -0.10882524

encoder.3.weight f4 [64]
000000 65 f4 86 3f 63 85 6c 3f fb b0 89 3f 5c 8f 87 3f
       1.0543333 0.9239103 1.0757135 1.0590625
000010 9c 59 85 3f f1 b6 86 3f 8e 90 74 3f 3e da 83 3f
       1.0417972 1.0524579 0.9553307 1.0300977
000020 6e 28 8a 3f 3a df 85 3f ef ce 65 3f 1c f2 62 3f
       1.0793588 1.0458748 0.8976888 0.8865068
000030 b0 e7 7f 3f 7e 7c 85 3f 7a 02 85 3f 5e a6 88 3f
       0.999629 1.0428617 1.0391381 1.0675771
000040 66 bb 84 3f a4 42 70 3f 12 f7 6a 3f 40 51 86 3f
       1.036969 0.93851686 0.9178325 1.0493546
000050 58 ec 6b 3f e4 32 86 3f 41 43 75 3f 0c df 8b 3f
       0.92157507 1.048428 0.95805746 1.0927444
000060 34 1b 83 3f fe 7c 76 3f 1b c3 62 3f 2f 59 77 3f
       1.0242677 0.9628447 0.8857896 0.9662046
000070 2e 4d 81 3f 95 e9 73 3f 79 6c 85 3f de 50 8a 3f
       1.0101678 0.9527829 1.0423728 1.0805929
000080 f6 4e 97 3f 10 10 6f 3f 2c fa 6a 3f a1 2b 85 3f
       1.1820972 0.93383884 0.9178798 1.040394
000090 cb 2e 82 3f 2e 3c 89 3f 18 f0 50 3f f6 e2 82 3f
       1.017053 1.072149 0.81616354 1.0225513
0000a0 27 73 81 3f 3a 0d 75 3f 62 65 5f 3f 83 ae 79 3f
       1.0113267 0.9572331 0.8726407 0.9753191
0000b0 70 33 81 3f 43 a3 73 3f 5f 11 69 3f c7 d5 70 3f
       1.0093822 0.9517099 0.9104213 0.940762
0000c0 4d fa 7a 3f 08 cb 84 3f ad bc 6a 3f c9 6a 73 3f
       0.9803818 1.037446 0.91694146 0.95084816
0000d0 4d 1e 7b 3f 49 34 88 3f b0 67 74 3f 9b 09 6e 3f
       0.9809311 1.0640956 0.95470715 0.92983407
0000e0 e3 02 7a 3f 0b 00 86 3f 8a ed 6d 3f 1c 5e 8c 3f
       0.97660655 1.0468763 0.9294058 1.096622
0000f0 c1 d5 70 3f 9e bc 7f 3f fc 1b 84 3f e9 32 83 3f
       0.9407616 0.9989718 1.032104 1.0249912

encoder.3.bias f4 [64]
000000 df 53 e4 3c 09 82 21 be d7 9e f9 bb 11 68 a9 bd
       0.027872024 -0.1577226 -0.007617812 -0.08271802
000010 73 d8 40 3c d6 1f 81 3c b9 be ce 3c 46 58 85 3b
       0.0117703555 0.01576225 0.025237428 0.004069361
000020 90 0f fc b9 b7 e1 95 bd 3a fa d2 bd 50 4b eb bd
       -0.0004807678 -0.07318442 -0.10301633 -0.11488974
000030 f0 98 88 3d a1 00 9b bd 15 60 86 3d 9c 26 21 3b
       0.066697955 -0.07568479 0.06561295 0.0024589663
000040 80 ed 4f bd 2a 53 9c bd d0 a3 d9 3c 9b 63 c6 3c
       -0.050763607 -0.0763305 0.02656737 0.024217417
000050 25 d6 8a bd 12 75 85 bc ea 5a 84 bc a7 87 9b 3d
       -0.06779126 -0.016291175 -0.016156632 0.07594233
000060 79 10 26 3c e5 52 1a bd ce 68 2a 3d 81 7d 60 bc
       0.010135763 -0.03767671 0.041603856 -0.013701797
000070 6b a3 d6 bd 9f e9 46 bd 51 e9 84 bd 12 82 94 bd
       -0.10480388 -0.048562642 -0.06489814 -0.072513714
000080 b4 13 1f 3e 76 cf 88 bd 7d 11 ce bd 2f 4e a4 b9
       0.1553486 -0.06680195 -0.100619294 -0.0003133877
000090 47 4e 56 bd 58 93 55 3c 70 b9 19 be 98 82 84 3c
       -0.052320745 0.013035618 -0.15012145 0.016175553
0000a0 be ef 1f bc b3 82 01 bc f5 b5 18 be 8e 5e 93 bd
       -0.009761749 -0.007904696 -0.14913161 -0.07195769
0000b0 01 03 c1 bd 76 c5 44 bd d2 a5 88 bd 1c e8 77 bd
       -0.09424401 -0.048039876 -0.06672253 -0.06052409
0000c0 b4 66 11 bd 90 82 04 bd 29 85 bb bd 99 5f ec bc
       -0.035498336 -0.032351077 -0.09156258 -0.028854178
0000d0 7a e6 ed bd a5 76 8c 3c ce df a3 bd 3f 75 85 bd
       -0.116162255 0.017146418 -0.08001672 -0.065165035
0000e0 58 d5 37 3d 03 f8 d6 bc d6 99 14 be 47 0c f8 3d
       0.044881195 -0.026241308 -0.14511809 0.12111717
0000f0 63 60 aa bd bb 77 c7 3d 7d c5 de 3c 5f 13 ab bd
       -0.083191656 0.09739634 0.02719378 -0.08353304

encoder.3.running_mean f4 [64]
000000 41 80 74 bf 0e 0b de bf a9 9d e7 3f 46 50 86 40
       -0.955082 -1.7347124 1.8094989 4.197299
000010 9a a8 94 bf 76 ec 2d 40 20 7e 0c 40 7e aa 05 c0
       -1.1613953 2.7175574 2.195198 -2.088531
000020 48 29 1e 40 5c 43 fa 3f a8 95 80 3f 2d d3 2e c0
       2.4712696 1.9551806 1.0045671 -2.7316391
000030 bc e7 01 40 da 4d cd 3f dc 27 11 c0 58 8f 04 40
       2.029769 1.6039383 -2.2680578 2.071249
000040 c6 e0 1d 40 d7 e0 f1 3e a6 87 dd bf 34 88 bd bf
       2.466844 0.47241852 -1.7307022 -1.4807191
000050 20 78 d6 3f e8 2f 2f 40 7c 6a 1a c0 a8 48 7e c0
       1.6755409 2.737299 -2.4127493 -3.9731846
000060 f3 4f 05 3f e1 e0 24 3f 5a 72 9b c0 53 96 42 bf
       0.5207512 0.6440564 -4.857709 -0.76010627
000070 5e 10 2d 40 7b 9e 5a bf 98 23 15 40 98 c7 25 40
       2.704124 -0.8539807 2.3302975 2.5903072
000080 41 e4 af 3f f8 be d1 be 55 ab 3b c0 5e 38 32 be
       1.3741533 -0.4096601 -2.9323323 -0.17404315
000090 c5 4a e1 3f 8d 48 13 40 56 4e d3 bf 94 6f 72 40
       1.7600943 2.3013031 -1.6508281 3.7880602
0000a0 42 9d fb bf f4 b2 0a bf 96 3e 06 c0 2f 2b 39 3f
       -1.9657366 -0.5417931 -2.09757 0.7233152
0000b0 f9 01 c7 3f 81 61 98 3f 5a 70 6e 3f 45 83 23 3f
       1.5547477 1.1904756 0.93140185 0.63872176
0000c0 2a e3 7e 3f 34 18 cd bf 17 0c 1c c0 a6 2b 48 c0
       0.99565375 -1.6023011 -2.438238 -3.127664
0000d0 47 de b8 3f 5e bc 0d 40 b3 7c a5 bf 9b f4 b9 3f
       1.4442834 2.214622 -1.292868 1.4527773
0000e0 38 c9 42 40 5a b6 29 40 18 89 aa bf 5f 43 a5 be
       3.0435314 2.6517549 -1.3323088 -0.32277963
0000f0 1a b9 38 40 a5 ee 4f 40 9d 96 d8 bf f6 99 d8 3f
       2.8862977 3.2489407 -1.6920964 1.6921985

encoder.3.running_var f4 [64]
000000 2c 78 c2 41 39 ce ca 41 9d 36 ee 40 c7 b1 50 41
       24.308678 25.350695 7.4441667 13.043403
000010 26 df b2 41 16 10 19 41 12 d1 89 41 b0 0b cf 41
       22.35896 9.566427 17.227085 25.880707
000020 87 88 a9 40 80 3f cd 40 a1 0a 26 41 62 7e 94 41
       5.297916 6.4140015 10.377595 18.56171
000030 9c f3 ae 40 f1 7e 68 40 e3 6f 62 41 38 14 0f 41
       5.4672375 3.632748 14.152316 8.942436
000040 04 fd d8 40 87 59 96 40 24 86 cf 41 c7 43 3a 41
       6.7808857 4.6984286 25.940498 11.641547
000050 e9 78 8d 41 33 71 18 41 28 e0 17 41 df 0a 29 41
       17.684038 9.527637 9.492226 10.565154
000060 4f 69 0d 41 76 b8 a3 40 b4 5e 5c 41 9e e8 95 41
       8.83821 5.116267 13.773121 18.738583
000070 62 ef bc 40 34 00 26 3f b8 67 da 40 b4 4c 84 40
       5.9042215 0.6484406 6.825161 4.134363
000080 6f 55 e2 40 9c 3a 87 41 ab bb 93 41 44 a4 51 41
       7.072929 16.903618 18.466635 13.102604
000090 3b 45 f0 41 c0 62 5d 40 58 28 be 41 82 fe 02 41
       30.033804 3.4591522 23.7697 8.187136
0000a0 06 7c e9 41 ce 60 3e 41 2a 36 d2 41 14 3b 70 40
       29.185558 11.898634 26.276447 3.7536058
0000b0 14 01 20 41 6e 1f b2 41 55 f8 9f 41 79 0f 67 41
       10.000263 22.265347 19.996256 14.4412775
0000c0 57 78 c0 40 e5 2a ad 41 8f f4 f0 41 29 2a d3 40
       6.01469 21.645945 30.119413 6.5988965
0000d0 d7 ed 16 40 b4 ad 68 40 48 01 b9 41 d0 34 a4 41
       2.3582666 3.635602 23.125626 20.525787
0000e0 61 30 b2 40 82 32 0f 41 51 01 a4 41 56 96 96 41
       5.5684056 8.949831 20.500643 18.823406
0000f0 2e 56 97 40 c0 b0 d8 40 20 d3 c6 41 37 df 8d 41
       4.72927 6.771576 24.853088 17.733992

encoder.4.weight f4 [32, 64, 3, 3]
000000 79 b3 d1 3c 66 66 78 3b 47 e7 a6 bc f2 08 fc bd
       0.025598275 0.003790283 -0.020373954 -0.12306394
000010 1e 52 10 3d 3d 16 d5 bc 41 c1 e1 bb be 4d 5e bd
       0.035234563 -0.02601158 -0.0068894927 -0.05427336
000020 cb 89 ea bb ce 36 1e bd 1a 4d 24 bd 0f d3 c6 bb
       -0.0071575395 -0.038626485 -0.040112592 -0.0060676406
000030 1a 4f 81 bc 46 d4 38 bd dc e5 4f bc 1f c5 2f bd
       -0.015784789 -0.045124315 -0.01268908 -0.0429126
000040 f2 a0 e0 bc ab 0e c5 3b 6a 97 05 be a0 9a b1 bd
       -0.027420495 0.0060137114 -0.13046041 -0.086720705
000050 fc 9e fb bd e6 ae e7 bd 02 1e 25 be df 3c 1e be
       -0.12286183 -0.11312656 -0.16124728 -0.15452908
000060 29 75 22 be 4d 24 e3 bd 14 77 e7 bd 2b 07 9b 3c
       -0.15865006 -0.11090908 -0.11302009 0.018924316
000070 00 a9 f2 3b 08 5e f5 3b 8a 73 6b 3d b4 68 d2 3c
       0.0074054003 0.007488016 0.057483234 0.025684692
000080 f7 eb 48 3d e6 2e 40 3d 88 4b 84 3b 55 06 43 3b
       0.04905316 0.046919726 0.0040373243 0.0029758413
000090 56 4f b1 bd b8 ac f3 3c 00 cc 71 bd eb 4a 64 bc
       -0.0865771 0.029745445 -0.05903244 -0.013933877
0000a0 67 7a b7 bc 10 3a 18 bd f4 92 c9 3c bd 82 70 bd
       -0.022397233 -0.037164748 0.024606206 -0.05871843
0000b0 bd ac 3c 3c 17 ff 31 be ff 45 35 be 96 11 15 be
       0.011515793 -0.17382465 -0.17702483 -0.1455749
0000c0 e0 b1 01 be f7 6c 4a be a3 80 57 be 0d b2 08 be
       -0.1266551 -0.1976813 -0.21045165 -0.13349171
0000d0 62 e1 0a be 9d 73 53 be 81 de 16 3d bd 92 a0 bd
       -0.13562539 -0.20649572 0.03683329 -0.07840488
0000e0 53 93 4c 3d e3 02 98 ba 00 e8 6b 3d 50 99 b2 bd
       0.049945187 -0.001159754 0.0575943 -0.08720648
0000f0 78 fc 5f bd b1 89 d7 bd c7 cd ef 3c 1e 6e a9 bc
       -0.054684132 -0.105243094 0.029272927 -0.02068239
000100 59 3a b7 bc e3 68 a8 bc 8a 4c cd ba d0 d7 83 bc
       -0.02236669 -0.020557826 -0.0015663069 -0.016094118
000110 89 63 5b bd eb 70 06 bd e6 c5 5a bb bd d1 85 bc
       -0.05356172 -0.03282253 -0.0033382117 -0.016335363
000120 c6 3f 56 3c 11 bd 4b bd 83 99 a0 3d 7f 07 fb 3c
       0.013076728 -0.049740855 0.0784178 0.030643223
000130 c3 ae d5 bc 34 81 1d bd 75 0d 3f 3a 06 55 19 bd
       -0.02608431 -0.038453296 0.0007288077 -0.0374346
000140 61 ea 14 3d 33 60 2b be 9d 8b 4c be 45 90 d5 bd
       0.036356334 -0.16735916 -0.19975133 -0.10427908
000150 a1 f7 ef bd e5 84 f5 bd 16 7e 12 be f3 96 fa bd
       -0.11717153 -0.11988238 -0.1430591 -0.122358225
000160 71 59 d4 bd ce 3b d3 bd ce e5 69 3d d5 68 8a 3d
       -0.10368622 -0.10314141 0.057103924 0.067582764
000170 5f 60 c6 3a fb 96 f2 3c 7f 29 ff 3c 75 8a b8 3c
       0.0015134922 0.029613009 0.031147717 0.022526959
000180 b1 0b c3 3c 87 05 51 bd 7b 21 3f 3d 4e ca 06 3d
       0.023809286 -0.051030662 0.04666279 0.032907777
000190 4d e8 95 3b b8 e2 7d 3c 4e 4f 7f 3a 68 87 2d 3c
       0.0045748116 0.0154959485 0.00097392953 0.010591365
0001a0 b5 0e 63 bc 16 a4 33 3d 8e 00 00 3c e8 48 8b 3d
       -0.013858487 0.043857656 0.007812632 0.06801015
0001b0 57 85 47 be d5 f6 71 bd 6a 89 71 bd f1 39 0d 3a
       -0.19484459 -0.059073288 -0.05896894 0.0005387357
0001c0 69 46 4f be de c1 12 be aa 3c 11 be 76 07 d4 bc
       -0.20241703 -0.14331767 -0.14183298 -0.025882464
0001d0 ad 0d c3 bd 1b f7 3b be 39 6f 41 be a8 c3 20 be
       -0.09524093 -0.18355982 -0.18890084 -0.15699637
0001e0 f2 cd f0 bd 6f 2f 2d be 42 d7 55 be 66 c8 18 be
       -0.11758031 -0.16912626 -0.20882896 -0.14920196
0001f0 9d 84 15 be c1 9c 39 be 08 44 1d bd 7e 4d 37 bd
       -0.14601369 -0.18126203 -0.038394958 -0.044751637
000200 78 8f 51 3c a7 24 16 bb 81 46 a0 3c 9f 84 58 bd
       0.012790553 -0.002291003 0.019564869 -0.052860852
000210 43 6c b3 3c 24 c3 7e bc 0f 78 5f 3c 3d f6 94 3d
       0.02190221 -0.015549455 0.013639464 0.07273529
000220 ea 36 7d ba 67 2b 47 3d 26 3f 59 3d cd 39 13 3d
       -0.0009659367 0.048625376 0.05303874 0.035943795
000230 2c a7 20 3d 00 e2 99 3b e1 19 32 bd 21 25 0e 3d
       0.039221928 0.0046961308 -0.04348171 0.034703378
000240 51 72 00 be 38 b5 fa bd 55 57 d1 bd 32 b5 29 be
       -0.12543608 -0.12241596 -0.102217354 -0.16573027
000250 7d cc ed bd 1b 95 0e be 1e 3e 38 be ef 9f 03 be
       -0.11611269 -0.13924067 -0.17992446 -0.12853979
000260 93 21 24 be 42 41 37 3e 13 f1 0c bd a7 fc f5 3c
       -0.16028433 0.17895988 -0.034409594 0.0300277
000270 dd 1a 6a 3d 95 5d 1b 3d 61 a7 69 3c 69 2f 41 3d
       0.057154525 0.037931044 0.014261098 0.047164354
000280 5b 3d de 3d 4f 49 fb 3c aa 97 d8 bc 8c c9 1c bd
       0.108515464 0.030674605 -0.026439507 -0.038278148
000290 a7 c0 59 3d a2 44 40 3d 25 f9 ab 3d 6a bd 99 bd
       0.053162243 0.046940453 0.0839713 -0.07506831
0002a0 c0 42 2c bd 2a f4 a6 3d 10 67 8a 3d 25 33 60 3d
       -0.042055845 0.08152039 0.06757939 0.054736275
0002b0 7d d0 cc 3d d9 e4 12 3d fc 01 65 3d 8e 4d 7b 3c
       0.100007035 0.035862777 0.055910096 0.015338315
0002c0 67 19 03 bd b0 7e b0 3b f3 25 60 bc cf 8d ca 3c
       -0.032006647 0.005386196 -0.013680923 0.024725823
0002d0 e7 d6 9c 3d 4a c4 d1 bc 2a e9 8a 3d 07 88 23 bd
       0.07658177 -0.025606293 0.06782754 -0.039924648
0002e0 d8 71 5d 3d 81 2a a8 bd 47 14 c6 bd 77 03 e0 bb
       0.054063648 -0.08211232 -0.09671836 -0.0068363505
0002f0 83 4e c0 bb 13 97 18 be cd e9 38 be db 70 10 be
       -0.0058687343 -0.1490138 -0.18057938 -0.14105551
000300 1d 53 3f be 73 37 41 be 16 87 28 be 63 8d 36 be
       -0.18684049 -0.18868808 -0.16457781 -0.17827372
000310 f8 a3 34 be bf 06 fd bd 08 b6 86 bd de bc 06 bd
       -0.17640674 -0.12354802 -0.065776885 -0.03289496
000320 d5 a4 8a bd c3 b4 53 bd b5 3d a3 bd 94 aa 53 bd
       -0.067697205 -0.05168606 -0.07970754 -0.051676348
000330 64 45 ae bd bd aa 61 bd ea 19 dc bd f6 b3 28 3e
       -0.08509329 -0.05509447 -0.1074713 0.164749
000340 67 8a 12 3e 35 ec 17 3e 03 43 fa 3d c8 9c 37 3e
       0.14310609 0.148362 0.12219813 0.17930901
000350 e4 49 1a 3e 30 e4 b4 3d 9f 33 cc 3d 5a a5 3b 3e
       0.1506725 0.08832586 0.099707834 0.18324795
000360 9d b5 31 bd 22 5f 84 bd 04 91 ae bd 3d fc 22 bd
       -0.04338609 -0.06463458 -0.08523753 -0.039791334
000370 7a f1 45 bd 82 af 40 bd 7b 7f c5 bd 97 0d a5 bd
       -0.048325993 -0.047042377 -0.096434556 -0.08059233
000380 bb 7a 90 bd f8 85 d2 bc 3f 4c c3 bd 29 f2 0c bd
       -0.07054659 -0.025698647 -0.09536027 -0.03441063
000390 1c 75 cc bb c3 92 7b 3b 6f cc 83 bd ae 4b b3 bd
       -0.0062395465 0.0038387037 -0.06435477 -0.08754669
0003a0 bd cb 21 bd d9 93 f5 bc 79 94 1a 3d f9 32 ba 3c
       -0.03950094 -0.029977726 0.03773925 0.022729384
0003b0 78 bb 58 bd 84 eb 05 bd a9 f6 51 3b f0 40 aa bb
       -0.05291316 -0.03269531 0.003203789 -0.0051957294
0003c0 d7 54 17 bd a1 0b 55 3c aa 33 1d bd 1e 1f a4 bd
       -0.036946144 0.013003261 -0.03837935 -0.08013748
0003d0 25 08 35 3d 36 70 85 3d ec 95 d4 3b 36 bb 51 bc
       0.04419722 0.06515543 0.0064875986 -0.012800982
0003e0 09 60 77 bd 78 40 19 bd e3 48 93 3c 3d 27 ac bb
       -0.06039432 -0.037414998 0.017979091 -0.005253701
0003f0 45 d9 85 3d f0 8e 9f 3d 59 9f 97 bc b6 30 a8 3b
       0.065355815 0.07790935 -0.0185086 0.00513276

encoder.4.bias f4 [32]
000000 17 81 ab 3d b9 97 a3 3d aa 5f 8e bd 6a f3 af bc
       0.08374231 0.07987923 -0.0695184 -0.021478374
000010 4d 20 52 3d e5 82 a3 3d d4 22 fc bc 9d 98 c1 bc
       0.051300336 0.079839505 -0.030778326 -0.023632342
000020 da 42 86 bc 3d 13 87 bc 36 9e 80 3b 09 c2 bf bd
       -0.0163893 -0.016488666 0.00392511 -0.09363181
000030 09 08 97 bd 36 e3 8e 3d 26 12 41 b9 93 b2 8a bd
       -0.073745795 0.06976931 -0.00018412675 -0.067723416
000040 5d 90 0e 3e cd e9 9b 3d 25 e2 51 bd 47 eb a2 bd
       0.13922258 0.07612953 -0.05124106 -0.07955032
000050 27 95 f8 ba 11 dc a5 3d 92 de f5 bd d4 06 79 bd
       -0.0018965349 0.08098615 -0.120053425 -0.060797527
000060 e9 21 3b 3d b4 44 4c 3c 3e 4c 6d 3d 27 f1 c7 3d
       0.045686636 0.012467552 0.05793404 0.09762793
000070 a5 20 a1 3d c9 61 3e bd da c2 8e 3d 8c 92 69 3d
       0.078675546 -0.046479974 0.06970759 0.057024524

encoder.5.weight f4 [32]
000000 2a 58 49 3f 05 e2 6a 3f d2 4c 6c 3f 8b 35 59 3f
       0.7865015 0.9175113 0.9230472 0.84847325
000010 53 33 52 3f dc ce 48 3f 42 a3 5f 3f 1d 77 42 3f
       0.82109565 0.7844064 0.87358487 0.75963
000020 13 9e 5e 3f 33 73 4a 3f 03 2a 4b 3f 01 5a 4a 3f
       0.8695995 0.7908203 0.7936098 0.79043585
000030 e7 bd 6f 3f c6 ed 62 3f 93 36 48 3f 53 8b 65 3f
       0.93649143 0.88644063 0.78208274 0.89665717
000040 59 46 4a 3f ba 2c 4a 3f f2 70 62 3f bd 0e 64 3f
       0.7901359 0.789745 0.8845359 0.8908499
000050 2c 53 69 3f 69 bf 67 3f 81 69 68 3f 93 f2 69 3f
       0.91142535 0.90526444 0.90785986 0.91385764
000060 ff 7d 6c 3f d8 46 64 3f 42 94 64 3f e2 cf 48 3f
       0.92379755 0.891706 0.89288723 0.78442204
000070 0d 3e 4e 3f 53 cc 69 3f 68 a7 4d 3f ff 22 4f 3f
       0.8056343 0.913274 0.80333567 0.80912775

encoder.5.bias f4 [32]
000000 d4 06 4e be 9b 84 ac bd cc ed de bd 2c f0 42 be
       -0.20119792 -0.0842373 -0.108852 -0.19036931
000010 a2 ad 3a be 86 b9 54 be 3f 6c ef bd 20 c4 7e be
       -0.18230298 -0.20773897 -0.11690568 -0.24879503
000020 1a c0 0d be af 19 4e be d2 00 66 be 4a 5a 4a be
       -0.13842812 -0.20126985 -0.2246125 -0.19761005
000030 fa fe a9 bd 49 6d e4 bd d3 65 57 be 1a 9a d8 bd
       -0.08300586 -0.11153657 -0.21034937 -0.105762675
000040 f6 ff 67 be e2 1f 3c be 60 04 01 be 9a ff c2 bd
       -0.22656235 -0.18371537 -0.12599325 -0.095214084
000050 75 71 cb bd a8 5b ea bd d2 b4 cb bd b2 8c bc bd
       -0.099337496 -0.11443263 -0.09946598 -0.09206523
000060 54 a1 e7 bd d8 9d f3 bd 04 4c ea bd d8 63 4c be
       -0.11310068 -0.11895341 -0.1144028 -0.19959962
000070 52 c1 1f be 2f ba 04 be d6 ac 44 be 58 4f 3a be
       -0.1560109 -0.12961648 -0.19206557 -0.1819433

encoder.5.running_mean f4 [32]
000000 7e 20 c9 c0 dc 68 44 40 41 14 72 c0 11 f6 08 c0
       -6.2852163 3.0689 -3.7824862 -2.1400187
000010 7b 6a 48 40 20 db 83 c0 b2 1a 38 c0 8e 09 01 41
       3.131499 -4.1204987 -2.8766294 8.064833
000020 0a be 9a c0 09 37 dc bf 8a 24 6e c0 00 b0 b8 c0
       -4.835698 -1.7204295 -3.7209802 -5.7714844
000030 51 eb 64 c0 b3 ed 94 bf 60 f1 73 c0 0c 65 57 3f
       -3.5768626 -1.163504 -3.8116074 0.8413856
000040 0d e7 6f c0 b1 3c 8d c0 23 cc 94 be ff e0 7e 40
       -3.7484772 -4.4136586 -0.29061994 3.9824827
000050 4a bb 86 bf aa 73 6d c0 17 21 fc 3f 3f 2b 92 bf
       -1.0525906 -3.7101846 1.9697598 -1.1419448
000060 0a 72 4b 3e f8 20 37 bf e2 e4 ca bf 5d fd 7a c0
       0.19867721 -0.7153468 -1.58511 -3.921714
000070 ff b7 6b c0 fa 7e cc 3f 0b 72 9d c0 ca b4 94 c0
       -3.6831052 1.597625 -4.9201713 -4.647069

encoder.5.running_var f4 [32]
000000 f6 47 71 43 47 6e a9 42 e6 46 92 42 45 14 14 42
       241.2811 84.715385 73.13847 37.019794
000010 d8 e0 4a 42 72 a8 91 42 e9 ae 56 43 83 06 10 43
       50.719574 72.828995 214.68324 144.02544
000020 4c 9a 96 42 aa 55 07 43 48 5b ef 42 21 19 7a 43
       75.30136 135.33463 119.67828 250.09816
000030 58 21 f5 41 cf d9 04 42 97 32 68 42 ff 65 b9 42
       30.641281 33.212704 58.049404 92.69921
000040 51 c5 a4 42 be 91 49 43 57 fb 31 42 e0 99 8e 42
       82.38538 201.5693 44.49545 71.30054
000050 91 a3 3a 42 dd a2 90 42 05 e0 a1 42 3e eb 62 42
       46.659733 72.31809 80.93754 56.72973
000060 84 14 70 42 fb c0 35 42 f6 f8 10 42 43 f1 56 43
       60.020035 45.438457 36.243126 214.94243
000070 c1 d4 28 42 7e 30 51 41 a8 4a 58 42 8e 8a 2b 43
       42.207767 13.074339 54.072906 171.54123

encoder.7.weight f4 [64, 32, 3, 3]
000000 80 92 dd bd b6 b2 0e bd 07 32 8a bc d2 0e 97 bd
       -0.10818958 -0.0348384 -0.016869558 -0.073758736
000010 c0 13 b0 bd c6 e6 94 bc 4d da e7 ba bd 5c 46 bd
       -0.08597517 -0.018176448 -0.001768896 -0.048428286
000020 87 b9 ac bd 51 3e bc 3c 8f 45 3f 3b 2a 48 49 3d
       -0.08433824 0.022978934 0.0029185747 0.049141087
000030 08 4c 23 bc cb 15 47 3d 12 37 14 3d 96 ff ce 3b
       -0.009966858 0.048604768 0.03618533 0.0063170893
000040 16 27 f6 bc 88 c1 3f 3c e5 c2 a4 bd 75 61 e7 bd
       -0.030047935 0.011703856 -0.08044986 -0.11297885
000050 12 f2 20 bc f3 e4 65 b9 7b c3 55 bd bf a8 08 bd
       -0.009823339 -0.00021924432 -0.052188378 -0.033364054
000060 03 c6 20 bd a7 61 0d bc d6 f0 6a bd 49 6c 81 bc
       -0.03925134 -0.008629239 -0.057358585 -0.015798705
000070 79 8d be bc 04 96 75 bd ac 15 99 bc 92 66 d6 bd
       -0.023260819 -0.05995752 -0.018687092 -0.104687825
000080 1c 90 38 bd 9c 28 34 bd 5f 70 1d bd a4 68 dc bc
       -0.04505931 -0.04398404 -0.038437244 -0.026905365
000090 8a 34 30 be fc a0 12 be 86 0e ca bd c8 cf b7 bd
       -0.17207542 -0.14319223 -0.098660514 -0.08975178
0000a0 05 cd 40 be 3b d8 b4 bd 17 78 e8 bd d7 16 d2 bd
       -0.18828209 -0.08830305 -0.1135103 -0.102582626
0000b0 1e 77 c7 bd 5c ec 95 3d dc 15 e2 bc fc cb 02 bd
       -0.09739517 0.073204726 -0.027598314 -0.031932816
0000c0 1c 9a bc 3d 15 73 57 3c 81 de 6f 3c 65 72 e0 3c
       0.092090815 0.013149996 0.014640451 0.027398298
0000d0 75 27 12 3e 90 e8 46 3d ce f0 9b bd 56 41 ad 3d
       0.14272864 0.048561633 -0.07614289 0.084597275
0000e0 c6 c1 9b bd 56 5b 64 bd 9e 4a b4 3d 51 69 0a bd
       -0.07605319 -0.055751167 0.088032946 -0.033791844
0000f0 94 41 57 3b ce eb d1 3d 90 3e 8d bc 43 6d 62 bd
       0.0032845484 0.10250054 -0.017241746 -0.05527998
000100 e9 74 8e bd 09 6f ca bd 6e cd b0 bb e6 53 a5 bc
       -0.069558926 -0.098844595 -0.005395583 -0.020181607
000110 e8 c3 d0 bd d4 0d 94 bd 40 80 07 bc f4 f4 11 bd
       -0.10193616 -0.072292 -0.008270323 -0.035633996
000120 53 d3 36 3b 74 c8 6b bc f6 ba fe bc 92 89 e7 bd
       0.0027896955 -0.0143910535 -0.03109501 -0.11305536
000130 00 a2 81 bd 8f 06 75 bc 6f f9 90 3c 13 7a 89 bd
       -0.06329727 -0.014955177 0.017697064 -0.06712737
000140 b5 18 a4 bd 81 6e c6 bd 0d c9 57 bd 6b 9b 3a bd
       -0.08012525 -0.09689046 -0.05268197 -0.045558374
000150 fc 57 a9 bd 52 10 8d bd 40 93 f5 bd 96 65 43 bd
       -0.08268735 -0.068878785 -0.11990976 -0.0477043
000160 56 f6 9e bd 90 92 a8 bd c2 8e 11 bd b3 b9 e4 bd
       -0.077618286 -0.082310796 -0.035536535 -0.11168232
000170 8f ac af bd 83 9e b4 bd 14 08 f1 bd 04 0b ad bd
       -0.08577835 -0.08819296 -0.11769119 -0.08449367
000180 66 b3 bd bd 45 32 87 bc e4 2e d5 bd e7 14 ba 3d
       -0.09262733 -0.016503463 -0.10409334 0.09086018
000190 2d 72 92 3c be b2 eb 3d 8d 2c 58 3d a6 5e 88 3d
       0.017876709 0.11508702 0.052776862 0.06658678
0001a0 9d 74 03 3e 18 9f 01 3e 47 b5 a2 3d dd c2 27 3d
       0.12837453 0.12658346 0.07944732 0.04095732
0001b0 ab e0 83 bd 80 df dd bd 5e 1a d3 bd 51 65 aa bd
       -0.064393364 -0.10833645 -0.103077635 -0.08320106
0001c0 d4 11 38 bd 07 91 0c bd bc 42 f3 bd f7 78 02 bd
       -0.044938877 -0.034317996 -0.11877963 -0.031853642
0001d0 5d 98 db bd 36 20 ac bd 9d 9a 71 bd c9 6d 9e bd
       -0.1072242 -0.08404581 -0.05898534 -0.077357836
0001e0 88 b6 26 bd ba a3 08 3d 87 fb 8a bd 17 86 bd bd
       -0.04070142 0.033359267 -0.06786256 -0.09254091
0001f0 8d 93 3e 3c 56 d6 26 be 17 f5 ae bd a2 28 bc bc
       0.011631859 -0.162927 -0.08542841 -0.022968594
000200 27 a5 af 3b 0c 99 9c bd c2 f9 51 bc 3e 7a 85 bd
       0.005360264 -0.07646379 -0.012815895 -0.065174565
000210 7e 68 b5 bd 9b eb ec bd bb e2 86 bd 02 7d 0f be
       -0.08857821 -0.11568376 -0.06586214 -0.1401253
000220 57 48 88 bd 3d fe fc bd c9 fe d2 bd 9c 34 b7 bd
       -0.06654423 -0.123531796 -0.10302503 -0.08945581
000230 ab c9 4c bd 00 b2 10 be fb 5a e9 bd c6 2c 8b bd
       -0.049997013 -0.14130402 -0.11394306 -0.06795649
000240 ec 16 0b 3d ba 35 9b bd 73 39 ba 3c 64 3a 0b 3c
       0.033957407 -0.07578607 0.022732472 0.008497808
000250 e5 b8 20 3c f7 ce e5 3a 13 3c e6 3d d1 29 fe 3c
       0.009809707 0.0017532994 0.11241927 0.031025799
000260 1d 30 72 3d e3 95 8f 3d 65 d6 b7 3d e7 ed 0c 3d
       0.059127916 0.070110105 0.089764394 0.03440657
000270 a3 0c 8b 3c 03 94 55 3d e2 3e 2f bc eb 51 d1 3c
       0.0169738 0.052143108 -0.010696145 0.025551757
000280 13 dc 54 bc 2a 8c a1 3d c2 1b 07 3c 6a 19 0f 3d
       -0.012991923 0.07888062 0.008246364 0.034936346
000290 b1 15 d1 bc 3d 45 eb 3c a6 bc 98 3c 07 04 a4 bd
       -0.025523039 0.028719539 0.018644642 -0.08008581
0002a0 d1 da 8c bc f5 c8 5f 3d fe 07 ac bc 5b 93 de bd
       -0.017194184 0.054635007 -0.020999905 -0.108679496
0002b0 6c 03 f9 bd 47 1c 30 bd 19 c6 28 bd cf 72 c5 bd
       -0.12158856 -0.042995717 -0.041204546 -0.096410386
0002c0 63 ed c3 bd 2e 33 dd bd 62 d6 b8 bd 31 a1 69 bd
       -0.09566762 -0.108007774 -0.09025265 -0.05703849
0002d0 35 1c 86 bd 39 6d b8 bc 4a 7d 64 bd ed fe 52 bd
       -0.06548349 -0.022513019 -0.055783547 -0.051512647
0002e0 ae 41 94 bd 4c 6d f7 bc 31 8a 2c bd 18 d5 a1 bd
       -0.0723909 -0.030203484 -0.042123977 -0.079019725
0002f0 87 d4 f4 bc d4 c5 e1 bd 55 e7 e9 bc 74 33 ba bc
       -0.029886497 -0.11024061 -0.02855269 -0.022729613
000300 3c 81 e9 bd 10 0e 8e bd 62 ee a5 bd 17 28 a5 bc
       -0.114016026 -0.06936276 -0.081021085 -0.020160718
000310 cd 39 89 bd d7 a0 07 be 4b 7d d1 bd 41 8d c6 bd
       -0.06700478 -0.1324495 -0.10228976 -0.09694911
000320 6f ab 0e bd b4 fb 55 bd af 45 05 be 1e 9e 9d bc
       -0.03483146 -0.052241996 -0.13014863 -0.019240435
000330 be 36 53 bd db ae ac bd 51 ad 84 bd 58 ec 67 bd
       -0.051565878 -0.084317885 -0.0647837 -0.05662188
000340 d4 96 9b bc ef ca dd bc 9c 19 b6 bd ab 78 ad bd
       -0.018992819 -0.027074305 -0.08891603 -0.08470281
000350 f9 7e 8b bc 5e a9 80 bd 8e 7b 79 bd d0 0e 66 bd
       -0.017028319 -0.06282304 -0.060908847 -0.05616647
000360 a9 65 7e bd 03 3b ce bd 0f 72 94 bd 30 45 0e bd
       -0.06210867 -0.10069849 -0.072483175 -0.03473395
000370 07 0a c0 bd 3c b1 d7 bc 06 74 b8 bd 97 bc 13 bd
       -0.093769126 -0.02632963 -0.09006505 -0.036068525
000380 b7 ec d1 bd d1 8d 3f 3c 82 e2 0f 3b 2b 18 a8 3a
       -0.10250228 0.0116915265 0.0021955078 0.0012824585
000390 ff 93 7f 3d 09 1b 02 3c c7 4e 7d 3d 9a ca 22 3d
       0.062397 0.007941016 0.061842706 0.039743997
0003a0 ed 4c a8 3d 27 dc 1a 3d b3 86 d5 bc e2 c3 fd bc
       0.082177974 0.03780761 -0.026065206 -0.030977193
0003b0 61 63 26 bd 7d 05 92 bd 52 87 33 bd 81 39 4d bd
       -0.04062212 -0.07129953 -0.043830223 -0.050103668
0003c0 e7 ae 9b bc 34 0c de bd 8e 60 93 bd 0c ae 57 bd
       -0.019004298 -0.10842171 -0.07196151 -0.05265622
0003d0 c1 02 d6 bd 06 f6 58 bc 1f 86 0c 3c cd 36 d4 ba
       -0.10449744 -0.01324225 0.008576899 -0.0016190648
0003e0 73 05 c8 bd 0e ef 82 3b d7 b9 eb 3b 06 7b d2 bc
       -0.09766664 0.0039957827 0.0071937847 -0.025693428
0003f0 13 63 93 bb d7 d2 96 bd 71 6a 1f bd dd 69 82 bc
       -0.0044978946 -0.07364433 -0.03891987 -0.01591962

encoder.7.bias f4 [64]
000000 4b e9 53 3c b5 7d 00 bd bc ea 62 3d 76 5e 1b 3d
       0.012934039 -0.031369884 0.05539964 0.03793188
000010 c8 f7 5d bd 93 a5 5f 3c fe 5a 93 3d 5f ef 82 3d
       -0.05419138 0.013650316 0.0719509 0.06393313
000020 51 90 99 3d 82 6e c3 3d dd 09 e2 3d d4 d4 ee 3d
       0.07498229 0.09542562 0.110370375 0.116616875
000030 c0 6f 5e bc 48 f6 97 3d 05 4d f6 3c 3d ee 0b 3e
       -0.013576448 0.07420021 0.030066023 0.136651
000040 2d 0b c8 bc 70 72 a6 bd 88 c8 99 3d ca b5 4a 3b
       -0.024419392 -0.08127296 0.075089514 0.0030931109
000050 da 1a ba 3c e3 ca f8 3c 5f ce dd bd a6 3c 11 3e
       0.022717882 0.030370181 -0.10830378 0.14183292
000060 21 76 a9 bc ae 30 e0 3b 8c 9d b3 bd 46 9a 5a bd
       -0.020686211 0.0068417406 -0.08770284 -0.053369783
000070 a7 8f 72 bd 8c b2 11 bd ab 80 aa bd 62 69 3a 3c
       -0.05921903 -0.035570666 -0.08325323 0.011377664
000080 a1 79 db 3c e7 99 c5 bd f5 00 2f bc 25 d4 a9 3d
       0.026791396 -0.09648495 -0.0106813805 0.082924165
000090 c7 a0 c9 bc c5 10 2c 3b 4c c1 79 bd f8 10 0f bd
       -0.024612797 0.0026255113 -0.060975358 -0.034928292
0000a0 8a 67 7b 3d 25 2a 7a 3c 2b b4 db bb de 8e 7f 3c
       0.06137804 0.015268837 -0.0067048273 0.015598027
0000b0 8b 59 d5 bb ff 18 af 3d 05 27 e6 3b 81 a8 91 3d
       -0.0065109185 0.085496895 0.0070236945 0.07112218
0000c0 a0 a6 8b 3d c5 ee 57 bd 14 15 85 bd 23 b9 69 3d
       0.068188906 -0.052717943 -0.06498161 0.057061326
0000d0 c6 a9 32 3d 20 27 62 bd 2e 13 41 3d 3b f6 35 3b
       0.04361894 -0.055213094 0.04713743 0.0027765173
0000e0 e7 36 df bd 9d 46 8e 3d cd 52 a2 bd 71 ee 88 3d
       -0.10899144 0.06947062 -0.07925949 0.06686104
0000f0 92 d9 70 bb 28 f6 48 3d bd 93 2d 3d 2e 32 3f bd
       -0.0036750776 0.049062878 0.042377222 -0.046678714

encoder.8.weight f4 [64]
000000 2d b5 8a 3f 18 7c 70 3f f0 9e 5a 3f cc 4a 87 3f
       1.083654 0.9393935 0.8539877 1.0569701
000010 92 b7 76 3f ac 35 7a 3f 24 66 65 3f 4f d7 7c 3f
       0.96373856 0.97738147 0.8960898 0.98766035
000020 27 45 66 3f 6b 98 89 3f d1 a0 7c 3f 54 8c 84 3f
       0.8994927 1.0749639 0.98682886 1.0355325
000030 3a 2d 6d 3f ba 92 6f 3f 69 6e 85 3f ee a9 86 3f
       0.92647135 0.9358326 1.042432 1.0520608
000040 dc d6 6f 3f b6 07 6d 3f b7 8a 62 3f c1 47 82 3f
       0.93687224 0.9258989 0.8849291 1.0178148
000050 4a 71 71 3f b3 c5 8c 3f 78 61 88 3f dc 29 81 3f
       0.9431349 1.0997833 1.0654745 1.00909
000060 46 9a 7e 3f 91 d6 76 3f 8a f2 91 3f 3a ff 76 3f
       0.9945415 0.9642115 1.1402142 0.96483195
000070 ef f0 73 3f 61 c5 7a 3f bb 1a 72 3f 0a 67 87 3f
       0.9528951 0.97957426 0.9457204 1.057832
000080 77 5f 79 3f 5b 4a 76 3f cb 3f 84 3f 61 a4 75 3f
       0.9741129 0.9620721 1.0331968 0.9595395
000090 7f 92 8b 3f 07 20 86 3f 90 68 78 3f af 47 86 3f
       1.0904082 1.0478524 0.9703455 1.0490626
0000a0 d6 80 7f 3f 26 0b 70 3f 0c 84 92 3f 82 ae 8c 3f
       0.99805963 0.9376701 1.1446548 1.0990756
0000b0 c7 a6 86 3f 6b 30 66 3f 3f f6 6e 3f 31 8d 60 3f
       1.0519646 0.8991763 0.9334449 0.8771544
0000c0 6e ed 8c 3f 40 cb 81 3f 96 a7 8a 3f 73 af 8a 3f
       1.1009958 1.0140152 1.0832393 1.0834793
0000d0 eb c7 73 3f 34 8d 75 3f cd 32 8a 3f 52 b8 86 3f
       0.95226926 0.95918584 1.0796753 1.0525
0000e0 02 7b 81 3f d1 fb 78 3f bd 8e 6c 3f 32 96 7c 3f
       1.0115664 0.9725924 0.924053 0.9866668
0000f0 1c e3 75 3f fa 9f 72 3f bb df 89 3f c4 91 83 3f
       0.96049666 0.94775355 1.0771402 1.0278859
