conv_autoencoder_without.pth (torch, 974610 bytes, 85 tensors)

encoder.0.weight f4 [32, 1, 3, 3]
00000000: 1d31 d8be 1aee 993e 9b17 383e 519b a2be
00000010: 26fd 89bd e8e0 47be 91bc e33d d329 9cbe
00000020: cb75 10be 711d 0ebf cbb5 81be 9683 64be
00000030: 69cf 4abf 4fbb bfbe a28f 893d 8810 8b3e
00000040: c856 e8bd aee7 663e 594f bdbc 859c 81bd
00000050: 6aba aa3e 8580 8d3d d370 903e 5521 73bd
00000060: 3378 6e3e 8bf2 03be b736 6a3e 4175 a6be
00000070: 7323 ffbe dc79 56be 6f46 2bbe f713 5dbe
00000080: 23fc 3d3e 44c5 823e d032 82be bdb4 803e
00000090: cb7f 29be cf73 28bf 6ef1 10be 700a babe
000000a0: 25e5 37bf b031 88bd 73c9 a23e 1f18 54be
000000b0: d090 0a3f 266f f63d 127a fa3e 2905 933e
000000c0: 0b1c 5ebe f937 953d 9649 00be 5621 93be
000000d0: 5ac7 7cbe 6ede 25bf fc0c 70be 8a8e 39be
000000e0: 6678 183d ccc1 e23d 6f5b 903d 5613 9f3e
000000f0: 2d42 29bd 8d84 403e 77f1 d6be 7e86 a1be
00000100: e74f 0d3f 812d 3c3e e7f3 d1bb 32ec 603f
00000110: 7c34 08be c5eb 273e ec87 333e 3f18 e5be
00000120: a1d7 8f3d d4f9 653f b0fe 80bd 29e8 e83d
00000130: 351b 8e3f 7fa2 b53d c960 73be c5c2 19bd
00000140: ccaa 2cbe f827 43be d4b7 663f d50a bebe
00000150: 3e65 ba3e 2679 883f b302 c63d 130c bcbe
00000160: 72f4 113c 902b 9abe 48f8 67be 0d2f 41bd
00000170: 2235 11be 4d49 2cbe e814 13bd a403 ddbd
00000180: 60a4 923e 5575 adbe ac17 07be bea5 3dbe
00000190: 574d 9d3e be8a a93e 23bc 19be 862b c43e
000001a0: 1c1f 3f3e c98d 4f3d 7a61 2ebe 920a ebbe
000001b0: 2d0c 823e d9a5 c13e 82ac 5f3e ef26 503c
000001c0: 7982 73be e642 b7bc b477 4ebe f54a b4be
000001d0: 60da cbbe e2e3 613e 077c 61be 00a3 e538
000001e0: 5308 89be 681e 84bf a324 31be 8dbd c03e
000001f0: d8cb a3bd e0fa f43e cda5 253e 60c9 4bbd
00000200: 2e17 78be 8854 763d a61e 84be bcfc b3be
00000210: 0ee3 763e 19dd 25be c5f7 5c3d d91d 37be
00000220: eb67 32bc f235 a7be 84d9 f7bd 6ca3 08bf
00000230: f486 f43d e67e 153e 1a92 2bbe f78e 813e
00000240: afc8 f83d b0a3 a73d e2c5 b8be f1b7 733e
00000250: af8d b2be 2b1d 253d 162e 29be 82af 053e
00000260: abfc 73be cd19 103e c57a 293d 76bb f13d
00000270: d005 893c 4118 863e 120d f8bd acec b43e
00000280: 59b3 37be 81bb ec3d 5326 4a3e 656c fabd
00000290: 0d52 863d e2d8 ed3d 2c00 503e b4d9 6dbe
000002a0: 9f8d a8be a18b bb3e dba2 453d dc6f 8a3c
000002b0: 0e6f 7bbe 813a 95be 24da dc3c 40c5 4bbd
000002c0: cf81 8a3e 7a18 013f bdf5 3c3e 5197 00bd
000002d0: b620 e9bd ca4b 06bf c4aa d5bd d626 a1be
000002e0: 243e 5fbf 3bdc 303e 45f0 f33e f2bc 91bd
000002f0: 2199 4cbe 4453 08bf 8657 df3e dcf1 ec3e
00000300: b9a1 ab3e 61d5 6c3f 70e1 8abd 123c f03d
00000310: 99e5 323e 8c87 39bf a71a b7bd 1af5 f13e
00000320: 0662 983e 806c d93d cdec da3e 7f88 483e
00000330: 6596 4e3d ac2d 053f bb04 9fbd 41bd af3e
00000340: 040a 9e3d 3fac cd3d 862a 9a3d 0988 c43e
00000350: 6cb1 6f3e 67ab b53d adc5 5c3e 49b4 a43e
00000360: 8953 ecbd c23e 28bf 119f 233d b5b1 1cbf
00000370: 41dd 05bf 37b0 c1be c30f a03e fea1 e4bd
00000380: b8ad 493f 9d15 a93e 9feb 15bf fed9 a83e
00000390: 5edf 1cbe 5742 aabf 71e4 9ebe 9d99 d83e
000003a0: 2951 1f3e d058 ce3e ca6f 93be 8b02 9d3e
000003b0: 1260 1cbe 39af f2bd f770 bf3d aaed 883e
000003c0: a607 083e 3c14 5abe 76cc 8abe a112 df3e
000003d0: 7a7a afbb 9c76 9bbe ed71 423e f165 9f3e
000003e0: 8a26 953e a395 f6be 0688 d53e b6b9 793d
000003f0: 3686 72bd d635 a93e b4cb d63d 68cb 953e
-0.4222497 0.3006447 0.17977755 -0.31759122 -0.06737737 -0.19519389 0.111199506 -0.3050066
-0.14107434 -0.55513674 -0.2533401 -0.22315821 -0.7922273 -0.37447593 0.06716849 0.2716105
-0.11344677 0.22549316 -0.023109125 -0.06328682 0.33345348 0.06909279 0.28211078 -0.05935796
0.2328804 -0.12885492 0.22872435 -0.32511333 -0.49831733 -0.20944923 -0.16726087 -0.21589647
0.18553214 0.25541127 -0.25429392 0.25137892 -0.16552655 -0.6580171 -0.14154598 -0.36336088
-0.7183402 -0.06650102 0.3179432 -0.20712326 0.54127216 0.12032919 0.48921257 0.28714874
-0.21690385 0.072860666 -0.12528071 -0.2873637 -0.24685422 -0.64792526 -0.23442453 -0.1812078
0.037224196 0.1107212 0.070486896 0.3106944 -0.041322876 0.18800564 -0.41981098 -0.31547922
0.55200046 0.18376733 -0.0064072493 0.87860405 -0.13301271 0.16398533 0.17532319 -0.4474506
0.0702355 0.8983433 -0.06298578 0.11372406 1.1102053 0.08868884 -0.2376739 -0.037539262
-0.16862029 -0.19058216 0.9012425 -0.3711764 0.36405367 1.0661972 0.096684836 -0.36727962
0.008908378 -0.3011136 -0.22653306 -0.04716401 -0.14180425 -0.16824837 -0.03590861 -0.1079171
0.28641033 -0.3387858 -0.13192624 -0.18520257 0.30723068 0.33113664 -0.15013175 0.38314456
0.18664211 0.050672326 -0.17029372 -0.45906502 0.25399914 0.37821844 0.2184315 0.012704595
-0.2378024 -0.022370767 -0.2016285 -0.35213438 -0.39815044 0.22059587 -0.22019969 0.00010949932
-0.26764163 -1.0321779 -0.17299132 0.37644616 -0.079978645 0.47847652 0.16176529 -0.049752593
-0.24227592 0.06013921 -0.25804633 -0.3515376 0.24110052 -0.16197623 0.05394723 -0.1788248
-0.010889034 -0.32658345 -0.12102035 -0.5337436 0.11939803 0.14599189 -0.16754952 0.25304386
0.12147652 0.08185518 -0.36088473 0.23800637 -0.3487372 0.04031102 -0.16521487 0.13055232
-0.23826854 0.14072342 0.041376848 0.118033335 0.016726404 0.2619038 -0.12111868 0.35336816
-0.1793951 0.11559201 0.19741182 -0.12227706 0.06558619 0.11613633 0.20312566 -0.23227578
-0.32920548 0.36629966 0.048251014 0.016899042 -0.24554083 -0.29146197 0.026959486 -0.04974866
0.2705216 0.50427973 0.18453117 -0.031394307 -0.11383192 -0.52459395 -0.104329616 -0.31474942
-0.87204194 0.17271511 0.4764425 -0.071161166 -0.19980289 -0.53252053 0.43621463 0.46278274
0.33521822 0.9251309 -0.0678128 0.117302075 0.17470397 -0.72472453 -0.089406304 0.4725731
0.29762286 0.10616398 0.4275879 0.19583319 0.050436396 0.52022815 -0.07764574 0.34324077
0.07716754 0.10042619 0.07527642 0.38385037 0.23407525 0.08870583 0.21559782 0.32168797
-0.115393706 -0.6572076 0.03994662 -0.6120866 -0.5229073 -0.37829754 0.31262025 -0.1116371
0.787807 0.33024302 -0.58562654 0.32978815 -0.15319583 -1.3301495 -0.31033662 0.42304698
0.15558304 0.40302134 -0.28796226 0.30666003 -0.15271023 -0.11849827 0.09347718 0.26743823
0.13284168 -0.21296781 -0.27109116 0.435689 -0.0053551765 -0.3036393 0.18988772 0.31132463
0.29130965 -0.4816104 0.4170534 0.060968123 -0.059210025 0.33048886 0.10488072 0.2925675

encoder.0.bias f4 [32]
00000000: 7b28 0cbd f7c0 063e 0445 053e 8c89 623e
00000010: 0956 d3bc c3fc 723e 9268 81be f37a 7ebe
00000020: 81cf 62be f473 a8bd 246f c7bd 4645 58be
00000030: 9e8c 153e c111 d93d d8fd 823e 42a2 59be
00000040: 9991 b1be 597e 97be 7e8f ad3e 176a 7cbe
00000050: 6bb2 31bc e7be 08bb 4b21 f53c 62d5 a53e
00000060: 9b9b 1e3e 18ec 303e a370 b53e d028 e6bd
00000070: ad41 24bd e8df 01be ac90 7a3d df09 bd3e
-0.034218293 0.13159548 0.13014609 0.22122782 -0.02579786 0.23729233 -0.25275093 -0.24851589
-0.22149469 -0.08225241 -0.09737995 -0.21120176 0.14604422 0.105990894 0.25584292 -0.21253303
-0.34681395 -0.29588583 0.33898538 -0.24649845 -0.010845761 -0.002086574 0.029923102 0.3238936
0.15489046 0.17277563 0.35437497 -0.11238253 -0.040101696 -0.1268307 0.061173126 0.36921594

encoder.1.weight f4 [32]
00000000: 038b 2d3f 2531 983f aef5 903f fca7 953f
00000010: fcbd 9a3f d705 5b3f 53ac 223f 07f8 8e3f
00000020: 8027 933f 820d 963f e6b1 8c3f 8abd b93f
00000030: fd0b 5b3f 5357 a73f f29a 863f a37d 943f
00000040: 711e 853f 03c2 6c3f 7b75 823f 31cd 703f
00000050: 0572 973f a9fe 8d3f cae9 883f 1137 8d3f
00000060: 1c5a a03f d6ad a03f e521 5d3f f5ab 8e3f
00000070: 6fee 823f a9d9 713f 0636 7b3f 3e75 983f
0.6779024 1.1889998 1.1324975 1.169189 1.2089229 0.85555786 0.63544196 1.1169442
1.149643 1.1722872 1.099179 1.4510968 0.8556517 1.3073524 1.0516036 1.1600841
1.0399915 0.9248354 1.0192102 0.940631 1.1831671 1.1093341 1.0696347 1.103243
1.2527499 1.255305 0.86379844 1.1146227 1.0229014 0.9447275 0.9812931 1.191078

encoder.1.bias f4 [32]
00000000: de14 2c3f ca26 0dbe 92a9 83be d67d 913e
00000010: 6a67 bcbd b15a af3e 04e3 a43d 6e7a 87be
00000020: 7a9d 88be eed3 67be 0cd2 4b3e e5a2 51bd
00000030: c3b1 483e 2d04 a23e 653b 883e 8918 3f3e
00000040: 8ce4 8e3e 67ad 11bf 090a aabe 51a5 6cbd
00000050: 9d4d 8c3d c727 48be aa99 f1be c0ee 8bbe
00000060: 2a7f 01be c8a8 653d 6ab5 593e 7b90 11bf
00000070: c4bd dbbe 1855 df3d 70b1 a6be afcd 893e
0.6721934 -0.13784328 -0.2571531 0.28416318 -0.09199412 0.3424888 0.08051112 -0.26460594
-0.26682645 -0.22639439 0.19904345 -0.05118074 0.1959906 0.3164381 0.26607814 0.18661703
0.27908742 -0.56905216 -0.3321078 -0.057774846 0.06850741 -0.19546424 -0.4718755 -0.2733059
-0.12646165 0.056069165 0.2126061 -0.56861085 -0.42918217 0.10904902 -0.3255725 0.26914737

encoder.1.running_mean f4 [32]
00000000: 4ee7 e2be f6e9 35bf 8b1f 0b3f b580 80be
00000010: 28c7 3bbf 7ca6 4d3b 6dc0 a3be 32f9 713e
00000020: 0ff2 193f b653 ef3e 441c 08bf 12b6 9fbd
00000030: dab0 02bb 46a1 71be e2d5 7fbb 24c6 1bbf
00000040: 1a9c 15bf c3aa 713d da25 f43e 3326 74bd
00000050: 89cb 40bf 52b1 043f 1f6f 6e3f 38ea 983f
00000060: 6fd4 eabe c434 41be e3a0 753e cf9e a33e
00000070: 6a61 2c3f 5b91 dbbe 331b 4a3e 41bf 8bbd
-0.44317096 -0.7106012 0.54345006 -0.25098196 -0.73350763 0.003137975 -0.31982747 0.23630217
0.6013498 0.46743554 -0.5316813 -0.07798399 -0.0019941838 -0.23596677 -0.0039037396 -0.60849214
-0.5844132 0.05900074 0.47685128 -0.059606742 -0.7531057 0.5183307 0.9313831 1.1946478
-0.458652 -0.18867785 0.23987155 0.319571 0.6733614 -0.42884335 0.19736938 -0.06823588

encoder.1.running_var f4 [32]
00000000: 650b 513f fed9 6440 7cb1 553f 0c95 933f
00000010: 206e 2640 c0dc 973e 2085 c03c 4b05 9c3f
00000020: 2eca 5e40 33f6 cd3f 1f31 6f3f 591d ea3d
00000030: e83e 0c3e bdb4 253f 047f b63e 5a4a 4d3f
00000040: 3903 913e 3430 1d3f 788f ca3d 617d 393e
00000050: 060a 3340 0c3d b53f ef2c 8140 a407 6e40
00000060: ef82 fe3f 0a30 403f 7c49 7f3d 98b9 6f3f
00000070: 3df1 2440 7b45 e53e 44c2 cc3d bcd2 853f
0.8165801 3.5758052 0.83473945 1.152986 2.6004715 0.29660606 0.023500979 1.2189115
3.48109 1.6090759 0.9343433 0.11431379 0.13695872 0.6472891 0.3564378 0.80191576
0.2832277 0.6140168 0.09890646 0.18114235 2.7974868 1.4159255 4.036735 3.7192163
1.9883708 0.750733 0.06232594 0.9364257 2.577224 0.44779572 0.09997991 1.0454936

encoder.3.weight f4 [64, 32, 3, 3]
00000000: 0871 2f3d 64c2 a13d a6ac ba3d 41a7 393d
00000010: 84ec 46bc dcb4 213d 3790 523d 91eb c83b
00000020: 3f58 c43c c6a9 8fbd bb6f 80bd ea63 98bd
00000030: 831b ccbd 1071 b2bd e8ec 61bd 9d7b 74bd
00000040: e1c6 ffbd 35ef 88bd 027e a33d e487 143e
00000050: 06ca 433d 82e6 913d d7d2 5d3d 2417 073e
00000060: fb41 8f3d 609e 3a3d 00df 653d 4709 b7bd
00000070: 6664 2fbd 20d1 463a 9301 69bd fc43 c9bd
00000080: e065 2d3c 83d9 d0bd 350c 20bc be8a 3cbd
00000090: 81c2 1abd daa1 e4bd 8c24 bbbd 2d1a e6bc
000000a0: c63e 66bd 7235 8abd 86b0 c5bd 7945 8abd
000000b0: b022 67bd f419 2c3d bdce 123d 49a1 a5bc
000000c0: 99ab 6d3c a3fe afbb eed8 26bd c5cd a13c
000000d0: 5900 f93c 87b5 94bd 4c5b 82bc 33d8 313d
000000e0: 1093 c7bb c2a7 233d fe7b bc3c cb89 ae3c
000000f0: 8e45 563c 4963 763d ca9a 9f3b 9c8a 863d
00000100: af08 d13d 8e91 a23d 30ab d03d 8bc1 fb3d
00000110: 20bb e13d d1f4 8a3d d80d 283e ecfb 013e
00000120: c1ba f73d f982 1f3e 5b9d ec3d 0a40 173e
00000130: 9c11 c03d 88af 173e df40 ed3d cde0 083e
00000140: 0c18 b23d b4e8 4c3d f1b6 203e 769b 9e3d
00000150: 6d5d 843d 0125 a33d b6e7 863d 063e 023e
00000160: de4b 273e 5808 503d c233 52bd 0385 7abd
00000170: 88f2 d3bc 9e44 99bd 626e 11bd de3f 89bd
00000180: 7aee 95bd c4c2 afbc b5ab 5bbd 251f 65be
00000190: 234a d4bb d465 cabd 8c52 07be a583 8a3a
000001a0: f07a c7bd b6a1 f0bd f6a7 d7bc e90d 3abe
000001b0: 06bd f6bc 2a23 893d 0a7f 27bc 181f e8bc
000001c0: af77 8cbd 577d 423c 8c5c 1a3d 51eb 54bd
000001d0: a03a 44bd 0c43 abbc 7d01 bcbd e4be bcbd
000001e0: 82cc 46bd 9608 bcbd c0b3 afbd 9f4d f8bd
000001f0: 8688 80bd 109a c6bd b61b edbc b1e4 f3bb
00000200: f93a 48bd e61d 37bc a7c5 54bd 72e7 aabd
00000210: c672 8bbd 762f 26bc 34de 1cbe 90dd f8bd
00000220: 833c 1dbd e4ae 38bd f382 a0bd c22b 11bd
00000230: 81e6 77bd 6e11 fbbd 320b 74bd 01cb 38ba
00000240: 2464 5bbd 9351 f5bd 0c5a 4abd d2ab 22bd
00000250: 5e50 eebd 28fa 89bd 9bbb 0dbe efec efbd
00000260: c8b5 1fbe 1209 5a3c 0844 533d a2fa c23d
00000270: 3d53 823d fb24 373d dd68 a33d 5093 773c
00000280: f0e5 133d a73a a73c fe65 433d d05d 953d
00000290: deb6 0d3e 6249 8a3d 6b32 dd3d 6b36 cb3d
000002a0: 2547 c83d 0ea1 843d 3fdc 933d a4fa b7bd
000002b0: dce4 32bd 3915 e9bc b2a4 4ebd 8162 7f3d
000002c0: d218 32bd 2daa b9bd 46dd 90bd a0dd 07be
000002d0: 07d1 85bd 4363 03be 95b7 b5bd fd34 ebbd
000002e0: b21e c6bd 8772 19bd 0dfa e3bd ff52 b7bd
000002f0: 5667 f6bc 6151 b63d d04e 253e dd34 7c3d
00000300: 0f84 b63d 2db6 303e 2a1f 8a3d d93f 7f3d
00000310: 7960 b43d f82e b43d cba4 1b3e c0d2 a43d
00000320: 7e0d 113e 49d7 af3d f875 6a3d 507d a13d
00000330: 3f86 d43d f64b 9c3d 531b b03d 4942 f73d
00000340: 9eb2 283e d1c1 e43d 7746 913d 1421 053e
00000350: 478e cf3d 41b4 4c3d 0a4c f73d 6a97 fd3d
00000360: 6e24 5cbd 6e54 35bd 2906 90bd 3964 8abd
00000370: 220f 63bc 2a40 32bd d059 d8bd 219d 14bd
00000380: 66ac bdbc 5159 babd 0a02 2abc c8f6 1c3b
00000390: 38ee 72bd e848 76bd 9950 3abd f5a7 30bd
000003a0: 834a 47bd b031 25bc a1f6 03be c1d9 2fbd
000003b0: 1320 42bd d7d9 40be 395d c2bd 12ce 83bd
000003c0: 8bce 2fbe 9ab2 6abd 7c78 d6bd 7598 163e
000003d0: 1a05 183e 6979 9d3d 984e 1f3e 176e a03d
000003e0: c787 073e 3a1c ae3d eada f03d c2b4 c63d
000003f0: 416e ac3d 8425 5d3d a281 103e 1685 173e
0.042832404 0.07898405 0.09114961 0.04532552 -0.012141351 0.03947912 0.051407065 0.0061315973
0.02396786 -0.070148036 -0.06271311 -0.07440932 -0.09966185 -0.08712971 -0.055157572 -0.0596882
-0.12489105 -0.0668625 0.079830185 0.14504963 0.047800086 0.07124044 0.05415615 0.13192421
0.06995007 0.045561194 0.056120872 -0.089373164 -0.042820357 0.00075842626 -0.056886267 -0.0982742
0.010583371 -0.10197737 -0.009768535 -0.046030752 -0.03778315 -0.11163683 -0.0913783 -0.028088653
-0.05621221 -0.06748475 -0.0965281 -0.06751532 -0.056429565 0.04201694 0.035841692 -0.020218508
0.014506244 -0.0053709312 -0.040734224 0.019751439 0.030395674 -0.07261186 -0.015912674 0.043419074
-0.0060905293 0.03995491 0.023008343 0.02130594 0.013078107 0.06015328 0.004870747 0.065694064
0.102067344 0.079379186 0.101889014 0.12292775 0.110220194 0.06784976 0.16411531 0.12693757
0.12096167 0.15577306 0.11553451 0.14770523 0.09378359 0.14813054 0.11584639 0.13367005
0.08695993 0.05002661 0.15694787 0.077444956 0.06463132 0.07966042 0.06587164 0.12718973
0.16337535 0.050789207 -0.05131889 -0.061162006 -0.025872484 -0.07483791 -0.03550566 -0.06701635
-0.073208764 -0.021455176 -0.05363055 -0.22375162 -0.0064785643 -0.098827034 -0.13215083 0.0010567798
-0.09740245 -0.11749594 -0.026325207 -0.18169369 -0.03011943 0.0669616 -0.01022316 -0.02833514
-0.06858765 0.011870704 0.037685916 -0.051982228 -0.04790747 -0.020905994 -0.09179971 -0.09216097
-0.048534878 -0.09181325 -0.085792065 -0.1212418 -0.0627604 -0.09697354 -0.028943878 -0.0074430336
-0.048884366 -0.011176562 -0.05194631 -0.08344926 -0.06809001 -0.0101431515 -0.15319139 -0.12151635
-0.038387787 -0.045088664 -0.078374766 -0.03544212 -0.06052256 -0.12259184 -0.05958099 -0.0007049293
-0.0535623 -0.1197845 -0.04940228 -0.039714642 -0.116364226 -0.06737167 -0.13841097 -0.11715113
-0.15596688 0.013307827 0.05157855 0.09520461 0.06363533 0.044713 0.079789855 0.015110806
0.036107957 0.02041371 0.04770469 0.07293284 0.1383929 0.06752278 0.10800632 0.09922489
0.09779195 0.06476031 0.07219743 -0.08983353 -0.04367529 -0.028452503 -0.050450034 0.0623498
-0.0434807 -0.090656616 -0.070734546 -0.13268137 -0.065340094 -0.12830834 -0.08872906 -0.11484716
-0.096738234 -0.037462737 -0.11131678 -0.08951377 -0.030078571 0.089022405 0.16143346 0.06157385
0.08911907 0.17256995 0.06744225 0.06231675 0.08807463 0.08798021 0.15199582 0.0804801
0.14165303 0.08585984 0.05724141 0.078852296 0.10377168 0.07631676 0.08598962 0.1207319
0.16474387 0.1116978 0.07093518 0.130009 0.10134559 0.04997659 0.1207505 0.123823956
-0.05374568 -0.04426997 -0.07032425 -0.06757397 -0.013858588 -0.043518223 -0.105640054 -0.036282662
-0.023153495 -0.09099067 -0.010376463 0.0023950804 -0.059309214 -0.060128123 -0.04548702 -0.043128926
-0.048655044 -0.010082647 -0.1288705 -0.042932276 -0.04739387 -0.188331 -0.09490437 -0.06435789
-0.17168634 -0.057299234 -0.10472199 0.14706595 0.14845696 0.07689173 0.15557325 0.07833498
0.13235389 0.085014775 0.117605045 0.097024456 0.08419467 0.053990856 0.14111951 0.14796862

encoder.3.bias f4 [64]
00000000: e2e5 bfbd f55a c7bd 96b7 a33d 1364 d53d
00000010: 93f2 e0bd e809 27bb 811b a93d b20e 6bbd
00000020: 37a0 65bb 73e6 70bd 3a40 b13c f84f 9cbd
00000030: c620 b4bb c199 d63d 2e36 aa3c f59c 403d
00000040: bd4b 0fbd 2b1d 703d 1061 d73c a412 87bb
00000050: 24f5 913d bc56 643c 2dab d73b 2467 563d
00000060: cccd 253c 9e15 723d 94a2 2c3d 8cf9 d33d
00000070: 04e4 f8bb abc2 593d 68e4 16bd b6d8 8e3c
00000080: b142 753d d75c 643d 9227 e3bb 6246 4c3d
00000090: eb6f b1bd 13bd 163c 7333 7f3d 7ced d83d
000000a0: 960b 513d 7c69 613d 7d57 503d 99b8 88bd
000000b0: 0b4d 043d 0b72 763d 74f2 74bd ea23 583d
000000c0: 3601 62bd 963d 003c e84d debc d068 06bd
000000d0: eb8e 643c f434 50bc a5cb 15bd bfd5 4a3c
000000e0: 0f48 11bd cdcb 433d 46a2 87bd 341d a5bc
000000f0: a2e7 983c 023b 8b3d 942e 77bc c8e6 7abc
-0.093700185 -0.097341456 0.079940006 0.10419478 -0.10983767 -0.0025488082 0.08257199 -0.05738706
-0.0035038122 -0.058813524 0.02163707 -0.0763244 -0.005497071 0.10478545 0.020777788 0.047024686
-0.03498434 0.058621567 0.0262914 -0.004122095 0.07126835 0.013936695 0.006581685 0.052344456
0.010119867 0.059102647 0.042147234 0.10350332 -0.007595541 0.053164165 -0.03683892 0.01743732
0.059878055 0.0557526 -0.0069322074 0.04987181 -0.08663925 0.009200352 0.062304925 0.105921715
0.05103644 0.05503224 0.050864685 -0.06675834 0.032300036 0.060167354 -0.059801534 0.052768625
-0.055176936 0.007827183 -0.027136758 -0.0328148 0.01395009 -0.0127079375 -0.036571164 0.012380063
-0.03546911 0.04780178 -0.06622748 -0.020155527 0.018665139 0.06798364 -0.015086789 -0.015313812

encoder.4.weight f4 [64]
00000000: 07e3 8c3f fae4 7b3f de33 833f 5837 8d3f
00000010: c05b 913f 0ac9 8c3f 251a a23f 5397 823f
00000020: 587f 8b3f 85a3 8f3f 7f02 963f 67d6 8a3f
00000030: 1771 903f e9da 7b3f d526 713f 2f80 6d3f
00000040: 49dd 593f 415a 813f daa9 3f3f 7c3e 673f
00000050: 33bc 933f 039f 9c3f 45b9 7f3f aad9 953f
00000060: bb80 9b3f 5781 683f f801 8e3f 0e8a 4a3f
00000070: 3d9f a73f c291 803f d32a 853f c2d3 9b3f
00000080: 473d 6f3f ea9b 9b3f 600a 8e3f 348c 6f3f
00000090: 4c65 8b3f 8894 993f 92b5 513f b085 753f
000000a0: 263f 863f bc50 7a3f 5585 863f 28a9 813f
000000b0: e8ca 8f3f 3735 833f 701a 9b3f 0781 863f
000000c0: bec0 743f c4ab 733f a7fa 643f d3f8 8b3f
000000d0: 2f19 733f de7d 8b3f 513f 823f cce4 8a3f
000000e0: afe7 873f 2e07 7b3f c73a 883f a09c 923f
000000f0: e76e 7c3f a451 943f dfa2 7a3f 1d36 973f
1.1006783 0.98396266 1.0250204 1.1032515 1.1356125 1.0998852 1.2664229 1.020243
1.0898237 1.1221777 1.1719512 1.084668 1.1284512 0.98380905 0.9419988 0.9277372
0.8510328 1.0105668 0.7486855 0.9032972 1.1541809 1.2236027 0.99892074 1.1707051
1.214866 0.90822357 1.1094351 0.79116905 1.3095471 1.0044482 1.0403694 1.2173998
0.93452877 1.2156956 1.1096916 0.9357331 1.0890288 1.1998453 0.8191768 0.95907116
1.0488021 0.9777944 1.050944 1.0129747 1.1233797 1.0250615 1.2117443 1.0508126
0.956066 0.9518397 0.89444965 1.093531 0.949603 1.0897787 1.0175573 1.0851073
1.0617579 0.9805783 1.0642937 1.1454048 0.98606724 1.1587415 0.9790477 1.1813389

encoder.4.bias f4 [64]
00000000: d7a7 efbd a763 d93e cdf3 fabd bc57 b0be
00000010: 9361 963c 6b9e a1bd f94a a0be 0ca5 99be
00000020: 9cd2 97bd f1b9 d3bc 4428 8bbe 0263 593e
00000030: 13b5 90bd 464b c7be 4518 1ebd 88aa a9be
00000040: 87b1 29be 7a82 50be 2e7a 9a3e 7893 ffbd
00000050: b769 65be 5c54 793e 6027 3e3c 15f3 98be
00000060: f997 483e 0e7d dbbd 8a99 9fbd 8943 3fbd
00000070: d50f 4abe 767a 963d 25ab 79be 89bf 7abd
00000080: 5ac5 dfbd 80dd 34bd ae72 66be 57b0 bebd
00000090: 35ab 98be b4f2 74be 92bf e4bd 13d1 86bd
000000a0: 2cc2 273e 3ae0 69be a75f e3be 87ec 60bd
000000b0: 174b 60be 140b 18be e045 6bba 2f11 00bf
000000c0: d5ff d0bd 2bc0 69bd cae7 4ebe ae9c b3be
000000d0: e269 18bf 6e90 7cbd 3697 4dbe 88de 2dbe
000000e0: 302d 1e3e 57cb 9ebe e371 97be 7ad6 85be
000000f0: c54c 87bd b7da 633e 2cd9 08be e19c b5be
-0.11701935 0.4245884 -0.122535326 -0.34441936 0.018357074 -0.07891544 -0.313072 -0.30008733
-0.074132174 -0.0258455 -0.27179158 0.21229175 -0.07065787 -0.38924617 -0.038597364 -0.33137918
-0.16571628 -0.20362273 0.3017134 -0.12479299 -0.22403608 0.24348587 0.011606067 -0.29872957
0.19589223 -0.10717212 -0.07792957 -0.046695266 -0.19732602 0.07347576 -0.24381693 -0.06121782
-0.10926314 -0.04415655 -0.22504684 -0.09310978 -0.2981812 -0.23920709 -0.11169352 -0.065828465
0.16382664 -0.22839442 -0.44408914 -0.05491307 -0.21903645 -0.14847976 -0.0008974951 -0.5002622
-0.10205046 -0.05706803 -0.20205608 -0.35080475 -0.59536564 -0.061661176 -0.20077214 -0.1697942
0.15446925 -0.3101451 -0.29579076 -0.26140195 -0.066064395 0.22251402 -0.13364094 -0.35471252

encoder.4.running_mean f4 [64]
00000000: fa0d 23c0 a67a f9be 9e68 c73f 143d 6fbf
00000010: 905b 5ac0 4d13 a0bf 0cfc b0c0 0b21 3ec0
00000020: a5e0 8fc0 d915 47c0 9cb5 0ec1 0c19 75bf
00000030: bfc0 ecc0 9c9d 7fc0 e2c7 78bf df47 cc3f
00000040: 5e76 8440 af6c 07c0 12fd cd40 38d7 bfbf
00000050: a5eb c5c0 6ec9 1cc1 5f49 7140 c621 a0c0
00000060: 3beb 103d c20f d0bf 0a20 d43f fbaa f140
00000070: 458e 09c1 bbe8 43be d2cc 6f3f 389d d7c0
00000080: 26fd 093e b3c9 55c0 3e18 dbc0 c9d4 e7bf
00000090: 2963 56c0 2c61 80c0 682f 1941 304d b0bf
000000a0: a76b 09bf 4135 dbbd 7381 d5c0 c731 7340
000000b0: a871 45c0 c54b 07bf a68b 3f3f dab7 c53f
000000c0: 2dbb acbf 61f0 133f 2608 5e3f bac2 a2c0
000000d0: 5e31 5440 cc0c ebbf 528a 72c0 e19e 37c0
000000e0: 3dd8 a03e 9442 f03f 2699 99c0 4de3 a3c0
000000f0: c54f 3040 5ac9 463e 0f6c b03f 0122 bbc0
-2.547728 -0.48726386 1.5578802 -0.9345257 -3.4118385 -1.250589 -5.5307674 -2.9707668
-4.4961724 -3.1107085 -8.919338 -0.95741343 -7.3985286 -3.9939947 -0.97179997 1.5959433
4.139449 -2.1160085 6.4371424 -1.4987555 -6.185015 -9.799177 3.7701032 -5.0041227
0.035380583 -1.6254809 1.6572278 7.5521216 -8.597234 -0.19131748 0.93671906 -6.7379417
0.13475475 -3.3404357 -6.8467093 -1.8111812 -3.3498023 -4.011862 9.574074 -1.3773556
-0.5367989 -0.10703517 -6.672052 3.7999132 -3.085062 -0.5284999 0.7482246 1.5446732
-1.3494622 0.57788664 0.86731184 -5.0862703 3.3155131 -1.836328 -3.7896924 -2.8690722
0.31414977 1.8770318 -4.799945 -5.1214967 2.7548687 0.19412747 1.3782977 -5.847901

encoder.4.running_var f4 [64]
00000000: 5d74 8b42 9e35 d542 03e8 1543 9992 8340
00000010: 82df 7d41 6b81 cc41 ac1b c842 9f78 6642
00000020: 5e21 2943 f561 8842 1d39 f142 2aeb f342
00000030: 0355 8842 7da0 9b42 def2 5442 4c67 4043
00000040: 3fa0 7142 c8c2 7842 a391 d841 4712 6a41
00000050: ec3e ae42 ef24 f842 0036 3a42 681c e442
00000060: 949a 4f42 88db 4842 4ff1 e142 362b 0b42
00000070: 5338 2843 0bdf 0b43 92cd c842 f727 8342
00000080: 53e3 0743 5e68 f742 6d40 1642 7ed6 7b42
00000090: e673 b942 8c06 f842 5868 0343 fcc9 2241
000000a0: b53f 0043 ce1e 4042 6950 1442 32bd 9a42
000000b0: 4a3d 3e42 18c9 3f42 bb3c 5a42 cac3 0143
000000c0: d2bc 5742 8a6f e042 dc01 0743 8924 0e43
000000d0: a132 df42 164a ab42 9501 8642 f2bd 0043
000000e0: 15a5 0043 fbf2 1a43 f8ee 0843 5057 5143
000000f0: b6a6 ba42 9275 b942 c27e f542 620c 5743
69.72727 106.60472 149.9063 4.111645 15.867067 25.563192 100.05405 57.617794
169.13034 68.19132 120.61155 121.959305 68.16604 77.81345 53.237175 192.4035
60.40649 62.190216 27.071112 14.629462 87.122894 124.072136 46.552734 114.05548
51.900955 50.214386 112.971306 34.7922 168.22002 139.87126 100.401505 65.57806
135.88799 123.70384 37.562916 62.959465 92.726364 124.01279 131.4076 10.174313
128.24886 48.030083 37.078526 77.36952 47.559853 47.94638 54.559307 129.7648
53.934395 112.21785 135.00726 142.14272 111.598885 85.6447 67.00309 128.74197
128.64485 154.94914 136.93347 209.34106 93.32561 92.72963 122.747574 215.04837

encoder.6.weight f4 [32, 64, 3, 3]
00000000: edbd 1b3e f297 1a3e e807 3c3e 3872 e13d
00000010: 4079 463e 7a44 143e 6269 193e e88c 073e
00000020: ec85 243e f82b 1bbd 2f80 e33c 4e55 f13c
00000030: 32c1 68bc 74fd a63c bd07 b4bc f2d4 333d
00000040: 6f2b 2dbc 49d3 6a3d 4718 183d c8ef 793c
00000050: 6c6e 1f3d 4c67 a63d ce00 b63d a4c4 873d
00000060: 3694 923d 5ad4 0f3d 594e 733d e30e 813a
00000070: 4fb0 5fbd 99fb 173b 2538 ccbc bad6 22b9
00000080: b56f 9c3c 45f3 1d3d a581 1abc 4072 85bb
00000090: 9526 f5bd 1b95 cabd d7e5 63bd 30fe acbd
000000a0: 61fc c7bd 57ae 9bbd 338e f6bc 0583 59bc
000000b0: 7643 a93c f89a 393e b843 303e 71cc 0f3e
000000c0: e341 303e 73f6 413e 03b5 263e 8c7b 143e
000000d0: 923f 253e 35ba 203e b431 933c 7f51 563d
000000e0: 8618 2e3d f4b9 b93d d8d3 4d3d 0884 5b3d
000000f0: 6e15 e43c b7b3 d33c 81c0 793d 05bc 053d
00000100: 448c a53d d6b5 323d 9844 903d d93c 913d
00000110: 178f 273d 6f9f ce3c d421 f73c 8664 7a3d
00000120: db86 b83d 767f 473e bf5f 033e 13a7 de3d
00000130: 3999 f73d f38c 013e 4e88 003e 1e90 383e
00000140: e769 3a3e 7c93 113e 2627 0d3e ea29 273e
00000150: 15fe ce3d 614c 233e b6b8 293e 51fb 0e3e
00000160: 2aaf 293e 6392 193e 1634 5d3c 1d77 49bc
00000170: eb7f 90bd a47e c9bc 8b01 4bbb e4b5 7abd
00000180: f335 78bd edd8 9dbd b501 16bd f2c8 d83a
00000190: 8cb1 8e3c afef bb3c cc7a de3c 6ef9 003c
000001a0: 76f4 8a3d 22ea 973d 0afb 663d b165 1d3d
000001b0: 842a 98bc 375d 34bc 09cd 4cbd d9f9 82bd
000001c0: 3002 3ebd 9273 5abd 663c 3dbd 83cb d6bb
000001d0: 86cf 77bd 1667 a43d d88b 1d3d a7e2 8b3d
000001e0: fdb3 a43d 322e a43d cd6c dc3c 27ff c23d
000001f0: 94fb a33d 61ae 3a3d f392 153d 74f0 d5bc
00000200: 4d5f 04bc 4d6c d1bc c597 c5bc 2ccc 99bc
00000210: 2d5a 853d 2277 98bc f677 4c3d 2c13 6b3d
00000220: 03c1 d93c 4013 103d fa02 573d 4057 cb3b
00000230: 0ca9 21bc 6608 653d 3b3b 593d 2d8a 163d
00000240: bec3 9c3d 0293 833d e784 9a3d b8ac ef3d
00000250: f194 b23d 286f cc3d 7fa6 043e fbf0 d23d
00000260: 6903 8f3d d167 a23d f02a a63d 44ad f23d
00000270: 5f07 df3d fb07 933d d01f b73d f304 d03d
00000280: e674 823d a444 f93d 3441 c13b c495 97bc
00000290: 1785 36bd 675c 623d a7f4 8bbc bdda 6ebd
000002a0: 1573 7fbc 5bd8 a93b f53d 36bd 2281 ecbc
000002b0: e295 22bd 7fe5 c6bc 3310 043d 9305 d53b
000002c0: ecf2 2d3c 1ed5 87bc aa29 0e3c d3d2 e93c
000002d0: ae93 6c3d e52e 71b9 3dc4 a33b 44ab 5bbc
000002e0: 33e7 55bc 637e d9bb 16de 0c3b 75f4 343d
000002f0: d4d8 4c3d 51be 72bc 477f 8abd 3e95 4dbd
00000300: 08d9 9cbc 2d6b 0bbd d19a 91ba c78d 39bd
00000310: ebae babc 8ae9 5fbd e422 173e 05d7 003e
00000320: 2950 f2bc 5293 ea3d a56c f73d 89f4 a33c
00000330: 92e4 fc3d f86b e83d fdd1 f13c c0d1 1c3e
00000340: a2a5 043e 8180 383e 7458 ef3d affc 1d3e
00000350: 75ff dd3d 971e 433e fb62 953d f95e 943d
00000360: 167d 563d 09fa 423d f0e8 353c b3f4 633d
00000370: c4c1 853d b0f3 35bc 8ac9 ad3d 1537 ae3c
00000380: 4a63 0f3d 5e99 1a3e 7c60 ce3d bc6a d33d
00000390: 28ed 1d3e 0238 a23d 42e8 133e 4d04 c43d
000003a0: f00c 183e 3c61 073e 448a c73c 9135 8e3d
000003b0: ec90 0ebc d50a 983d f6e0 3a3d c2c7 0b3c
000003c0: cb2f 033d c405 0f3d 60d7 8b3c d969 393d
000003d0: 7dbd 893d 6b99 913d 4399 863d 6d17 dc3d
000003e0: a74d a83d 5d60 cf3d c100 813d e903 aa3d
000003f0: 82d3 503c c8c5 963c 59f5 603c 6a5e e9bc
0.1520917 0.15097025 0.18362391 0.110081136 0.1938219 0.14479247 0.14981607 0.13237345
0.16066712 -0.03788373 0.027771084 0.029459622 -0.014206218 0.020384528 -0.021976346 0.043904252
-0.010569437 0.057330403 0.037132528 0.015254922 0.038923666 0.08125171 0.08886872 0.06629303
0.07157175 0.035114624 0.05940089 0.0009846356 -0.0546115 0.0023190735 -0.024929116 -0.00015529516
0.019096235 0.038562078 -0.009430324 -0.0040724576 -0.119702496 -0.09891721 -0.055639114 -0.0844692
-0.09764934 -0.07601612 -0.030097103 -0.013275866 0.02066205 0.18125522 0.17213333 0.14042832
0.17212634 0.18941669 0.16279988 0.14500254 0.16137531 0.15696032 0.017968036 0.052323814
0.042503856 0.09068671 0.050250858 0.05359271 0.02784225 0.02584253 0.0609746 0.032650013
0.08083394 0.043630444 0.07044333 0.07091684 0.040907945 0.025222508 0.030167498 0.061131023
0.09010097 0.19482216 0.12829493 0.10871711 0.12089772 0.12651424 0.12551996 0.18023726
0.18204461 0.14216417 0.13784465 0.16324583 0.10107056 0.15947105 0.16574368 0.13963057
0.16570726 0.14997248 0.013501188 -0.012296465 -0.070556484 -0.02459652 -0.0030976261 -0.06120862
-0.060598325 -0.07707391 -0.03662272 0.0016539379 0.017418645 0.022941438 0.027158163 0.007871969
0.067849085 0.07417704 0.056391753 0.03842706 -0.01857496 -0.011008552 -0.050000224 -0.06395311
-0.046388805 -0.053332873 -0.04620018 -0.006555022 -0.060500644 0.080274746 0.038463444 0.0683034
0.080421425 0.080166236 0.026907349 0.09521323 0.08006969 0.045576457 0.036517095 -0.026115634
-0.008079362 -0.025564337 -0.02412022 -0.018774115 0.0651134 -0.018611494 0.04991909 0.05739133
0.026581293 0.03517461 0.052493073 0.0062054694 -0.009866964 0.055916212 0.053035002 0.03675287
0.07654522 0.06424524 0.0754488 0.11702865 0.087198146 0.09982139 0.12954138 0.102998696
0.06983072 0.07929958 0.081136584 0.11849454 0.10890078 0.071792565 0.08941615 0.10157194
0.06369953 0.12171295 0.0058976654 -0.018504031 -0.044560518 0.055263903 -0.017084433 -0.058314074
-0.015591403 0.0051832623 -0.04449268 -0.02887017 -0.03969372 -0.024279354 0.03224201 0.0065009086
0.010616999 -0.016581114 0.008676926 0.028542912 0.057758026 -0.0002300102 0.0049977587 -0.013407532
-0.0130556105 -0.006637381 0.0021494678 0.044178445 0.05001147 -0.014815883 -0.067625575 -0.050191157
-0.019146457 -0.034037758 -0.0011108761 -0.045301225 -0.022788486 -0.05466608 0.14759403 0.12582023
-0.029579239 0.1145388 0.12081269 0.020014064 0.12348284 0.113487184 0.029519076 0.15314388
0.12953809 0.1801777 0.11686793 0.15428422 0.1083974 0.19054638 0.0729427 0.07244677
0.052365385 0.047601733 0.0111029 0.055653285 0.065310985 -0.011105463 0.08485706 0.0212665
0.0350068 0.15097567 0.10076997 0.10323092 0.15422499 0.07920839 0.14444068 0.09571133
0.14848685 0.13220686 0.024357922 0.06943811 -0.008701544 0.07423941 0.045624696 0.008531513
0.032028 0.034917608 0.017070472 0.04526696 0.06725595 0.0710934 0.06572201 0.107466556
0.08217936 0.10125802 0.06298972 0.08301527 0.01274574 0.018404856 0.01373037 -0.028487403

encoder.6.bias f4 [32]
00000000: 4146 7fbd c723 f33c 169c 073d 10b9 493d
00000010: bafb 1fbb 9a26 223d f879 e23c cc5d 323d
00000020: 543f a7bb 8c5c 563c 8fc4 59bd 0bd8 f1bc
00000030: 16dc cc3c 0165 0c3c 55fa b53c 8399 463c
00000040: fbd7 c93d f54f 643d 24f8 2b3c c93f b63b
00000050: dff1 553c 490b 8bbd 3506 f9bc af29 b53d
00000060: 4a72 7abd 1421 e1bc ede0 bb3c c09d fe3c
00000070: 8e68 a03d c846 443c 057e a73b 2cda 5eba
-0.06232286 0.029680146 0.03310784 0.049248755 -0.0024411515 0.039587595 0.02764605 0.043546483
-0.005103985 0.013083588 -0.05316597 -0.029521963 0.025007289 0.008569003 0.022214094 0.012121561
0.09855648 0.055740315 0.010496173 0.005561803 0.013058155 -0.06789262 -0.030398468 0.08845841
-0.06114415 -0.027481593 0.022934401 0.03108108 0.07832442 0.011979766 0.0051114582 -0.0008501138

encoder.7.weight f4 [32]
00000000: 41b2 6c3f b6c0 6f3f 91b2 863f 6f69 593f
00000010: 255c 943f ef0b 903f e324 6d3f 6e78 933f
00000020: 8e74 813f 2dcd a23f 3ac4 8c3f b65a 823f
00000030: 7f29 903f 6c65 733f b0c2 7c3f 6972 5e3f
00000040: 345b 743f 289e 5f3f e687 863f 3fab 7d3f
00000050: fa99 6b3f c03c ad3f 42de 4a3f d597 833f
00000060: 53ca 783f 03d3 903f 4a56 8f3f 2245 a13f
00000070: b43e 813f a755 1f3f f8f8 883f 1c9c 5c3f
0.92459494 0.9365343 1.0523244 0.84926504 1.159062 1.1253642 0.9263441 1.1521127
1.0113695 1.2718865 1.0997384 1.0183933 1.1262664 0.9507663 0.9873457 0.86893326
0.95451665 0.873507 1.0510223 0.99089426 0.92031825 1.3534164 0.7924539 1.028071
0.9718372 1.1314396 1.1198208 1.2599223 1.009726 0.6224007 1.0700979 0.86175704

encoder.7.bias f4 [32]
00000000: 620d bbbe a9a7 85bd 2b42 6cbe ae0b babd
00000010: 3718 99be f722 1abe 15c3 78bd 9fcf 803e
00000020: df64 6b3e 468f a4bd 1840 143c fac0 503d
00000030: 175f d33e db3b b6bd 24f9 17be c570 aabe
00000040: f700 4ebe 0dee 48be 4df4 0f3d 07d7 95be
00000050: 1748 bebe a405 053f 8042 98be 65eb 5abe
00000060: 53a1 18be 4970 843d 2ebc 8b3b d757 863c
00000070: b64c e7bd 8224 febd 94c2 183d 5050 88be
-0.36533648 -0.06526119 -0.23072116 -0.09084259 -0.29901287 -0.150524 -0.06073292 0.25158402
0.22987698 -0.0803514 0.009048484 0.050965287 0.41283485 -0.08898135 -0.14841133 -0.3328916
-0.20117556 -0.19622059 0.035145093 -0.29265615 -0.37164375 0.5196173 -0.29738235 -0.21378858
-0.1490529 0.06466729 0.004264376 0.016399307 -0.11293928 -0.12409307 0.03729494 -0.26623774

encoder.7.running_mean f4 [32]
00000000: d8f2 2441 2a83 94bf 96b2 0240 a238 31bd
00000010: 862f 96c0 edbf 48c1 92e9 d7c0 00d5 393f
00000020: fd0a b8bf fc10 01c1 95c3 11c1 ec33 c83f
00000030: c90f 4fbe d6e9 21bd b9f2 b63f f67a a840
00000040: 7854 02c0 115b 1ac0 267f 8cbc 31e6 2140
00000050: f695 72c0 c179 7dc1 c112 4040 1371 aec0
00000060: baa6 cebf 3f7c 0fc0 666a 92bf 94c2 a8c0
00000070: 58b4 0dc0 cc60 e240 98c4 fe3b 4715 2440
10.309288 -1.1602528 2.04215 -0.0432669 -4.693301 -12.546857 -6.747262 0.7259064
-1.4378353 -8.066647 -9.1102495 1.5640845 -0.20220865 -0.039529644 1.4292823 5.26501
-2.0364056 -2.4118083 -0.017150473 2.5296748 -3.790403 -15.842225 3.0011446 -5.451303
-1.6144631 -2.2419584 -1.143872 -5.273752 -2.2141323 7.074316 0.0077749006 2.5637987

encoder.7.running_var f4 [32]
00000000: 34ba 8f42 274b e542 26c8 8b42 5c45 c342
00000010: 0f86 8d42 3e02 7c42 57f2 0243 9bee db42
00000020: e9a8 3b43 aa9f 4343 059c 4643 d744 ba42
00000030: 7c7d 2b43 46b8 7942 ee3f ec42 90c5 8942
00000040: 052b 3c42 3f89 2e42 46bb 9d42 a8c3 2242
00000050: 9127 6342 1184 8442 fc70 6f42 fabc e142
00000060: e17d 3643 ce56 3142 404d 9e43 b10d 5c42
00000070: f0b3 e842 d9d4 a542 8fdc 9743 48f6 a241
71.86368 114.64678 69.890915 97.63547 70.76183 63.00219 130.94664 109.96603
187.6598 195.62369 198.60945 93.13445 171.49017 62.429955 118.12486 68.885864
47.04201 43.63403 78.86577 40.69107 56.78864 66.25794 59.860336 112.869095
182.49171 44.33477 316.60352 55.01337 116.35144 82.91572 303.7231 20.370255

encoder.10.weight f4 [64, 32, 3, 3]
00000000: c89a 04be 2d15 90bd ec8f bfbd 6240 8fbd
00000010: 251f 0fbd 56ce 27bd 27f4 82bd 7ad6 01bd
00000020: 67d8 83bd 06c2 6f3c f50a 9d3d ef41 d33c
00000030: ea2a cf3d 8910 d03d 2a33 7d3d 9ec3 a93d
00000040: 6666 a83d d069 a33d 28a5 febb 4954 963d
00000050: 4339 b83d f8b1 063d fb9b 213d 1a47 c23d
00000060: 4a0a aa3a 842b 593d 19ce 2dbc cab6 b8b9
00000070: 0361 90bd a017 0fbd b43f 0cbd 67cf 3cbd
00000080: e45a 8d3c 81fc 84bd f37a 03bc d364 9d3c
00000090: 2f49 f53d f807 303e eded bc3d 9dec f23d
000000a0: d57c e53d 819e 133d ee08 da3d 171e 803e
000000b0: 5e83 2b3d 2111 af3d d97a f03d 7712 b43d
000000c0: fae1 c93d e5e2 ed3c c0bc cf3c 03ef 6f3d
000000d0: 3fd2 103d 4cf9 fbbc fe37 efbc cf50 ebbc
000000e0: a223 94bd 9666 80bd f077 9f3b c019 aebc
000000f0: 44b5 013d 1ad5 403c 9068 9ebd 10f4 6d3c
00000100: 3a1c ed3d eeb6 f23b 0813 583d 4e5a 363e
00000110: 3ad0 1abd f469 0b3d 76f0 b13d 9663 8fbd
00000120: 3061 d23c e5c7 253c d354 e73d 5ebf 743d
00000130: 74a5 4f3d 18af 903d aa4e 3bbc f3fd 5a3d
00000140: 142a b33d 2e78 87bd 5375 d0bd 84c7 02b8
00000150: aa9f 81bd d612 96bd a63e 97bb 7336 8dbc
00000160: 908f c6bd c438 81bd f20b e73d a2ad 3f3d
00000170: 6e8a 783d 762d be3d 1123 b43c 9183 793d
00000180: cd55 053d 1391 8a3d 58bd d23d acbd e4bd
00000190: 3f2e 13bd 8054 1bbd 00b9 03be a7aa e1bc
000001a0: 90da 29bd bb7f c7bd ac00 30bd a980 c6bc
000001b0: d0e2 d7b9 49cb 053e b8e3 ab3d 2514 bf3d
000001c0: 5015 153d 5def 043e a20c d93c b793 b73d
000001d0: 453c ad3d 84a1 a4bc d583 c33d bccc 503d
000001e0: 3be2 98bb 2220 f13d 1892 e53d e0a7 2d3d
000001f0: e082 e53d 72a1 b73d fe78 e5bd 56d6 d5bc
00000200: add4 d2bd 1868 11be 8e06 ffbc 2884 7ebd
00000210: ed9c 1bbe 0c12 b9bc 5ace 91bd 35c1 a8bd
00000220: e4f8 b4bd 4b69 d7bd 8415 98bc 0fd6 a93b
00000230: cf4d 0ebd e67f 87bd ae02 2fbd a532 92bd
00000240: f472 58bd f1de 8bbc 7c53 a8bd 8799 d0bd
00000250: e30d 4cbd e6ae ccbd 2b57 06be f29f bcbc
00000260: 75dc edbd d721 cbbd 03e7 09bd cf41 7fbd
00000270: 03b5 5fbd 9a8f 06be f8cf 3abd 405e 67bd
00000280: e8a9 53bd c32d e4bd d5f6 9fbd 0a19 c1bd
00000290: 3fe2 7e3c a334 153a 097f 61bd b305 393c
000002a0: c3f4 cfbc 8a4d 0bbd 9351 593c 7acb 243d
000002b0: 7f30 a33c b8da 143d e140 703d 10d8 1b3d
000002c0: 5757 123e fcd8 78bc c99d ce3c 9268 813d
000002d0: f8e7 b03d 60de 973d ef0e 78bc 5361 c53c
000002e0: fe39 a5bc c7c1 f5bc dbf5 993c 3402 b2bc
000002f0: 4cc6 32bc f2b7 1a3e 5784 a03d f8ec 2e3e
00000300: 6aec c73d bff6 3e3e 5e52 183e b8a4 6b3d
00000310: a529 ef3d 9e15 283e a1c0 4cbe 67dd 90bd
00000320: c9f0 8bbc 77e3 2ebe e76d 9dbd 0468 f8bd
00000330: a94f a9bd 28a1 03be 98f0 c9bd 0486 3cbd
00000340: 8b63 47bb f9d0 97bd fdce 76bd 05b6 9bbc
00000350: 6eb6 7bbd 3ee0 98bd d7a0 92bd e06f a1bc
00000360: 96a1 963b c084 623c 2de4 853d 3528 f83c
00000370: d72b ce3d eefa f23d ea9a 1d3d 228f 183b
00000380: 5f0c 773d e382 52bd 7518 84bd a0f1 20be
00000390: 6b43 24bd dad9 4ebc 2aa6 f7bd 50f2 b93c
000003a0: 5b37 3a3d 7581 5cbd 84a2 ea3c 8ca9 ab3d
000003b0: 3abc 8b3d b861 e13c 672f d73c 7bb1 f23d
000003c0: a4e0 adbc 1a79 b23d 134e 9f3d 3439 b83c
000003d0: 86a8 e03d 0c26 0c3e 5e10 793d 3171 d03d
000003e0: f75f 183e 3d3e baba c132 ab3d 49dd 753d
000003f0: 5527 acbd b145 3ebd 682d 28bd 8215 35bd
-0.1294967 -0.07035289 -0.09353623 -0.06994702 -0.03494181 -0.04096826 -0.063942246 -0.03169868
-0.0643776 0.014633661 0.076681055 0.025788276 0.10115607 0.10159404 0.061816372 0.08289264
0.08222656 0.079791665 -0.007771153 0.07340295 0.08995297 0.032884568 0.039455395 0.09486218
0.0012973037 0.053020015 -0.01060822 -0.00035231403 -0.070497535 -0.03493464 -0.03424044 -0.04609623
0.017255254 -0.06493474 -0.008024919 0.019213116 0.11976849 0.1719054 0.09225068 0.11861537
0.112054504 0.036039833 0.106462345 0.25022957 0.04187333 0.08548189 0.11742181 0.087925844
0.09857555 0.029038856 0.025358558 0.05857755 0.035356756 -0.030758522 -0.029201504 -0.028725056
-0.07233359 -0.06269567 0.0048665926 -0.021252513 0.03166701 0.011769557 -0.077347875 0.014523521
0.115776494 0.007407061 0.052752525 0.17807886 -0.037796237 0.03403659 0.086884424 -0.070014164
0.025681108 0.010118459 0.11295476 0.059752814 0.050694898 0.070646465 -0.011432329 0.05346484
0.0874826 -0.06614719 -0.10178628 -3.118023e-05 -0.06329282 -0.073278114 -0.0046156226 -0.017237877
-0.09695351 -0.06309655 0.11281575 0.04679645 0.06067889 0.09286015 0.021989377 0.060916487
0.03255253 0.06765952 0.10290021 -0.111689895 -0.035932776 -0.037922382 -0.1286354 -0.027547194
-0.041468203 -0.097411595 -0.04296939 -0.024231272 -0.00041176984 0.13065828 0.08393043 0.09330014
0.03639728 0.12981935 0.026495282 0.08963721 0.08458761 -0.020096548 0.09546629 0.0509765
-0.0046656406 0.11773707 0.11209506 0.042396426 0.11206603 0.0896634 -0.11204718 -0.02610318
-0.10294471 -0.14199865 -0.031131055 -0.062137753 -0.15196581 -0.022591613 -0.071194366 -0.08239976
-0.088365346 -0.1051813 -0.018564947 0.0051829885 -0.034742173 -0.066161916 -0.042727165 -0.07138566
-0.052844003 -0.01707408 -0.082190484 -0.10185533 -0.04981793 -0.09994297 -0.1311919 -0.023025487
-0.116143145 -0.09918564 -0.033667576 -0.06231862 -0.054615986 -0.13140717 -0.04560849 -0.05648637
-0.051675707 -0.11141541 -0.07810751 -0.09428604 0.015556871 0.00056917424 -0.05505279 0.011292863
-0.025385266 -0.034009494 0.013264078 0.040233113 0.019920586 0.0363414 0.058655623 0.03804785
0.1429113 -0.015188452 0.025221722 0.06318773 0.086379945 0.074154615 -0.015140279 0.02409426
-0.020169254 -0.029999627 0.01879399 -0.021729566 -0.0109115355 0.15109232 0.07837742 0.17082584
0.09761889 0.18648814 0.1487517 0.057530135 0.11677865 0.16414496 -0.19995357 -0.07073479
-0.017082589 -0.17078958 -0.07686978 -0.121292144 -0.08267147 -0.12854445 -0.09860343 -0.046026245
-0.0030424322 -0.07412905 -0.060255993 -0.019007692 -0.061453275 -0.07464646 -0.07159584 -0.019706666
0.0045968993 0.013825595 0.06537662 0.03029261 0.100669555 0.11864267 0.038477816 0.0023278673
0.060314532 -0.051394355 -0.06449977 -0.15717173 -0.040103357 -0.012625182 -0.1209224 0.022698551
0.045462947 -0.053834397 0.028641947 0.08381948 0.06823011 0.027512416 0.02626772 0.11850258
-0.021225281 0.087145045 0.07778563 0.022488214 0.10969643 0.13686389 0.060806625 0.101778395
0.14880358 -0.0014209222 0.0835929 0.060025487 -0.084059395 -0.04645318 -0.041058928 -0.044209965

encoder.10.bias f4 [64]
00000000: bc73 4dbc 706e 20bc 8585 8abd efd3 2f3d
00000010: 3081 573c 3c68 04bd 97a0 9bbd 8171 3fbd
00000020: f1be c03c 16e7 67bc bfd2 d1bc ca6f e63c
00000030: f2d4 7d3d 05af 423c 5144 63bc fef1 173d
00000040: 10e4 6a3c cf93 a83c 2ea9 c9bc 23c0 dc3b
00000050: ffc6 c43c 4848 0f3d 952f 853d cc5a 47bd
00000060: a944 883d c067 353d 725c ffbb 78f4 54bd
00000070: 7c10 c9bc 1dbd f1bc d400 c83b c1a1 c03c
00000080: 10dc 383d 968d 2bbd 124e 9a3d 7743 b1bc
00000090: 0c6e 363d cf22 5a3d 46b1 7bbd 7001 48bd
000000a0: f78a c03d eb34 9a3b 318b 6d3c e236 143d
000000b0: 65d2 8d3b 481e 4abd 3d49 123c f962 83bd
000000c0: 97fe 8cbd 7f94 f2bc dcef 833d 6049 e43b
000000d0: 340c 06bd a48f 1fbc c46d 923d 91be c0bc
000000e0: cd7c a63d 99c7 b83c d58b b83c facd 32bb
000000f0: b529 883d 0377 b33d 0ad8 7dbc 58fa b23c
-0.0125398 -0.009791955 -0.06763748 0.042926725 0.013153359 -0.03232597 -0.075989895 -0.046739105
0.023528548 -0.014154216 -0.025613187 0.028129477 0.06197066 0.011882548 -0.013871268 0.037096016
0.014336601 0.020578293 -0.024616804 0.0067367717 0.02402067 0.034981042 0.06503216 -0.048670575
0.06653721 0.044288397 -0.0077930028 -0.051990956 -0.024543993 -0.029509122 0.0061036143 0.02351463
0.045131743 -0.041883074 0.07534422 -0.021638615 0.044538543 0.053255852 -0.061448358 -0.048829496
0.094015054 0.0047060153 0.014498518 0.036185153 0.0043280595 -0.049345285 0.008928594 -0.06415362
-0.06884497 -0.029611824 0.06442234 0.006966755 -0.03272648 -0.009738836 0.071498424 -0.02352837
0.081292726 0.022556113 0.022527615 -0.0027283416 0.0664858 0.08762934 -0.015493402 0.021847889

encoder.11.weight f4 [64]
00000000: 4f30 6d3f ef4d 9a3f 8598 7c3f 528e 8b3f
00000010: 8889 723f f7f8 913f 08f6 783f a014 793f
00000020: 8389 7b3f 83fb 7c3f 0ff4 773f 69b2 733f
00000030: a01a 873f 3517 8b3f a0df 9c3f f1cc 8c3f
00000040: 5d19 863f 38a9 683f 5adb 793f 87c3 833f
00000050: db7f 813f d326 7d3f 6454 743f 9a82 7f3f
00000060: b259 803f 69ee 7f3f ba6d 993f bc83 793f
00000070: 1610 873f 45bf 753f 4178 783f 5745 7b3f
00000080: ea19 7c3f 01f1 843f a1f4 853f 1e35 6e3f
00000090: 4a88 903f a142 8d3f 8088 783f 3353 8a3f
000000a0: 7c3e 873f 4532 7a3f d329 803f 4a34 553f
000000b0: 81b8 7f3f 1066 7f3f 2cc7 8b3f 11bd 8d3f
000000c0: 769f 923f 99b9 823f bd19 6b3f d912 723f
000000d0: 6b9a 803f 201f 763f 4426 813f 1ad7 8d3f
000000e0: 6819 883f 2da5 5c3f 8715 8d3f 31b1 823f
000000f0: 1ccc 8e3f a970 753f 7bf8 933f 6549 7c3f
0.9265184 1.2055033 0.98670226 1.0902808 0.94741106 1.1404103 0.97250414 0.97297096
0.982567 0.98821276 0.9685678 0.9519411 1.0555 1.0866457 1.2255745 1.1000043
1.047649 0.9088321 0.9760033 1.0294045 1.0117143 0.98887366 0.9544127 0.9980866
1.0027373 0.9997316 1.1986611 0.97466636 1.0551784 0.9599498 0.9705849 0.9815268
0.9847704 1.0386049 1.046528 0.930498 1.1291592 1.1035959 0.9708328 1.080664
1.0565944 0.97732955 1.0012764 0.8328291 0.99890906 0.9976511 1.0920157 1.1073323
1.1454914 1.021289 0.9183615 0.9456001 1.0047125 0.96141243 1.0089803 1.1081269
1.0632753 0.8618954 1.1022195 1.0210325 1.1156039 0.9587503 1.1560205 0.9854949

encoder.11.bias f4 [64]
00000000: 369c 413e 570c 733d 0df6 443d 2565 883e
00000010: 56d2 dabe 2f40 5dbe b7fb 29be c783 52be
00000020: f26d 5dbe b47a 923e 4b0e e9be 81d9 96be
00000030: b12a 91bd 1907 9e3e 2e21 b03d a3e7 833d
00000040: a28b 173f bbe5 97be 56e6 763e df62 293e
00000050: d22e 8dbe fd95 9dbe 82d3 0dbe ab93 4cbe
00000060: 5a92 c93b f737 4bbd b52c 013e 6d15 71be
00000070: 0b40 debd 52c2 e33c 7472 e2bd 09c4 30bd
00000080: 7874 c4bd c31b f33d 0963 35be 2301 8fbd
00000090: 85a1 59be 5c02 58be 9fe7 01bd cc34 67bd
000000a0: ac4b 9ebd 872e c7be d223 28be b3f1 70be
000000b0: 2304 f1bd d03c 32be 8f93 93be 9252 353e
000000c0: d1d4 10bf 0574 02be bd4e 06be 90dd acbd
000000d0: 7201 f73c 6385 17be 1c1a 05be 4362 953e
000000e0: 10d4 2ebe 1bfa 01be 0323 92bc 5843 7abe
000000f0: a761 03bd 7493 7dbd 20c8 b93d 031b c83e
0.18907246 0.05933794 0.048086215 0.26639667 -0.427386 -0.21606515 -0.16599928 -0.20558082
-0.21623972 0.2860924 -0.45518717 -0.29462817 -0.07088221 0.3086479 0.086000785 0.064406656
0.5919744 -0.29667458 0.24111304 0.16541623 -0.27574784 -0.30778494 -0.13850215 -0.19978206
0.0061514797 -0.04961392 0.1261471 -0.2354333 -0.10852059 0.02780262 -0.110569865 -0.043155704
-0.09592527 0.118705295 -0.1771356 -0.06982639 -0.21253021 -0.2109465 -0.03171503 -0.056446835
-0.07729277 -0.38902685 -0.16419914 -0.23529701 -0.11768367 -0.1740601 -0.28823516 0.1770728
-0.5657473 -0.1273957 -0.13115974 -0.08440697 0.030152056 -0.14796977 -0.12998241 0.2917653
-0.17073083 -0.12693064 -0.01783896 -0.24439752 -0.03207555 -0.0619082 0.09071374 0.39083108

encoder.11.running_mean f4 [64]
00000000: dde4 fa3f b5aa 8ec0 61b7 e4be ee87 2240
00000010: 9633 5c40 2f3f 99c0 ab21 8ac0 e28c a5c0
00000020: 054c ee3d f8ea 3cc0 6934 c2c0 9b2b c73f
00000030: b3c0 38c0 1e60 09bd 2de0 4bbf 2988 493e
00000040: 1398 9e40 a628 35c0 e0e0 cc3f 1954 6240
00000050: 7926 b6c0 1980 6ebf 972f 5d40 3ddd ab3f
00000060: 09d2 be40 0876 d53f cfae 9ac0 0c0c 7e3f
00000070: f949 93c0 73b4 9e40 6c1c 89c0 08a2 853f
00000080: 353d 09c0 275e 2040 ebc5 f7bf 4fe1 553f
00000090: 170e 12c0 f8ef e0bf 5d37 1a40 318c 25c0
000000a0: 7ae4 9bc0 7c5e 8cc0 7a79 42bf 8a30 8b3e
000000b0: ad06 9240 e95c 37c0 e948 e43f 6fd4 13bf
000000c0: 292f 98c0 d868 9ac0 e78f bebf 1869 3240
000000d0: 2572 2e40 dc67 7a3f 3148 3040 ac15 6b3f
000000e0: f347 4ac0 37a3 8c3f dd60 5ec0 fa17 3d3f
000000f0: 970c a03e 2b73 a03e 3a97 84c0 8f90 b8c0
1.9601094 -4.4583383 -0.44671157 2.5395465 3.4406486 -4.788963 -4.31661 -5.1734476
0.11635593 -2.9518414 -6.0688977 1.5560182 -2.8867614 -0.03353893 -0.7963894 0.19680847
4.9560637 -2.830606 1.6006126 3.536383 -5.6921964 -0.9316421 3.4560297 1.3426892
5.963139 1.6676645 -4.833839 0.9923713 -4.60278 4.9595275 -4.2847195 1.0440073
-2.1443608 2.5057466 -1.9357275 0.8354692 -2.28211 -1.7573233 2.409629 -2.5866816
-4.87164 -4.3865337 -0.7596661 0.2718547 4.563315 -2.8650458 1.783475 -0.5774602
-4.755757 -4.8252983 -1.4887666 2.7876644 2.7257168 0.97814727 2.7544062 0.91829944
-3.1606414 1.0987309 -3.474662 0.7386471 0.31259605 0.31337866 -4.1434603 -5.7676463

encoder.11.running_var f4 [64]
00000000: 45aa 5841 6131 0542 0654 b041 e2b7 9b41
00000010: 9872 b041 c202 8341 d675 af41 fa8c 1342
00000020: 0d93 6140 cc70 8241 9423 b741 ac08 b341
00000030: 4a87 db41 76ef 8f40 2e4c e040 dc91 ac41
00000040: b9ec 8e42 9da8 5341 23ee 7242 3684 e842
00000050: 1191 f641 821f a041 e454 1342 5b23 b741
00000060: faa8 2e42 0229 b841 084b 8e41 da44 6e41
00000070: d81a 0442 3a60 e241 8dcb 9841 3c55 b041
00000080: c810 0a42 6948 1142 4a56 3541 526e 2b41
00000090: 6e06 c940 ed56 4040 148b b641 cae0 4741
000000a0: 60fc ad41 b4fc a241 4b02 0442 3183 a041
000000b0: 1e94 a341 f2f0 8741 78f8 ce41 e3d7 fc40
000000c0: 5a28 6241 c1e4 f641 c2d3 5441 2c65 5042
000000d0: 2273 3b41 fea5 5741 b02d 9e41 add7 0041
000000e0: d063 b740 7275 ff40 5fd5 d341 df7d 0142
000000f0: aef9 0e41 5ea1 3542 522d 0b42 0b35 d041
13.54157 33.29822 22.041027 19.464787 22.055954 16.376347 21.932537 36.887672
3.5246003 16.305077 22.892372 22.379234 27.44106 4.497981 7.0092993 21.57122
71.46235 13.228665 60.732555 116.258224 30.820833 20.015385 36.8329 22.892263
43.665016 23.020023 17.786636 14.891809 33.026215 28.296986 19.09939 22.041618
34.516388 36.320713 11.333567 10.714434 6.282035 3.0053055 22.81791 12.49238
21.74823 20.37339 33.00224 20.064058 20.447323 16.99265 25.871323 7.9013534
14.134851 30.861696 13.301699 52.0988 11.715609 13.478025 19.772308 8.052655
5.730934 7.9830866 26.479185 32.37292 8.935957 45.407585 34.79426 26.0259
