SkidFCN.pth (torch, 969721 bytes, 81 tensors)

encoder.0.weight f4 [32, 1, 3, 3]
000000 5d 78 16 3d 8c 44 25 3b 2d c6 8a be 61 45 22 3c
       0.03673588 0.002521786 -0.2710432 0.0099042365
000010 06 4e 16 be b9 c6 ca bd cc 08 39 bd 63 23 8e bd
       -0.14678201 -0.099011846 -0.045174405 -0.06940343
000020 f9 eb 85 be e2 f7 a8 be 01 ed 01 be e3 f3 74 3e
       -0.26156595 -0.3300162 -0.12688066 0.2392116
000030 41 8f c7 be c0 b8 2e be f1 b2 7e be 47 48 86 3e
       -0.38976482 -0.17062664 -0.24872948 0.26227018
000040 9b 18 e2 bd e1 28 f9 bb 7c f5 e8 bc 5d 7b ba 3e
       -0.11039849 -0.00760375 -0.028437369 0.36422244
000050 13 27 f1 bc c9 32 57 bd cd 14 3b 3e 6d 86 bc 3e
       -0.029437577 -0.052538667 0.18269654 0.3682131
000060 cb 5d 30 3d 97 52 ca bd b9 0d db 3c b5 8e 8c 3d
       0.043058198 -0.09879034 0.026739942 0.06863157
000070 9d 85 d8 3e e0 4c 36 3e df 5f c0 3d e2 b1 9d 3e
       0.4228944 0.17802763 0.09393286 0.30799776
000080 b4 48 b3 3e 00 8d b0 bd 37 76 a5 3e 4f 54 90 bc
       0.35016406 -0.086206436 0.32316753 -0.017618326
000090 27 f8 24 be 00 5e 4b be 29 72 68 be dc 40 1f be
       -0.16110288 -0.19860077 -0.22699799 -0.15552086
0000a0 f4 cb da 3d 22 07 05 be 60 93 4c be 16 23 19 be
       0.10683432 -0.12991002 -0.19978094 -0.1495479
0000b0 6d 0e fa bd 74 70 88 3e 87 be ef 3c 56 6b 74 3e
       -0.12209783 0.26648295 0.029265655 0.2386907
0000c0 a4 7c e2 bd 60 15 23 be a3 10 b4 3e f9 71 79 3e
       -0.110589296 -0.15926123 0.35168943 0.24359883
0000d0 f9 05 a9 3d 9f bf 2a bd d7 a5 71 be 3c 41 83 3c
       0.08253092 -0.04168665 -0.23598419 0.016022317
0000e0 83 c7 19 3e 5d 9c d2 be 29 20 d6 be 8b 77 d4 bd
       0.15017514 -0.4113492 -0.4182141 -0.103743635
0000f0 a4 ae bd be 3b ce d1 be 8d 9a fb 3d b2 1a cd 3d
       -0.37047303 -0.40977654 0.122853376 0.10014857
000100 4d 66 cd 3c f9 1a a1 3e 75 8b 1b bd 41 1e 80 3e
       0.025073195 0.3146589 -0.037974793 0.25023082
000110 43 8b 85 3e 68 55 8d 3e 2f 4d 4d bd 4b b2 11 3e
       0.2608281 0.27604222 -0.050122436 0.1422817
000120 e6 3e 55 be c9 8b 0e 3e aa 67 b3 bd 67 c8 64 3e
       -0.20824775 0.13920511 -0.08760007 0.22342072
000130 4b b6 32 be f0 ee b5 be fe cf ae bd 9e d9 e1 bb
       -0.17452352 -0.35533857 -0.08535765 -0.006892397
000140 5a 69 9e be 6f 4a 82 be 10 e5 45 be 68 6b 1f be
       -0.30939752 -0.25447413 -0.19325662 -0.15568316
000150 80 5c c7 bd 00 1a 8e be 60 0d b1 bd 8a e8 69 be
       -0.0973444 -0.2775421 -0.08645129 -0.22842613
000160 5b c0 16 3e 43 cf 93 be 4e 7b 0c bb 78 71 18 be
       0.14721815 -0.28869066 -0.00214358 -0.14887035
000170 52 67 3b 3c 80 37 a4 be fc 9d 1a bd d8 4e 94 be
       0.011438208 -0.32073593 -0.037748322 -0.28966403
000180 a5 fd 9e be e0 5f d1 3d d1 a4 27 be 5a a1 3c be
       -0.3105289 0.10223365 -0.16371466 -0.18420926
000190 e9 8b 38 be 7b d8 f6 3b 14 c3 12 be 69 75 a9 3d
       -0.18022121 0.0075331307 -0.14332229 0.08274347
0001a0 b3 e0 2c 3e 87 60 c2 be 4d 73 c7 be aa 53 69 be
       0.16882591 -0.3796427 -0.38955155 -0.22785822
0001b0 c4 84 61 3e cf 64 83 3e 2d 8d b0 3e 89 53 b7 bd
       0.22023302 0.25662848 0.3448271 -0.0895148
0001c0 e4 02 95 3e b4 0e 49 be be d8 1e 3e 9e fd 9a 3d
       0.29103768 -0.19634515 0.15512368 0.07567905
0001d0 a5 40 20 3e 0b 1b d2 3d 19 f5 2a 3e d4 c6 8b 3d
       0.1564966 0.10259064 0.1669506 0.06825033
0001e0 cf 2b a0 3e a9 86 87 be e0 cf 7b 3e 46 66 1d 3e
       0.31283423 -0.26469925 0.24591017 0.15371045
0001f0 31 18 97 3e 8b 36 af 3e cd bc 98 be 5f 75 23 be
       0.29510644 0.342213 -0.29831544 -0.15962742
000200 30 52 4c 3e 53 16 78 bc 21 5c 8e be e1 d9 01 3e
       0.19953227 -0.015142041 -0.27804664 0.1268077
000210 2c c8 36 be 0b 0d 45 be b5 79 9d be 35 63 5f 3e
       -0.17849797 -0.19243257 -0.30756918 0.21815188
000220 08 4e 67 3e 4b 60 28 3d ce fa 68 3e 9b bd 74 3e
       0.2258836 0.041107457 0.22751924 0.23900454
000230 0a 5c e4 3d 08 f8 e2 3c 13 20 62 3e 3d e1 52 3e
       0.111503676 0.027706161 0.22082548 0.20593734
000240 46 5a 3e 3b b7 9d 4e 3d 39 2f d0 3d 97 e9 ba 3b
       0.0029045506 0.050443377 0.10165257 0.0057041156
000250 92 c7 a1 be 30 82 a1 be af 15 8f be 50 cc 98 be
       -0.31597573 -0.31544638 -0.2794623 -0.29843378
000260 bf a6 c4 3d 7a cb c3 3d 6f 65 bd 3e cb 09 90 bc
       0.09602117 0.095602944 0.3699145 -0.017582795
000270 2d f2 1d be 9f 2c 07 be ae 26 a8 3d 39 27 9c 3e
       -0.15424414 -0.13200615 0.082105026 0.30498675
000280 8b 07 be 3e e3 46 38 3e 73 5a 54 be bd 4b 24 bd
       0.3711513 0.17995791 -0.20737629 -0.040111292
000290 65 16 b5 3e e7 9c 60 3e 5d f4 9e 3e 2a 84 97 3e
       0.35368648 0.21934853 0.3104581 0.2959302
0002a0 62 93 57 3e b5 48 cf 3e b7 fa ef 3c 7b fb 3b be
       0.21052316 0.4048516 0.029294355 -0.18357651
0002b0 07 e9 4b be 54 75 4d 3d d8 e0 ad 3d 9e ba 1c be
       -0.19913112 0.05016072 0.08490151 -0.15305564
0002c0 2b b6 25 be 17 4f 95 3e da af c5 3e 04 60 a8 3e
       -0.16182773 0.29161903 0.38610727 0.32885754
0002d0 8b c8 0b be 07 5f 99 be 10 39 98 be 89 7d ee bd
       -0.1365072 -0.29955313 -0.29731035 -0.11645038
0002e0 fe ea 90 bc 7a 44 1e 3e b4 eb f9 bd c2 6a 84 be
       -0.017690178 0.15455809 -0.1220316 -0.258627
0002f0 e3 db 2f 3d 2d 45 d5 bd 36 92 8f 3e 83 c1 99 be
       0.04293431 -0.10413585 0.28041238 -0.3003045
000300 2d 2c 88 3e 8f ff 96 be 6e d4 82 3e 49 52 98 be
       0.26596203 -0.2949185 0.25552696 -0.2975028
000310 03 26 8d bd 3a 5f 79 3e a1 d3 4c 3e 87 4c 67 3e
       -0.06892016 0.24352732 0.20002605 0.22587787
000320 86 72 c6 bb 29 3f 30 3e 3a 94 8a 3e 25 5e f0 bd
       -0.0060561327 0.17211594 0.27066213 -0.11736707
000330 dc ef 8c 3e 3f 3c f6 3d 38 22 d9 bc 13 f9 1b 3e
       0.27526748 0.1202321 -0.026505575 0.15231733
000340 6e 5b 3d 3e 1d 95 bf be 58 05 2c 3e 78 44 8e be
       0.18491909 -0.37418452 0.16798913 -0.27786613
000350 ad 26 e1 bc 6f e4 3b 3d 03 92 a7 be e7 00 94 be
       -0.027484262 0.045872148 -0.32728586 -0.28906938
000360 57 5f 28 3e ca 41 3b 3e ad 03 d8 bd e3 c6 19 be
       0.1644262 0.18286815 -0.10547576 -0.15017276
000370 9f cb c8 be a6 8e c0 be 06 05 ac be ab 4c 85 3e
       -0.3921785 -0.37608832 -0.33597583 0.26035056
000380 d4 91 20 be fb ab 50 be ea d5 9d bc 53 89 ee 3d
       -0.15680629 -0.20378105 -0.019267041 0.11647286
000390 d5 bd a7 be 08 90 a1 be 0f 74 9f be 88 ec 18 be
       -0.32762018 -0.315552 -0.31143233 -0.1493398
0003a0 f1 18 6c be 2d 64 e2 bc 14 d4 68 bd e8 e5 07 3e
       -0.2305639 -0.027635658 -0.05684288 0.13271296
0003b0 6d ac 68 3e 19 73 73 3e 81 e9 8a 3e c0 67 2e 3d
       0.22722025 0.23774375 0.27131274 0.042579412
0003c0 1c 5f 69 3e 47 e9 6c be 7f f5 13 3e 29 1c 0b 3d
       0.22790188 -0.23135863 0.14449118 0.033962402
0003d0 33 75 c7 3e e0 79 34 bb 40 6a 9e 3e ae 10 79 3e
       0.38956603 -0.0027538463 0.30940437 0.24322769
0003e0 f6 43 87 3d ee 79 bb bd fc 24 aa 3d 3c ef b7 3e
       0.066047594 -0.091541156 0.083078355 0.3592471
0003f0 d2 5f b3 be 53 67 9b be 98 3e 44 3e 81 17 ac be
       -0.35034043 -0.30352268 0.19164503 -0.33611682

encoder.0.bias f4 [32]
000000 91 89 a4 bd bd 81 1c 3d 70 6e c8 3e e3 60 f2 bd
       -0.08034051 0.038209666 0.39146757 -0.11834886
000010 1f 22 23 3e 67 2d 00 be 2a 55 83 3d 58 b5 7a 3d
       0.15930985 -0.1251732 0.06412728 0.0612081
000020 81 61 77 3e 46 33 54 be 25 46 f1 bd 69 5d 9d be
       0.24158289 -0.20722684 -0.11780957 -0.3073533
000030 94 48 89 be 83 e0 83 be 13 a9 83 be 32 76 0b be
       -0.26813185 -0.25757226 -0.2571493 -0.13619307
000040 47 b8 98 bd 59 f0 80 3e ed f2 f7 3d a0 13 86 be
       -0.07457023 0.2518337 0.12106881 -0.26186848
000050 c8 b1 8d be e9 cd bd bd 6d ed b9 3e c0 8a 10 3e
       -0.276747 -0.0926779 0.36313954 0.14115429
000060 b7 d8 a1 3e d9 5b 21 bd e5 ac 3c bd 7d f6 8f be
       0.31610653 -0.039394233 -0.046063323 -0.28117743
000070 6e aa 94 3e a5 14 16 3e d3 b8 a7 3e 7b 9d 5f 3e
       0.29036278 0.14656313 0.32758197 0.21837418

encoder.1.weight f4 [32]
000000 37 29 60 3f 6e 18 66 3f 24 a1 5f 3f f4 b3 67 3f
       0.8756289 0.89881027 0.87355256 0.9050896
000010 6c 78 5d 3f 24 99 6b 3f 9a 3b 47 3f 4a 22 66 3f
       0.86511874 0.9203055 0.7782532 0.8989607
000020 bc 3e 5e 3f 25 6d 4b 3f 8f e5 62 3f a5 1a 4d 3f
       0.86814475 0.79463416 0.8863153 0.8011878
000030 0e 84 5c 3f 38 8e 59 3f 7e ca 53 3f 1a 73 4e 3f
       0.86139 0.84982634 0.82730854 0.8064438
000040 08 de 5a 3f 98 1b 59 3f dd cb 52 3f 36 49 61 3f
       0.8549504 0.8480773 0.8234232 0.88002336
000050 f6 9c 51 3f af 7f 5b 3f ac 7f 69 3f 0f 77 6c 3f
       0.8188013 0.85741705 0.91210437 0.9236917
000060 16 a6 63 3f da 51 4d 3f dc a0 5a 3f 8d 61 51 3f
       0.889253 0.8020302 0.854017 0.81789476
000070 8d 40 64 3f 28 74 51 3f c4 27 6c 3f f0 98 65 3f
       0.89160997 0.81817865 0.9224818 0.8968649

encoder.1.bias f4 [32]
000000 4b a8 1b be aa 6c f5 bd 1b a9 3a be 55 f9 ca bd
       -0.15200917 -0.11983617 -0.18228571 -0.099108376
000010 37 92 f6 bd ef 09 c6 bd e6 e9 5b be 40 ce d2 bd
       -0.12039607 -0.096698634 -0.21475944 -0.10293245
000020 e4 ff 0e be 86 25 4e be 01 7d 00 be fd 63 59 be
       -0.13964802 -0.20131502 -0.12547685 -0.21229549
000030 54 3a 2d be 32 e6 21 be ef 12 35 be c1 02 31 be
       -0.16916782 -0.15810469 -0.17683004 -0.17286207
000040 4a cc 18 be 87 78 3f be 01 18 45 be 53 c3 3a be
       -0.1492168 -0.18698321 -0.19247438 -0.18238573
000050 89 21 43 be 48 b2 38 be 59 6c c8 bd b2 3f ba bd
       -0.19055761 -0.18036759 -0.09786291 -0.0909418
000060 47 75 03 be 4b 6b 4e be b9 dc 42 be 73 8c 24 be
       -0.12837707 -0.20158117 -0.19029512 -0.16069202
000070 2d f8 f8 bd 87 67 49 be 53 d0 be bd 82 12 f0 bd
       -0.12156711 -0.19668399 -0.093170784 -0.1172228

encoder.1.running_mean f4 [32]
000000 2f 3d 17 bf 50 65 fe be 7e 90 5c 3f 75 45 60 3f
       -0.59077734 -0.4968667 0.8615798 0.87605983
000010 83 f7 16 bf 4b 55 d6 3e 29 5b 71 bf fd 2f 56 3f
       -0.5897142 0.41861948 -0.94279724 0.83666974
000020 05 55 90 be 73 a1 89 bf 7b f3 51 bf 07 d8 87 bf
       -0.28189865 -1.0752395 -0.82012147 -1.0612801
000030 5f 9d ee 3e 23 85 1a 3f 8c ec 6c bf 5e 78 48 3f
       0.4660444 0.603594 -0.9254844 0.78308666
000040 2a 20 27 bf c3 cd 6a 3f a9 cf 89 3f 53 9f ad 3b
       -0.65283453 0.9172022 1.0766498 0.005298534
000050 ac 7d 69 bf 74 9d d1 bd be dc 84 3f 49 b3 9e be
       -0.91207385 -0.1023511 1.0379865 -0.3099616
000060 6a 89 70 be ca cc 6d bf 48 84 0e 3f 00 a5 0f 3f
       -0.2348992 -0.9289061 0.55670595 0.56111145
000070 bd cf ef be ab 0e 19 bf e1 16 cd bd 0f cc 16 bf
       -0.4683818 -0.59788007 -0.100141294 -0.5890512

encoder.1.running_var f4 [32]
000000 5b 0e 2d 3d cd ef 51 3d 91 89 1d 3d 23 b7 20 3e
       0.04225002 0.051254082 0.03846127 0.15694861
000010 5a ba b4 3d 7d 8f 4e 3d 6c 9c 27 3e 9a bb c3 3d
       0.08824606 0.05042981 0.16368264 0.095572665
000020 fa 9b 42 3d e0 99 f3 3d c1 08 a2 3d 34 21 bf 3d
       0.047512032 0.11894584 0.07911826 0.09332505
000030 69 c8 b3 3d 9a c2 f3 3d 7b 56 96 3d 03 39 06 3e
       0.087784596 0.11902352 0.073407136 0.13107686
000040 4d dc 64 3d c2 68 97 3d 34 59 15 3e 3d b5 a6 3c
       0.055874158 0.07393028 0.1458481 0.020350093
000050 18 e1 86 3d 8e 48 12 3c d2 dc 95 3d 3d b8 21 3d
       0.06585902 0.008928431 0.07317509 0.039482344
000060 e5 d6 60 3d 0d 6a ff 3d c8 91 74 3d ac a1 e7 3d
       0.05489244 0.124713995 0.05970934 0.11310133
000070 7a b5 c3 3d c6 ba b9 3d ab bf 00 3d 49 56 d8 3d
       0.09556098 0.09068827 0.03143279 0.105633326

encoder.2.weight f4 [64, 32, 3, 3]
000000 29 2b 04 3c 5b 0d e0 3d 0e 1d 75 bc 00 ce 6c 3d
       0.008066931 0.10940047 -0.01496054 0.057813644
000010 20 4b 51 bd 56 c1 b1 bd 4d d9 a2 bd da ac 89 3d
       -0.051097035 -0.08679454 -0.07951603 0.06722422
000020 bd ca fb bc 3f a7 66 3d eb ca 97 3c f1 f8 cf 3d
       -0.030736322 0.056311842 0.018529376 0.10154904
000030 88 9f 46 3c e7 a6 9b 3c 18 ff 45 3c c7 98 a6 3c
       0.012122996 0.019000484 0.012084745 0.020336522
000040 f8 58 dd 3c de da 81 bd 53 b8 44 bd d4 14 5f bc
       0.027019963 -0.06340574 -0.048027348 -0.013615806
000050 01 e7 cb 3c fb ab fc 3d 19 e3 77 bd 45 ab 8a 3c
       0.024890425 0.1233749 -0.06051931 0.01692737
000060 2a 9a 12 bc 45 a4 16 3d 63 91 8a bd 9d e4 7a bc
       -0.008947888 0.036777753 -0.067660116 -0.015313295
000070 ec 65 33 3c 3d 44 77 bd 13 e9 a6 bd 17 38 91 bc
       0.010949593 -0.06036781 -0.08149924 -0.017726941
000080 23 d2 e8 bc 47 88 1c bc 79 59 db 3d d7 2a 21 3d
       -0.028420513 -0.009553975 0.10710425 0.039347496
000090 92 6d d8 3c a2 b5 d3 3d 60 25 89 3c 75 c3 2b 3d
       0.026419435 0.10337378 0.016741455 0.04193445
0000a0 46 82 e2 3d 4b 86 40 3d 64 7a e8 3d f3 2f a7 3d
       0.11060004 0.04700307 0.11351469 0.081634425
0000b0 48 f1 c1 3d 6c a4 84 bc 8f f8 ac 3c 3a 4a ce 3d
       0.09469849 -0.016191684 0.021114616 0.10072751
0000c0 3d a2 8e 3c b7 8d 5d bd 15 af 78 bd fb 71 9b 3c
       0.017411346 -0.054090228 -0.060713846 0.018975249
0000d0 48 76 bd 3d d2 57 a9 bc eb 97 c0 3d 18 61 c3 3d
       0.09251076 -0.020671759 0.09403976 0.095400035
0000e0 d3 eb bf 3d 18 73 44 3d e8 f5 41 3d 5a 21 38 3d
       0.09371152 0.047961324 0.047353655 0.04495368
0000f0 09 14 14 3d d5 bf d8 3d 06 7f d7 3d 4f f7 b4 bd
       0.03615192 0.10583464 0.10522275 -0.08836233
000100 09 f2 4a bd dd 54 a0 bc ce 91 94 bd 8d 75 aa bc
       -0.04954723 -0.019571716 -0.072543725 -0.020808006
000110 ac 68 91 bd f6 78 2c bd a7 51 16 3d b3 b8 49 3e
       -0.07100043 -0.042107545 0.036698963 0.19699363
000120 f0 1e a6 3c 59 5b 3e 3d 4c 5a 32 3d 3c 41 dd bc
       0.020278424 0.046473835 0.043543145 -0.027008645
000130 6e b1 51 bd 12 1d b1 3c 45 af 18 3d 1f 27 a3 bd
       -0.0511946 0.021620307 0.037276525 -0.07966446
000140 ea 42 75 3c a7 1a a4 3d 8d 2e bb 3d 47 d7 d1 3d
       0.014969567 0.08012896 0.09139738 0.10246139
000150 a5 d5 de 3d 0b 48 cd 3d e5 82 96 3d bb cc 1a 3d
       0.10880593 0.10023507 0.07349185 0.037792902
000160 80 62 22 3d d5 a1 26 3d 82 89 f9 3d 87 80 0b 3d
       0.03964472 0.04068168 0.12184431 0.03405812
000170 4b 10 64 3d c0 cf 7a 3d 61 16 16 3d 0d e9 17 3d
       0.0556796 0.061233282 0.036642436 0.03708749
000180 40 95 6a 3c 37 ae 8d 3d f4 5a 6c 3d 03 1d d0 3d
       0.014317811 0.069179945 0.057703927 0.101617835
000190 fa fd 73 3d 2f 35 2b 3d 36 4f dd 3d d7 6e b8 3d
       0.059568383 0.041798767 0.10806124 0.09005516
0001a0 f2 65 9e 3c 4e 6c b0 3d de ca 35 3d 97 72 ca 3d
       0.01933572 0.086144075 0.044382922 0.098851375
0001b0 f9 bf 5c bd 71 e7 ae bc c0 a1 a7 bd 7d 93 90 bd
       -0.053894017 -0.021350594 -0.08185148 -0.07059381
0001c0 32 6b 50 bd 91 ce 85 bd 07 d4 a1 bd fa ee bd bd
       -0.05088348 -0.0653354 -0.07901769 -0.09274097
0001d0 29 15 22 3e e2 77 6d bd 25 52 4b bc 24 82 5d bd
       0.15828384 -0.057975657 -0.0124097215 -0.05407919
0001e0 d1 e3 08 3c ee ed 87 bd 8e bb 45 3e 3a d0 93 3d
       0.008355097 -0.06637178 0.19309828 0.072174504
0001f0 98 56 94 3d d7 13 79 bd ef e2 f0 3d e4 d3 41 3d
       0.07243079 -0.060809936 0.11762034 0.047321215
000200 5a 86 c2 3d 87 5a c6 3c 6e fe e9 3d b5 16 fb 3c
       0.09498282 0.024213089 0.11425482 0.030650476
000210 f5 e7 aa 3d 7e cd bc 3d 03 fb c3 3c ea 20 0b bd
       0.083450235 0.09218882 0.023923403 -0.033966936
000220 63 42 42 bd bb d1 11 bd 72 50 c3 3c ce 1a 5a bc
       -0.047426593 -0.035600405 0.02384207 -0.013312055
000230 e7 ee 55 3d 59 9a 22 3b 82 5b ee 3c 04 8e 84 3d
       0.05222979 0.0024811237 0.029096369 0.064724
000240 5e d9 87 3d 1e 78 81 3d d6 07 66 3d e4 c5 07 3e
       0.066332564 0.06321739 0.056159817 0.13259083
000250 5a 1e b5 3d 62 ee 98 bd 3b d4 4f 3d 25 25 55 3c
       0.0884368 -0.07467343 0.050739508 0.013009344
000260 ab 44 5d bd 41 bb 9a 3b ee d7 b1 bc 93 8a 87 bb
       -0.054020565 0.0047220294 -0.021709409 -0.0041363924
000270 c9 d6 86 bd 50 77 b7 bd e0 b1 52 3c 82 9d 65 3b
       -0.06583936 -0.08958304 0.0128597915 0.003503651
000280 d6 11 4d 3e b8 14 9e bd 8d af d4 bc 9b 1d 18 bc
       0.20026335 -0.077187955 -0.025962615 -0.009284402
000290 15 d2 96 bc 2c 56 36 bd fe 59 32 bd 46 ab 44 3e
       -0.018410722 -0.044515774 -0.043542854 0.1920596
0002a0 6c 21 80 bd 5a 3a 2c bc 3e 37 ac 3c 2d 78 e2 bd
       -0.06256375 -0.010511959 0.021022435 -0.11058078
0002b0 c1 11 a0 3d 1b fe a8 bd 44 81 ee 3b 3e 49 18 bd
       0.07815886 -0.08251592 0.0072785933 -0.037179224
0002c0 dd 27 10 3c 50 a8 d4 bd f0 7a e7 bc 1c 87 3e bd
       0.008798567 -0.103836656 -0.028256863 -0.04651557
0002d0 58 73 99 3d 44 2e 6d 3c a7 87 57 3c 33 0e 52 3d
       0.07492703 0.014476363 0.013154901 0.051283073
0002e0 8d 12 d0 3d 21 50 b3 3d 2f 2a 00 3e ce d0 e2 3d
       0.10159788 0.08755518 0.12516092 0.110749826
0002f0 f4 24 a2 3d 2c 77 3c bd f9 7d 30 bd 59 33 d6 bb
       0.079172045 -0.04601209 -0.043088887 -0.006536883
000300 5f e7 eb bd 47 71 98 bd be 91 e8 bc 9c 84 1b bd
       -0.1151874 -0.07443481 -0.028389808 -0.037968263
000310 67 10 d7 bd 61 ae 34 bd d3 40 74 bd de 95 16 3d
       -0.105011754 -0.044111613 -0.059632134 0.03676402
000320 77 db 92 bc 6d bf 10 bd 0f 8c 9b 3c 8c 2f 01 bd
       -0.017926915 -0.035338808 0.018987684 -0.031539485
000330 8a ba 91 bd 91 b8 93 bd 64 4d 36 3c ba ca c1 bc
       -0.07115658 -0.072129376 0.01112685 -0.023656238
000340 e0 00 4b 3d 9b ed d9 3c 2f 13 9a 3d 10 59 c0 3a
       0.04956138 0.026602557 0.0752319 0.001467498
000350 b1 36 cd bd ec 77 39 3d 1b 0b 92 3d ba 55 86 bd
       -0.10020197 0.045280382 0.071310245 -0.0655932
000360 91 64 e4 3d b3 08 70 3d ae 58 77 3d 30 d9 89 3d
       0.11151994 0.058602046 0.060387306 0.06730878
000370 f4 d9 42 3d fc ea 77 3d f2 01 e6 3c 66 f6 0e 3e
       0.047571138 0.060526833 0.0280771 0.13961181
000380 26 25 03 bc f3 ae a0 3d ad 94 98 3d 22 a2 de 3d
       -0.008004462 0.07845869 0.07450233 0.10870768
000390 6b 59 ef 3d c6 0f a7 3d f9 b2 a6 3d 5d de dc 3c
       0.11686977 0.081573054 0.08139605 0.0269615
0003a0 64 e8 d9 3d 3c a1 8f 3d e6 d0 1c bd e8 62 a9 bc
       0.10640028 0.07013175 -0.03828516 -0.020677045
0003b0 f8 82 a8 bc 45 ae 27 bd 38 e3 30 bd 73 3a 37 bd
       -0.020570263 -0.04093768 -0.043185443 -0.044733476
0003c0 0b d5 37 bd bc b4 63 bd 25 1c 81 bd d9 8b c1 3d
       -0.044880908 -0.055592284 -0.06304196 0.09450502
0003d0 c2 1c 58 bc 37 61 60 bb 30 3c 14 3d 5a 87 14 3e
       -0.01319045 -0.0034237632 0.03619021 0.14504758
0003e0 83 56 57 bd 52 cc 85 bd c4 f5 b0 3c 71 65 c6 bc
       -0.05257274 -0.06533112 0.021601565 -0.024218293
0003f0 81 8c fe 3d 5d 6d 88 3c a3 f1 2b 3d e9 99 b9 3d
       0.12429143 0.016653711 0.04197849 0.09062559

encoder.2.bias f4 [64]
000000 31 1c a8 bd 2a 64 1b bd 78 eb 2c 3d 68 b1 a3 3c
       -0.08208502 -0.03793732 0.042216748 0.019982055
000010 0e 80 d5 3d 2c 38 5c bd 1a e7 5d 3d a1 d1 c4 3d
       0.10424815 -0.053764507 0.054175474 0.09610296
000020 5e a3 ed bd 16 95 08 bd 5a 7d 01 3d 4b 8d ed 3d
       -0.116034254 -0.033345304 0.031613685 0.11599215
000030 cd 49 a6 bd 51 20 95 bd 70 c9 a5 3b bc 74 97 3d
       -0.08119545 -0.072815545 0.0050594136 0.07395312
000040 24 f3 25 3e 75 69 2c bd 23 5a 0a bd e0 ea d3 bb
       0.16206032 -0.04209276 -0.033777367 -0.0064672083
000050 61 fb a1 3d 82 ba a3 bb 79 4b 7d bc 22 56 4c 3b
       0.07909275 -0.0049965987 -0.015459889 0.003117927
000060 1b 0b 67 3d 43 74 67 bd 5b f6 4a bd 1f e5 04 bd
       0.056407075 -0.05650736 -0.04955135 -0.03244507
000070 c1 0c c3 3d d0 3c e9 3d 5f ba 9a bd 42 43 fb 3c
       0.09523917 0.11388552 -0.07555079 0.03067172
000080 f7 9a 95 bc 6b 42 d4 bd 68 69 95 3c 4b bb c9 bc
       -0.01826237 -0.10364231 0.018238738 -0.024625441
000090 42 94 94 bd f9 e8 a2 bd 53 92 b7 bc 5a de ca bd
       -0.072548404 -0.07954592 -0.02240864 -0.099056914
0000a0 8e cd e6 3d 71 1b 42 3d 35 05 fc 3c 8d ca 70 3d
       0.11269675 0.04738945 0.030764202 0.058786917
0000b0 ab 6b bd bd 79 f6 08 bd e0 86 41 3d 7d c7 38 3d
       -0.09249052 -0.03343818 0.047247767 0.04511212
0000c0 d3 d5 b0 3c ef 26 5d 38 72 30 af bd 7f 15 da 3c
       0.021586334 5.2726766e-05 -0.08554162 0.026621578
0000d0 48 af a0 bd b6 3e 30 bd cf bd dd 3c 1f 98 b7 3d
       -0.07845932 -0.043028556 0.027068047 0.08964562
0000e0 d4 53 00 bc ff 26 71 bd aa 54 0a 3b f6 25 bf 3c
       -0.007832486 -0.05887508 0.0021107593 0.02333353
0000f0 da 00 8a bd 1e 61 40 3c ed b4 3d 3d 28 21 52 3c
       -0.06738444 0.011741905 0.046315122 0.012825288

encoder.3.weight f4 [64]
000000 c9 c1 89 3f b1 fc 89 3f f8 7c 5c 3f 8d 1d 71 3f
       1.0762264 1.078024 0.8612819 0.94185716
000010 03 cd 63 3f 08 76 8c 3f ad 54 83 3f c0 de 80 3f
       0.889847 1.097352 1.0260216 1.0067978
000020 0e ab 76 3f ad 84 75 3f ed b4 6f 3f 2e d1 6e 3f
       0.9635476 0.9590557 0.93635446 0.9328793
000030 dc 73 8b 3f aa 9e 5c 3f dc ab 8a 3f 08 da 6f 3f
       1.0894732 0.861796 1.0833697 0.93692064
000040 0a 0d 8b 3f b5 8b 6d 3f b5 0f 76 3f a3 0d 71 3f
       1.0863354 0.927913 0.9611772 0.94161433
000050 f8 32 81 3f 75 8b 8b 3f aa cc 6c 3f c3 ac 6d 3f
       1.009368 1.0901934 0.9249979 0.9284174
000060 b9 79 8d 3f 6d ce 8e 3f 0f 5d 82 3f c6 ed 88 3f
       1.1052772 1.1156746 1.0184649 1.0697563
000070 67 14 81 3f 95 91 8b 3f a9 41 8a 3f 28 40 71 3f
       1.0084351 1.0903803 1.0801288 0.9423852
000080 62 be 58 3f 8b 12 71 3f ca 07 8b 3f 24 26 77 3f
       0.846655 0.9416892 1.0861752 0.9654257
000090 f2 21 71 3f 19 6c 83 3f 63 93 79 3f 4b db 67 3f
       0.9419242 1.0267364 0.9749052 0.9056899
0000a0 43 b4 84 3f 88 3a 88 3f 84 62 83 3f 5c fd 89 3f
       1.0367512 1.0642862 1.026444 1.0780444
0000b0 c3 7c 75 3f 0a 27 83 3f 3b e1 81 3f 26 c2 75 3f
       0.95893496 1.0246289 1.014686 0.9599937
0000c0 41 72 83 3f ad c7 70 3f 41 60 60 3f d4 e3 6d 3f
       1.0269243 0.9405468 0.8764687 0.92925763
0000d0 a9 e4 88 3f e9 51 8b 3f 1a 88 6f 3f 54 8d 69 3f
       1.0694782 1.0884372 0.9356705 0.91231275
0000e0 c8 c8 72 3f d2 ce 73 3f c8 71 84 3f 1a f2 8c 3f
       0.9483762 0.9523746 1.0347223 1.1011384
0000f0 f8 1d 86 3f ae 54 8a 3f 85 9f 71 3f 58 9e 6d 3f
       1.0477896 1.0807092 0.9438403 0.9281974

encoder.3.bias f4 [64]
000000 7b 6f cc 3b df d9 86 bc bf cd fa bc a6 e3 66 bd
       0.0062388754 -0.01646131 -0.030615686 -0.056369446
000010 08 aa 90 bd 3c 16 4b be 06 1a b4 3c 5e e0 05 3b
       -0.07063681 -0.198327 0.021985065 0.0020427923
000020 25 b5 99 bd eb 74 87 bd 56 a5 45 bd 5d e0 83 bd
       -0.07505254 -0.06614097 -0.04825338 -0.06439278
000030 0d 9d 18 3d 04 d6 01 3d 72 82 4a bc a5 94 27 3c
       0.03725915 0.03169824 -0.012360202 0.010228311
000040 ab f8 2c 3d 61 45 ad bd 7f 85 d6 bd 7c c8 b8 3c
       0.042229336 -0.084604986 -0.10474681 0.022556536
000050 e1 58 79 3c 79 1f b2 bc bc ba ad bd 1c 58 bb bd
       0.015218944 -0.021743523 -0.084828824 -0.09147665
000060 9b 40 0c be 0c 50 47 be 91 9d 74 3c b8 ca 81 3d
       -0.1369652 -0.19464129 0.014930145 0.06337494
000070 84 05 97 bc 5c ae da bc 46 c6 41 bd 48 77 63 bd
       -0.018435247 -0.02669447 -0.04730823 -0.055533677
000080 0b 5a 06 be 04 65 b0 3d d9 b5 ed bc f0 53 29 bd
       -0.13120286 0.08613017 -0.029017376 -0.041339815
000090 fd b6 41 3d df 00 ce 3c 68 57 ea 3c f7 85 24 be
       0.04729365 0.0251469 0.028606132 -0.16066729
0000a0 c4 17 28 3d c4 a1 45 3d 21 b7 0d be 3c dc e4 3c
       0.04103829 0.048249975 -0.1383939 0.027937047
0000b0 d5 e0 52 bd 6b 85 7c 3b d1 bb d4 3c c7 5e 49 bc
       -0.051483948 0.0038531672 0.025968464 -0.012290663
0000c0 b0 fb 8d 3b aa 35 7b 3b 2f 9f a7 bd b5 8e 8d bd
       0.004332982 0.0038331547 -0.08184659 -0.06911985
0000d0 c8 3d 81 3d 3f 27 53 bd e6 11 e1 bb 9c bd ae bd
       0.06310612 -0.0515511 -0.0068685887 -0.08532259
0000e0 5d 20 15 bd 07 aa 52 bd 97 59 94 bc 96 7a 8a 3d
       -0.036407817 -0.051431682 -0.018109126 0.06761663
0000f0 03 39 8d 3c a2 01 ff bc 30 68 99 3b a6 a7 23 be
       0.0172391 -0.031128708 0.0046816096 -0.15981922

encoder.3.running_mean f4 [64]
000000 ef 4f e9 3f d1 cf 92 40 1c 8e 30 c0 07 1e 0d 3f
       1.8227519 4.587868 -2.7586737 0.55123943
000010 4b e9 9b bf e0 0e 84 40 45 32 2e c0 ef e4 67 3f
       -1.218057 4.126816 -2.7218182 0.905837
000020 1b 82 02 40 70 5c d9 3e 52 25 8c c0 76 cc 21 c0
       2.039191 0.42453337 -4.3795557 -2.5281043
000030 de 5b 1e 40 b9 51 f6 bf 92 14 04 40 f3 47 93 bf
       2.4743571 -1.924369 2.0637555 -1.1506332
000040 12 58 99 40 c5 8b 73 c0 a6 93 3e 40 fc 9c c3 bf
       4.792001 -3.8054059 2.9777617 -1.5282283
000050 7e 4e 12 c0 41 ea 9b 40 ad 61 a9 be 70 26 ea 3e
       -2.2860408 4.8723454 -0.33082333 0.4573245
000060 40 63 9c 40 a2 8a 96 40 c3 24 0d c0 52 e0 9a c0
       4.8871155 4.704423 -2.2053688 -4.839883
000070 66 7a dd bf d6 22 19 40 20 f4 a2 40 04 da 1d c0
       -1.7302978 2.3927512 5.0923004 -2.4664316
000080 3f 27 8e bf 67 82 93 c0 42 39 8b 40 88 92 02 40
       -1.1105727 -4.6096683 4.3507395 2.0401936
000090 74 03 ce bf 29 69 33 c0 10 54 b8 bf ab bd 3d 3f
       -1.6094804 -2.8032935 -1.4400654 0.74117535
0000a0 5c 76 3a c0 c5 27 87 c0 52 85 1d 3e 78 3f 8c 40
       -2.913474 -4.2236047 0.15382889 4.3827477
0000b0 15 67 88 3f d6 ba 01 40 60 6a e0 bf ac e6 fd bf
       1.0656458 2.0270286 -1.7532463 -1.983602
0000c0 c2 c8 0a c0 53 43 e0 bf cb e3 1a c0 56 fa c8 bf
       -2.1685033 -1.7520546 -2.4201534 -1.5701396
0000d0 00 10 71 c0 b5 7e 8b 40 78 6e 97 bf f8 20 76 40
       -3.7666016 4.359217 -1.1830587 3.8457623
0000e0 0b ba 8f c0 ab 64 44 bf 3a 17 4f 3f e6 a5 24 40
       -4.4914603 -0.7671611 0.80894816 2.5726256
0000f0 48 c6 c1 3f f0 a1 88 40 e6 c2 d9 be 74 be f8 bf
       1.5138636 4.2697678 -0.42531508 -1.9433122

encoder.3.running_var f4 [64]
000000 e9 0f 85 41 5c b8 77 41 3f ea de 41 5d a9 af 40
       16.632769 15.48251 27.864378 5.489424
000010 62 50 be 41 f3 62 78 41 11 10 ea 41 98 5b 8a 3f
       23.78925 15.524158 29.257845 1.0809202
000020 e7 1a 01 41 65 a6 29 40 06 c6 54 41 8e a7 41 41
       8.069068 2.650781 13.298346 12.103407
000030 b0 4e 68 41 a8 8e da 41 c8 86 d9 41 61 ff fd 41
       14.519211 27.319656 27.190811 31.749697
000040 08 68 7e 41 2b 78 5a 41 1e 18 f2 40 47 b7 ea 41
       15.900398 13.654338 7.565444 29.33949
000050 c5 a1 b1 41 4b 15 83 41 45 e1 87 41 2a cf 94 41
       22.203989 16.385397 16.984995 18.601154
000060 ca 22 a9 41 87 bc 96 41 3f 94 e5 41 ad 92 9b 41
       21.141987 18.842054 28.697386 19.446619
000070 8e e7 da 41 f8 d8 9a 41 df 3d c6 41 bb 50 d4 40
       27.363064 19.355942 24.78021 6.634855
000080 8b 90 9e 41 0d 08 71 41 4a 3c 76 41 bb c8 83 40
       19.820578 15.0644655 15.389719 4.118253
000090 e6 86 d6 41 68 7f 48 41 07 27 50 41 32 39 cb 41
       26.815868 12.531105 13.009528 25.402927
0000a0 fe 8e ad 41 16 68 8d 41 05 4b 89 40 03 1f 58 41
       21.69482 17.675823 4.2904077 13.507571
0000b0 c0 71 24 41 fc cd 67 40 75 6e 74 41 81 a7 be 41
       10.277771 3.6219473 15.276967 23.831789
0000c0 3c 41 ec 40 ef 4a cf 41 bf 4c 92 41 42 08 3a 41
       7.382963 25.911589 18.287474 11.627016
0000d0 44 a7 fa 40 5a cb 79 41 4d dc e2 41 2c d6 73 41
       7.832918 15.612146 28.357569 15.239788
0000e0 06 98 69 41 8c 24 b0 41 ba 48 6b 40 52 76 05 41
       14.599615 22.017845 3.6763139 8.341387
0000f0 ff 3d 8f 40 2c 00 85 41 8d de ca 41 e5 78 d5 41
       4.476318 16.625084 25.358667 26.68403

encoder.4.weight f4 [32, 64, 3, 3]
000000 47 f5 9f 3c 51 9d 84 3c be 4b 6c be 22 2d 8a 3d
       0.019526137 0.016188296 -0.23075768 0.0674689
000010 6a a8 37 bd 8d ee 16 3d 1d fa b2 3c ff ee 06 3d
       -0.044838347 0.036848594 0.021847779 0.03294277
000020 d0 f2 8a bd ae 35 26 3c 3a 6d 8c 3d 50 00 e8 3c
       -0.06784594 0.010144634 0.06856771 0.028320462
000030 d1 9f 8d 3d 2e 04 2e 3d 24 b8 c7 3d 27 e9 44 3d
       0.06915248 0.042484455 0.09751919 0.048073914
000040 c2 7c 8b 3d 67 d4 53 3d 62 d0 f2 bc c5 7e 04 bd
       0.06810905 0.051716235 -0.02964038 -0.03234746
000050 fa ae da bd b0 62 1a bd 7b 96 92 bd ac db b8 3d
       -0.106779054 -0.037691772 -0.07157608 0.09026274
000060 cb 86 0a bd 69 5f 86 bd ca 75 aa bd 10 e2 bf 3c
       -0.033819955 -0.06561167 -0.08323248 0.023423225
000070 73 89 88 bd 3d a3 26 be b2 21 d1 bc e4 88 5f 3d
       -0.06666841 -0.16273208 -0.025528762 0.05457391
000080 90 22 3e 3d e9 3b 3e 3d 21 e3 0b 3d a1 58 62 bd
       0.04641968 0.046443854 0.034152154 -0.055260304
000090 0c 70 cc bd c8 38 7f bd f5 bf b1 bd 88 0b 99 bc
       -0.09982309 -0.06231001 -0.08679191 -0.018682256
0000a0 6a e3 bc bc 5f 46 59 3d 2c 87 9d bc d0 de b2 bc
       -0.023057658 0.053045627 -0.019229494 -0.02183476
0000b0 d8 55 5b bd 2c 5f a0 3d 6c 2b b7 3d a4 61 76 3d
       -0.053548664 0.078306526 0.08943829 0.06015171
0000c0 d4 7e ad 3d b9 ae b7 3d 4b d9 4e bd a3 4e c4 3d
       0.08471456 0.089688726 -0.050500195 0.09585311
0000d0 37 b7 c8 3d ba 97 2f 3d 84 62 98 bd 70 00 b7 3d
       0.098005705 0.042869307 -0.07440665 0.0893563
0000e0 c3 04 8f 3d bd a7 39 bd 89 f1 c8 bd 04 ac 95 3d
       0.0698333 -0.045325983 -0.09811694 0.073082
0000f0 3c 7b 6b bd c6 d2 c5 bd da 1a 26 3d b3 3e a4 bd
       -0.057490572 -0.096593425 0.04055295 -0.080197714
000100 d3 aa 04 be 87 c2 ed bd 6f 03 0c be 86 a2 e3 bc
       -0.1295579 -0.11609369 -0.13673185 -0.027787458
000110 23 04 45 bc fe 37 88 bd cf f6 83 bd 98 a4 87 bd
       -0.012024912 -0.06651305 -0.064435594 -0.06623191
000120 27 b0 4d bd e0 cd 1d bd 4a c2 b1 bd ca c2 c9 bc
       -0.05021682 -0.038526416 -0.08679636 -0.024629015
000130 b7 fe b5 bd 46 ac 24 3d a8 72 59 bd 04 b9 0f bd
       -0.088864736 0.040203355 -0.05308786 -0.035088554
000140 af 23 b9 bc 25 9e 07 bd 37 37 98 3a 40 34 fd bd
       -0.022600023 -0.033109803 0.0011613135 -0.123634815
000150 90 b3 14 3d 35 11 01 be 24 2c 0e bd f4 a4 48 3c
       0.036304057 -0.1260422 -0.034710065 0.012246359
000160 04 52 51 3c dd 36 8a bb 90 b8 b1 3b 6b 68 5b bd
       0.012775902 -0.004217966 0.005423613 -0.053566378
000170 b5 ae 4a 3e e6 80 7e 3e 78 39 6a 3e a7 4c 7f bc
       0.19793208 0.24853858 0.22873485 -0.01558224
000180 ea d4 6a 3e 3a 0f 48 3d 2f c2 f5 3d 09 33 a6 bd
       0.22932783 0.048842646 0.11999928 -0.08115203
000190 8c e1 83 3d 4c fd cb 3d a1 04 23 bd a1 0f 32 bd
       0.06439504 0.09960422 -0.039799336 -0.043471936
0001a0 90 19 8b bc a9 1c e7 3d 6b ae c3 3d 90 b6 29 bc
       -0.016979963 0.11284763 0.09554752 -0.010358468
0001b0 ea c6 83 bd b9 4a 40 bd 4c 07 20 bc f8 21 99 bd
       -0.06434424 -0.04694626 -0.009767365 -0.07477182
0001c0 20 7b 50 bd 6c 4e 67 bd 3b 7f 49 bc 3b 6e 88 bd
       -0.05089867 -0.056471273 -0.0122984005 -0.0666165
0001d0 1e 3d 92 bd a5 82 dd bd fa 38 d5 bd 45 b0 7a bd
       -0.071405634 -0.10815934 -0.10411258 -0.06120326
0001e0 ec 3e 5a bd 1a 07 89 bd 8b 98 6c bd ac f2 63 bd
       -0.053282663 -0.06690808 -0.057762664 -0.05565135
0001f0 db 3d bc bd c5 f8 38 ba e2 07 84 3b 98 c9 ad 3d
       -0.091914855 -0.00070561125 0.00402926 0.084857166
000200 b8 c3 f2 bd 20 b4 53 be b9 2a 8f 3d 01 0d e5 bd
       -0.11853737 -0.20674181 0.069905706 -0.11184121
000210 d3 6d a8 bd 4b 33 62 3d d1 4d 8c bd 24 e7 b3 bd
       -0.08224072 0.055224698 -0.0685078 -0.08784321
000220 68 8f 89 bc e2 98 84 3b 04 7a a3 bd 93 ea fe bb
       -0.016792014 0.0040465454 -0.07982257 -0.0077794283
000230 f9 63 85 3c ad 6c 9f 3c 9e 0c 9e 3c 02 78 11 bb
       0.016283022 0.019461 0.019293126 -0.0022196774
000240 b4 c5 7e 3c 65 7d 67 3c ff 6a 70 3c b2 76 f0 3b
       0.015550066 0.0141290175 0.014673947 0.0073383683
000250 02 62 fc bb 00 0b a2 3d c3 21 85 3d 35 fa 3f 3d
       -0.007702113 0.07912254 0.0650058 0.046869475
000260 3e b1 85 3d 11 75 e9 bb ee 7d 46 3d 69 3c 09 3e
       0.06527947 -0.007124551 0.04845994 0.13401951
000270 1b 68 4a 3e 68 dc 11 3e 75 1c 14 3e a4 92 2e 3e
       0.19766276 0.14244235 0.1446398 0.17048126
000280 4b aa 35 3d ae 62 e6 3d a9 f4 2e 3d c7 41 81 3d
       0.044351857 0.112492904 0.042713795 0.06311374
000290 d2 18 40 3d bc d5 4d 3d b4 b0 e0 3c 91 88 d0 3a
       0.04689867 0.05025266 0.027428009 0.0015909841
0002a0 a4 5a 79 3d 31 cf f3 3b fb 07 15 3d 02 2d d4 bd
       0.060877457 0.0074404706 0.036384564 -0.10360147
0002b0 26 8a 22 3c e7 d7 b2 bd 54 b8 51 bc e4 15 5c bd
       0.0099206325 -0.08732586 -0.012800295 -0.053731814
0002c0 89 16 b3 bd 5a 59 84 bd 38 8b de bc 9f 14 40 bd
       -0.087445326 -0.06462355 -0.027165994 -0.046894666
0002d0 45 7e 98 bd fc 6e 1d bd 7c 30 82 bd 2a 49 63 3d
       -0.07445959 -0.03843592 -0.06356904 0.055489697
0002e0 50 3f d0 bc f6 e7 15 bd 35 fd 5f bd cc 18 95 3d
       -0.025420815 -0.03659817 -0.054684836 0.0728012
0002f0 44 40 70 bd 23 81 35 3d 80 70 7b 3d e5 25 71 3d
       -0.05865504 0.044312607 0.061386585 0.05887403
000300 a3 0a 5d 3d 1e 6f a1 3d 3e b0 85 3b 97 d1 b4 3d
       0.053965222 0.07882522 0.0040798476 0.088290386
000310 63 cc 52 3d 0e 21 a3 bb 80 92 d9 bc 8a 6c c6 bd
       0.05146445 -0.0049783057 -0.026559114 -0.09688671
000320 5b 22 a4 bc 63 19 df bc 14 91 ab bc d9 2d 8f bd
       -0.020035913 -0.027233785 -0.020943202 -0.069911666
000330 58 08 3b bd 1b 32 01 be 37 20 83 bd 27 65 a8 bd
       -0.045662254 -0.1261677 -0.06402629 -0.08222418
000340 a8 2f 2d 3c 7f 3b 9c 3d 3a bd 05 3c f5 1a f1 bc
       0.010570444 0.076285355 0.008162791 -0.0294318
000350 48 ec 2a 3d db a4 97 3d 32 19 54 3d 43 7c 9b 3d
       0.04172924 0.074044906 0.05178184 0.075920604
000360 19 62 9e 3d cc a8 0e 3d 95 d2 83 3d 7c 7f 3e 3d
       0.077335544 0.034828946 0.0643665 0.046508297
000370 2c da 23 3d 73 15 01 3c dd 2a be 3c 98 93 85 3d
       0.040002987 0.007878649 0.023213798 0.06522292
000380 23 7a 95 3d 0a f9 1d 3d 79 49 66 3d a2 7f 80 3d
       0.07298686 0.03856758 0.056222413 0.06274344
000390 6b 05 49 3d a0 3a 81 3d 81 8c d6 3b b3 84 40 3d
       0.049077433 0.0631001 0.006547511 0.04700155
0003a0 dd ab 56 3d 7f 93 f5 3c 4b 9b db bd 4e 83 d0 bd
       0.052409995 0.029977558 -0.10722979 -0.101812944
0003b0 1e 24 ce bd 29 91 ab bd 88 92 0f bd 1f d9 e1 bd
       -0.100654826 -0.083772965 -0.035051852 -0.11027741
0003c0 4b 72 a5 bd 98 40 f8 bc 60 b2 98 bd 78 af 86 3d
       -0.0807844 -0.030304238 -0.07455897 0.06576437
0003d0 5a 97 72 3e 0d 74 2d 3c 1a 0a 8d 3e a9 3b 8e 3c
       0.23690549 0.010586751 0.2754677 0.017362433
0003e0 17 6b 53 3e 0c ea 97 3c 5f 8d 5c 3e 0f 83 3e 3c
       0.2064632 0.01854422 0.21538304 0.0116279265
0003f0 88 5f a3 bd a1 d5 82 bd af 8f b8 bd 34 83 9a bd
       -0.079772055 -0.06388403 -0.090117805 -0.07544556

encoder.4.bias f4 [32]
000000 be 2c 94 3d e1 b8 09 3d 7f 39 64 bd 64 ef ae 3d
       0.072350964 0.03362358 -0.055718895 0.08541754
000010 2d f8 89 3d 27 05 d7 3d 43 9e 24 bd 73 73 35 bd
       0.06736789 0.104990296 -0.040189993 -0.044299554
000020 09 07 ae 3d 40 f0 65 bd 06 57 bb bd 46 46 d2 bd
       0.084974356 -0.056137323 -0.09147458 -0.1026731
000030 e8 61 54 3d 03 f1 5e bd b3 bd 73 bd 99 bf 04 3d
       0.051851183 -0.054429065 -0.059507083 0.032409284
000040 0f ad 73 3d e1 e2 71 bd f7 b1 85 3d 5f 85 69 3c
       0.059491213 -0.05905426 0.06528085 0.01425299
000050 15 63 d3 3d e6 5a 95 3d 29 ab 56 3d 7c b8 d5 3d
       0.10321633 0.07292728 0.052409325 0.10435578
000060 d9 05 5c bd 39 5e c7 3b 57 cf 14 bc 89 c5 19 3c
       -0.053716514 0.0060842303 -0.009082637 0.009385475
000070 e1 f2 89 3d 3a 1d ea bc 09 d0 cf bc e4 82 86 3d
       0.067357786 -0.02857839 -0.025367754 0.06567934

encoder.5.weight f4 [32]
000000 95 0d 51 3f ec ab 5b 3f 48 39 63 3f 2d 32 69 3f
       0.8166135 0.85809207 0.8875928 0.9109219
000010 a2 68 6e 3f 7d eb 68 3f e8 9e 4f 3f fe 73 66 3f
       0.93128407 0.90984327 0.81101847 0.9002074
000020 8e 2b 61 3f 23 7b 45 3f 19 8f 6d 3f 1f 2e 50 3f
       0.87957084 0.77141017 0.92796475 0.81320375
000030 b6 fa 5a 3f 32 25 5b 3f 96 c1 62 3f 98 19 52 3f
       0.85538805 0.8560363 0.8857664 0.820703
000040 8a 4c 4d 3f c0 01 52 3f 41 f3 4b 3f d2 7b 4e 3f
       0.80194914 0.8203392 0.7966805 0.80657685
000050 8f 7f 4f 3f be 5d 4d 3f 06 c3 6a 3f 6c e5 6d 3f
       0.81054014 0.80221164 0.9170383 0.92928195
000060 79 5f 61 3f 17 1b 51 3f f1 b5 4a 3f be f5 4b 3f
       0.88036305 0.8168196 0.7918387 0.7967185
000070 51 d4 6d 3f bc 93 5a 3f aa c6 6c 3f 5c 09 6c 3f
       0.92902094 0.85381675 0.9249064 0.9220178

encoder.5.bias f4 [32]
000000 a5 f8 1f be 62 0b 18 be 2b 16 2a be a7 34 d7 bd
       -0.15622194 -0.14848092 -0.16610019 -0.105080895
000010 23 2e a1 bd 3f a3 d7 bd 6e a9 51 be 5e 28 d2 bd
       -0.07870128 -0.105291836 -0.20474789 -0.10261606
000020 67 25 2a be e0 9e 67 be b0 c1 aa bd f8 24 43 be
       -0.1661583 -0.226192 -0.08337724 -0.19057071
000030 43 a1 31 be be 27 1a be 5d 25 06 be 24 fd 3e be
       -0.17346673 -0.15054223 -0.1310019 -0.18651253
000040 96 97 57 be ad 2c 54 be 38 9d 66 be 27 d8 4a be
       -0.21053919 -0.20720167 -0.22520912 -0.19809018
000050 13 34 53 be d8 df 48 be 91 82 ca bd 65 87 b2 bd
       -0.20625333 -0.1961664 -0.09888185 -0.08717231
000060 73 6c f8 bd ba ee 21 be e5 1b 53 be 63 65 39 be
       -0.1213006 -0.15813723 -0.2061611 -0.18105082
000070 76 33 d0 bd 3a ee 2d be 61 9a c3 bd ca 51 c0 bd
       -0.101660654 -0.16985407 -0.0955093 -0.093906

encoder.5.running_mean f4 [32]
000000 f3 d7 05 3d 5a f9 48 40 2d 4d b5 bf 36 98 de c0
       0.03267665 3.1402192 -1.4164177 -6.9560804
000010 3c 87 87 3f c5 05 8c c0 cb 6d 69 c0 8c 07 48 c0
       1.0588145 -4.3757043 -3.6473262 -3.1254606
000020 87 01 82 c0 cf 0e c7 40 1d 72 94 3e 08 f0 6e c0
       -4.0626864 6.2205577 0.28993312 -3.7334003
000030 37 52 eb c0 ac 21 a1 40 f0 1d 70 c0 11 a3 b5 c0
       -7.353786 5.0353603 -3.7518272 -5.6761556
000040 6b 92 3d c0 8e 59 8c c0 b6 3b ba 40 a2 5d b1 c0
       -2.9620616 -4.385932 5.819789 -5.54268
000050 21 cb 71 c0 53 1a c6 c0 2b 5a c8 c0 b8 00 85 c0
       -3.778023 -6.1907134 -6.261007 -4.1563377
000060 47 17 53 3f eb c5 17 40 69 c2 f1 40 c9 09 00 40
       0.82457393 2.371455 7.5549817 2.0005972
000070 2a 63 8f c0 06 ce 04 c0 b1 e7 b0 c0 76 f4 ac c0
       -4.480855 -2.0750747 -5.5282826 -5.4048414

encoder.5.running_var f4 [32]
000000 1e d9 03 42 7e fd 1d 42 30 79 b5 42 c4 e2 d3 42
       32.96203 39.49755 90.736694 105.9429
000010 1b 80 b3 42 38 9e bf 42 82 f0 42 43 ac ee e4 42
       89.750206 95.80902 194.93948 114.466156
000020 cc fc b5 42 4a fe 77 42 4c 38 ab 42 a8 a8 17 42
       90.993744 61.99833 85.609955 37.914703
000030 a1 ab ff 42 7b 3d cc 41 2a 75 09 43 05 fe 35 42
       127.83521 25.53002 137.45767 45.498066
000040 6c dc 3e 43 5c 10 f8 42 6d b3 18 43 f2 e3 d2 42
       190.86102 124.03195 152.70088 105.445206
000050 d4 78 0f 43 81 91 f1 42 b9 7a db 42 8e c9 de 42
       143.47198 120.78419 109.73969 111.39366
000060 98 f9 e0 41 2d 21 2d 42 1d dd 9f 42 60 44 bd 42
       28.121872 43.2824 79.93186 94.633545
000070 28 a3 b9 42 2e 08 da 42 c4 45 eb 42 b8 94 d9 42
       92.818665 109.015976 117.63626 108.79047

encoder.7.weight f4 [64, 32, 3, 3]
000000 fe 4f 81 3c 76 22 94 3d c2 a6 e6 3d d5 10 d7 3d
       0.015785214 0.072331354 0.11262275 0.10501257
000010 53 5d 5b 3d 9e 3e 8e 3d da 64 bd 3c aa 49 c1 bd
       0.053555798 0.06945537 0.023119379 -0.094378784
000020 6e 0b a2 bd 44 b6 06 3d 2b 0f be 3c 87 ba 3b 3d
       -0.07912336 0.032888666 0.023200592 0.045832183
000030 99 f5 df 3d f8 7b 1f 3d 4b 71 00 3d 85 9f 15 3d
       0.10935516 0.038936585 0.031358045 0.036529083
000040 1c 86 82 3c f5 c8 6c bd b1 e0 d5 3d 41 ac 1e 3d
       0.015933089 -0.057808835 0.10443247 0.038738493
000050 35 20 db 3d 02 ac 20 3d c1 88 52 3d 4d 13 90 bb
       0.106995024 0.03922654 0.05139995 -0.004396832
000060 12 e8 c9 3c 76 20 5e 3d 42 33 76 bc e0 4d 2b 3d
       0.024646793 0.054230176 -0.015026869 0.041822314
000070 2d 31 25 3d 17 72 eb 3d 3b 95 3e 3d 02 fa a2 3d
       0.0403301 0.1149637 0.046529036 0.079578415
000080 ff 92 8e 3c 71 d8 99 3d 7b ef dd 3d c8 0f fe 3d
       0.017404078 0.07511986 0.10836693 0.12405354
000090 a5 93 b9 bd 20 80 0b bd dc 18 77 bd a1 93 48 bc
       -0.09061364 -0.034057736 -0.060326442 -0.012242229
0000a0 a6 67 82 bb f9 26 8a bd a7 c0 64 3c 27 1f b6 bd
       -0.003979641 -0.06745715 0.0139619475 -0.088926606
0000b0 cf 51 1f bd 08 d4 d6 3d 58 4b 18 3d 6a 9b 0b 3c
       -0.038896378 0.104896605 0.03718123 0.00852094
0000c0 c9 30 85 3d e6 4f 64 3c 27 27 13 3d a1 80 65 3c
       0.06503446 0.013935065 0.03592601 0.014007718
0000d0 cf a3 a9 3c eb 97 be bd 95 fe 00 3c 48 4c ef bc
       0.020707993 -0.0930632 0.007873197 -0.029211178
0000e0 cd d4 2b 3c 65 c7 a6 bd ad cc 1f bd d0 44 b8 bd
       0.010487747 -0.081435 -0.039013553 -0.089975
0000f0 73 1d a3 bc b9 7d 2c bd ef 75 bb bd d1 0e 49 3d
       -0.019911503 -0.042112086 -0.091533534 0.049086396
000100 14 20 76 bd 50 28 16 bd b2 28 a5 bd ff 18 b5 3c
       -0.060089186 -0.03665954 -0.08064403 0.022106646
000110 43 63 2d bd 8c ea 0a 3c 44 0b 02 3d 96 46 c2 bd
       -0.04233099 0.008478772 0.031749025 -0.094861194
000120 23 3b 94 3d 8c f7 9f 3c 50 64 01 3e 04 ea 13 3d
       0.07237842 0.01952722 0.12635922 0.036111847
000130 ae cb 73 3d 78 49 bc 3d 8a 32 df 3d 97 b4 9e 3d
       0.059520416 0.091937006 0.108983114 0.077492885
000140 24 89 ee 3d 27 ae 24 bc 1c 8d ce bd f2 1e 19 bc
       0.11647251 -0.010051287 -0.10085508 -0.009345757
000150 57 12 a8 3a b0 92 ab bd 13 85 60 bd cc 4a c0 bb
       0.0012822849 -0.08377588 -0.05481441 -0.0058682915
000160 9b 84 6f bd f4 15 d6 bc 10 ca e8 bc 36 e4 b5 bd
       -0.05847607 -0.026133515 -0.028416663 -0.088814184
000170 00 bd 70 bc ae 2e 1b bc f8 d7 5d 3c 65 fd cb bc
       -0.014693499 -0.0094715785 0.0135402605 -0.024901101
000180 de 76 2c bd 0d 75 ac bd 6b ae 81 bc cb 6b f5 3c
       -0.042105548 -0.08420763 -0.01583024 0.029958626
000190 2b 71 a5 3d de 32 ff 3d 79 fa 7c 3b f1 38 5d 3d
       0.08078226 0.12460874 0.0038601442 0.05400938
0001a0 e8 22 27 bd 16 32 74 3c 97 0c fc 3d 90 cc 59 bc
       -0.040804774 0.01490452 0.12307089 -0.0132934
0001b0 e0 61 61 3b b3 38 12 bc 0b 88 1b bb a9 9a bf 3d
       0.0034390613 -0.008924651 -0.002373221 0.09355671
0001c0 9d 17 cc 3d 2d 63 79 bd b3 08 81 3d 04 bf 19 3d
       0.099654414 -0.060885597 0.06300487 0.037535682
0001d0 7d 34 83 bc 72 36 5e bd 24 d3 86 bd f5 6f 98 bc
       -0.01601624 -0.05425114 -0.06583241 -0.018608073
0001e0 bb 68 1c bd 58 e1 70 bd dc 46 b0 bd 9d 27 b5 bd
       -0.038185816 -0.058808655 -0.08607265 -0.08845446
0001f0 7d c2 0a bd 24 b1 c5 bc 44 c5 4d bc ce f3 b3 bd
       -0.033876885 -0.024132319 -0.012559239 -0.087867364
000200 29 ea eb bc 17 fd 64 bb 92 97 6e bd 9d aa c3 bd
       -0.02879818 -0.0034940892 -0.058250017 -0.09554026
000210 2b c8 d1 bd a2 70 9d bc 22 c0 6f bd 0f c4 03 bc
       -0.10243257 -0.019218747 -0.05853284 -0.0080423495
000220 34 b2 e3 bb 71 b7 8d bd fa 38 71 bb 4a e8 0f bd
       -0.0069487337 -0.06919754 -0.0036807642 -0.035133637
000230 fd 55 9e bd aa 12 33 bd cf 97 9d bd 74 22 6e 3d
       -0.07731245 -0.04371897 -0.07694971 0.058138326
000240 e9 1c e2 3d a6 2e 27 3d 6e 6d 05 3e 87 ec ae 3d
       0.110406704 0.04081597 0.13030025 0.08541208
000250 ac 80 dc 3c 48 0f cd 3d 67 5a c3 3d 33 b3 cc 3d
       0.026916824 0.1001268 0.09538727 0.09995117
000260 77 47 78 bd a3 54 66 3d 63 c5 53 bd 46 74 07 3e
       -0.06061503 0.05623306 -0.051701915 0.13227949
000270 e9 30 0d 3e 8e 29 a8 3d b6 31 dd 3c 7f 73 6b 3d
       0.13788189 0.08211051 0.027001243 0.057483193
000280 15 1a 18 3d 88 f6 74 3c 25 48 da bb 34 d0 e3 bc
       0.03713425 0.014951356 -0.0066614323 -0.02780924
000290 ae 81 fe bc 18 8c 71 bd ab 6d ce bd 4a f4 e9 bc
       -0.031067695 -0.058971494 -0.10079511 -0.028558869
0002a0 0e cd 2d 3b 28 c6 e2 bd 23 3f d3 bc 04 ce 08 3d
       0.0026519927 -0.110729516 -0.025786942 0.033399597
0002b0 5f f2 bb 3d 66 c5 a3 3d dd c2 02 3d 76 c9 81 3d
       0.09177088 0.07996635 0.031924117 0.06337254
0002c0 1e 72 41 3d c1 ba 5d 3d a0 31 a2 3c fc 43 4d 3d
       0.04722797 0.05413318 0.019799054 0.050113663
0002d0 82 d4 2c 3d 82 25 c7 ba 0b 46 d6 3d 59 eb a4 3d
       0.04219485 -0.0015193673 0.104625784 0.080527015
0002e0 78 29 8c 3d ca b7 c0 3c c4 b8 04 bc c8 83 9c 3c
       0.06843847 0.023525137 -0.008100692 0.019105807
0002f0 e2 99 81 bd b8 ac ef 3d e6 51 e1 3d 6c 78 00 3e
       -0.06328179 0.11702865 0.11001949 0.12545937
000300 e3 6c 20 3d a0 25 a5 3d 9d 41 00 3d 73 52 1a 3d
       0.039166342 0.08063817 0.031312574 0.037676286
000310 94 38 65 3d 28 d2 3d 3d f7 98 79 3c e4 8a 7d 3d
       0.05596216 0.046343 0.015234224 0.061900035
000320 43 54 65 3c 85 d7 e9 3d 59 df 94 3d 0c 11 e9 3d
       0.01399714 0.1141806 0.07269163 0.113802046
000330 3c 3a d7 3c 96 de 5e bd a4 89 ca 3d 5e fa 59 3c
       0.026272886 -0.054411493 0.09889534 0.013304321
000340 e0 26 b6 3d 9c 5d 61 3b cd 80 87 3d 5c e4 29 bb
       0.088941336 0.003438807 0.06616364 -0.0025923466
000350 68 4f c4 3d 6a 1e 5a 3d 0a 6a 92 3d 2f 95 d7 bd
       0.09585458 0.05325166 0.071491316 -0.105265014
000360 60 7e 24 3d 3d c0 27 bc 6a d2 b0 3d d3 e6 a1 3c
       0.040159583 -0.010238704 0.08633883 0.019763386
000370 3a f6 23 3d b6 33 26 bc 69 75 0c 3d b8 e6 d0 bc
       0.04002974 -0.010144165 0.03429166 -0.02550064
000380 26 bf 78 bd aa 6d da bc 4a 03 97 bd b9 1e 49 bd
       -0.06072917 -0.02666362 -0.07373674 -0.049101565
000390 4d f2 39 bd 22 e0 d8 bd 68 b4 f2 bd ad d1 bd bd
       -0.04539709 -0.10589625 -0.11850816 -0.09268508
0003a0 ef 96 2e bd b8 6e 0f bc 5c b5 a3 3d 6b 86 1a bc
       -0.04262441 -0.008754425 0.07993576 -0.009431462
0003b0 48 7a 99 3b 1a ce 89 3b af 35 b6 3d 45 83 3b bc
       0.0046837665 0.0042054774 0.08896958 -0.011444871
0003c0 f3 c8 4a 3c 13 7d 51 b9 61 9b bb bd 18 58 aa bc
       0.012377012 -0.00019978387 -0.091604955 -0.02079396
0003d0 57 34 c0 bd 6b 58 5c bd 8b b5 b9 bc 3e 6a 5b bd
       -0.09384983 -0.05379526 -0.022669574 -0.053568117
0003e0 5d ef fd bc e1 d0 d9 bd a3 4b ad bc 93 2f c3 bc
       -0.030997926 -0.106355436 -0.02115423 -0.023826396
0003f0 a5 4c c6 3d 94 0e c5 3d 09 6f 9a 3d 67 47 a1 3d
       0.096825875 0.09621921 0.075407095 0.07874947

encoder.7.bias f4 [64]
000000 44 23 f4 3c d7 ca 60 3d 35 3d 10 3c ad 79 80 3d
       0.029801972 0.054880943 0.008803655 0.06273208
000010 23 f8 c1 3d f7 c8 b2 3d 0d 8e c8 bc b7 cb 1b be
       0.094711564 0.08729737 -0.024481798 -0.1521443
000020 d3 7d d1 3d ce a7 03 bd 23 74 66 3b 59 66 ff 3a
       0.10229077 -0.032142453 0.0035164438 0.0019485458
000030 dc c2 d4 3d 44 bc 88 3d 84 1f cd bd 8e 50 9d 3d
       0.10388729 0.06676534 -0.10015777 0.0768138
000040 f2 c1 c7 bd 6b 89 a7 bd b7 51 e6 3c 3e 09 6c bd
       -0.09753789 -0.08180507 0.028115137 -0.057626
000050 15 f1 72 3d 19 6f 2e 3c 59 86 f8 3c 04 95 2a 3d
       0.059311945 0.010646605 0.0303375 0.04164602
000060 7b 34 30 bd 62 c2 88 bc 97 c7 ad 3d b5 43 4d bd
       -0.0430188 -0.016694251 0.08485334 -0.0501134
000070 81 47 78 3d fc 89 da bd 41 4b 20 3d 92 e3 b1 3d
       0.060615066 -0.1067085 0.039134268 0.08685984
000080 c6 15 0f bd 7f bb d0 bd 11 93 0d 3c 60 fc 35 3d
       -0.034932874 -0.10192012 0.00864102 0.044430137
000090 40 0c c9 bc f1 78 ae 3d 9e fd a7 3c 3d e4 bc bd
       -0.024541974 0.085191615 0.020506676 -0.092232205
0000a0 73 ae 9f 3b 34 b0 b2 3d 78 d3 aa 3d 05 93 c8 3d
       0.004873091 0.08725014 0.08341116 0.09793667
0000b0 a4 83 9e bc d5 e4 89 bd 78 cd 9d bc cd b4 e8 bc
       -0.01934988 -0.06733099 -0.019263014 -0.028406525
0000c0 ae 55 92 bb 25 64 4c be f9 24 02 bb 9e a6 d1 3d
       -0.00446578 -0.19960077 -0.0019858463 0.10236858
0000d0 fb df f7 bc f8 55 c3 3c 9c 81 d3 bc e4 13 12 3c
       -0.03025817 0.023844704 -0.025818639 0.008915875
0000e0 51 f0 6a bd 70 03 c8 3b 7b 81 9f 3d 9f ed 0a bc
       -0.05735809 0.0061039254 0.07788368 -0.008479505
0000f0 39 97 ce 3d 0b f3 f1 bd 47 03 2b bd bd 47 ba bc
       0.10087437 -0.11813935 -0.041751172 -0.022739286

encoder.8.weight f4 [64]
000000 df cc 71 3f 7e 0f 87 3f 7d 10 95 3f ed 14 6e 3f
       0.94453233 1.0551603 1.1645657 0.9300068
000010 bb cb 8a 3f 6d 72 5f 3f 4b a1 81 3f 01 54 67 3f
       1.0843424 0.87283975 1.0127348 0.90362555
000020 87 a4 80 3f bb 8e 7c 3f e8 d5 61 3f 52 06 80 3f
       1.005021 0.9865529 0.8821702 1.0001929
000030 6d 77 96 3f ef 01 79 3f ef 40 88 3f 0a 0d 87 3f
       1.1755196 0.97268575 1.0644816 1.0550854
000040 51 a6 75 3f 1e 33 6c 3f 1d f2 82 3f 84 7f 71 3f
       0.95956904 0.922655 1.0230137 0.943352
000050 bb e6 86 3f 1e f8 81 3f 84 a0 70 3f e1 1f 57 3f
       1.0539163 1.0153844 0.9399493 0.8403302
000060 b7 4a 7b 3f 9d f9 73 3f d9 a8 7f 3f a8 75 89 3f
       0.9816088 0.95302755 0.99867016 1.0739031
000070 32 9d 74 3f e8 e9 77 3f b6 a8 5c 3f 3a a7 8b 3f
       0.9555236 0.9684129 0.8619493 1.0910408
000080 e6 c9 70 3f c6 3e 74 3f 81 9d 88 3f d0 c1 82 3f
       0.9405807 0.95408285 1.0673066 1.0215397
000090 3c 5c 75 3f d3 a1 89 3f 8f 66 89 3f c5 41 6f 3f
       0.95843863 1.075251 1.0734423 0.9345973
0000a0 1e f0 71 3f b2 f2 87 3f d8 c6 93 3f 0d 0c 82 3f
       0.94507015 1.062094 1.1545057 1.0159928
0000b0 9d 0e 85 3f bd 39 67 3f 2b 4d 6d 3f d7 6c 8e 3f
       1.0395085 0.90322477 0.92695874 1.1126965
0000c0 5a 40 84 3f 18 db 95 3f 7f f1 7d 3f d7 d3 8c 3f
       1.0332139 1.1707487 0.9919662 1.1002148
0000d0 b2 7d 73 3f 9b 0b 6d 3f 71 ec 66 3f a9 a6 89 3f
       0.9511367 0.92595834 0.9020453 1.0753986
0000e0 66 9d 7c 3f 8a a3 82 3f b7 02 83 3f 02 92 7d 3f
       0.9867767 1.0206158 1.0235204 0.99050915
0000f0 04 a9 74 3f 83 e0 87 3f 73 05 83 3f 6c 5f 6b 3f
       0.955704 1.061539 1.0236038 0.9194248
