experiment/bUnet-MSE2.pth (torch, 29346 bytes, 25 tensors)

input_block.conv1.weight f4 [3, 1, 3, 3]
0	0x3efb0810	0.4902959
1	0x3f3f455e	0.7471522
2	0xbe2c9908	-0.16855252
3	0xbdd812e0	-0.10550475
4	0x3eb0915a	0.34485894
5	0xbb2f2c37	-0.0026729235
6	0x3d1b29c2	0.03788162
7	0xbe92e19c	-0.2868775
8	0x3e25330f	0.16132759
9	0xbe140bb2	-0.14457586
10	0xbcddb832	-0.02706537
11	0x3e905c1f	0.28195283
12	0xbd8f1a14	-0.06987396
13	0xbd826474	-0.06366816
14	0xbe3d6a3a	-0.18497553
15	0x3e4a0819	0.19729652
16	0x3f218ac8	0.6310239
17	0x3e35e56b	0.17763297
18	0x3d56f211	0.052476946
19	0xbe542944	-0.20718867
20	0x3d83e25c	0.06439659
21	0xbddd4cf5	-0.10805694
22	0xbeca3153	-0.39490756
23	0xbebb2732	-0.3655334
24	0x3da071fc	0.07834241
25	0x3d42fbd0	0.04760343
26	0x3c2ee3ae	0.0106744

input_block.conv2.weight f4 [3, 3, 3, 3]
0	0xbe42ee91	-0.19036318
1	0x3d0eee18	0.034895033
2	0x3d9130b4	0.070893675
3	0x3d560593	0.05225141
4	0x3e9d31e3	0.30702123
5	0x3e1fe530	0.15614772
6	0xbe5f3f45	-0.21801479
7	0xba15af15	-0.0005709988
8	0x3b861e90	0.004092999
9	0x3ea306ed	0.3184122
10	0x3dd8ca25	0.10585431
11	0x3dff1afb	0.12456318
12	0x3d9c255f	0.076243155
13	0xbdf5ba8f	-0.11998474
14	0xbda6d427	-0.081459336
15	0x3c4ffefa	0.0126950685
16	0x3d8c504d	0.06851254
17	0xbe13aa09	-0.14420332
18	0xbe7558d7	-0.23959671
19	0xbde39bad	-0.11113677
20	0xbde71805	-0.11283878
21	0xbe5f410c	-0.21802157
22	0x3daf6467	0.08564072
23	0xbce93d09	-0.028471487
24	0x3d5c2e05	0.053754825
25	0x3dc891f0	0.0979346
26	0xbe05968e	-0.13045713
27	0xbe0c6298	-0.13709486
28	0xbe2489ac	-0.16068143
29	0xbe72b4d7	-0.23701797
30	0xbe23cd1d	-0.15996213
31	0xbc82e8ba	-0.015980113
32	0xbe0b6ac3	-0.13614945
33	0x3dbe4023	0.09289577
34	0x3e00d6cb	0.12581937
35	0xbe0aaedf	-0.1354327
36	0x3d8a5970	0.0675534
37	0x3e7e8a0a	0.24857345
38	0xbd891ddf	-0.066951506
39	0x3e158130	0.14600062
40	0x3e398b3b	0.18119518
41	0xbc2795fe	-0.010228632
42	0xbdd302b8	-0.10303253
43	0x3e7ed2d4	0.24885112
44	0xbe3dcb97	-0.18534695
45	0xbbfed50e	-0.007776863
46	0xbe3f27c3	-0.18667512
47	0x3e4cab91	0.19987322
48	0xbda5ef02	-0.08102228
49	0xbe6869e6	-0.22696647
50	0xbbb26cad	-0.005445084
51	0xbda82a4a	-0.08211191
52	0xbe232f4a	-0.15936008
53	0x3e0546a1	0.13015224
54	0xbc31d2fe	-0.010853527
55	0x3dc3a295	0.095524944
56	0xbe181c9f	-0.14854668
57	0x3ced9db7	0.029005868
58	0xbe8a5598	-0.27018428
59	0xbc8850f5	-0.016640166
60	0x3ca69e40	0.020339131
61	0xbc2c8337	-0.010529331
62	0xbe0e9b5c	-0.13926452
63	0x3dc266ba	0.0949225
64	0x3dc434b1	0.095803626
65	0xbdfdb9a6	-0.12388925
66	0x3ec7e7e9	0.3904412
67	0x3e825d5c	0.25461853
68	0x3ea5bff8	0.32373023
69	0xbe589726	-0.21151409
70	0xbd1125ba	-0.03543637
71	0xbdfe4c2e	-0.12416874
72	0x3b031f78	0.002000777
73	0x3d4a12db	0.04933439
74	0xbd17f11c	-0.037095174
75	0x3e36a24c	0.17835349
76	0xbcaf0c85	-0.021368274
77	0x3d56926e	0.05238574
78	0x3e0096a3	0.12557463
79	0xbbd1a137	-0.006397392
80	0xbdddfed8	-0.10839623

down_blocks.0.conv_block.conv1.weight f4 [6, 3, 3, 3]
0	0x3de68b2b	0.11257013
1	0xbc290ea9	-0.010318437
2	0xbe552f20	-0.20818758
3	0x3d65a652	0.05606682
4	0xbca949b4	-0.020665027
5	0xbd8e497b	-0.06947609
6	0xbe7bc978	-0.24588573
7	0xbe8c030d	-0.27346078
8	0xbeb3a98e	-0.35090297
9	0xbe35f817	-0.1777042
10	0x3e21210f	0.15735267
11	0x3e8cd12f	0.27503344
12	0xbddbb2ca	-0.10727461
13	0x3e02fff2	0.12792948
14	0x3db7fd6d	0.08983884
15	0xbe80604f	-0.25073478
16	0x3d1c4cd6	0.038159214
17	0x3debba0a	0.115100935
18	0x3c99cfd5	0.01877586
19	0x3e30866a	0.17238775
20	0xbe28d921	-0.16489078
21	0x3d0e2c1b	0.03471003
22	0xbd7da4bc	-0.06192468
23	0xbd7a721c	-0.06114398
24	0xbddef5b1	-0.10886706
25	0xbd37d6a4	-0.04488243
26	0x3e017b0e	0.12644598
27	0x3e2f80ef	0.17139028
28	0xbd22f885	-0.039787788
29	0x3e31ac28	0.17350829
30	0x3e79b2da	0.24384633
31	0xbcba6566	-0.022753429
32	0x3e005561	0.1253257
33	0xbc184346	-0.009293383
34	0xbde0f6ba	-0.10984559
35	0x3cc7d854	0.024395145
36	0x3d7e4826	0.062080525
37	0x3d9256cc	0.071454614
38	0xbe25a16b	-0.16174857
39	0xbe45696c	-0.19278497
40	0x3e567836	0.20944294
41	0x3e60b96d	0.21945734
42	0xbe3a7049	-0.18206896
43	0x3cac7c4b	0.021055361
44	0xbd4feddf	-0.05076396
45	0xbe752105	-0.23938377
46	0x3e5c27f1	0.21499611
47	0xbe0580ee	-0.13037464
48	0xbd9f5621	-0.077801
49	0x3e5c20fd	0.21496959
50	0xba1df1b6	-0.00060250924
51	0xbe195bca	-0.14976421
52	0x3ded1501	0.11576272
53	0xbde6eaef	-0.11275279
54	0xbc070dc8	-0.008243032
55	0xbe9e923b	-0.3097094
56	0xbe122714	-0.1427272
57	0x3e283c7a	0.1642932
58	0x3e841f9d	0.2580537
59	0x3dde1b96	0.10845105
60	0xbe49d499	-0.19710006
61	0x3d71de3e	0.059049837
62	0xbdd90581	-0.10596753
63	0xbc8f2dda	-0.017477918
64	0x3db1b311	0.08676732
65	0xbdc13f4d	-0.09435902
66	0x3d6d28af	0.057900127
67	0x3ea44b6d	0.32088795
68	0x3e38e41e	0.1805577
69	0xbdf48021	-0.11938501
70	0x3e6c7839	0.23092736
71	0xbe2a69e9	-0.16641964
72	0x3d94fc95	0.07274739
73	0xbceede53	-0.029158747
74	0xbd65e681	-0.05612803
75	0x3d8b095a	0.06788893
76	0x3e32126f	0.17389844
77	0xbd659a20	-0.05605519
78	0xbe17742f	-0.14790414
79	0x3cb29e37	0.021803958
80	0xbcf3bd97	-0.02975349
81	0xbc99f1bd	-0.018792028
82	0xbe3fae4b	-0.18718831
83	0x3dab6ee2	0.083707586
84	0xbc86eeb0	-0.016471237
85	0x3cede0bf	0.029037831
86	0xbc5ee5f3	-0.013604629
87	0x3d6b99f6	0.057519875
88	0x3e8127b4	0.25225604
89	0x3e7851aa	0.24249902
90	0xbc8d581a	-0.017253924
91	0xbc83c46f	-0.016084878
92	0x3caad4a5	0.02085335
93	0xbd40c7bf	-0.047065493
94	0xbde92735	-0.11384431
95	0x3e17acce	0.14812014
96	0xbd4d24c5	-0.050083894
97	0xbda62bd1	-0.08113826
98	0xbdf99589	-0.12186725
99	0xbdc250f5	-0.094880976
100	0xbe1e694f	-0.1546986
101	0x3e2a87af	0.16653322
102	0x3e7c7c74	0.2465685
103	0xbe80806d	-0.2509798
104	0x3e9d12da	0.30678445
105	0xbe2b0c6f	-0.16703962
106	0x3d04657c	0.032323346
107	0xbda33d0d	-0.07970629
108	0xbe856dbf	-0.26060292
109	0xbd4cdc00	-0.050014496
110	0x3e168a41	0.14701177
111	0xbe4fafdd	-0.2028193
112	0xbd9fb4a3	-0.077981256
113	0xbb46b07e	-0.00303176
114	0xbe386e93	-0.1801093
115	0x3dfcec91	0.12349809
116	0x3e2ae932	0.1669052
117	0xbe1a261d	-0.15053602
118	0xbdb21493	-0.086953305
119	0x3e2cc11e	0.16870543
120	0xbe7b8292	-0.24561527
121	0xbde08f79	-0.10964865
122	0xbeb02119	-0.34400252
123	0x3d5992eb	0.053118628
124	0x3e26fa10	0.16306329
125	0xbdbd2be4	-0.09236887
126	0x3d270c67	0.040783312
127	0x3df3061c	0.118664
128	0x3d1c04f2	0.038090654
129	0xbe39bf73	-0.18139438
130	0xbe8d491a	-0.27594835
131	0xbe7871c3	-0.24262147
132	0x3df6452a	0.12024911
133	0xbb478231	-0.003044259
134	0xbd201986	-0.03908684
135	0xbe4653b4	-0.19367868
136	0xbbe80970	-0.007081203
137	0xbe154185	-0.14575775
138	0xbeab1891	-0.3341718
139	0xbe8f3934	-0.2797333
140	0xbe75ab9a	-0.23991242
141	0xbe2c466e	-0.16823742
142	0xbdc92c46	-0.098228976
143	0xbe90ddd8	-0.28294253
144	0xbb888f6f	-0.0041674892
145	0xbe2bfdc1	-0.16796018
146	0xbe0a2165	-0.13489302
147	0xbd00ef29	-0.03147808
148	0xbeb556a2	-0.35417658
149	0xbe809eaa	-0.2512105
150	0x3dab54b5	0.08365766
151	0xbde66dfb	-0.11251446
152	0xbe846135	-0.25855413
153	0x3d76dee5	0.060271163
154	0x3d4b1fda	0.049590923
155	0xbd2c26cb	-0.042029183
156	0x3d8615e4	0.06547144
157	0x3dd225fe	0.10261153
158	0x3d62904c	0.055313393
159	0xbe627a5b	-0.22116987
160	0x3e302343	0.17200951
161	0xbdf8da29	-0.12150986

down_blocks.0.conv_block.conv2.weight f4 [6, 6, 3, 3]
0	0x3e36f988	0.17868626
1	0x3d12318b	0.03569178
2	0xbc0f9169	-0.008762696
3	0x3b02c2b1	0.001995247
4	0xbe79394f	-0.24338268
5	0xbe83e06c	-0.25757158
6	0x3cebe08c	0.028793596
7	0x3db98fd9	0.0906064
8	0xbdca8537	-0.0988869
9	0x3b77d828	0.0037818048
10	0xbd884e24	-0.06655529
11	0x3e0187f9	0.12649526
12	0x3e6fa89c	0.23404163
13	0x3d05d2f5	0.032671887
14	0x3e2bfb1a	0.16795006
15	0x3e6c9bd5	0.2310632
16	0xbe099c6e	-0.1343858
17	0x3e055057	0.13018928
18	0xbe0db53c	-0.13838667
19	0xbc155e26	-0.009116685
20	0x3e47fa9e	0.19529197
21	0xbe02e880	-0.12784004
22	0xbc8955fb	-0.016764631
23	0x3e336afd	0.17521282
24	0x3a347246	0.0006883483
25	0xbdc280df	-0.094972365
26	0xbc575c80	-0.013144612
27	0xbca9807b	-0.020691147
28	0x3e8049c2	0.25056273
29	0xbddb62d7	-0.107122116
30	0x3e33fc01	0.175766
31	0x3e827332	0.25478512
32	0xbafe743e	-0.0019413305
33	0xbd9fa447	-0.07795005
34	0xbb8d8854	-0.00431923
35	0xbe9869ec	-0.29768312
36	0x3c99201c	0.018692069
37	0x3d8cf6a4	0.068829805
38	0x3d33a7a2	0.04386104
39	0x3d7b3956	0.061333977
40	0x3cd4dbef	0.025983779
41	0x3de5883c	0.11207625
42	0xbdad6ac8	-0.084676325
43	0xbd1495f9	-0.036275838
44	0xbe2c51c6	-0.16828069
45	0x3d98b49f	0.07456326
46	0x3c7440a6	0.0149079915
47	0x3d7f2290	0.06228882
48	0x3d72c17b	0.05926655
49	0xbd38f607	-0.045156505
50	0xbe15af86	-0.14617738
51	0x3e27691a	0.16348687
52	0x3e082d5a	0.1329855
53	0x3c5fb155	0.013653119
54	0x3c1b4e8e	0.009479178
55	0xbc07e4cb	-0.008294295
56	0x3b554553	0.003254254
57	0x3dacbf35	0.08434907
58	0x3c89fb09	0.016843336
59	0x3dead265	0.11465911
60	0xbda55eca	-0.0807472
61	0xbde3315e	-0.110934004
62	0x3cf14e5c	0.02945631
63	0x3d8e2cdd	0.06942151
64	0x3c75e178	0.015007369
65	0xbcac8395	-0.021058837
66	0x3d000f01	0.03126431
67	0xbdcda562	-0.1004131
68	0xbd885ae5	-0.06657962
69	0xbdcd1f94	-0.10015789
70	0x3e237823	0.15963797
71	0xbd53ea86	-0.05173733
72	0xbd53ee54	-0.05174096
73	0x3d0d6ffc	0.034530625
74	0xbc9a276b	-0.018817624
75	0xbe2340f2	-0.15942743
76	0xbe41a7a0	-0.189116
77	0x3c90ac8f	0.017660407
78	0xbda6d48a	-0.08146007
79	0xbd9375f7	-0.072002344
80	0xbdde55c6	-0.10856204
81	0xbdfb3caf	-0.12267434
82	0x3dffc794	0.124892384
83	0x3c238bcc	0.009982061
84	0x3d8de434	0.06928292
85	0xbaf67e3a	-0.0018805929
86	0x3d050bf2	0.032482095
87	0x3ca1910e	0.019722488
88	0x3d828030	0.06372106
89	0x3c76819c	0.01504555
90	0xbe453466	-0.1925827
91	0x3d21c6d5	0.03949626
92	0xbd8f0ce8	-0.069848835
93	0xbe5cf83e	-0.21579072
94	0xbdecb57b	-0.11558052
95	0xbd8e1e46	-0.06939368
96	0xbed24c96	-0.41074055
97	0xbe7393c9	-0.23786844
98	0xbe5b3e4c	-0.21410483
99	0x3c50f9ee	0.0127549
100	0x3e1e72b6	0.15473446
101	0x3e1d3e0d	0.15355702
102	0x3e1dfcaf	0.15428422
103	0x3e1e685d	0.15469499
104	0x3e4ff97a	0.20310012
105	0x3e5b5ad2	0.21421364
106	0x3e660172	0.22461489
107	0x3e8e516c	0.27796495
108	0x3d64564e	0.05574637
109	0xbd764744	-0.060126558
110	0xbc2f22a6	-0.010689413
111	0xbd826004	-0.0636597
112	0x3d9d758b	0.07688435
113	0xbd9303c8	-0.071784556
114	0xbd69f0c8	-0.057114393
115	0x3dca2260	0.09869838
116	0x3dc1d8cc	0.09465179
117	0xbb9455ec	-0.0045268442
118	0xbd5c7603	-0.053823482
119	0xbdad9bd0	-0.084769845
120	0x3e7f6784	0.24941832
121	0x3d2c4fe8	0.042068392
122	0xbc22132c	-0.009892266
123	0xbc6480a9	-0.013946691
124	0xbd8d8742	-0.06910564
125	0xbe4ab88c	-0.19796962
126	0x3cd477e7	0.02593608
127	0x3bdf012d	0.00680556
128	0x3dc57772	0.09641923
129	0xbe1d4ec7	-0.15362082
130	0xbd8b8de3	-0.06814172
131	0xbd434419	-0.047672365
132	0x3dda2955	0.10652415
133	0x3c1338a4	0.008985672
134	0x3e2c908d	0.16852017
135	0xbe82e96a	-0.25568706
136	0x3e73dbb3	0.23814277
137	0xbe3ba631	-0.18325116
138	0x3e2f6d77	0.17131601
139	0x3e2a792d	0.16647787
140	0x3dbe3ddc	0.092891425
141	0xbe3a223c	-0.18177122
142	0x39d039d5	0.0003971594
143	0x3d0c8c67	0.034313586
144	0x3d36875e	0.04456269
145	0x3d5ea7ff	0.054359432
146	0x3c7bddc3	0.015372696
147	0xbd88f3b5	-0.066871084
148	0xbdd7428b	-0.10510739
149	0xbd7a49d2	-0.061105557
150	0x3e01ec98	0.1268791
151	0xbdcf1799	-0.10111923
152	0x3ddc6495	0.10761372
153	0xbdd7d5c6	-0.10538821
154	0x3e394056	0.18090948
155	0x3d524818	0.051338285
156	0xbdfab54e	-0.122416124
157	0x3d860f1d	0.065458514
158	0x3deae641	0.11469699
159	0xbd6cda14	-0.057825163
160	0x3d8b19fc	0.067920655
161	0x3e595953	0.2122548
162	0xbda168af	-0.07881295
163	0xbe6148dd	-0.22000451
164	0xbdda324d	-0.10654125
165	0xbc956ccc	-0.018240355
166	0xbde21cbe	-0.110406384
167	0x3b1476c2	0.0022653793
168	0xbcfd4271	-0.03091547
169	0xbd6e339e	-0.058154695
170	0x3d83252f	0.064035766
171	0xbd904a26	-0.07045393
172	0xbe18b29a	-0.14911881
173	0x3dbcc8f0	0.09218013
174	0xbc53eff2	-0.012935625
175	0x3d94db60	0.07268405
176	0x3e1bbb94	0.15208274
177	0xbcb23f68	-0.02175875
178	0xbddfc157	-0.109255485
179	0x3dab5f67	0.08367806
180	0xbde87fcb	-0.113524996
181	0x3de23b7f	0.11046504
182	0x3e52178c	0.20516795
183	0xbddcfc59	-0.10790319
184	0xbcca087d	-0.02466225
185	0x3de433cf	0.11142694
186	0xbb89a0d6	-0.0042000813
187	0x3b950943	0.004548223
188	0xbd130bb4	-0.035899833
189	0xbdd5cb9b	-0.10439225
190	0x3d628f63	0.055312525
191	0xbdad1bcb	-0.08452567
192	0xbdb98b45	-0.09059767
193	0x3e877913	0.2645956
194	0xbe182b3e	-0.14860246
195	0xbdd9fe6e	-0.10644232
196	0xbdff4857	-0.124649696
197	0x3c01315d	0.007885304
198	0xbd259453	-0.040424656
199	0xbd4d2a6e	-0.050089292
200	0xbc02b431	-0.007977531
201	0xbc24042e	-0.010010762
202	0xbd0354c7	-0.03206327
203	0x3dca20cc	0.09869537
204	0x3db4038a	0.087897375
205	0xbd350e98	-0.04420337
206	0x3d78cefb	0.060744267
207	0xbd8b587e	-0.06803988
208	0xbdd8eea5	-0.10592393
209	0xbe6ec306	-0.23316583
210	0x3c7d5219	0.015461468
211	0xbdeaaf91	-0.11459268
212	0xbd5b4c84	-0.053539768
213	0x3d8f022d	0.06982837
214	0xbe1276c7	-0.14303122
215	0xbe1e085c	-0.15432876
216	0x3c16121b	0.00915959
217	0xbd943832	-0.07237281
218	0xbdb5b9af	-0.08873307
219	0x3e162eef	0.14666341
220	0x3e17bfe2	0.14819291
221	0x3e26f588	0.163046
222	0xbe2c1679	-0.16805448
223	0xbc3a08af	-0.011354609
224	0xbda2a864	-0.07942274
225	0xbeaf0c51	-0.34189084
226	0x3c2cddca	0.0105509255
227	0x3e1a98a0	0.15097284
228	0x3e07a913	0.1324809
229	0xbe4bab9b	-0.19889681
230	0xbe77e6c4	-0.24209124
231	0x3e7a2458	0.24427927
232	0x3e7b5b1e	0.24546477
233	0xbc1af964	-0.009458873
234	0xbe1486c9	-0.14504541
235	0xbe56c52f	-0.20973657
236	0x3e595050	0.21222043
237	0x3e58c6fe	0.2116966
238	0x3cceb95b	0.025234869
239	0xbe8f9998	-0.2804687
240	0xbe0e432b	-0.1389281
241	0x3e2121f5	0.1573561
242	0x3c84aae9	0.016194778
243	0xbdee402b	-0.11633333
244	0x3d53ec5f	0.051739093
245	0x3e18abb1	0.14909245
246	0xbe0df3ff	-0.13862608
247	0x3de55bb2	0.1119913
248	0x3d6c4ce4	0.057690516
249	0x3d0b7c4c	0.034054086
250	0x3c812ec7	0.015769375
251	0xbe7e0329	-0.24805893
252	0xbd0a9452	-0.033832856
253	0xbcfc7829	-0.030819016
254	0xbe0d1da9	-0.13780846
255	0x3c388f9f	0.011264711

down_blocks.1.conv_block.conv1.weight f4 [12, 6, 3, 3]
0	0xbd8c350d	-0.06846056
1	0xbde0cec4	-0.109769374
2	0xbcf3a006	-0.029739391
3	0x3c41a902	0.01182008
4	0xbde1bdd4	-0.11022535
5	0x3e1b562e	0.15169594
6	0xbd6197c8	-0.05507639
7	0x3d20d546	0.039265893
8	0x3c1d21e9	0.009590604
9	0xbc3b7ea0	-0.011443764
10	0xbdc53fd1	-0.09631313
11	0xbd66fdb8	-0.05639431
12	0xbd7af18b	-0.06126551
13	0xbcafbf80	-0.021453619
14	0x3cc17db3	0.023619508
15	0x3adf506c	0.0017037517
16	0xbdad7e5b	-0.08471366
17	0xbdcb3254	-0.09921709
18	0xbd18dd24	-0.03732027
19	0xbe3b5cbc	-0.18297094
20	0xbdcd489f	-0.10023617
21	0xbdffe2fd	-0.124944665
22	0xbe5044b8	-0.20338714
23	0xbe0787de	-0.13235423
24	0xbe05035a	-0.1298956
25	0x3c58b880	0.013227582
26	0x3d46d98f	0.048547324
27	0xbde82755	-0.11335627
28	0xbe6067c0	-0.21914577
29	0xbe2546c8	-0.16140282
30	0xbe319088	-0.1734029
31	0xbe240ba3	-0.16020064
32	0xbd42aa34	-0.0475256
33	0xbe0b6be8	-0.13615382
34	0xbd00b7fc	-0.03142546
35	0xbb7b5eb3	-0.0038356006
36	0x3dd3d4e5	0.10343341
37	0xbce2c96a	-0.027683932
38	0x3d9505de	0.0727651
39	0xbc801896	-0.015636723
40	0x3d0e3149	0.03471497
41	0x3e37d41c	0.17952007
42	0x3dcf48ec	0.101213306
43	0x3d8929db	0.066974364
44	0x3e07c7d1	0.13259818
45	0xbe9cf7f6	-0.3065793
46	0xbef915e3	-0.4864951
47	0xbe36c436	-0.17848286
48	0xbe9c3126	-0.30506247
49	0xbeef8355	-0.46779886
50	0xbe9fa681	-0.3118172
51	0xbcabba5a	-0.020962883
52	0xbe9f2d98	-0.31089473
53	0xbd047c62	-0.032345183
54	0x3e51b4e4	0.2047916
55	0x3e2892a1	0.16462184
56	0x3dd6d222	0.104892984
57	0xbe8a6758	-0.2703197
58	0xbf070136	-0.5273622
59	0xbd919e99	-0.07110328
60	0x3c8657d2	0.016399298
61	0xbd269feb	-0.040679853
62	0x3dd8b846	0.10582022
63	0xbef705be	-0.48246568
64	0xbe432f15	-0.19060929
65	0xbd09685e	-0.033546798
66	0x3da11b69	0.07866556
67	0xbdd2b176	-0.10287754
68	0xbd9b9065	-0.075959004
69	0x3e4e8a5d	0.20169969
70	0x3d81f950	0.06346381
71	0x3cd7b8ea	0.026333291
72	0x3dc548ae	0.09633003
73	0x3e6e0291	0.23243167
74	0x3e391b05	0.18076713
75	0xbd0b3353	-0.033984493
76	0x3d30f1de	0.043199413
77	0xbdd6aa3c	-0.104816884
78	0x3d318828	0.04334274
79	0x3e06fe1e	0.13182876
80	0xbd23f066	-0.040024184
81	0x3da30a51	0.07960952
82	0x3b725162	0.0036974777
83	0xbc6c8dc8	-0.0144381
84	0xbd8ba7a2	-0.06819083
85	0x3e06a7af	0.13149904
86	0xbd258f52	-0.040419884
87	0xbd125894	-0.035729006
88	0xbde32eee	-0.110929355
89	0xbdd542cc	-0.10413131
90	0xbe06db3e	-0.13169572
91	0xbdb31caa	-0.087457016
92	0xbda005e5	-0.07813624
93	0xbde12a62	-0.10994412
94	0xbe0031c9	-0.12518992
95	0x3d705e15	0.058683474
96	0xba262db0	-0.00063392054
97	0x3db11dba	0.08648248
98	0x3d112118	0.03543195
99	0x3af20ec9	0.0018467541
100	0x3e610b85	0.2197705
101	0xbc90feb8	-0.017699584
102	0xbdbc7a13	-0.09202971
103	0xbade19bf	-0.0016944929
104	0xbd31305b	-0.043259006
105	0xbd1cd4c4	-0.038288847
106	0xbe479840	-0.19491673
107	0xbd989582	-0.07450391
108	0xbdb27792	-0.087142125
109	0x3cf0a8ff	0.029377459
110	0xbd1a29f2	-0.03763766
111	0x3ea71a93	0.32637462
112	0x3eac6b8a	0.33675796
113	0x3ead0bc1	0.3379803
114	0x3df39dc5	0.118953265
115	0x3cbb08d6	0.022831362
116	0xbcce1f24	-0.025161333
117	0x3e1f30ea	0.15546003
118	0x3d8bd8d0	0.06828463
119	0x3dc768c9	0.09736783
120	0x3d68f4f7	0.05687424
121	0xbd9aa72d	-0.075514175
122	0xbd78e323	-0.06076349
123	0x3d1c912c	0.038224384
124	0x3d2f520c	0.042802855
125	0xbd7d9c36	-0.061916552
126	0xbe4f4050	-0.20239377
127	0xbe88ba1c	-0.2670449
128	0xbdfc6de9	-0.12325651
129	0xbe90febb	-0.28319344
130	0xbcd5b5c6	-0.026087653
131	0xbdf6ae4b	-0.120449625
132	0xbdeb9fcf	-0.115050904
133	0xbb8b8269	-0.0042574895
134	0xbd0d5052	-0.034500428
135	0xbd898691	-0.0671512
136	0xbe2563b8	-0.16151321
137	0xbe4fe78d	-0.20303173
138	0xbd4cc594	-0.049993113
139	0xbc2aeeda	-0.010432923
140	0xbd88e258	-0.06683797
141	0xbe3bc90c	-0.18338412
142	0xbd5ac553	-0.05341084
143	0xbe32056c	-0.17384881
144	0xbe4c4684	-0.19948775
145	0xbe3c23bf	-0.18373011
146	0xbe874fb2	-0.2642799
147	0x3e052eb4	0.13006097
148	0x3dc25198	0.09488219
149	0x3e0eb8c4	0.1393767
150	0x3baccf76	0.0052737547
151	0x3d53c660	0.051702857
152	0x3df0828d	0.117436506
153	0xbdb68b21	-0.089132555
154	0xbe197f2c	-0.14989918
155	0xbd6e5b34	-0.058192447
156	0x3d5d7008	0.05406192
157	0xbd430b4d	-0.0476182
158	0x3de4ce2e	0.11172138
159	0x3d732fae	0.059371643
160	0x3d097c23	0.03356565
161	0xbc873ab4	-0.016507484
162	0x3db02255	0.08600298
163	0x3dccc94e	0.09999333
164	0xbd7d1b14	-0.0617934
165	0x3e8c8c2f	0.27450702
166	0xbc9028b9	-0.017597543
167	0xbd3bd5a5	-0.045858044
168	0x3ea08324	0.31350052
169	0x3d38b03b	0.04508994
170	0xbdfd7ebf	-0.123776905
171	0xbe0fe9d9	-0.1405405
172	0x3dc1b484	0.09458259
173	0xbdc72f6e	-0.09725843
174	0xbcbede53	-0.023299372
175	0xbd991e3b	-0.07476469
176	0xbdb16dd5	-0.08663527
177	0xbdec33d7	-0.11533325
178	0xbdb1ba1a	-0.08678074
179	0x3d45e087	0.04830983
180	0x3d299a20	0.04140675
181	0xbdf159c0	-0.117846966
182	0x3c43416f	0.011917456
183	0xbccf1f2b	-0.025283417
184	0x3e00fcf3	0.12596492
185	0x3e830fb4	0.25597918
186	0xbd0606df	-0.032721397
187	0xbc698962	-0.014253946
188	0xbd6d019f	-0.057862874
189	0x3d2da289	0.042391334
190	0x3e145911	0.14487101
191	0x3d180ff9	0.037124608
192	0x3e802cb5	0.2503411
193	0x3eaf0816	0.34185857
194	0x3e2e6e73	0.1703432
195	0x3e804f2a	0.25060397
196	0xbd465601	-0.048421863
197	0xbd5a6650	-0.05332023
198	0xbd9748c4	-0.07386926
199	0x3e466a87	0.19376574
200	0x3d9e81d4	0.077396065
201	0x3e504599	0.2033905
202	0x3e477e8e	0.1948187
203	0xbdf8ea6e	-0.12154089
204	0x3d4a3603	0.049367916
205	0x3e0989a8	0.13431418
206	0xbdf3412c	-0.11877665
207	0x3d8e8282	0.06958486
208	0x3c4dc6d6	0.012559613
209	0xbd364d6e	-0.044507436
210	0x3ebc05f6	0.36723298
211	0x3d59d736	0.053183757
212	0x3a412b0f	0.0007368782
213	0x3e164ebf	0.14678477
214	0x3d918441	0.071053036
215	0xbe2fe1fa	-0.17176047
216	0xbd08ff4e	-0.033446603
217	0xbd81ce56	-0.063381836
218	0xbd8ba5bf	-0.06818723
219	0xbe008f5a	-0.12554684
220	0x3da04d1e	0.07827209
221	0xbdaef131	-0.08542097
222	0xbd30590b	-0.043053668
223	0xbc6957dd	-0.01424214
224	0x3e517387	0.20454226
225	0xbeb84d0c	-0.35996282
226	0xbdad72de	-0.08469175
227	0x3e00a803	0.12564091
228	0xbe39e090	-0.1815207
229	0x3dfab052	0.12240662
230	0x3e13a16a	0.14417043
231	0xbe8e6491	-0.278111
232	0xbcf06858	-0.02934663
233	0x3dad51a6	0.08462839
234	0xbe5a4ac3	-0.21317582
235	0xbe1b48ea	-0.15164533
236	0xbdf36f74	-0.11886492
237	0xbebb9db4	-0.36643755
238	0xbdfbb020	-0.122894526
239	0xbe41019e	-0.18848273
240	0x3ce59db3	0.028029298
241	0xbe20e570	-0.15712523
242	0x3b07f7d0	0.0020747073
243	0x3e01a28e	0.12659666
244	0xbd5c11b0	-0.053727806
245	0x3df909dd	0.121600844
246	0x3de557f0	0.11198413
247	0xbd104163	-0.035218608
248	0xbe48bf18	-0.19604146
249	0x3dffdf85	0.12493805
250	0xbd806a8d	-0.06270323
251	0xbd9a91d0	-0.07547343
252	0xbdfa22c1	-0.1221366
253	0x3e4513c4	0.19245821
254	0x3d7842e2	0.06061066
255	0xbdd6cda5	-0.10488442

down_blocks.1.conv_block.conv2.weight f4 [12, 12, 3, 3]
0	0xbc861047	-0.016365184
1	0xbda11761	-0.07865787
2	0x3c977b29	0.018491345
3	0x3d98d9f5	0.07463447
4	0xbd8b60e0	-0.06805587
5	0x3e05f1e2	0.13080552
6	0x3c077ec4	0.008269969
7	0x3ddad8cd	0.10685883
8	0x3db485d0	0.08814585
9	0xbcf8117c	-0.030281775
10	0xbd5c6bc3	-0.053813707
11	0x3ceee8ce	0.029163744
12	0xbdd03a71	-0.10167397
13	0x3b829483	0.003984989
14	0xbd0d3450	-0.034473717
15	0xbd1165c9	-0.03549746
16	0x3c771504	0.015080694
17	0x3d72a061	0.05923498
18	0xbe0dffe5	-0.13867147
19	0x3cb7f288	0.022454515
20	0xbcc4d723	-0.024028366
21	0xbd254441	-0.040348295
22	0xbdf47808	-0.11936957
23	0xbd8b4679	-0.06800551
24	0x3e08c7a2	0.13357404
25	0xbd02bab5	-0.03191634
26	0x3daa0cda	0.083032325
27	0xbd8d720b	-0.069065176
28	0xbdc6c572	-0.097056285
29	0x3c8f0bfc	0.01746177
30	0x3dd07bd9	0.10179872
31	0x3c85753c	0.016291253
32	0x3def150d	0.11673937
33	0xbd3ae0f9	-0.045624707
34	0xbdb1c4d2	-0.086801186
35	0xbcf62a72	-0.030049536
36	0x3c899cfc	0.016798489
37	0xbd555d2d	-0.052090812
38	0xbe7b84a9	-0.24562325
39	0x3dc43aef	0.09581553
40	0x3b8de79f	0.00433059
41	0xbe2d28ff	-0.1691017
42	0xbda61e2d	-0.08111224
43	0xbd3f5105	-0.046708126
44	0xbc3790b8	-0.011203937
45	0x3d9c65bc	0.07636592
46	0xbd8fbb02	-0.07018091
47	0x3e000df6	0.12505326
48	0x3e04006b	0.12890784
49	0xbdc244dc	-0.0948579
50	0x3e26b4b6	0.16279873
51	0x3e128ebb	0.1431226
52	0xbd4162f1	-0.0472135
53	0x3e487544	0.19575983
54	0xbc99ca74	-0.018773295
55	0xbd57d746	-0.052695535
56	0xbd944da8	-0.07241374
57	0x3ce14f42	0.027503613
58	0xbdf98c78	-0.121849954
59	0xbcae9bc7	-0.021314515
60	0x3b91de11	0.004451521
61	0x3cb220cb	0.021744153
62	0xbd246eb6	-0.040144645
63	0xbe42b955	-0.19016011
64	0xbd50c58a	-0.050969638
65	0xbd61f918	-0.055169195
66	0xbe309a34	-0.17246324
67	0xbe61d533	-0.22053985
68	0xbe1d4199	-0.15357055
69	0x3a188ce5	0.0005819335
70	0xbe0dc61f	-0.13845108
71	0x3d37202b	0.044708412
72	0x3dff131f	0.12454819
73	0x3d62818c	0.055299327
74	0xbda1a788	-0.07893282
75	0x3e02a1df	0.12757061
76	0x3eada87a	0.339176
77	0x3d979181	0.074007995
78	0x3e240cd1	0.16020514
79	0x3e7905a0	0.24318552
80	0xbc0a4766	-0.008439874
81	0xbd6deb22	-0.05808557
82	0x3e36b469	0.17842259
83	0x3da84980	0.08217144
84	0x3d11a7be	0.035560362
85	0x3ea52564	0.3225509
86	0x3e0f5f94	0.14001304
87	0xbdcc3819	-0.09971637
88	0x3dbcb3c7	0.09213977
89	0xbd576f18	-0.05259618
90	0x3e00d3cd	0.12580796
91	0xbdc5eedf	-0.09664702
92	0xbd56d900	-0.05245304
93	0x3eb16a8b	0.34651598
94	0x3dbfd4c5	0.093667544
95	0x3e3aa660	0.1822753
96	0xbc3b4876	-0.01143085
97	0x3bcaca49	0.006188665
98	0xbe0c77aa	-0.13717523
99	0x3e48170b	0.1954004
100	0xbe604b6e	-0.21903774
101	0xbe0d0647	-0.13771926
102	0x3ea9f503	0.33194742
103	0x3e037517	0.12837635
104	0x3e582f7b	0.21111862
105	0x3e01c363	0.1267219
106	0xbd7037ef	-0.058647092
107	0xbda285c8	-0.07935673
108	0xbc13bd87	-0.009017355
109	0x3e4385b8	0.19093978
110	0x3e42da37	0.19028555
111	0x3d8751b6	0.06607382
112	0x3e871418	0.26382518
113	0x3dfad2d9	0.12247247
114	0xbe13ddf9	-0.14440145
115	0x3dde3b9f	0.108512156
116	0x3d4ada32	0.049524494
117	0xbd956514	-0.0729467
118	0xbd48c0c3	-0.049011957
119	0xbd352382	-0.044223316
120	0xbdec0826	-0.11524992
121	0xbe426e8e	-0.18987486
122	0xbdb9e053	-0.090759896
123	0xbe21d8fa	-0.15805426
124	0xbdacb273	-0.08432474
125	0xbda13dad	-0.07873092
126	0x3df1fe55	0.11816088
127	0xbd258c66	-0.040417098
128	0x3bb3e795	0.005490253
129	0x3cd81cd0	0.026380926
130	0x3d7957d8	0.06087479
131	0xbbf199ca	-0.0073730694
132	0x3db8a478	0.09015745
133	0x3cd80166	0.026367854
134	0xbd9d2a39	-0.07674069
135	0x3d01cca4	0.0316893
136	0xbe8f245f	-0.27957436
137	0xbe613484	-0.2199269
138	0x3dd5faa2	0.10448195
139	0xbe3701c0	-0.17871761
140	0xbbeb71c7	-0.007185194
141	0xbcaaf564	-0.020868964
142	0xbda2e410	-0.07953656
143	0x3cb9c613	0.022677457
144	0xbd95138a	-0.072791174
145	0xbd6330be	-0.055466406
146	0xbe44cf24	-0.19219643
147	0xbe4f90e3	-0.20270114
148	0xbda1e794	-0.07905498
149	0xbe025bbf	-0.12730311
150	0xbdf870fc	-0.12130925
151	0xbe35e2cf	-0.17762302
152	0xbe8054c5	-0.25064674
153	0xbe07278f	-0.13198684
154	0xbdea0a11	-0.11427701
155	0xbe14185a	-0.14462414
156	0xbd7e5145	-0.062089223
157	0xbdc52a96	-0.09627263
158	0xbe49a572	-0.19692019
159	0xbdfd598f	-0.123705976
160	0xbdcf1776	-0.10111897
161	0xbe1b65d7	-0.15175568
162	0x3d46013f	0.048341032
163	0x3dae4d35	0.0851082
164	0x3d1c32ce	0.03813439
165	0x3d919859	0.07109136
166	0x3e2e6859	0.17031993
167	0x3dca3b06	0.09874539
168	0x3d05e6f2	0.03269095
169	0x3d4cf786	0.050040744
170	0xbab562f1	-0.0013838691
171	0x3d83d6da	0.06437464
172	0xbe31081d	-0.17288251
173	0x3d6acadc	0.057322368
174	0xbe3f38a6	-0.18673953
175	0xbd891167	-0.06692772
176	0x3c8806de	0.016604837
177	0xbe85b046	-0.26111048
178	0xbde35190	-0.11099541
179	0x3d95359c	0.07285616
180	0x3c8e4036	0.017364603
181	0xbca6ebdb	-0.020376137
182	0x3dad14a1	0.084512
183	0xbdacdf17	-0.084409885
184	0xbbb8fbf1	-0.005645268
185	0x3b42eb8d	0.002974245
186	0x3d7dd0b6	0.06196662
187	0x3e0365c2	0.12831786
188	0x3dcc0d0d	0.09963427
189	0xbb026077	-0.0019893923
190	0x3df235a3	0.11826637
191	0xbce104aa	-0.027468044
192	0x3cc89ff5	0.024490336
193	0x3e3de3a7	0.18543874
194	0x3cb39170	0.021919936
195	0xbd493c3f	-0.04912972
196	0x3dc61963	0.09672811
197	0xbdcc0173	-0.09961214
198	0x3beb121d	0.00717379
199	0xbc59ea71	-0.013300524
200	0xbd51fe45	-0.05126788
201	0x3e4a13ce	0.19734117
202	0x3d4e8a9a	0.05042515
203	0xbceb75c4	-0.028742678
204	0xbea55de0	-0.32298183
205	0x3d0e67e4	0.034767047
206	0xbe990a2b	-0.2989057
207	0x3e136f2a	0.14397874
208	0xbd9f25e8	-0.07770902
209	0xbdd99e4c	-0.10625896
210	0x3e853aab	0.26021323
211	0x3d7bac62	0.061443694
212	0xbc242e62	-0.010020824
213	0x3e5ffaf5	0.21873076
214	0x3d3e6003	0.046478283
215	0x3c999e3d	0.018752212
216	0x3cd4423d	0.025910491
217	0xbde35bda	-0.11101504
218	0xbdc8208d	-0.097718336
219	0xbda98106	-0.082765624
220	0xbe10c7e6	-0.14138755
221	0xbec451b5	-0.38343588
222	0xbde0d407	-0.10977941
223	0xbe64c20d	-0.2233965
224	0xbecc4a11	-0.39900258
225	0xbe03641c	-0.12831157
226	0xbcf9dc9a	-0.030500699
227	0x3cb25b3f	0.021772025
228	0xbd8d6620	-0.069042444
229	0x3d22ef4d	0.039778996
230	0x3d93159f	0.07181858
231	0xbddcf385	-0.10788635
232	0xbd03879a	-0.03211174
233	0x3db6081b	0.08888265
234	0xbdb2a9d2	-0.08723797
235	0xbe399445	-0.18122967
236	0xbdfe02f2	-0.124029055
237	0xbc9528cb	-0.018207928
238	0xbdb8dac1	-0.09026099
239	0xbd2aa062	-0.04165686
240	0xbe0d15c1	-0.1377783
241	0xbd1cea7e	-0.038309567
242	0xbb363f82	-0.002780885
243	0xbd6234b9	-0.05522606
244	0xbd13b1b5	-0.036058147
245	0x3d7e64d6	0.062107883
246	0x3c334adb	0.01094314
247	0xbc664182	-0.014053704
248	0x3db15c64	0.086602
249	0xbd0d879b	-0.03455315
250	0xbba67ca6	-0.005080777
251	0x3a97927c	0.0011564041
252	0x3e09ceca	0.1345779
253	0xbb37f85e	-0.0028071622
254	0x3d8922d1	0.06696094
255	0x3dee5325	0.11636952

up_blocks.0.transpose_conv.weight f4 [12, 6, 2, 2]
0	0x3d538213	0.05163772
1	0xbcd88f99	-0.02643566
2	0x3cf4e83b	0.029895892
3	0xbd2e1358	-0.042498916
4	0xbd808c33	-0.06276741
5	0xbd01a707	-0.03165343
6	0xbe038dff	-0.12847136
7	0xbd422efe	-0.047408096
8	0x3dfa9744	0.12235883
9	0xbd971d7f	-0.07378673
10	0xbc415b22	-0.011801513
11	0x3c8376b0	0.016047806
12	0x3e088d43	0.13335137
13	0x3ddb89ac	0.10719618
14	0x3c8b183a	0.016979326
15	0xbdc6986c	-0.09697041
16	0xbd472a15	-0.048624117
17	0x3dc8544a	0.09781702
18	0x3c6b7291	0.0143705765
19	0x3e4635e5	0.19356497
20	0xbd6f17e1	-0.058372382
21	0xbdef3cda	-0.116815284
22	0xbdf4d45c	-0.11954567
23	0x3bebed2e	0.007199905
24	0x3d12ac69	0.035808954
25	0xbe8fe12e	-0.28101486
26	0xbd545262	-0.05183638
27	0xbebbd4ab	-0.3668569
28	0xbc68c1e3	-0.014206382
29	0x3b48f12a	0.0030661323
30	0xbdb980c3	-0.090577625
31	0x3eb3b859	0.35101584
32	0x3e2e0c2c	0.1699683
33	0x3e10cde2	0.14141038
34	0x3e1b3688	0.15157521
35	0x3d0c4ce0	0.034253
36	0x3e7de3ae	0.24793884
37	0x3e5f6c7d	0.21818729
38	0x3e8b1d19	0.27170637
39	0x3e3ac6a2	0.18239835
40	0x3dddf012	0.108368054
41	0xbd37aa0e	-0.04483991
42	0x3e6d9fb7	0.23205458
43	0xbd37fffd	-0.044921864
44	0x3e3edb44	0.1863833
45	0xbd99dc69	-0.07512743
46	0x3e6a88b9	0.22903718
47	0xbdb25a11	-0.08708585
48	0xbd989d89	-0.074519224
49	0x3ec7f2d7	0.3905246
50	0x3e8280a7	0.2548878
51	0x3ecd58f1	0.4010692
52	0x3e5b180a	0.21395889
53	0xbe870c83	-0.26376733
54	0x3e06231d	0.13099332
55	0xbd6c9c3a	-0.057766177
56	0x3e3ed216	0.18634829
57	0x3daf7274	0.08566752
58	0x3e84f7e7	0.25970384
59	0x3d3325c4	0.043737188
60	0x3de45b87	0.1115027
61	0x3d8f4190	0.06994927
62	0x3e84cd9d	0.2593812
63	0x3e689a8a	0.22715202
64	0x3e15ef88	0.14642155
65	0xbc1fe5ab	-0.009759347
66	0xbdadb6ba	-0.08482118
67	0xbe4dd22a	-0.20099702
68	0x3e74e400	0.239151
69	0x3e1e4130	0.15454555
70	0x3e03f578	0.12886608
71	0x3c4fce2d	0.0126834335
72	0x3dd3efc1	0.10348464
73	0x3e13794a	0.14401737
74	0x3d4b2d90	0.049604
75	0x3e0851ad	0.13312407
76	0x3e0747bd	0.1321096
77	0x3e06eedd	0.13177057
78	0xbc50e31d	-0.0127494605
79	0xbdc4bcfa	-0.09606357
80	0xbe2230b0	-0.15838885
81	0x3d2d44c1	0.042301897
82	0x3d0c65cd	0.034276772
83	0xbc787da0	-0.01516667
84	0xbe91613b	-0.28394493
85	0x3db949e0	0.09047294
86	0xbea63df7	-0.3246915
87	0x3ccb855f	0.02484387
88	0xbe248fdd	-0.16070504
89	0xbd215c2a	-0.039394535
90	0xbe9026c9	-0.2815459
91	0xbbbfe808	-0.0058565177
92	0x3e267c19	0.16258277
93	0xbda170ec	-0.07882866
94	0x3dd3902a	0.103302315
95	0x3e006692	0.12539127
96	0xbe2f703a	-0.17132655
97	0xbd0052be	-0.03132891
98	0xbd231848	-0.03981808
99	0xbcd85e22	-0.026412074
100	0x3e8eb491	0.27872136
101	0x3e14d5e3	0.14534716
102	0x3d424055	0.047424633
103	0x3e353f36	0.17699894
104	0x3d95693a	0.07295461
105	0x3e0414d8	0.12898576
106	0xbd27070a	-0.040778197
107	0x3e462118	0.19348562
108	0x3e19846b	0.1499192
109	0xbd904ef1	-0.07046307
110	0x3d898360	0.06714511
111	0xbced8eaf	-0.0289987
112	0x3cbe5416	0.023233455
113	0x3e47eb17	0.19523273
114	0x3d9993ae	0.07498871
115	0xbe0a2a32	-0.13492659
116	0x3e201c22	0.15635732
117	0x3cd35ec7	0.02580203
118	0x3e3e06a2	0.18557218
119	0xbe1f02f5	-0.15528472
120	0x3e693000	0.22772217
121	0xbcd9fe55	-0.026610533
122	0xbb0b5d6e	-0.0021265405
123	0xbd6231f4	-0.05522342
124	0xbdc7998a	-0.09746082
125	0xbde5ac95	-0.11214558
126	0xbd5a4657	-0.053289738
127	0xbe1b89fd	-0.15189357
128	0x3e4c0222	0.19922689
129	0x3de48673	0.11158457
130	0x3da5b35d	0.080908515
131	0xbdbee5c6	-0.093211696
132	0x3d2643b0	0.040591896
133	0xbc350edd	-0.011050907
134	0x3e20dda0	0.15709543
135	0xbe2e282b	-0.1700751
136	0x3e00ee46	0.12590894
137	0xbda105a7	-0.07862406
138	0x3cb7f9a3	0.022457903
139	0xbea15948	-0.3151343
140	0xbe3e2148	-0.18567383
141	0x3d964081	0.07336522
142	0xb9806658	-0.00024490315
143	0xbeaf53de	-0.34243673
144	0xbda11b38	-0.0786652
145	0x3c437db4	0.011931825
146	0x3be801a9	0.007080276
147	0x3d858725	0.065199174
148	0xbe64506c	-0.22296304
149	0xbe3c1080	-0.18365669
150	0xbdff25d7	-0.12458389
151	0xbe809fae	-0.25121826
152	0x3e81c5f1	0.2534633
153	0xbb1650ed	-0.002293642
154	0x3e237bb9	0.15965165
155	0x3d41f7df	0.04735553
156	0x3cdd6363	0.02702493
157	0x3e783691	0.24239565
158	0x3def9a6a	0.11699374
159	0x3e35e17c	0.17761797
160	0x3d9b7b57	0.075918846
161	0x3cc133a1	0.023584189
162	0x3e17db2d	0.14829703
163	0xbd53103b	-0.05152915
164	0xbcc46a5f	-0.023976503
165	0x3e4fe2cd	0.20301361
166	0x3dc52635	0.09626428
167	0xbbf07164	-0.007337736
168	0xbe369d38	-0.17833412
169	0xbcdb45ad	-0.026766622
170	0xbdccfda0	-0.10009313
171	0x3e5b721b	0.21430247
172	0xbea2a234	-0.31764376
173	0xbe3829ac	-0.17984647
174	0xbe1e7716	-0.15475115
175	0xbe6f67dc	-0.23379463
176	0x3ea6fd08	0.32614923
177	0x3d97ebb6	0.07418005
178	0xbc978828	-0.018497542
179	0x3ca0734d	0.01958623
180	0x3deba414	0.11505905
181	0x3c526dfa	0.012843603
182	0x3e45f412	0.19331387
183	0x3dc495c5	0.09598879
184	0xbd20b32e	-0.03923338
185	0x3ae4e122	0.0017462114
186	0xbe1bb44b	-0.15205495
187	0xbda1a6bf	-0.078931324
188	0x3df5e694	0.1200687
189	0xbd1f71e4	-0.038926974
190	0x3e1e773d	0.15475173
191	0x3d7abbb6	0.06121417
192	0x3e2074e3	0.15669589
193	0x3da9180a	0.08256538
194	0xbd946dbd	-0.072474934
195	0x3d050023	0.032470834
196	0xbe040c43	-0.12895302
197	0xbe047139	-0.12933816
198	0x3d269763	0.040671717
199	0x3ce9fd47	0.028563155
200	0xbe3783be	-0.1792135
201	0xbe85b030	-0.26110983
202	0xbde5741d	-0.112037875
203	0xbe1a38a5	-0.1506067
204	0xbcc35017	-0.0238419
205	0xbd088663	-0.033331286
206	0xbdf4d8ce	-0.11955415
207	0xbde32378	-0.110907495
208	0xbe8b9612	-0.27262932
209	0xbdc30181	-0.09521771
210	0xbe519e3d	-0.2047052
211	0x3e63ae33	0.2223442
212	0xbe2ab3ff	-0.16670226
213	0x3e0cf454	0.13765079
214	0xbea6eed5	-0.3260409
215	0x3e1db291	0.15400149
216	0x3e26dd6d	0.16295405
217	0x3d051b13	0.032496523
218	0x3da7c70b	0.08192261
219	0xbc0b60bc	-0.00850695
220	0xbe0d9c6c	-0.13829201
221	0x3d8acb01	0.06777001
222	0x3e9a8046	0.3017599
223	0x3d757ce1	0.059933547
224	0xbeab49a9	-0.33454636
225	0xbd524fc5	-0.051345605
226	0x3c1302a0	0.008972794
227	0xbd0d139f	-0.03444254
228	0xbd48b37d	-0.0489993
229	0xbdb91c8d	-0.09038649
230	0xbe92499d	-0.28571787
231	0x3d12dede	0.035857074
232	0xbe204e44	-0.15654856
233	0x3d34fcbf	0.04418635
234	0x3dadc877	0.08485501
235	0x3e13803a	0.14404383
236	0xbe8bd6d1	-0.2731233
237	0xbd7409d4	-0.059579685
238	0x3d142733	0.036170196
239	0x3bc026ef	0.0058640162
240	0x3ea125b5	0.3147408
241	0xbace6f2c	-0.0015749685
242	0x3e6ba7c2	0.23013213
243	0x3e23ec71	0.16008164
244	0x3e0c8234	0.13721544
245	0x3e283cc7	0.16429435
246	0x3e823dd7	0.25437805
247	0xbe2e66c8	-0.17031395
248	0xbe9c8dea	-0.30577022
249	0xbe9460e8	-0.28980184
250	0xbe17fc42	-0.14842322
251	0xbe78d377	-0.24299417
252	0xbd376b32	-0.044779964
253	0xbdacaded	-0.08431611
254	0xbdc90d7b	-0.09817024
255	0x3d25644e	0.04037886

up_blocks.0.transpose_conv.bias f4 [6]
0	0xbe5fe8dc	-0.21866173
1	0xbf5e70a0	-0.868906
2	0xbefbc4f9	-0.49173716
3	0x3e97130d	0.29506722
4	0x3f124209	0.5713201
5	0xbf86fbe4	-1.0545621

up_blocks.0.conv_block.conv1.weight f4 [6, 12, 3, 3]
0	0xbe07c8d1	-0.13260199
1	0xbd23d431	-0.039997283
2	0xbdda2c78	-0.10653013
3	0xbd8eb961	-0.06968952
4	0x3d002699	0.03128681
5	0xbde7a893	-0.1131145
6	0xbe6151ca	-0.22003856
7	0xbd9797f8	-0.074020326
8	0xbe34289f	-0.1759362
9	0x3d5f1c7b	0.05447052
10	0x3e398dea	0.18120542
11	0x3bf21aac	0.0073884334
12	0x3e497af2	0.19675806
13	0x3de08e5f	0.10964655
14	0x3d165b75	0.036708314
15	0x3d722180	0.05911398
16	0x3ddb4674	0.10706797
17	0xbd1374c2	-0.03600002
18	0x3da269fa	0.0793037
19	0xbd8eb36d	-0.069678165
20	0xbcb4b0c8	-0.022056952
21	0x3dc045c1	0.093883045
22	0x3da03da3	0.07824256
23	0x3dc54733	0.09632721
24	0x3c57136b	0.013127188
25	0x3d96010b	0.07324418
26	0xbd5682a3	-0.05237068
27	0x3d4f7f0a	0.050658263
28	0xbd5ac7c9	-0.053413186
29	0x3d612483	0.05496646
30	0x3ddf4fe1	0.109039076
31	0x3d97fe35	0.07421533
32	0x3d39c737	0.045356
33	0x3df90cc2	0.121606365
34	0xbde5676b	-0.11201366
35	0x3dd743a9	0.10510952
36	0x3dd6b1e6	0.1048315
37	0xbddbbaf2	-0.10729016
38	0xbbe5bb7e	-0.007010876
39	0x3dee5fba	0.11639352
40	0x3c82bbef	0.015958754
41	0x3b80373d	0.003912835
42	0x3dbe970c	0.09306154
43	0xbe11aa22	-0.14225057
44	0x3dfe0ebb	0.12405153
45	0x3cbab13b	0.022789588
46	0xbdc32e75	-0.09530345
47	0xbc7dd97b	-0.015493746
48	0xbc6b77b0	-0.014371797
49	0x3e76ee21	0.24114276
50	0xbe7e608e	-0.2484152
51	0xbb1a0794	-0.0023503052
52	0x3e07cc40	0.13261509
53	0xbdcca406	-0.099922225
54	0xbe0d2788	-0.13784611
55	0x3c9e25b4	0.019305088
56	0x3d682d87	0.056684043
57	0xbe96cc80	-0.29452896
58	0x3c38fd92	0.011290925
59	0xbe03303f	-0.12811373
60	0xbe24ebea	-0.16105619
61	0x3d9b0774	0.07569781
62	0xbcc13e52	-0.023589287
63	0x3d71c9ae	0.059030227
64	0x3e7dc5ac	0.24782437
65	0x3d666e4e	0.05625754
66	0x3ca0f725	0.019649098
67	0x3e460e5b	0.19341414
68	0x3cf96588	0.030443922
69	0xbc2d3d35	-0.010573675
70	0x3e1a9fdf	0.15100048
71	0xbdfaf2f8	-0.12253374
72	0xbe4581ea	-0.1928784
73	0xbdf3b4cf	-0.11899721
74	0x3a86e19a	0.0010290623
75	0xbddb10af	-0.106965415
76	0xbb181953	-0.0023208454
77	0x3d32df97	0.043670263
78	0xbe53a483	-0.20668225
79	0x3b1ae99e	0.0023637782
80	0x3b9fccf6	0.004876728
81	0xbe1bd848	-0.15219223
82	0x3d114012	0.035461493
83	0x3c382478	0.011239164
84	0xbd0ce0d4	-0.0343941
85	0x3d9d4cab	0.07680639
86	0x3d9acc4c	0.07558498
87	0xbe0927da	-0.13394108
88	0xbc41c6cd	-0.011827183
89	0x3ccd1bbe	0.025037643
90	0xbc7a9e75	-0.015296568
91	0x3d664cf1	0.05622572
92	0x3c2ccf13	0.010547417
93	0x3d758f2a	0.059950985
94	0x3e114aa6	0.14188632
95	0xbd14d5b0	-0.0363366
96	0xbdbd7ac7	-0.092519335
97	0x3d04f913	0.0324641
98	0xbdaba6c8	-0.083814204
99	0xbdecd409	-0.1156388
100	0xbd6e0795	-0.0581127
101	0xbdbd8de3	-0.09255578
102	0xbdf276bf	-0.11839055
103	0x3d0403bd	0.032230128
104	0xbce55887	-0.027996315
105	0xbe4c0915	-0.1992534
106	0xbdbc94a7	-0.09208041
107	0xbd06c86c	-0.03290598
108	0x3df3eccf	0.11910402
109	0xbc9f1a95	-0.019421855
110	0xbd74b9f4	-0.05974765
111	0x3dff3648	0.12461525
112	0x3d6dbe6b	0.058042925
113	0xbd5ec4e9	-0.054387007
114	0x3e090784	0.13381773
115	0x3dabe64d	0.08393536
116	0xbca03b6d	-0.019559586
117	0x3dfebd13	0.12438407
118	0x3d2bafd6	0.041915737
119	0x3d627a0f	0.055292185
120	0x3e0af478	0.1356982
121	0xbc8e4237	-0.017365558
122	0x3c454dae	0.012042446
123	0x3df0d683	0.11759665
124	0xbd90be0e	-0.070675
125	0xbcfb04eb	-0.030641994
126	0xbb3288a2	-0.0027242084
127	0x3e09fdf1	0.13475777
128	0xbdf28675	-0.11842052
129	0xbd1597b4	-0.03652163
130	0x3e4e3357	0.20136772
131	0xbe24acfc	-0.16081613
132	0xbd43f947	-0.04784515
133	0x3e1c42f6	0.15259919
134	0xbcb1617a	-0.021652926
135	0x3e0ccd9d	0.1375031
136	0x3e907b05	0.28218856
137	0x3d9db7a7	0.077010445
138	0x3e8faef2	0.2806316
139	0x3ee03032	0.4378677
140	0x3e840036	0.2578141
141	0x3e3829c7	0.17984687
142	0x3e7a59d6	0.24448332
143	0x3df179eb	0.11790832
144	0x3d9f12b8	0.07767242
145	0xbdb8be67	-0.09020691
146	0x3da17571	0.07883728
147	0x3b016eef	0.001974996
148	0x3c944e4b	0.01810374
149	0x3cd305e2	0.025759641
150	0x3c97dd0a	0.018538017
151	0xbcccb1e8	-0.024987176
152	0xbdba6047	-0.09100395
153	0x3d9f0ef7	0.07766526
154	0x3ddc64d5	0.1076142
155	0x3d378cc5	0.044811983
156	0x3de2e839	0.11079449
157	0x3e49d7c6	0.19711217
158	0x3d007b0d	0.03136735
159	0x3d44d02f	0.0480501
160	0x3e3126b4	0.1729992
161	0xbbd9fa5b	-0.006652159
162	0xbd13a5a2	-0.03604663
163	0x3d3ffd0b	0.04687218
164	0xbd12e473	-0.035862397
165	0x3e27a179	0.1637019
166	0x3e124b6d	0.14286585
167	0x3d97ff9b	0.074218
168	0x3e0a46c8	0.13503563
169	0x3dd9d1bc	0.10635707
170	0x3e0b696e	0.13614437
171	0xbd0f7d64	-0.03503169
172	0xbcd5d6d6	-0.026103418
173	0xbdf2cb59	-0.11855192
174	0x3d192181	0.037385467
175	0xbd36342a	-0.04448334
176	0xbe108dd7	-0.14116608
177	0xbd484a1d	-0.048898805
178	0xbe0808e4	-0.13284642
179	0x3b8b4292	0.004249879
180	0x3d1dcdee	0.038526468
181	0xbd86dfe1	-0.0658567
182	0xbd0fffa2	-0.0351559
183	0xbd9084f3	-0.07056608
184	0xbd6739d5	-0.056451637
185	0xbdec31ac	-0.11532912
186	0xbd839376	-0.0642461
187	0x3c27e428	0.010247268
188	0xbd777ab9	-0.06041977
189	0x3d9ee7dc	0.077590674
190	0xbdb61883	-0.08891394
191	0xbd31dd18	-0.043423742
192	0x3d4bc906	0.049752258
193	0xbe22036c	-0.15821618
194	0xbdcb1c96	-0.09917562
195	0x3d869b3a	0.06572576
196	0xbe09b525	-0.13448007
197	0xbd6ca311	-0.0577727
198	0x3d314835	0.043281753
199	0xbd4e801c	-0.050415143
200	0x3d5246ec	0.051337168
201	0x3c8aae6d	0.016928876
202	0xbdf3cc6b	-0.11904224
203	0x3d501646	0.05080249
204	0x3da3b034	0.079925925
205	0xbd25751c	-0.040394887
206	0xbd149999	-0.036279295
207	0x3d83220f	0.064029805
208	0xbe4644be	-0.1936216
209	0xbe4602bf	-0.19336985
210	0x3c54eea1	0.012996347
211	0xbe3733c2	-0.17890838
212	0xbe4d57be	-0.20053002
213	0x3bdf97e5	0.006823527
214	0xbe2b3b2d	-0.16721793
215	0xbe57f9e8	-0.21091425
216	0x3c6207cb	0.013795803
217	0x3d82608f	0.06366073
218	0xbe520de4	-0.20513111
219	0xbe4fa03f	-0.20275973
220	0x3e323d08	0.17406094
221	0x3d7dcc12	0.061962195
222	0x3d836e79	0.06417555
223	0x3e296338	0.16541755
224	0xbd1b2a40	-0.03788209
225	0x3d9310d1	0.07180942
226	0xbd2398cc	-0.03994064
227	0x3e0e3eba	0.13891116
228	0x3e9813ea	0.29702693
229	0xbdfe3bab	-0.124137245
230	0x3e19fe4a	0.1503841
231	0x3d6f91fd	0.058488835
232	0xbdb813d3	-0.08988156
233	0x3e4b0ba9	0.19828667
234	0xbc08db79	-0.008353108
235	0x3e8a46d5	0.27007166
236	0x3e724e35	0.23662646
237	0x3e0c54b0	0.1370418
238	0x3ebe2a6a	0.37141734
239	0x3e9a120c	0.30091894
240	0x3d10fca0	0.035397172
241	0x3df9e2f1	0.12201489
242	0x3e4e1e31	0.20128705
243	0x3dd2bf32	0.10290374
244	0x3e610316	0.21973833
245	0xbc925209	-0.017861383
246	0x3d94384b	0.072372995
247	0x3df506f9	0.119642206
248	0x3c0e7eb4	0.008697201
249	0x3d2a289a	0.041542627
250	0x3da81ec2	0.082089916
251	0xbe07949b	-0.13240282
252	0xbd042bd9	-0.03226838
253	0xbc8ae677	-0.016955597
254	0xbcfa66c1	-0.030566575
255	0xbd932181	-0.07184125

up_blocks.0.conv_block.conv2.weight f4 [6, 6, 3, 3]
0	0xbd0f3df2	-0.034971185
1	0xbe2bf3f2	-0.16792277
2	0xbc8d861e	-0.017275866
3	0x3cca8160	0.024719894
4	0xbd4294cc	-0.047505185
5	0x3d0cdfe8	0.03439322
6	0x3d3fd660	0.046835303
7	0xbd340a99	-0.04395542
8	0x3c5da7b1	0.01352875
9	0xbe156d23	-0.14592414
10	0x3d507ef1	0.05090231
11	0xbe0d451b	-0.13795893
12	0xbd14284c	-0.036171243
13	0x3db4ae5f	0.08822321
14	0x3b2a6655	0.0026000936
15	0xbe3b74ef	-0.18306325
16	0xbd13781e	-0.036003225
17	0xbdfd55e5	-0.12369899
18	0x3d5a9f0c	0.053374335
19	0x3bafbe4e	0.0053632623
20	0x3d278d74	0.040906385
21	0x3e217e16	0.15770754
22	0x3e968540	0.29398537
23	0x3e12f378	0.14350688
24	0x3e28df1a	0.16491356
25	0x3e3e4594	0.1858123
26	0x3cd12284	0.025529154
27	0xbdd1052a	-0.10206063
28	0xbc42d2ba	-0.011891061
29	0xbcb08f8b	-0.021552822
30	0xbd4cb200	-0.04997444
31	0x3d30d851	0.043175045
32	0xbcf750b1	-0.030189844
33	0xbcfb586a	-0.030681808
34	0xbd6bc877	-0.057564225
35	0xbb86dc08	-0.0041155852
36	0xbdf74c80	-0.12075138
37	0x3e82d1e7	0.25550768
38	0xbde11fa2	-0.109923616
39	0xbdbb1883	-0.091355346
40	0x3f0a8c61	0.5412045
41	0xbc79c3b8	-0.015244417
42	0xbe30dc35	-0.17271502
43	0x3e80716d	0.25086537
44	0xbd558b85	-0.05213501
45	0x3d24a6cf	0.040198144
46	0xbce7db66	-0.02830286
47	0xbd62f7e0	-0.055412173
48	0xbd8bcd27	-0.06826239
49	0xbd4b4e4d	-0.04963522
50	0x3af9d065	0.0019059299
51	0xbd467664	-0.04845275
52	0x3d63bd93	0.055600714
53	0x3c9044a9	0.017610865
54	0x3d76e31e	0.06027519
55	0xbdbab3bd	-0.091163136
56	0x3e47cc61	0.19511558
57	0x3e4e8945	0.20169552
58	0xbd5d0cb0	-0.053967178
59	0x3dfb9054	0.12283388
60	0x3d3ba2d4	0.045809582
61	0xbdbdc9ea	-0.09267028
62	0x3df9d333	0.12198486
63	0x3e4a78ff	0.19772719
64	0x3e410710	0.1885035
65	0x3df8b1c8	0.12143284
66	0x3e2b1d77	0.16710459
67	0xbb1cea17	-0.002394324
68	0x3e3e25e5	0.18569143
69	0x3e4e29f9	0.20133199
70	0x3daa20c3	0.0830703
71	0x3d1d4c2b	0.038402718
72	0xbdcff9d7	-0.10155075
73	0x3e0d002a	0.13769594
74	0xbd4970cc	-0.049179837
75	0x3cd577f8	0.026058182
76	0x3e1df948	0.15427125
77	0xbd28daa0	-0.041224122
78	0xbd26c91c	-0.040719137
79	0x3d2e0155	0.04248174
80	0xbdef568b	-0.11686429
81	0xbd3d1e27	-0.046171334
82	0xbdf7b7c5	-0.12095598
83	0xbe01e596	-0.12685236
84	0xbdd506a1	-0.10401655
85	0xbdffff7b	-0.12499901
86	0xbd6c9343	-0.057757627
87	0xbdb58961	-0.088640936
88	0xbce8abb4	-0.028402187
89	0xba296a69	-0.0006462695
90	0xbcdcd02f	-0.026954738
91	0xbe104d16	-0.14091906
92	0xbd7c786b	-0.061638277
93	0xbe064ac4	-0.13114458
94	0xbd4b9782	-0.049705036
95	0xbb915e54	-0.0044362936
96	0xbc303da6	-0.010756886
97	0xbcbb24f0	-0.022844762
98	0xbd826f32	-0.06368865
99	0x3e372d5d	0.17888398
100	0xbe044288	-0.12916005
101	0x3d6917e5	0.056907553
102	0x3decfd46	0.115717456
103	0xbdf201dc	-0.11816761
104	0x3e131d2e	0.143666
105	0x3e10d660	0.14144278
106	0xbd5b53a0	-0.053546548
107	0x3dfd4cb8	0.123681486
108	0xbb21a488	-0.0024664719
109	0xbd9cd795	-0.076583065
110	0xbdb4a86a	-0.08821185
111	0xbd8783fd	-0.06616972
112	0xbe07757a	-0.13228408
113	0xbdf451fc	-0.119297
114	0xbd1d01c3	-0.03833176
115	0xbd469d9c	-0.04849015
116	0xbd90ba22	-0.07066752
117	0xbdbae911	-0.09126485
118	0xbe0a5650	-0.13509488
119	0xbc3f145a	-0.011662567
120	0xbcedbe8a	-0.02902152
121	0xbd5fdc2a	-0.054653324
122	0xbc9e4f82	-0.019325022
123	0xbdc1f17a	-0.09469886
124	0xbe5b7f4f	-0.21435283
125	0xbcefd909	-0.029278295
126	0x3d119b65	0.035548586
127	0x3c5481a7	0.012970365
128	0x3d6f73c3	0.05846001
129	0x3dca6910	0.0988332
130	0x3e7397a2	0.23788312
131	0x3df64703	0.12025263
132	0x3d241ccb	0.04006652
133	0x3e862773	0.26201972
134	0x3df1e7e0	0.11811805
135	0xbe2b1ca6	-0.16710147
136	0xbe5d3f53	-0.21606188
137	0x3cc7a139	0.02436887
138	0xbedcac06	-0.43099993
139	0xbee236ea	-0.4418252
140	0x3cfc6f64	0.030814834
141	0xbe6d867e	-0.23195836
142	0xbe88ab97	-0.26693413
143	0x3d00b1d6	0.031419598
144	0xbc3f32b9	-0.011669808
145	0x3d6ef3dc	0.05833803
146	0xbd16e063	-0.036835086
147	0x3d7918f3	0.06081481
148	0x3e74b7da	0.23898259
149	0xbb3fc637	-0.0029262432
150	0x380095c4	3.065706e-05
151	0x3e4ddab3	0.20102958
152	0xbbf5427a	-0.0074847313
153	0xbd27ac02	-0.040935524
154	0x3d9ec95b	0.07753249
155	0x3d2d4ecf	0.042311486
156	0xbc64ea92	-0.013971942
157	0x3e27b8db	0.1637911
158	0x3d9af89f	0.07566952
159	0xbbedfbe1	-0.0072626923
160	0x3d8dee8b	0.06930264
161	0x3d345efb	0.044035893
162	0xbd27c79a	-0.04096184
163	0xbd78cd9a	-0.060742952
164	0x3d6a810e	0.057251982
165	0xbdc71a07	-0.09721761
166	0xbddb6d53	-0.10714211
167	0x3d194ed8	0.037428707
168	0xbd8308cb	-0.063981615
169	0xbd5e9f9e	-0.05435144
170	0x3d201373	0.03908105
171	0x3d813084	0.06308082
172	0xbc4b37f4	-0.012403477
173	0xbe4a41ee	-0.19751713
174	0x3b83647c	0.0040097814
175	0xbd3eca5a	-0.046579696
176	0xbe201e46	-0.15636548
177	0x3dac2ca5	0.08406953
178	0xbd4f7421	-0.05064786
179	0xbe2f89ca	-0.17142406
180	0x3c1e0232	0.009644078
181	0x3d86cf1c	0.06582472
182	0xbc529f7f	-0.01285541
183	0x3e27f1f7	0.16400896
184	0x3ead0940	0.3379612
185	0x3e15947a	0.1460742
186	0x3df6ae7e	0.120450005
187	0x3e8588ad	0.26080838
188	0x3e11d41e	0.14241073
189	0x3d960753	0.07325616
190	0x3d1ff471	0.039051477
191	0x3c9668e7	0.018360568
192	0x3cc56fe9	0.024101214
193	0xbe0b665f	-0.1361327
194	0xbd884f8b	-0.066557966
195	0xbd320fb9	-0.043472026
196	0x3cbc2c27	0.022970272
197	0xbc03d709	-0.008046874
198	0xbdd041ae	-0.101687774
199	0x3e86fd77	0.26365253
200	0xbe0ee6c4	-0.13955218
201	0xbdde0621	-0.10841013
202	0x3f41592c	0.7552669
203	0x3db4e990	0.08833611
204	0xbd97fc02	-0.074211136
205	0x3e68a191	0.22717883
206	0xbe207feb	-0.15673797
207	0x3a5bfef4	0.0008392178
208	0xbccd5c0f	-0.025068311
209	0xbcf9bf87	-0.030486835
210	0x3dd46a77	0.10371869
211	0x3b57994f	0.0032897776
212	0xba472a76	-0.0007597575
213	0xbb89aa33	-0.0042011975
214	0x3d47fe6a	0.048826613
215	0xbcb243ce	-0.021760847
216	0x3cd2bb3e	0.02572405
217	0xbd44a38a	-0.048007526
218	0x3cb07e83	0.0215447
219	0xbbc952c7	-0.006143901
220	0x3ce1791f	0.027523575
221	0x3ce61f8c	0.028091215
222	0xbce81ea3	-0.028334921
223	0xbdb5eeb0	-0.08883417
224	0xbcde1ce0	-0.027113378
225	0xbcdf1a1e	-0.027234133
226	0xbe0aaa57	-0.13541542
227	0x3aad4ae1	0.0013221168
228	0xbd4c33d6	-0.049854122
229	0xbe01e57e	-0.126852
230	0x3d1e4b23	0.038645875
231	0xbd803af1	-0.06261242
232	0xbe4263a2	-0.1898332
233	0x3c8b54a8	0.01700814
234	0x3c035899	0.008016729
235	0x3d9587c6	0.07301287
236	0x3dd4d9b5	0.10393087
237	0x3dc75c8d	0.097344495
238	0x3ee01621	0.43766883
239	0x3e202f6b	0.15643089
240	0x3d9206e7	0.07130223
241	0x3e9f679a	0.3113373
242	0x3dd82df9	0.105556436
243	0x3d4c056d	0.049809862
244	0xbe514b50	-0.20438886
245	0xbb7d3094	-0.003863369
246	0x3dad60c3	0.084657215
247	0xbe5278ad	-0.20553847
248	0xbbfafb7d	-0.0076593743
249	0x3cc64950	0.02420488
250	0xbe9035ae	-0.28165954
251	0x3d22b5ec	0.039724275
252	0xbdb1f7e7	-0.08689862
253	0x3db89028	0.090118706
254	0xbe042671	-0.12905289
255	0xbb7e0373	-0.003875938

up_blocks.0.attention_gate.gating_conv.weight f4 [6, 6, 1, 1]
0	0x3df34d08	0.11879927
1	0x3d8d06d4	0.06886068
2	0xbdfce2de	-0.12347959
3	0x3f09817f	0.5371322
4	0x3d71f09c	0.059067354
5	0x3d645112	0.055741377
6	0xbedccba5	-0.43124118
7	0xbe420273	-0.18946247
8	0xbdd84898	-0.10560721
9	0xbe288f9b	-0.16461031
10	0xbe12f606	-0.14351663
11	0xbe5343c2	-0.20631316
12	0xbdfe4eff	-0.12417411
13	0x3d9991aa	0.07498486
14	0x3efc9a80	0.49336624
15	0xbc8db0ac	-0.017296158
16	0x3e1ebcf9	0.15501775
17	0xbda9bf44	-0.08288434
18	0xbe2464c8	-0.1605407
19	0x3e84d66b	0.25944838
20	0x3e8ba10a	0.272713
21	0x3d6ebe19	0.05828676
22	0x3c26e834	0.0101871975
23	0x3e3d4d83	0.184866
24	0x3d90cf76	0.0707082
25	0x3ec4074e	0.38286823
26	0x3d85252b	0.0650123
27	0xbe9e92e8	-0.30971456
28	0x3e73ddb9	0.23815049
29	0x3e4394a2	0.19099668
30	0xbe93fc54	-0.2890345
31	0x3e36789f	0.17819451
32	0x3e84f78d	0.25970116
33	0x3ec59d58	0.38596606
34	0x3eb2df46	0.3493597
35	0xbed90f65	-0.42394558

up_blocks.0.attention_gate.gating_conv.bias f4 [6]
0	0xbe58f2f2	-0.21186426
1	0xbbf4a7eb	-0.0074663064
2	0x3dc83dce	0.09777413
3	0xbea452ad	-0.32094327
4	0xbe23514f	-0.15948986
5	0x3e258333	0.1616333

up_blocks.0.attention_gate.input_conv.weight f4 [6, 6, 1, 1]
0	0x3dbd88c6	0.09254603
1	0x3dd096eb	0.10185035
2	0x3e2270c4	0.15863329
3	0x3e7c8946	0.2466174
4	0x3ea47196	0.3211791
5	0xbea4cc98	-0.32187343
6	0x3cb94d09	0.022619741
7	0x3e5099b6	0.20371136
8	0xbe16a3c2	-0.14710906
9	0xbeb0162d	-0.3439192
10	0xbe84b46d	-0.25918904
11	0xbe726231	-0.2367027
12	0x3dfdd824	0.12394741
13	0x3ec7101a	0.38879472
14	0xbd2a3415	-0.041553576
15	0xbeb24ec4	-0.34825718
16	0xbc816828	-0.015796736
17	0x3dc4297d	0.09578226
18	0xbe141c98	-0.14464033
19	0xbe9e4bc1	-0.3091717
20	0x3e96be0f	0.29441878
21	0x3dd68edb	0.10476466
22	0x39193d06	0.0001461395
23	0xbd59405e	-0.0530399
24	0xbc897394	-0.016778745
25	0xbebf777a	-0.3739584
26	0x3da0e7b7	0.07856696
27	0xbd85459b	-0.06507417
28	0x3d739bb9	0.05947468
29	0xbeaa7018	-0.33288646
30	0xbe1223ab	-0.14271419
31	0xbe8b27ae	-0.2717871
32	0x3e7d2aaf	0.24723314
33	0x3e5e41e2	0.2170482
34	0xbd4bb313	-0.049731325
35	0xbdc89c50	-0.09795439

up_blocks.0.attention_gate.input_conv.bias f4 [6]
0	0xbde859e4	-0.1134527
1	0xbe96ff8a	-0.29491836
2	0x3ae4104f	0.001739988
3	0x3e9f0f38	0.31066298
4	0x3e2a74ed	0.16646166
5	0x3ec86395	0.39138475

up_blocks.0.attention_gate.conv.weight f4 [1, 6, 1, 1]
0	0xbe33e45f	-0.17567585
1	0x3ebc954b	0.36832651
2	0xbe4d1112	-0.20026043
3	0x3d9f7c13	0.07787337
4	0xbe90a5e0	-0.28251553
5	0x3e57ed6f	0.21086667
