experiment/bUnet-MSE.pth (torch, 29314 bytes, 25 tensors)

input_block.conv1.weight f4 [3, 1, 3, 3]
0	0x3edc3f63	0.4301711
1	0x3f5bd99f	0.8587894
2	0xbe097712	-0.13424328
3	0xbe591e51	-0.21202971
4	0x3e5fa507	0.21840297
5	0xbc945b02	-0.018109802
6	0x3db30e28	0.087429345
7	0xbe865da2	-0.2624331
8	0x3e1272c6	0.14301595
9	0xbe35ed70	-0.17766356
10	0xbd2d2411	-0.042270724
11	0x3e97f18a	0.29676467
12	0xbd21fa96	-0.039545618
13	0xbd2ad809	-0.041709933
14	0xbe24ecf4	-0.16106015
15	0x3e4ba24d	0.19886132
16	0x3f0e7069	0.55640274
17	0x3dc588ad	0.096452095
18	0x3c928146	0.017883908
19	0xbebb6399	-0.36599424
20	0xbd679d87	-0.056546714
21	0xbd7a7c36	-0.061153613
22	0xbe555e60	-0.20836782
23	0xbea982be	-0.3310756
24	0x3d8b70bd	0.068086125
25	0xbd8b5ce8	-0.0680483
26	0xbe094738	-0.13406074

input_block.conv2.weight f4 [3, 3, 3, 3]
0	0xbe3f702a	-0.18695131
1	0xbce94e5c	-0.028479747
2	0x3dd0523e	0.101719365
3	0x3dd5d731	0.10441435
4	0x3e906109	0.28199032
5	0x3e534fd6	0.20635924
6	0xbe1b9b7f	-0.15196036
7	0xbd644ade	-0.05573546
8	0x3d22e451	0.03976852
9	0x3e66268e	0.22475645
10	0x3d0380d8	0.032105297
11	0x3dbd972a	0.09257348
12	0x3dc3b73b	0.09556433
13	0xbdec4b6e	-0.115378246
14	0xbca9370c	-0.020656131
15	0x3cbb1dd0	0.022841364
16	0x3d689aa2	0.056788094
17	0xbe08346f	-0.13301252
18	0xbe5fb9e5	-0.21848257
19	0xbe11226b	-0.14173286
20	0xbdfc8460	-0.12329936
21	0xbe3d31bd	-0.18476005
22	0x3daeb779	0.085310884
23	0xbcca1aa6	-0.02467091
24	0x3da910d3	0.08255162
25	0x3dba63d7	0.09101074
26	0xbe058ae0	-0.13041258
27	0xbd8ef31e	-0.06979965
28	0xbde153e7	-0.11002331
29	0xbe7efd04	-0.24901205
30	0xbe2ebbed	-0.17063875
31	0xbd292fce	-0.041305356
32	0xbe4cea6a	-0.20011297
33	0x3e0095b0	0.12557101
34	0x3e2910f7	0.16510378
35	0xbe2d3668	-0.16915286
36	0x3e031a63	0.12803034
37	0x3e510bf0	0.2041471
38	0xbd96c60d	-0.07361994
39	0x3deeafb1	0.11654604
40	0x3d515f53	0.0511163
41	0xbd1b5f98	-0.037932962
42	0xbca709d8	-0.020390436
43	0x3e509a9b	0.20371477
44	0xbdf727a7	-0.1206811
45	0xbda9b5e7	-0.08286648
46	0xbe32f795	-0.17477258
47	0x3e4b7f6b	0.19872825
48	0xbcf646f6	-0.030063134
49	0xbe1e3194	-0.154486
50	0xbcc54050	-0.024078518
51	0xbd8e5c20	-0.06951165
52	0xbe00b626	-0.12569484
53	0x3d809472	0.06278314
54	0xbc4dcb3d	-0.012560663
55	0x3ddff3f9	0.10935206
56	0xbe2401b1	-0.1601627
57	0x3d3b4f29	0.04572979
58	0xbe71f993	-0.23630361
59	0x3cb7703a	0.022392381
60	0xbc4712e5	-0.012150501
61	0xbd5d5806	-0.054039024
62	0xbe2e60f7	-0.17029177
63	0x3e0911a5	0.13385637
64	0x3df78ac6	0.12087016
65	0xbdc710fa	-0.09720035
66	0x3ea2d76b	0.31804976
67	0x3e2eeef8	0.17083347
68	0x3e8818bd	0.26581374
69	0xbe3b82e9	-0.18311657
70	0xbca95a7e	-0.020673033
71	0xbd8262f5	-0.06366531
72	0x3c3fd256	0.011707863
73	0x3d85f542	0.0654092
74	0xbcf03eca	-0.029326815
75	0x3e177db8	0.14794052
76	0xbd6db008	-0.058029205
77	0x3d2b3368	0.04179707
78	0x3e06b18b	0.13153665
79	0x3c478a1d	0.012178925
80	0xbde5220f	-0.11188137

down_blocks.0.conv_block.conv1.weight f4 [6, 3, 3, 3]
0	0x3e09b251	0.13446929
1	0xb9f76e8f	-0.00047193884
2	0xbe067059	-0.13128795
3	0x3ca61d62	0.020277683
4	0xbd54727d	-0.051866997
5	0xbd84eb37	-0.06490176
6	0xbe63d044	-0.22247416
7	0xbe7a74f9	-0.24458684
8	0xbe7ee00b	-0.24890153
9	0xbe4d6401	-0.2005768
10	0x3da73900	0.08165169
11	0x3e79fc55	0.24412663
12	0xbddd5cd5	-0.10808722
13	0x3d8ea1b8	0.06964439
14	0x3c0a9a28	0.008459605
15	0xbdb21930	-0.086962104
16	0x3d9c68d4	0.07637182
17	0x3deaac10	0.114585996
18	0x3b0e181d	0.0021681853
19	0x3e30a90c	0.17251986
20	0xbe46f2d8	-0.19428575
21	0xbc3d5f13	-0.011558312
22	0xbd93d293	-0.07217898
23	0xbe2308b4	-0.15921289
24	0xbdab0e08	-0.083522856
25	0xbd2868c5	-0.04111554
26	0x3c6df47e	0.0145236235
27	0x3e1739c6	0.14768133
28	0xbd716deb	-0.058942717
29	0x3dbfb054	0.09359804
30	0x3e7ddcef	0.2479131
31	0xbcea450f	-0.028597383
32	0x3deea535	0.116526045
33	0xbc3985eb	-0.011323432
34	0xbdfdbbe9	-0.12389357
35	0x3cc619b4	0.024182178
36	0x3daabbf2	0.08336629
37	0x3cc4a3b8	0.024003848
38	0xbe10ffa3	-0.14160018
39	0xbde9698e	-0.11397086
40	0x3e4e0985	0.20120819
41	0x3e7fef42	0.24993613
42	0xbe4d7c72	-0.20067003
43	0x3acbfbea	0.0015562747
44	0xbda0b246	-0.07846503
45	0xbe52c6ab	-0.20583598
46	0x3e38200f	0.1798098
47	0xbe0605f6	-0.13088211
48	0xbdae45da	-0.08509417
49	0x3e32e905	0.17471702
50	0x3cae1a2a	0.02125271
51	0xbdf9ece3	-0.12203386
52	0x3dadca2f	0.08485829
53	0xbdbe6b7e	-0.09297846
54	0x3c8497a9	0.016185598
55	0xbe77c130	-0.24194789
56	0xbddf5eff	-0.10906791
57	0x3e14a2a4	0.14515167
58	0x3e88011f	0.26563355
59	0x3dbfaa3c	0.093586415
60	0xbe762ebe	-0.24041268
61	0x3cd95ed6	0.02653448
62	0xbe016e7c	-0.12639803
63	0x3c414cb8	0.011798076
64	0x3c45f7d3	0.012083012
65	0xbd8cee68	-0.0688141
66	0x3dc2760e	0.094951734
67	0x3e7371a0	0.23773813
68	0x3e542d25	0.20720346
69	0xbe187fa9	-0.14892448
70	0x3e10e075	0.14148124
71	0xbe1a0f53	-0.15044908
72	0x3d5c883f	0.053840872
73	0xbd4c21a6	-0.049836777
74	0xbd807756	-0.062727615
75	0x3db03a71	0.08604897
76	0x3e0200e8	0.12695658
77	0xbcb41dfc	-0.021986954
78	0xbdf3dbb5	-0.1190714
79	0x3ca17765	0.019710252
80	0xbcc83b76	-0.024442416
81	0x3b7f4b4c	0.0038954793
82	0xbe30839d	-0.17237706
83	0x3d4002a4	0.04687752
84	0x3c8dee3e	0.017325517
85	0x3d3ac096	0.04559382
86	0xbcd4e79d	-0.025989348
87	0x3d1af062	0.037826903
88	0x3e7120f1	0.23547722
89	0x3e297bdc	0.16551155
90	0x3d117e21	0.035520677
91	0xbb8c8fb1	-0.0042895903
92	0x3b7be36f	0.0038435122
93	0xbde8e051	-0.1137091
94	0xbe167f4d	-0.14696999
95	0x3de0bc64	0.10973433
96	0xbd6a95d3	-0.05727179
97	0xbb903b61	-0.00440161
98	0xbd014884	-0.031563297
99	0xbdd19dd6	-0.10235183
100	0xbe0f510f	-0.13995765
101	0x3e394af5	0.18095
102	0x3e6f7789	0.23385443
103	0xbe314fc6	-0.17315587
104	0x3e88aaf1	0.26692918
105	0xbe231b36	-0.15928349
106	0x3c336d5e	0.010951368
107	0xbdc666af	-0.09687554
108	0xbe837bef	-0.2568049
109	0xbd5b7936	-0.053582393
110	0x3d8fd0bc	0.07022235
111	0xbe102f76	-0.14080605
112	0xbc99f408	-0.018793121
113	0xbb48d399	-0.00306437
114	0xbe17ee1a	-0.14836922
115	0x3e1c59ba	0.15268603
116	0x3e10a5a6	0.1412569
117	0xbe1c0c25	-0.15239008
118	0xbd93f6d0	-0.0722481
119	0x3dae8ffd	0.08523557
120	0xbe2612f8	-0.16218174
121	0xbb71b199	-0.0036879538
122	0xbe8e4fc8	-0.27795243
123	0x3c8fdf4b	0.01756253
124	0x3e12ce66	0.14336547
125	0xbe1f2a6b	-0.15543525
126	0x3cd38508	0.02582027
127	0x3df87b08	0.12132841
128	0xbc1a55ca	-0.009419868
129	0xbe3fc819	-0.18728675
130	0xbe871f3e	-0.26391023
131	0xbe82e24a	-0.2556327
132	0x3deeab73	0.11653795
133	0x3be68b3e	0.007035642
134	0x3c2e9034	0.010654498
135	0xbe4c6663	-0.19960932
136	0xbb463b55	-0.0030247767
137	0xbe0a5507	-0.13508998
138	0xbe9cdc8d	-0.30637017
139	0xbe6b6c51	-0.22990538
140	0xbe419001	-0.1890259
141	0xbe3be5b6	-0.18349347
142	0xbdd3444f	-0.10315763
143	0xbe94c456	-0.29056042
144	0xbc95c1e0	-0.018280923
145	0xbdecb918	-0.11558741
146	0xbdee6fc8	-0.11642414
147	0xbd090df3	-0.03346057
148	0xbe83a6e6	-0.2571327
149	0xbe753e27	-0.2394949
150	0x3d3b840b	0.045780223
151	0xbd1e3e6b	-0.038633745
152	0xbe8cf730	-0.2753234
153	0x3daab9cd	0.0833622
154	0x3cb14926	0.021641325
155	0xbcbfb5f4	-0.023402192
156	0x3cff26bd	0.031146402
157	0x3c4cfe01	0.012511731
158	0x3b930ca2	0.00448759
159	0xbe2d82fa	-0.16944495
160	0x3e607e12	0.21923092
161	0xbd8c0aea	-0.06838019

down_blocks.0.conv_block.conv2.weight f4 [6, 6, 3, 3]
0	0x3dd82515	0.10553948
1	0x3c034681	0.008012415
2	0xbd991abf	-0.074758045
3	0x3d9b561b	0.07584783
4	0xbe14012d	-0.14453574
5	0xbe372f66	-0.17889175
6	0xbc8ee1c8	-0.017441645
7	0x3d582782	0.052772053
8	0xbd89e915	-0.0673391
9	0x3d8a5528	0.067545235
10	0xbccc6e3d	-0.02495491
11	0x3da46f1d	0.08029006
12	0x3e2bcad6	0.16776595
13	0x3c8fd342	0.01755679
14	0x3db5f43f	0.08884477
15	0x3e79b787	0.24386416
16	0xbdbdee28	-0.0927394
17	0x3e00e51f	0.12587403
18	0xbddbd0fc	-0.1073322
19	0xbd0861b8	-0.033296317
20	0x3e27f620	0.16402483
21	0xbdf25c8f	-0.118340604
22	0x3c7bd864	0.015371416
23	0x3e3d6c21	0.18498279
24	0x3cf0b122	0.029381339
25	0xbe09f8cb	-0.13473813
26	0xbc7ff12f	-0.0156214675
27	0xbd202f8a	-0.039107837
28	0x3e44480e	0.19168112
29	0xbdd16dc3	-0.102260135
30	0x3e069f33	0.13146667
31	0x3e64fad8	0.22361314
32	0xbc1f0235	-0.009705116
33	0xbc9b1ce9	-0.018934684
34	0x3d6413e1	0.05568302
35	0xbe495630	-0.19661784
36	0xbd409714	-0.04701908
37	0x3cd417e7	0.025890304
38	0x3db34ed5	0.087552704
39	0x3cfe5831	0.031047912
40	0xbca2ca69	-0.019871907
41	0x3e14fc9f	0.14549492
42	0xbd84c881	-0.064835556
43	0x3d000217	0.031251993
44	0xbd702045	-0.058624525
45	0x3d66206f	0.056183275
46	0x3bccd3da	0.0062508406
47	0x3dc5f55a	0.09665938
48	0x3d4409ec	0.047861025
49	0xbd3837a9	-0.044974957
50	0xbde2fab0	-0.11082971
51	0x3dca52c0	0.098790646
52	0x3db40f71	0.08792008
53	0x3cabdc71	0.020979138
54	0xbd7cf695	-0.061758596
55	0xbddceea2	-0.10787703
56	0xbc9b3998	-0.018948361
57	0x3dc1c40d	0.09461222
58	0xbd0e993a	-0.034814097
59	0x3deb914f	0.11502325
60	0xbc79c27b	-0.015244122
61	0xbdff7e58	-0.1247527
62	0x3d5dfbba	0.054195143
63	0x3dc2b8e7	0.095079236
64	0x3d767419	0.060169313
65	0xbdba5c7d	-0.09099672
66	0x3d6a4e07	0.05720332
67	0xbca8b7d1	-0.020595463
68	0xbdd3ff4c	-0.103514284
69	0xbc8af332	-0.016961668
70	0x3df2012f	0.11816632
71	0xbd280be5	-0.04102697
72	0xbd3371ff	-0.043809887
73	0x3c7e4b82	0.015520932
74	0x3c008729	0.007844725
75	0xbde09b7b	-0.109671555
76	0xbe3c763d	-0.1840448
77	0x3d353fba	0.044250228
78	0xbd76bf14	-0.06024082
79	0xbd454ad4	-0.048167065
80	0xbdf0cdcb	-0.11758002
81	0xbdc7ba5e	-0.097523436
82	0x3df6f6d1	0.12058795
83	0x3b240849	0.0025029352
84	0xbcbf8ef4	-0.023383595
85	0x3d770e10	0.060316145
86	0xbd5f3faa	-0.054504074
87	0x3cdf75ac	0.02727779
88	0x3dfd7883	0.123765014
89	0x3d523f34	0.051329806
90	0xbe15a885	-0.14615066
91	0x3c2b41af	0.010452672
92	0xbdc299f0	-0.095020175
93	0xbe221f57	-0.15832268
94	0xbd97c98a	-0.074114874
95	0xbcd2bc21	-0.025724472
96	0xbe8b15f0	-0.27165174
97	0xbe0836a4	-0.13302094
98	0xbe314d1b	-0.1731457
99	0x3c1d5f6e	0.009605272
100	0x3e173074	0.14764577
101	0x3df5bd7c	0.11999032
102	0x3d8caf3c	0.06869361
103	0x3d98029d	0.074223734
104	0x3e03b39e	0.12861487
105	0x3de45f0a	0.1115094
106	0x3e18e871	0.1493242
107	0x3e43340c	0.19062823
108	0x3df96eda	0.121793464
109	0xbd9f3d24	-0.077753335
110	0x3cc19d52	0.023634586
111	0xbccf94dc	-0.025339536
112	0x3db08385	0.08618835
113	0xbd832688	-0.06403834
114	0xbd601619	-0.054708574
115	0x3d6508e7	0.055916693
116	0x3cb9325a	0.022607017
117	0xbc593b8a	-0.013258824
118	0xbd81c0b6	-0.06335585
119	0xbdd3eedc	-0.10348293
120	0x3e54103c	0.20709318
121	0x3d716007	0.05892947
122	0xbcb9a44f	-0.022661356
123	0x3c375ee6	0.011192059
124	0xbd98101e	-0.07424949
125	0xbe368d0c	-0.17827243
126	0x3d6cf3de	0.057849757
127	0xbc53fbb1	-0.012938426
128	0x3e034937	0.12820898
129	0xbe129b37	-0.14317022
130	0xbdc45aa8	-0.09587604
131	0xbc8bf101	-0.017082693
132	0x3da10039	0.078613706
133	0xbbc1dacd	-0.0059159757
134	0x3e1d11fd	0.15338893
135	0xbe5a2315	-0.21302445
136	0x3e33c3ac	0.17555112
137	0xbe31378c	-0.17306346
138	0x3e0652f8	0.13117588
139	0x3e171934	0.14755708
140	0x3d3c557e	0.04597997
141	0xbddc835d	-0.10767243
142	0x3d64550e	0.055745177
143	0x3d39ea43	0.045389425
144	0x3d934244	0.071903735
145	0x3dbdac1c	0.09261343
146	0x3d564298	0.052309602
147	0xbd434357	-0.047671642
148	0xbdb677b9	-0.08909554
149	0xbd3425c6	-0.043981336
150	0x3da95179	0.08267493
151	0xbd7480b7	-0.059693065
152	0x3d58b7ca	0.05290965
153	0xbd992a41	-0.074787624
154	0x3e265758	0.16244256
155	0x3d32e373	0.043673944
156	0xbddb1467	-0.10697251
157	0x3d1e6102	0.038666733
158	0x3dc66e57	0.096890144
159	0xbc86ae23	-0.016440457
160	0x3d45d7fa	0.048301674
161	0x3e434f67	0.19073258
162	0xbcc144be	-0.02359235
163	0xbe300b85	-0.17191894
164	0xbe1b378b	-0.15157907
165	0x3aeaaefb	0.0017904931
166	0xbd88c437	-0.0667805
167	0xbbc58eb5	-0.006028975
168	0xbd8530ce	-0.065034494
169	0xbd93b713	-0.07212653
170	0x3d2c3de7	0.042051222
171	0xbd7bd93e	-0.061486475
172	0xbe11b569	-0.14229359
173	0x3d500483	0.050785553
174	0x3c104366	0.008805132
175	0x3d8e1311	0.069372304
176	0x3e0fd52b	0.14046161
177	0xbc68ae38	-0.014201693
178	0xbdfc5b8f	-0.12322151
179	0x3d5ac741	0.05341268
180	0xbdd09057	-0.10183781
181	0x3d94ba4a	0.07262094
182	0x3e1daf2e	0.15398857
183	0xbda00d86	-0.078150794
184	0xbccbb02b	-0.024864277
185	0x3e13c450	0.14430356
186	0x3c287cc9	0.010283657
187	0xbd054fab	-0.03254668
188	0xbb7fc101	-0.0039024951
189	0xbd96b977	-0.07359593
190	0x3d2d8246	0.042360567
191	0xbdc70a63	-0.09718778
192	0xbdaa6eb2	-0.08321895
193	0x3e4a6229	0.19764008
194	0xbe2f7dcc	-0.17137831
195	0xbd48d965	-0.04903545
196	0xbdb5ade8	-0.088710606
197	0x3cd4cc00	0.025976181
198	0xbd66aa01	-0.056314472
199	0xbe10f90d	-0.14157505
200	0x3c99c607	0.018771185
201	0xbcd54090	-0.026031762
202	0xbcc50345	-0.02404941
203	0x3dc06cf4	0.09395781
204	0x3d570b3e	0.052500956
205	0x3d137b4f	0.036006268
206	0x3d320acb	0.043467324
207	0xbe233879	-0.15939511
208	0xbdeae789	-0.11469943
209	0xbe7ff284	-0.24994856
210	0x3c71c052	0.014755325
211	0xbd15d456	-0.036579452
212	0x3c47e00b	0.012199412
213	0x3cd42c73	0.025900101
214	0xbdd37d8b	-0.1032668
215	0xbdeda756	-0.116041824
216	0x3bcf1c90	0.0063205436
217	0xbd22ccfd	-0.039746273
218	0xbd388010	-0.045044005
219	0x3dbfe9d9	0.09370775
220	0x3dc5c55c	0.09656784
221	0x3de71fc8	0.11285359
222	0xbe16bb4d	-0.14719887
223	0x3cf21e06	0.029555332
224	0xbdc1fbf9	-0.09471888
225	0xbe809deb	-0.25120482
226	0x3d9f647a	0.07782836
227	0x3e0f4152	0.13989761
228	0x3de814bb	0.11332079
229	0xbe588c5a	-0.2114729
230	0xbe8be6eb	-0.27324614
231	0x3e4b5578	0.19856822
232	0x3e70301a	0.2345585
233	0x3c167b83	0.009184721
234	0xbd6b2721	-0.057410363
235	0xbdfe313a	-0.12411733
236	0x3e2142c2	0.15748122
237	0x3db2aad6	0.087239906
238	0xbd0848f6	-0.033272706
239	0xbe66f88e	-0.22555754
240	0xbdd69fdf	-0.10479712
241	0x3e19bdd2	0.15013817
242	0x3cb3453b	0.021883598
243	0xbdbcdc82	-0.09221746
244	0x3d2c8ca7	0.042126324
245	0x3dc302c0	0.09522009
246	0xbe08e99a	-0.13370362
247	0x3dacff69	0.08447153
248	0x3c96c5e2	0.018404905
249	0xbcdbb049	-0.026817458
250	0x3d8ce863	0.06880262
251	0xbe401aea	-0.18760267
252	0xbd4dba32	-0.050226398
253	0x3bdef953	0.006804624
254	0xbde0a103	-0.109682105
255	0x3cf07673	0.029353356

down_blocks.1.conv_block.conv1.weight f4 [12, 6, 3, 3]
0	0xbd1a74fc	-0.03770922
1	0xbe382d93	-0.17986135
2	0xbce08fed	-0.02741238
3	0x3d964243	0.07336857
4	0xbe00a74d	-0.1256382
5	0x3e1a5671	0.15072037
6	0xbb0b0caa	-0.0021217265
7	0x3d38fb65	0.045161624
8	0xbb54f2c0	-0.0032493323
9	0xbce6a920	-0.028156817
10	0xbdc15b0b	-0.09441193
11	0xbd0e4cc5	-0.034741182
12	0xbdc19bac	-0.0945352
13	0xbcfc695c	-0.030811958
14	0x3cfce183	0.030869251
15	0xbca63619	-0.020289468
16	0xbdb06f91	-0.086150296
17	0xbdb16316	-0.08661477
18	0x3c08fde9	0.008361318
19	0xbde1eb58	-0.110312164
20	0xbd99bfc0	-0.075072765
21	0xbd88a63c	-0.06672332
22	0xbe06c685	-0.13161667
23	0xbdf2a530	-0.11847913
24	0xbe168789	-0.1470014
25	0x3d309cbc	0.043118224
26	0x3ca77621	0.02044207
27	0xbd7acdd7	-0.06123146
28	0xbe63eee6	-0.22259101
29	0xbe0745fc	-0.1321029
30	0xbe1af9c9	-0.15134348
31	0xbe435fa3	-0.19079451
32	0xbd55bbb6	-0.05218097
33	0xbde2fbd8	-0.11083192
34	0xbce7e8fe	-0.028309342
35	0xba487350	-0.00076465774
36	0x3da95f31	0.082701094
37	0xbd120bf3	-0.035655927
38	0x3da00323	0.07813098
39	0xbd52040f	-0.0512734
40	0x3d0d65b0	0.034520805
41	0x3e3b7d19	0.1830944
42	0x3d8036fb	0.06260487
43	0x3d343850	0.043999016
44	0x3de46b78	0.111533105
45	0xbe218f3c	-0.15777296
46	0xbe90bffc	-0.28271472
47	0xbd867134	-0.065645605
48	0xbe6417aa	-0.22274652
49	0xbeb6883d	-0.35650817
50	0xbe8b0d85	-0.27158752
51	0xbd4cce21	-0.050001267
52	0xbea54062	-0.32275683
53	0xbd2fc60c	-0.04291348
54	0x3e06d872	0.13168505
55	0x3d163ef3	0.036681127
56	0x3c7d412c	0.015457433
57	0xbe1d5301	-0.15363695
58	0xbee71334	-0.45131838
59	0xbd5c5214	-0.053789213
60	0x3d397dfb	0.04528616
61	0xbd7249f4	-0.05915256
62	0x3dde53c1	0.108558185
63	0xbe9e8317	-0.3095939
64	0xbe3696a7	-0.17830907
65	0xbc6a6349	-0.014305898
66	0x3cc9c9c5	0.024632344
67	0xbdb86eb7	-0.09005492
68	0xbd7e60eb	-0.062104147
69	0x3e0f2055	0.13977177
70	0x3ccff6a5	0.025386164
71	0x3d412cfa	0.047162034
72	0x3db49931	0.088182814
73	0x3e532785	0.20620544
74	0x3e133c4b	0.14378469
75	0x3d4121fe	0.047151558
76	0x3e03100d	0.12799092
77	0xbd4a035a	-0.049319603
78	0x3c47e0d0	0.012199596
79	0x3e1718f4	0.14755613
80	0xbd4696f9	-0.048483822
81	0x3e009302	0.12556079
82	0xbb9b6991	-0.004742809
83	0x3c851f2c	0.016250215
84	0xbc2013b9	-0.009770327
85	0x3dfb2a35	0.1226391
86	0xbd604368	-0.054751784
87	0x3e0121d8	0.12610567
88	0xbd81830f	-0.063238256
89	0xbd8a3a7c	-0.06749436
90	0xbdecccd0	-0.115625024
91	0xbdcda7a0	-0.100417376
92	0xbde1de19	-0.1102869
93	0xbdc7a085	-0.097474135
94	0xbd3a8a5f	-0.045542117
95	0x3d0963be	0.033542387
96	0x3d0753e3	0.033038985
97	0x3d948f14	0.072538525
98	0xbd4c3ba9	-0.049861584
99	0x3c41ef49	0.011836835
100	0x3e328287	0.17432605
101	0xbc470796	-0.012147805
102	0xbc4a214f	-0.012337043
103	0xbb91ab50	-0.004445471
104	0xbd4fba54	-0.050714806
105	0x3d95ce86	0.07314782
106	0xbc59497a	-0.013262147
107	0x3a00fb4b	0.0004920258
108	0xbd6bc58e	-0.05756145
109	0x3dd01781	0.10160733
110	0xbce6dc8a	-0.028181333
111	0x3e58ec87	0.21183978
112	0x3e98017e	0.29688638
113	0x3e8973ef	0.26846263
114	0x3dbe7f7f	0.09301662
115	0x3d37c7e9	0.044868384
116	0xbc78fdbf	-0.0151972165
117	0x3de6184c	0.11235103
118	0x3c394861	0.01130876
119	0x3d8f2057	0.0698859
120	0x3d807dcc	0.06273994
121	0xbda53c12	-0.08068098
122	0xbd144997	-0.036202993
123	0x3cc021d2	0.023453627
124	0x3c81d72b	0.01584967
125	0xbd822858	-0.06355351
126	0xbcbd9813	-0.023143804
127	0xbe2d5523	-0.16927008
128	0x3ac012c0	0.0014654025
129	0xbe838c0c	-0.25692785
130	0xbd9287e8	-0.07154828
131	0xbe261507	-0.16218959
132	0xbdc175b1	-0.09446276
133	0xbd48a8d9	-0.04898915
134	0x3c9c7943	0.01910079
135	0xbe02f83a	-0.12790003
136	0xbe4d8e27	-0.20073758
137	0xbe748cb4	-0.23881799
138	0xbd07c828	-0.03314987
139	0x3b9dc942	0.0048152516
140	0xbc2c8ceb	-0.010531644
141	0xbdbae2b7	-0.09125274
142	0xbcdd852f	-0.027041046
143	0xbdca18fc	-0.09868047
144	0xbdeecf91	-0.11660684
145	0xbe268d59	-0.16264857
146	0xbe7d6145	-0.24744137
147	0x3e06c949	0.13162722
148	0x3daec941	0.0853448
149	0x3dc02346	0.09381728
150	0x3c043077	0.008068196
151	0x3d67437b	0.05646084
152	0x3d08384c	0.033256814
153	0x3daeb0d6	0.085298225
154	0xbd5c9a5d	-0.05385815
155	0x3da8112d	0.08206401
156	0x3d724012	0.059143133
157	0xbdee73d3	-0.116431855
158	0x3dd291ee	0.1028174
159	0x3c83a74c	0.016070984
160	0xbdb908cf	-0.09034883
161	0xbe01ff01	-0.12694933
162	0x3e0c02d9	0.13672961
163	0x3dd9c7de	0.10633825
164	0xbb9cf8bc	-0.0047903936
165	0x3e53ec3a	0.20695582
166	0xbd5225b1	-0.051305477
167	0xbd0797df	-0.03310382
168	0x3ea234b8	0.31680846
169	0x3d18ddb7	0.03732082
170	0xbd3202e6	-0.043459795
171	0xbe1b3b9b	-0.15159456
172	0x3ddd7027	0.10812407
173	0xbdf90295	-0.121586956
174	0x3c032375	0.008004059
175	0xbccbfb45	-0.024900088
176	0xbdab5ec3	-0.08367684
177	0xbddb9529	-0.107218094
178	0xbdba8a01	-0.091083534
179	0x3c526f27	0.012843884
180	0x3d5760cd	0.05258255
181	0xbe0322b0	-0.12806201
182	0x3cb40054	0.021972813
183	0xbdb402c8	-0.08789593
184	0x3dce8de4	0.10085657
185	0x3e22901d	0.15875287
186	0xbd33e2e0	-0.043917537
187	0xbbd8c33a	-0.0066150697
188	0xbd497cce	-0.04919129
189	0x3de0daba	0.10979219
190	0x3e1a6cfe	0.1508064
191	0xbcd08a81	-0.025456669
192	0x3e2081d2	0.15674523
193	0x3e8583f5	0.26077238
194	0x3d983697	0.07432287
195	0x3e8666b6	0.26250237
196	0x3bbeeb13	0.005826363
197	0xbd38058d	-0.04492717
198	0xbd24551e	-0.040120237
199	0x3e056f6b	0.13030784
200	0x3d82b741	0.06382609
201	0x3df476d0	0.11936724
202	0x3dbf9f09	0.093565054
203	0xbe024f93	-0.12725668
204	0x3de18af1	0.11012829
205	0x3e22e964	0.15909344
206	0xbd8a656b	-0.06757625
207	0xbc103fee	-0.0088043045
208	0xbd89fc4e	-0.067375764
209	0xbd899747	-0.06718307
210	0x3e70bb84	0.23509032
211	0xbd21be3e	-0.03948807
212	0xbc5bdf2d	-0.0134199085
213	0x3dfeeebd	0.124478795
214	0x3dd080fa	0.1018085
215	0xbd8ae4cd	-0.067819215
216	0xbbf467c8	-0.0074586608
217	0xbc990eea	-0.01868387
218	0xbd51376b	-0.05107824
219	0xbde9d02b	-0.11416658
220	0x3dc69366	0.09696083
221	0xbdaf5671	-0.08561409
222	0xbda7620f	-0.08173
223	0xbd307c7d	-0.04308747
224	0x3e1b3cf3	0.15159969
225	0xbe979483	-0.29605493
226	0xbe209f6a	-0.15685812
227	0x3d854293	0.06506839
228	0xbe090fad	-0.13384886
229	0x3db20cf4	0.08693877
230	0x3de8bcae	0.11364113
231	0xbe64ed4a	-0.22356144
232	0x3c63bc0d	0.013899815
233	0x3d99903a	0.07498212
234	0xbe2f55a4	-0.17122513
235	0xbdf7fe52	-0.121090546
236	0xbd857726	-0.065168664
237	0xbe9d5d06	-0.30735034
238	0xbdb16070	-0.08660972
239	0xbe09b1f7	-0.13446794
240	0xbdcb396e	-0.09923063
241	0xbe3e525b	-0.18586104
242	0xbd322116	-0.043488584
243	0x3d5b25d6	0.05350288
244	0xbd2b2719	-0.041785333
245	0x3dd71817	0.10502642
246	0x3dcbf289	0.09958369
247	0xbc591eb5	-0.01325195
248	0xbe3debbb	-0.18546955
249	0x3e2f4418	0.1711582
250	0xbcae0184	-0.021240957
251	0xbd86e187	-0.06585985
252	0xbd8ef86d	-0.06980977
253	0x3e0911b3	0.13385658
254	0x3d5a3429	0.0532724
255	0xbde4b30a	-0.111669615

down_blocks.1.conv_block.conv2.weight f4 [12, 12, 3, 3]
0	0x3c2c7cad	0.010527772
1	0xbda73c81	-0.08165837
2	0x3cb16a02	0.021656994
3	0x3ab36750	0.0013687406
4	0xbdd539aa	-0.10411389
5	0x3e0accee	0.13554737
6	0x3c8f9afc	0.017529957
7	0x3da287d2	0.07936062
8	0x3d84d7e6	0.06486492
9	0xbd6a8aec	-0.057261392
10	0xbcc089b8	-0.02350317
11	0xbccfa8df	-0.025349079
12	0xbd16a43e	-0.036777727
13	0x3dc64c0b	0.09682473
14	0xbcc89989	-0.024487274
15	0xbca0ef10	-0.019645244
16	0x3c80349c	0.015650086
17	0x3d4b68b5	0.049660403
18	0xbc94dfd5	-0.018173138
19	0x3d68435d	0.056704868
20	0x39f29e4a	0.00046275771
21	0x3d763a35	0.060114104
22	0xbd9c4407	-0.07630163
23	0x3b799086	0.0038080527
24	0x3dd302e2	0.10303284
25	0xbd1c6538	-0.038182467
26	0x3c8d19af	0.017224161
27	0x3ce1f28f	0.027581481
28	0xbd0276af	-0.031851467
29	0x3d94e6ed	0.07270608
30	0x3d696d6f	0.05698913
31	0xbc8ea75e	-0.017413791
32	0x3de9da76	0.11418621
33	0x3d4eb9e8	0.050470263
34	0xbdd74922	-0.10511996
35	0x3d73a056	0.05947908
36	0xbc704865	-0.014665698
37	0xbce582bf	-0.028016446
38	0xbe966077	-0.29370472
39	0x3da31b4a	0.07964189
40	0x3b1c5d81	0.0023859444
41	0xbe5124dc	-0.20424217
42	0xbd370d81	-0.044690613
43	0x3c5e089c	0.013551857
44	0xbdd0a790	-0.1018821
45	0x3be62927	0.0070239487
46	0x3d10d960	0.035363555
47	0x3dfe059c	0.12403414
48	0xbc919db9	-0.017775403
49	0x3ab5cb70	0.0013869833
50	0x3da5f489	0.08103282
51	0xbd8b363b	-0.06797453
52	0x3c05d941	0.008169473
53	0x3ddc48b6	0.10756056
54	0xbd43ec41	-0.04783273
55	0x3cfb21a3	0.030655688
56	0xbdaa73f6	-0.08322899
57	0x3ab1a809	0.0013554107
58	0xbdf0f04f	-0.11764585
59	0xbd76c8d9	-0.060250137
60	0xbd372607	-0.044714
61	0xbcb2dab2	-0.021832798
62	0xbe046145	-0.1292773
63	0xbe024ada	-0.12723866
64	0xbd54c622	-0.051946767
65	0xbd8d09bb	-0.068866216
66	0xbde7d3c3	-0.11319687
67	0xbe393929	-0.18088211
68	0xbe3ff6b1	-0.18746449
69	0xbd944fc1	-0.07241774
70	0xbe1a2522	-0.15053228
71	0xbe0370de	-0.12836024
72	0x3cba6747	0.022754325
73	0x3d5faa99	0.054606054
74	0xbd946357	-0.0724551
75	0x3e106d5c	0.14104217
76	0x3e8d704c	0.27624738
77	0x3e04b039	0.12957849
78	0x3e0c5e35	0.13707812
79	0x3e3e62fd	0.18592449
80	0x3d4b7f93	0.04968221
81	0xbd120bbd	-0.035655726
82	0x3de44248	0.11145455
83	0x3dc12872	0.094315425
84	0x3d397eae	0.045286827
85	0x3e6dd6b6	0.23226437
86	0x3e1df04c	0.15423697
87	0xbcd65f3d	-0.02616846
88	0x3e06e606	0.13173684
89	0xbcb55387	-0.022134556
90	0xbda797df	-0.08183264
91	0xbda0a882	-0.0784464
92	0x3cf5e486	0.030016195
93	0x3d624149	0.055238042
94	0xbd0d132e	-0.03444212
95	0x3e07ec57	0.1327375
96	0xba439b94	-0.00074618426
97	0xbbd8b630	-0.0066135153
98	0x3c994067	0.018707467
99	0x3e25ac8b	0.16179101
100	0xbdae8887	-0.08522134
101	0xbd7adde2	-0.06124676
102	0x3e31a528	0.17348158
103	0xbd8c1923	-0.06840732
104	0xbd5b7b19	-0.053584192
105	0x3da22f68	0.07919198
106	0xbe2eb661	-0.1706176
107	0xbe084881	-0.13308908
108	0xbd115fe2	-0.03549183
109	0x3d75d51f	0.0600177
110	0x3e099e6d	0.13439341
111	0x3ce6b69b	0.028163245
112	0x3e0c755a	0.13716641
113	0x3d7c707f	0.061630722
114	0xbdee3752	-0.11631645
115	0x3ca5e97c	0.020252936
116	0x3da6cb64	0.081442624
117	0xbd4f8c8f	-0.050671156
118	0xbd37e105	-0.04489233
119	0xbbf9eb6d	-0.007626942
120	0xbdaa23b6	-0.083075926
121	0xbe6b42ea	-0.22974744
122	0xbd8de81c	-0.06929037
123	0xbdabdd6e	-0.08391844
124	0xbd7410e6	-0.059586428
125	0xbd0f059d	-0.034917463
126	0x3de34c4b	0.11098536
127	0xbd60f3d4	-0.054920033
128	0xbcafc3b7	-0.021455629
129	0x3d738305	0.05945112
130	0x3daee31f	0.08539414
131	0x3d22a506	0.03970816
132	0x3dc36642	0.095409885
133	0x3c92d317	0.017922921
134	0xbd84c0d4	-0.064820915
135	0x3d464b44	0.048411623
136	0xbe47a370	-0.1949594
137	0xbdb3c89e	-0.08778499
138	0x3dfeceaa	0.12441762
139	0xbdc22521	-0.09479738
140	0x3d11d024	0.03559889
141	0xbdcbfb26	-0.09960012
142	0xbe2e427c	-0.1701755
143	0xbdb7aaeb	-0.08968147
144	0xbda8828d	-0.082280256
145	0xbce9c716	-0.028537314
146	0xbe3c64f5	-0.18397887
147	0xbdf72579	-0.12067694
148	0x39d6622a	0.000408904
149	0xbd22a0ea	-0.03970424
150	0xbc1fce65	-0.009753798
151	0xbdcaa80b	-0.09895333
152	0xbe275d48	-0.16344178
153	0xbdfb0a34	-0.122578055
154	0xbd90cbab	-0.070700966
155	0xbd08b500	-0.03337574
156	0xbad36170	-0.0016127061
157	0xbc62af7b	-0.013835783
158	0xbd92e884	-0.07173255
159	0xbd8f51ee	-0.06998049
160	0xbd5a4e14	-0.053297117
161	0xbd810271	-0.06299294
162	0x3d85e2f5	0.06537429
163	0x3da6f6b0	0.08152521
164	0x3b960d44	0.004579218
165	0x3dafb5dd	0.085796095
166	0x3e1c9651	0.15291716
167	0x3d2f893c	0.042855486
168	0x3d0a6b24	0.033793584
169	0x3cde208c	0.027115129
170	0xbd4bdf0e	-0.04977327
171	0xbcab52bf	-0.02091348
172	0xbe202333	-0.15638427
173	0x3d2681ee	0.040651254
174	0xbdf3dd0b	-0.11907395
175	0xbd5971c8	-0.053087026
176	0xbcd9af74	-0.02657292
177	0xbe47c509	-0.19508757
178	0xbdb98212	-0.09058012
179	0x3d5332fd	0.051562298
180	0x3d7c27b4	0.0615613
181	0x3d539a41	0.05166078
182	0x3d9297f0	0.07157886
183	0x3cb78613	0.022402799
184	0x3d66c0d5	0.056336243
185	0x3b3af12c	0.0028525097
186	0x3d9abac4	0.07555154
187	0x3d968ecb	0.07351454
188	0x3d16b0e2	0.036789782
189	0xbc2f79f0	-0.0107102245
190	0x3db1ab5c	0.08675262
191	0xbcaf6132	-0.021408651
192	0x3ce7079f	0.028201876
193	0x3e2a73cd	0.16645737
194	0x3d5e166c	0.054220602
195	0xbdb70524	-0.08936527
196	0x3db4b533	0.088236235
197	0xbd99e204	-0.07513812
198	0xbc81e6f4	-0.015857197
199	0x3d366cf9	0.04453752
200	0xbcbf32f3	-0.023339724
201	0x3d8278a0	0.06370664
202	0x3b904e4d	0.0044038654
203	0xbbd9394c	-0.006629145
204	0xbe2c5543	-0.168294
205	0x3dcc7ccd	0.09984741
206	0xbe132abb	-0.14371769
207	0x3e5b3c61	0.21409751
208	0xbcbadff4	-0.022811867
209	0xbd9c1d8b	-0.076228224
210	0x3e8794f1	0.2648082
211	0x3d3c3f4e	0.04595881
212	0x3d32133b	0.04347537
213	0x3e4b83fd	0.19874568
214	0x3c53e3ab	0.012932698
215	0x3c89a93e	0.016804334
216	0xbcac396e	-0.021023478
217	0xbe2a9f8a	-0.16662422
218	0xbe281fc7	-0.16418372
219	0xbc59dac4	-0.013296787
220	0xbdb27d8b	-0.08715352
221	0xbea05eb9	-0.31322268
222	0xbdd4c312	-0.10388769
223	0xbe4e77e7	-0.20162927
224	0xbec98dcc	-0.39365995
225	0xbdd68aed	-0.10475717
226	0xbd96da59	-0.07365865
227	0x3cfd7057	0.030937357
228	0xbd16b421	-0.036792878
229	0xbbd8287f	-0.0065966244
230	0xbc42c79c	-0.011888411
231	0xbd6f9267	-0.05848923
232	0xbd23e53d	-0.04001354
233	0x3db51393	0.08841624
234	0xbb536b03	-0.003225983
235	0xbdb2ac02	-0.08724214
236	0xbd6d8119	-0.057984445
237	0xbbd25054	-0.0064182673
238	0xbda2f02e	-0.07955967
239	0xbd040d22	-0.032239087
240	0xbde9b0b4	-0.114106566
241	0x3d1003ac	0.03515975
242	0x3d9dcbce	0.07704888
243	0xbd250fcc	-0.04029827
244	0xbd53b83c	-0.05168937
245	0xbbae4874	-0.0053186957
246	0xbd55c207	-0.052186992
247	0xbd9b1355	-0.07572047
248	0xbd51c04e	-0.051208787
249	0x3d5e8d99	0.054334257
250	0xbce0cd9a	-0.027441788
251	0xbbcc4925	-0.0062343054
252	0x3de0aeae	0.109708175
253	0xbbc740dd	-0.0060807304
254	0xbc5ce5b7	-0.013482503
255	0x3dab89f2	0.0837592

up_blocks.0.transpose_conv.weight f4 [12, 6, 2, 2]
0	0x3d5357ec	0.05159752
1	0xbd96cf7c	-0.07363793
2	0x3d7e477e	0.0620799
3	0xbe20d341	-0.15705587
4	0x3bed2890	0.0072375014
5	0x3e2aa5ed	0.16664858
6	0xbdd156cc	-0.10221633
7	0xbb8b4fb1	-0.0042514433
8	0x3e139787	0.14413272
9	0xbdf14979	-0.11781592
10	0xbca38386	-0.019960176
11	0xbbca41d5	-0.0061723986
12	0x3cbd6c8f	0.023123054
13	0x3ddc8be2	0.10768868
14	0xbcfbf647	-0.030757083
15	0xbe0084a9	-0.12550606
16	0xbd5045f8	-0.050847977
17	0x3e185ed2	0.14879921
18	0x3d6e03a1	0.05810893
19	0x3e5622ec	0.20911759
20	0xbc8fbeb9	-0.017546998
21	0xbe1b8c32	-0.15190199
22	0x3b817226	0.003950375
23	0xbd0cc2e5	-0.034365553
24	0x3ca048ba	0.019565929
25	0xbe5e774b	-0.21725194
26	0xbd2d4252	-0.042299576
27	0xbea8fc46	-0.3300497
28	0xbdc2c5fd	-0.095104195
29	0xbdd60690	-0.104504704
30	0xbdb91676	-0.09037487
31	0x3e515919	0.20444144
32	0x3e2b1956	0.16708884
33	0x3dd90ad1	0.10597766
34	0x3dfb1f9e	0.1226189
35	0x3c929687	0.017894043
36	0x3e86106c	0.26184404
37	0x3e3c2f91	0.1837752
38	0x3e7eec7f	0.24894904
39	0x3e35b05a	0.17743054
40	0x3dcb7d86	0.09936051
41	0xbd99222a	-0.074772194
42	0x3e523f0c	0.20531863
43	0xbbf24873	-0.0073938905
44	0x3e1687ec	0.14700288
45	0xbd9e2177	-0.07721227
46	0x3d911550	0.07084143
47	0xbd3b23f0	-0.04568857
48	0xbcc9b608	-0.024622932
49	0x3eb2233a	0.347925
50	0x3e7a0e3c	0.24419492
51	0x3ea44b9b	0.32088932
52	0x3e8085f6	0.25102204
53	0xbe69b87c	-0.22824281
54	0x3db38a4a	0.08766611
55	0xbe24627b	-0.16053192
56	0x3d9e3d6e	0.077265605
57	0x3db7ea65	0.08980254
58	0x3e58547a	0.21125975
59	0x3af74a3d	0.0018866729
60	0x3e3fdfd8	0.18737733
61	0x3d225d30	0.03963965
62	0x3e474e6c	0.1946351
63	0x3e125b29	0.14292587
64	0x3e20415e	0.15649936
65	0x3dbe5d76	0.0929517
66	0xbdfb6821	-0.122757204
67	0xbe313fbe	-0.17309472
68	0x3e86c0c2	0.26318938
69	0x3e2d6816	0.16934237
70	0x3e15f81f	0.14645432
71	0x3d6633a7	0.056201603
72	0x3dbd66bb	0.0924811
73	0x3e0663e4	0.13124043
74	0x3d78d71d	0.060752023
75	0x3de0205b	0.10943671
76	0x3d99ae84	0.07503989
77	0x3dcf1e91	0.10113252
78	0xbd350950	-0.044198334
79	0xbde8782a	-0.113510445
80	0xbe326df4	-0.17424756
81	0x3d382466	0.044956587
82	0x3cb3c0d5	0.021942535
83	0xbca243bc	-0.019807689
84	0xbe94e817	-0.2908332
85	0x3dc4ba5c	0.09605858
86	0xbe9dfb66	-0.30855864
87	0xbca0b8df	-0.019619403
88	0xbdfbee2d	-0.12301288
89	0xbdb32a2e	-0.087482795
90	0xbe7dcec0	-0.247859
91	0xbc43824d	-0.011932922
92	0x3df6f125	0.120577134
93	0xbde1b221	-0.110203035
94	0x3db0b4ba	0.08628221
95	0x3d7f9483	0.06239749
96	0xbd946ef8	-0.07247728
97	0xbc640c13	-0.013918894
98	0x3d32e3a2	0.04367412
99	0xbd94f967	-0.07274132
100	0x3e773aba	0.24143496
101	0x3d2de53b	0.04245494
102	0x3bd5896a	0.006516625
103	0x3e0ec52b	0.13942401
104	0x3dbd0dbb	0.092311345
105	0x3e01ce54	0.12676364
106	0x3d485c89	0.048916373
107	0x3e565189	0.2092954
108	0x3e33843d	0.17530914
109	0xbd40fa73	-0.047113847
110	0x3d769504	0.060200706
111	0xbd02d895	-0.03194483
112	0x3d90c2f3	0.070684336
113	0x3e85cb3a	0.26131612
114	0x3cc49994	0.023999013
115	0xbdcbdb21	-0.09953905
116	0x3dae887b	0.08522125
117	0x3cfe75e5	0.031062076
118	0xbd023f1c	-0.031798467
119	0xbe3db953	-0.18527727
120	0x3e2e879b	0.17043917
121	0x3c45741f	0.012051611
122	0xbce86697	-0.028369231
123	0xbcfa9b2b	-0.030591568
124	0xbe008977	-0.12552439
125	0xbdfae944	-0.12251523
126	0xbc8e98d1	-0.017406853
127	0xbd3a183c	-0.045433268
128	0x3e4a6cd2	0.19768074
129	0x3df90b13	0.12160315
130	0x3d43c5ce	0.047796063
131	0xbdbb9b09	-0.0916043
132	0x3d3ebb5e	0.046565406
133	0x3d69bf4c	0.0570672
134	0x3e2165a2	0.15761426
135	0xbdb286c4	-0.08717111
136	0x3dd28e7b	0.10281082
137	0xbcc423c6	-0.02394284
138	0x3d52ddcf	0.051481064
139	0xbe6a57ae	-0.2288501
140	0xbe1083f2	-0.14112833
141	0x3d9c71f3	0.076389216
142	0x3e02ee8a	0.12786308
143	0xbe6a8e0c	-0.22905749
144	0x3db79132	0.08963241
145	0x3d308036	0.04309102
146	0x3e06c34b	0.13160436
147	0xbc0590b1	-0.008152173
148	0xbd8c2433	-0.06842842
149	0xbe2b230f	-0.16712593
150	0xbe2551c3	-0.16144471
151	0xbe82be77	-0.25535938
152	0x3e424c4c	0.18974417
153	0xbd0b3f17	-0.033995714
154	0x3e2af047	0.16693221
155	0x3c872c36	0.016500574
156	0x3cea0d9a	0.028570939
157	0x3e08a6fc	0.1334495
158	0x3de82282	0.11334707
159	0x3e2fef9e	0.1718125
160	0xbd852923	-0.06501987
161	0x3d05f024	0.03269972
162	0x3de38a60	0.11110377
163	0x3dc03ca2	0.09386565
164	0x3be092c4	0.0068534333
165	0x3e6aa54e	0.22914621
166	0x3d3cb335	0.046069343
167	0x3dbe2325	0.09284047
168	0xbe3559ba	-0.17710009
169	0x3d810c4b	0.06301173
170	0xbdc89e82	-0.09795858
171	0x3e8d068a	0.2754405
172	0xbe80db75	-0.25167432
173	0xbd2cf1cb	-0.04222278
174	0xbdec95b9	-0.11551995
175	0xbe522698	-0.20522535
176	0x3e8eabf0	0.27865553
177	0x3d92f9a6	0.07176523
178	0xbd0abf18	-0.033873647
179	0x3d0a7725	0.03380503
180	0x3d97b6a9	0.074078865
181	0x3abaec48	0.0014261091
182	0x3e6c2dfa	0.23064414
183	0x3e1b3125	0.15155466
184	0x3b10ffce	0.0022125128
185	0x3cf96da4	0.030447789
186	0xbd752741	-0.05985189
187	0xbc1ebdc9	-0.009688803
188	0x3e6573e1	0.22407486
189	0xbdc210b4	-0.09475842
190	0x3e83d711	0.2575002
191	0x3ca805ba	0.020510543
192	0x3e0ba229	0.13636078
193	0x3de86196	0.11346738
194	0xbd39611f	-0.045258638
195	0x3e09906d	0.13434
196	0xbe067bea	-0.13133207
197	0xbe40e68b	-0.18837945
198	0x3d3f0d7f	0.04664373
199	0xbdf45bc9	-0.11931569
200	0xbe391556	-0.18074545
201	0xbe56caef	-0.2097585
202	0xbe191d2e	-0.14952537
203	0xbe227003	-0.15863042
204	0x3d059556	0.03261312
205	0x3d2450b0	0.040116012
206	0xbde05261	-0.109532125
207	0xbde1e4dd	-0.1102998
208	0xbe69544d	-0.22786064
209	0xbe02e046	-0.12780866
210	0xbe5c091f	-0.21487854
211	0x3dbb780c	0.091537565
212	0xbe610d0c	-0.21977633
213	0x3dafc521	0.08582521
214	0xbeab66dd	-0.33476916
215	0x3daf212a	0.085512474
216	0x3e455574	0.19270879
217	0x3d1865a4	0.037206307
218	0x3d882faf	0.0664972
219	0xbd929373	-0.0715703
220	0xbd39e7e8	-0.04538718
221	0x3dd40d89	0.10354144
222	0x3e908592	0.28226906
223	0x3d8976d5	0.067121185
224	0xbe9aafa8	-0.3021214
225	0xbcd9acf8	-0.026571736
226	0x3d06b8e8	0.032891184
227	0xbcfd42ce	-0.030915644
228	0xbd86c85e	-0.06581186
229	0xbe01a332	-0.1265991
230	0xbe8b87b0	-0.2725196
231	0xbb8ce2d4	-0.004299501
232	0xbe4077de	-0.18795726
233	0x3d14064b	0.036138814
234	0x3cbacf93	0.022804057
235	0x3e1c4edd	0.15264459
236	0xbe92bf63	-0.2866164
237	0xbce18b89	-0.027532356
238	0x3d11943d	0.03554176
239	0xbd05ade9	-0.032636557
240	0x3e89b101	0.26892856
241	0xbd0bfd2c	-0.03417699
242	0x3e3f1db3	0.18663673
243	0x3e3b4059	0.18286265
244	0x3cbd5b7c	0.023114912
245	0x3dab790b	0.083726965
246	0x3e92a494	0.28641188
247	0xbdc44bf4	-0.095847994
248	0xbe995a71	-0.29951814
249	0xbe91cd19	-0.2847679
250	0xbe150a08	-0.14554608
251	0xbe6c071d	-0.23049589
252	0xbd533348	-0.051562577
253	0xbd2a1a62	-0.041529067
254	0xbda01c58	-0.07817906
255	0x3d9b4220	0.07580972

up_blocks.0.transpose_conv.bias f4 [6]
0	0xbdefd08c	-0.11709699
1	0xbf3d9815	-0.74060184
2	0xbec408d0	-0.38287973
3	0x3cedaee9	0.029014068
4	0x3eb381b4	0.35059893
5	0xbf781a99	-0.96915585

up_blocks.0.conv_block.conv1.weight f4 [6, 12, 3, 3]
0	0xbdd59516	-0.104288265
1	0xbce425b7	-0.027850015
2	0xbdcb0ac1	-0.099141605
3	0xbdc60bc9	-0.096702166
4	0x3ba31cff	0.004977822
5	0xbe17f322	-0.14838842
6	0xbdfd94c5	-0.12381891
7	0xbddd6db5	-0.108119406
8	0xbd1f1482	-0.038837917
9	0x3dab78b5	0.083726324
10	0x3dbc98dd	0.09208844
11	0x3c170672	0.009217845
12	0x3df49c6b	0.11943897
13	0x3dd4fef0	0.10400188
14	0xbb2d5f8e	-0.002645466
15	0x3e14f2d5	0.14545758
16	0x3c05dd44	0.00817043
17	0x3c28cb7e	0.010302423
18	0x3de86b22	0.11348559
19	0xbd96d955	-0.073656715
20	0x3c4f12f2	0.012638794
21	0x3db0336f	0.0860356
22	0xbd6773c4	-0.056506887
23	0x3db176c4	0.08665231
24	0x3a5be273	0.00083879306
25	0x3c3ed7cb	0.011648129
26	0x3b8478b0	0.0040427074
27	0x3e2c2d48	0.16814148
28	0xbd3bf4e7	-0.045887854
29	0x3d92cc04	0.07167819
30	0x3e5f72ad	0.21821089
31	0x3d622c71	0.055218164
32	0x3e048465	0.1294113
33	0x3dfbc948	0.12294251
34	0xbcc1a033	-0.02363596
35	0x3d764311	0.060122553
36	0x3e04c319	0.12965049
37	0x3c7b3fa6	0.015334999
38	0x3cacc32c	0.021089159
39	0x3dd6eff8	0.10494989
40	0xbd84a171	-0.06476105
41	0xbca50722	-0.020145003
42	0x3e25e7ba	0.16201678
43	0xbd9d8033	-0.07690468
44	0x3db65acc	0.08904037
45	0xbb835bc9	-0.0040087444
46	0xbddd5bee	-0.1080855
47	0xbd8eb39c	-0.069678515
48	0xbd66cd66	-0.056348227
49	0x3dc3c8f7	0.095598154
50	0xbe035220	-0.12824297
51	0xbcbbc3d1	-0.022920521
52	0x3d6d8f23	0.057997834
53	0xbd084c70	-0.03327602
54	0xbe1374db	-0.14400046
55	0x3cf96c49	0.030447142
56	0xbd55884b	-0.052131932
57	0xbe5a3b08	-0.21311581
58	0x3d3dc523	0.046330582
59	0xbdb1ed39	-0.08687825
60	0xbe32be91	-0.17455508
61	0x3db46181	0.0880766
62	0xbd89b934	-0.06724778
63	0x3c8ff6aa	0.017573673
64	0x3e12f4aa	0.14351144
65	0x3ca1401f	0.019683896
66	0xbc02106a	-0.007938484
67	0x3e3f2574	0.18666631
68	0xbc03fc29	-0.008055725
69	0x3c5e5634	0.013570357
70	0x3dce1d0c	0.10064134
71	0xbd96bb6a	-0.07359965
72	0xbe3a5651	-0.1819699
73	0xbdb275bb	-0.087138616
74	0x3cee67ed	0.02910229
75	0xbe1a4bc4	-0.15067965
76	0xbd34b910	-0.0441218
77	0x3d3c811a	0.04602156
78	0xbe4a2dc6	-0.19744024
79	0x3c3aee95	0.011409421
80	0xbd03305b	-0.032028537
81	0xbdf88b1c	-0.12135908
82	0xbb929436	-0.0044732345
83	0xbcd2dd24	-0.025740214
84	0xbd185b38	-0.037196368
85	0x3d2a86d9	0.041632507
86	0x3c5c4725	0.013444697
87	0xbde8a171	-0.113589175
88	0xbd42a610	-0.04752165
89	0xbd3f93e7	-0.04677191
90	0x3c24c7bd	0.010057387
91	0x3cc8b7d6	0.024501722
92	0xbc42e2f0	-0.011894926
93	0x3d625d7c	0.055264935
94	0x3ddf9705	0.109174766
95	0xbc4d33c4	-0.012524549
96	0xbd9356fe	-0.07194327
97	0x3d79c59c	0.06097947
98	0xbd4b9e2f	-0.049711403
99	0xb9e1b369	-0.00043049015
100	0xbd318850	-0.04334289
101	0xbceffe34	-0.029296018
102	0xbd81e5b1	-0.06342638
103	0x3c1bba38	0.009504847
104	0xbcf2a471	-0.029619427
105	0xbdc7db43	-0.09758618
106	0xbd63f2a5	-0.055651326
107	0xbb2a6a33	-0.002600324
108	0x3cf585f3	0.029971099
109	0xbda86737	-0.08222812
110	0xbe0659ac	-0.13120145
111	0x3d12a106	0.035798095
112	0xbc204227	-0.009781397
113	0xbda9c00b	-0.082885824
114	0x3d92362b	0.07139238
115	0x3d02a15c	0.031892166
116	0xbd922675	-0.07136241
117	0x3d7d5e38	0.061857432
118	0xbd679127	-0.056534912
119	0x3d3ec68c	0.046576068
120	0x3da51fd4	0.08062711
121	0xbd9dd4c9	-0.07706601
122	0xbc7191e8	-0.014744259
123	0x3d2a8562	0.04163111
124	0xbda1d06e	-0.07901083
125	0xbd054ae2	-0.032542117
126	0xbd1cc87a	-0.038277127
127	0x3dfca3ae	0.12335907
128	0xbe0c1f45	-0.13683803
129	0xbd676f08	-0.056502372
130	0x3e50fc36	0.20408711
131	0xbdd387f9	-0.10328669
132	0xbcf6da61	-0.030133428
133	0x3e51f50f	0.20503639
134	0xbbe46c8c	-0.0069709476
135	0x3d398d61	0.045300845
136	0x3e446675	0.1917971
137	0x3e4a6d9f	0.1976838
138	0x3e2ab058	0.16668832
139	0x3e96c17a	0.29444486
140	0x3e8cc857	0.27496597
141	0x3dcd96d2	0.10038532
142	0x3e8648b8	0.26227355
143	0x3dc8bb1c	0.09801313
144	0xbdaf29c9	-0.08552892
145	0xbcf5840c	-0.029970191
146	0x3c50a448	0.01273448
147	0xbdd1b448	-0.10239464
148	0xbe01da62	-0.12680963
149	0x3ba72e16	0.0051019294
150	0xbc0ae513	-0.008477467
151	0xbe31ccad	-0.17363234
152	0xbd70f7b4	-0.058829978
153	0x3d77fb35	0.060542304
154	0x3c5a9347	0.013340778
155	0x3dbbd735	0.09171907
156	0x3e0e9fd8	0.13928163
157	0x3dea810c	0.11450395
158	0x3d89d9be	0.06730984
159	0x3d73bc75	0.0595059
160	0x3da3e14a	0.08001955
161	0x3d734332	0.059390254
162	0xbcf541d3	-0.029938614
163	0x3cdca3e0	0.02693361
164	0x3cd1b403	0.025598532
165	0x3d444543	0.047917616
166	0x3d42c9c2	0.047555692
167	0x3d853abf	0.065053456
168	0x3dfdd5a5	0.12394265
169	0x3d946c19	0.072471805
170	0x3dadd5aa	0.08488019
171	0xbcc5fc95	-0.024168292
172	0x3b94f8fd	0.0045462833
173	0xbccee822	-0.025257174
174	0x3d2abc7a	0.04168365
175	0xbb53bbad	-0.0032307908
176	0xbd41ecf0	-0.0473451
177	0xbd96af3a	-0.073576406
178	0xbdc22935	-0.09480516
179	0x3d917ebc	0.07104251
180	0x3ce6e44a	0.028185029
181	0xbd967470	-0.073464274
182	0xbdafac64	-0.08577803
183	0xbce55581	-0.027994873
184	0xbca007a0	-0.019534886
185	0xbdefc778	-0.117079675
186	0xba54d4ed	-0.00081188866
187	0xbd37225f	-0.044710513
188	0xbda25e33	-0.07928123
189	0xbda4093e	-0.08009575
190	0xbd4a64bc	-0.049412474
191	0x3a208a3d	0.0006124115
192	0xbde06890	-0.10957444
193	0xbe0b4392	-0.13599995
194	0xbd71ce7b	-0.059034806
195	0xbd14ab51	-0.036296193
196	0xbd9d97f8	-0.07695001
197	0xbac45c5c	-0.0014981139
198	0x3cde20c0	0.027115226
199	0xbd4d4cd3	-0.050122093
200	0xbcd1ade7	-0.025595618
201	0xbaf224cf	-0.0018474105
202	0xbde401ea	-0.111331776
203	0x3d0736d1	0.03301126
204	0x3d5f64fb	0.05453966
205	0x3b89938d	0.0041984976
206	0xbd8a6d57	-0.06759136
207	0x3c827081	0.015922787
208	0xbdc36b76	-0.09541981
209	0xbe0ec317	-0.13941608
210	0xbd768df3	-0.060193967
211	0xbd6befa0	-0.05760157
212	0xbe1f0360	-0.15528631
213	0xbdb118e9	-0.08647329
214	0xbdd01f1d	-0.101621844
215	0xbe133452	-0.14375427
216	0xbc8fd32d	-0.017556751
217	0x3d2a6dc4	0.041608587
218	0xbd9a4ace	-0.07533799
219	0xbdc63680	-0.09678364
220	0x3e06e9e1	0.13175155
221	0x3d35615d	0.044282306
222	0xbccb9f5e	-0.024856266
223	0x3dc70c06	0.0971909
224	0xbd36383f	-0.044487234
225	0x3d5acfc6	0.053420804
226	0xbdb1c8ff	-0.08680915
227	0x3dc77c35	0.097404875
228	0x3e3e0efd	0.18560405
229	0xbddb8304	-0.107183486
230	0x3e0451a1	0.12921764
231	0x3d9a55f8	0.075359285
232	0xbdd1f2dc	-0.102514
233	0x3e5f570b	0.21810548
234	0x3d845f64	0.06463507
235	0x3e443691	0.1916144
236	0x3e343ca4	0.17601258
237	0x3db4d44b	0.08829554
238	0x3e92007f	0.28516003
239	0x3e26c687	0.1628667
240	0x3c51e7ab	0.012811582
241	0x3e15d40b	0.14631669
242	0x3dd55dea	0.10418303
243	0xbcf7dd98	-0.030257031
244	0x3e9d5d06	0.30735034
245	0x3c331df6	0.010932436
246	0x3bfcf5cb	0.0077197305
247	0x3e16842b	0.14698856
248	0x3b788d25	0.0037925926
249	0xbc71ae27	-0.014750994
250	0x3dd8eb43	0.105917476
251	0xbd364381	-0.04449797
252	0xbdb3be09	-0.08776481
253	0x3db46b93	0.08809581
254	0xbb653497	-0.0034973973
255	0xbdcdb850	-0.100449204

up_blocks.0.conv_block.conv2.weight f4 [6, 6, 3, 3]
0	0xbd6acb8f	-0.057323035
1	0xbe0243d0	-0.12721181
2	0xba768909	-0.0009404575
3	0x3cd75392	0.026284967
4	0xbc92869e	-0.017886456
5	0x3d422992	0.047402926
6	0x3d56c408	0.052433044
7	0xbb8e91fe	-0.0043508997
8	0x3d1ad637	0.037801947
9	0xbdf9a708	-0.12190062
10	0x3d8b8c7e	0.06813906
11	0xbe1b60ba	-0.15173617
12	0xbb92e4d4	-0.004482845
13	0x3e225829	0.15853943
14	0x3d0b1bf3	0.0339622
15	0xbe137d3e	-0.14403245
16	0x3ce8e1e8	0.028428033
17	0xbdac1f66	-0.08404426
18	0x3da024d6	0.07819526
19	0xbbc45d68	-0.00599258
20	0x3ceb858b	0.028750202
21	0x3e12cd1f	0.1433606
22	0x3ea527fc	0.32257068
23	0x3e0586ca	0.13039699
24	0x3e25fb07	0.1620904
25	0x3e3ec78e	0.18630812
26	0xbc6fe519	-0.0146420235
27	0xbd89e135	-0.06732408
28	0x3c43a7de	0.011941878
29	0xbc978a25	-0.01849849
30	0xbda00755	-0.078138985
31	0xbd1c215b	-0.038117748
32	0xbccdce5d	-0.025122816
33	0xbd272609	-0.040807758
34	0xbde560e7	-0.11200123
35	0x3b97f409	0.0046372456
36	0xbd951c5d	-0.072808005
37	0x3e1f02fb	0.1552848
38	0xbddca589	-0.10773761
39	0xbd46c9d7	-0.048532333
40	0x3eb396e9	0.35076073
41	0xbd2ce2b2	-0.04220838
42	0xbe0c498d	-0.13699932
43	0x3e3a5daa	0.18199793
44	0xbd1b8db3	-0.03797693
45	0x3c2526b9	0.010080033
46	0xbd212a15	-0.039346773
47	0xbd64d034	-0.05586262
48	0xbd170a9f	-0.036875363
49	0xbdb0469f	-0.0860722
50	0x3ce27fa0	0.027648747
51	0xbc4280bd	-0.011871514
52	0x3d634015	0.055481035
53	0x3c3ee24a	0.011650631
54	0x3bf7a6c5	0.0075577223
55	0xbcc47134	-0.02397976
56	0x3e6ffa57	0.23435341
57	0x3e09b887	0.13449298
58	0xbb95030f	-0.0045474838
59	0x3dae5ff5	0.08514396
60	0xbbbc97ec	-0.005755415
61	0xbd1a3f9e	-0.037658326
62	0x3e04fbd3	0.12986688
63	0x3d958760	0.07301211
64	0x3e31f055	0.17376836
65	0x3d9e74f0	0.07737148
66	0x3d6e25b8	0.05814144
67	0xba773f8a	-0.00094317703
68	0x3e1d30d4	0.15350658
69	0x3db701a2	0.08935858
70	0x3dea7111	0.11447347
71	0x3b628a1e	0.0034567188
72	0xbdd5dd15	-0.10442559
73	0x3d9b501c	0.07583639
74	0xbdac4c47	-0.08412986
75	0x3ca1ae2d	0.019736374
76	0x3df02815	0.11726395
77	0xbd380c80	-0.044933796
78	0xbc8d8063	-0.017273134
79	0x3beb1e0b	0.0071752123
80	0xbdf9b665	-0.12192992
81	0xbcfd1c61	-0.030897321
82	0xbe4dcece	-0.20098421
83	0xbe383318	-0.1798824
84	0xbdd27752	-0.10276665
85	0xbe4c6d8e	-0.19963667
86	0xbded4887	-0.11586099
87	0xbce1041e	-0.027467784
88	0xbdf73f0d	-0.12072573
89	0xbcb703ba	-0.022340644
90	0x3cd46b76	0.025930148
91	0xbde358c0	-0.11100912
92	0xbbdfcf11	-0.006830104
93	0xbdd0a52f	-0.10187756
94	0x3c54b181	0.012981773
95	0x3d8310ae	0.06399666
96	0x3d0c85d0	0.0343073
97	0x3b51e0b6	0.0032024807
98	0xbc6c6201	-0.014427663
99	0x3e00f688	0.12594044
100	0xbe1083ec	-0.14112824
101	0x3d54533d	0.051837195
102	0xbc85ef91	-0.016349586
103	0xbe260360	-0.16212225
104	0x3dcd32ed	0.10019479
105	0x3cebee83	0.028800255
106	0xbde44c01	-0.11147309
107	0x3dc1168e	0.0942813
108	0x3bc58e0c	0.006028896
109	0xbdda0f19	-0.10647411
110	0xbdb38414	-0.08765426
111	0xbd76b601	-0.060232166
112	0xbdd9c3c0	-0.106330395
113	0xbdea138e	-0.11429511
114	0xbcf796d2	-0.030223284
115	0xbd2b72d5	-0.04185756
116	0xbd75e137	-0.060029235
117	0xbd3dd96f	-0.04634994
118	0xbde6dc13	-0.112724446
119	0x3b2026e7	0.002443725
120	0xbc840446	-0.016115319
121	0xbc2dcc3e	-0.010607777
122	0x3d7913b8	0.06080982
123	0xbd8cde1b	-0.06878301
124	0xbe02da60	-0.12778616
125	0x3d214639	0.03937361
126	0x3de40e6d	0.11135564
127	0x3cd7b807	0.026332868
128	0x3d3aee3e	0.04563736
129	0x3e58c352	0.21168259
130	0x3e3cd9cf	0.18442462
131	0x3da5d06d	0.08096395
132	0x3da49c96	0.08037679
133	0x3e47dbf0	0.19517493
134	0x3dfc1a95	0.123097576
135	0xbe46937c	-0.19392198
136	0xbe176f78	-0.14788616
137	0x3d3cca12	0.046091147
138	0xbebe8a3e	-0.37214845
139	0xbe99dcf9	-0.300514
140	0x3c65b745	0.014020746
141	0xbe6f29d7	-0.23355804
142	0xbe4acae1	-0.19803955
143	0x3cc13feb	0.023590049
144	0xbd4ec63f	-0.05048203
145	0x3cfe0c59	0.031011747
146	0xbda4893e	-0.08033989
147	0x3d45ff7b	0.04833935
148	0x3e07d460	0.13264608
149	0xbc9a2ed0	-0.01882115
150	0xbb9e2a91	-0.0048268517
151	0x3de8412a	0.11340554
152	0xbd06546e	-0.032795362
153	0xbd024a0e	-0.031808905
154	0x3e04222f	0.12903665
155	0x3d99e506	0.07514386
156	0x3d896311	0.067083485
157	0x3e7d8d47	0.24760924
158	0x3e00fb13	0.12595777
159	0x3cbdea36	0.02318297
160	0x3e1a8a40	0.150918
161	0x3dca7948	0.09886414
162	0xbc91bd4e	-0.017790463
163	0xbd2076fd	-0.039175976
164	0x3d864302	0.065557495
165	0xbdaaffdf	-0.08349585
166	0xbd4c44f4	-0.049870446
167	0x3d1d8833	0.038459968
168	0xbcf0c14c	-0.029389046
169	0xbd7ab59b	-0.06120835
170	0x3d389f0d	0.045073558
171	0x3c465ee3	0.012107584
172	0x3d9b713e	0.075899586
173	0xbe18e3f9	-0.14930715
174	0xbc5220ac	-0.012825172
175	0x3de7cc6c	0.11318287
176	0xbdb1f4c0	-0.086892605
177	0x3d87c223	0.066288255
178	0x3ccda421	0.025102677
179	0xbe3741b4	-0.17896158
180	0x3ce0b97f	0.027432201
181	0x3de5ae99	0.112149425
182	0xbce43a66	-0.027859878
183	0x3e1e6b99	0.15470733
184	0x3ea5a85e	0.32355016
185	0x3dec9629	0.11552078
186	0x3e043aec	0.12913102
187	0x3e70d268	0.23517764
188	0x3df9cda5	0.12197427
189	0x3d4c4337	0.04986879
190	0x3c992aed	0.018697226
191	0xbc25dedf	-0.010123937
192	0x3bbb47b1	0.0057153334
193	0xbe236a20	-0.15958452
194	0xbd2233ba	-0.03960011
195	0xbc6fa4e4	-0.014626715
196	0xbd4f4d78	-0.05061099
197	0x3cb90d1b	0.022589257
198	0xbd56cc97	-0.052441206
199	0x3dfc82cb	0.12329634
200	0xbdb75c27	-0.089531235
201	0xbd8e06b0	-0.06934869
202	0x3ed8173e	0.42205232
203	0x3e02da01	0.12778474
204	0xbd5c8c10	-0.05384451
205	0x3d7fef8c	0.06248431
206	0xbe092247	-0.13391982
207	0xb7e46856	-2.7228303e-05
208	0xbd2da6ee	-0.042395525
209	0xbd4a456c	-0.049382612
210	0x3dd27945	0.102770366
211	0xbdbd681f	-0.09248375
212	0xbdc59d25	-0.096491136
213	0x3c830dfd	0.015997881
214	0x3c850a11	0.016240152
215	0xbdea089e	-0.11427425
216	0x3c080307	0.008301503
217	0xbdbdab15	-0.09261147
218	0x3d61ade6	0.055097483
219	0xbcb85cd3	-0.0225052
220	0x3d3ce92b	0.046120804
221	0x3dd1fcb8	0.102532804
222	0xbcd5cad7	-0.026097698
223	0xbe04d7d1	-0.12972952
224	0x3b90c8ed	0.0044184835
225	0xbe0b0505	-0.13576134
226	0xbdb63f61	-0.08898807
227	0xbc92c323	-0.017915314
228	0xbcffb02d	-0.031211937
229	0x3c9465ed	0.018115008
230	0x3d51dfea	0.05123893
231	0xbda54a93	-0.080708645
232	0xbdeaa261	-0.114567526
233	0x3bc7650a	0.006085043
234	0x3d8707ba	0.065932706
235	0x3dc7cb5c	0.097555846
236	0x3c7547a1	0.014970691
237	0x3e435e5c	0.19078964
238	0x3e9f4698	0.31108546
239	0x3def4776	0.11683552
240	0x3e0ec9aa	0.13944116
241	0x3ea3c771	0.319881
242	0x3c76c5b7	0.015061787
243	0x3caebfa6	0.02133162
244	0xbd9546c0	-0.07288885
245	0x3c7ed674	0.015554059
246	0x3d521042	0.051285036
247	0xbdb6b334	-0.08920899
248	0x3bfa335d	0.0076355175
249	0xbd6c29c3	-0.057657015
250	0xbe25a7d0	-0.16177297
251	0x3b5e4cce	0.003392029
252	0xbdbf6d91	-0.0934707
253	0x3d85eb74	0.0653905
254	0xbe094a0d	-0.13407154
255	0x3ab924cd	0.0014125347

up_blocks.0.attention_gate.gating_conv.weight f4 [6, 6, 1, 1]
0	0x3d67135e	0.056414954
1	0x3dc82cba	0.09774156
2	0xbe00eea6	-0.12591037
3	0x3ee02e8f	0.4378552
4	0x3c609385	0.013707046
5	0x3c9ee8de	0.01939815
6	0xbee113fe	-0.43960565
7	0xbe12bb42	-0.14329246
8	0xbe0418af	-0.12900041
9	0xbe2b4b89	-0.16728033
10	0xbe3df998	-0.18552244
11	0xbe204aec	-0.1565358
12	0xbe0564ea	-0.13026777
13	0x3dc5b9c6	0.09654574
14	0x3ef0ec3a	0.47055227
15	0xbce54ab7	-0.027989728
16	0x3d782ca8	0.060589463
17	0xbd0abdff	-0.0338726
18	0xbe1db6fb	-0.15401833
19	0x3e6f7d8e	0.23387739
20	0x3e93fc89	0.28903607
21	0x3e05a227	0.13050137
22	0xbd0cedd1	-0.034406487
23	0x3e19090e	0.1494486
24	0x3d8180f4	0.06323424
25	0x3eb66734	0.35625613
26	0x3d10c638	0.035345286
27	0xbe839382	-0.25698477
28	0x3e803e4e	0.25047535
29	0x3e8433fd	0.25820914
30	0xbeb045bd	-0.34428206
31	0x3dae36d9	0.08506555
32	0x3ea3d65f	0.3199949
33	0x3ecb025b	0.39650235
34	0x3e70dbca	0.23521343
35	0xbe64f35e	-0.22358462

up_blocks.0.attention_gate.gating_conv.bias f4 [6]
0	0xbe593a5e	-0.21213672
1	0xbbfab3de	-0.0076508364
2	0x3dc880ad	0.09790168
3	0xbea450a8	-0.32092786
4	0xbe2394e7	-0.1597477
5	0x3e25b582	0.16182521

up_blocks.0.attention_gate.input_conv.weight f4 [6, 6, 1, 1]
0	0x3e436e9b	0.19085161
1	0x3e1ce5d2	0.15322044
2	0x3d3caeaf	0.04606503
3	0x3e5905fe	0.21193692
4	0x3ea0531d	0.3131341
5	0xbe938b8a	-0.28817397
6	0x3cd2f13c	0.025749795
7	0x3e47fcb3	0.19529991
8	0xbe472c9e	-0.19450614
9	0xbe8afc26	-0.271455
10	0xbe01102a	-0.12603822
11	0xbea4f8a6	-0.32220954
12	0x3d31c6fe	0.043402664
13	0x3ebaed49	0.3650916
14	0x3b4a971e	0.0030912827
15	0xbeb16a26	-0.34651297
16	0xbd70865b	-0.05872188
17	0x3dd44095	0.103638805
18	0xbe0bac55	-0.13639958
19	0xbe5ba52d	-0.21449728
20	0x3e8c1277	0.27357838
21	0x3e22e99b	0.15909426
22	0x3cef7e7b	0.029235115
23	0xbcb1f87d	-0.021724934
24	0xbd1544cd	-0.036442567
25	0xbe986ad7	-0.29769012
26	0x3c8a3aaf	0.016873686
27	0xbdd87d57	-0.10570782
28	0x3cdd01a8	0.026978329
29	0xbeaec24f	-0.3413262
30	0xbe379efb	-0.1793174
31	0xbe38fc42	-0.18064979
32	0x3e8719eb	0.2638696
33	0x3e44b888	0.19211018
34	0xbdc14ee6	-0.09438877
35	0xbd9789fe	-0.07399367

up_blocks.0.attention_gate.input_conv.bias f4 [6]
0	0xbdebc13f	-0.11511468
1	0xbe971f98	-0.29516292
2	0x3a573077	0.0008208821
3	0x3e9ed76d	0.31023732
4	0x3e2a106f	0.16607831
5	0x3ec80e4c	0.39073408
