experiment/bUnet-MAE.pth (torch, 29314 bytes, 25 tensors)

input_block.conv1.weight f4 [3, 1, 3, 3]
000000 9d 40 07 be a9 1f ac 3e 8e bc f3 bd 36 69 15 be
       -0.13208242 0.33617905 -0.11901198 -0.14590916
000010 70 b2 82 3e e0 b8 51 be 55 3d ec 3c 68 22 1a 3d
       0.25526762 -0.2048068 0.02883784 0.03763047
000020 93 15 2c 3e 47 e2 c7 be 56 fd 06 bf e7 c5 85 3e
       0.16805105 -0.39039823 -0.5273031 0.2612755
000030 8b 17 e6 bd 01 3f f4 bc 66 ab d6 bc 31 58 48 be
       -0.11234959 -0.029815199 -0.026204776 -0.19564892
000040 8e 98 53 3e 6f 22 18 bd d3 d6 8a be 99 bf 87 3e
       0.20663664 -0.037142213 -0.27117023 0.26513365
000050 0e 21 ca bd 80 06 17 3d 54 66 ab 3d 12 1d 99 be
       -0.09869586 0.036871433 0.08369127 -0.2990499
000060 69 53 26 be bb 42 9a 3e 2e dd b1 3d
       -0.16242756 0.30129036 0.08684765

input_block.conv2.weight f4 [3, 3, 3, 3]
000000 9d 11 01 3e a4 b3 7d bc 03 8d 05 3b 98 55 f6 3d
       0.12604375 -0.015484724 0.002037824 0.120280445
000010 75 b8 81 3d d3 2f cd 3c ff d4 01 3d 5d 51 b7 bd
       0.063340105 0.025047218 0.03169727 -0.08951066
000020 c5 35 ec ba 43 cb 5b 3c 1a 02 a2 bd ff 99 34 3d
       -0.0018021396 0.013415161 -0.07910557 0.044092175
000030 79 87 94 bd d0 85 cf bd eb 99 1f 3d 6f 85 07 bd
       -0.07252402 -0.101329446 0.038965147 -0.033086237
000040 39 db 30 3e b7 94 d5 3a 2e b9 58 3e 8f 77 b9 bd
       0.17271127 0.0016294931 0.2116439 -0.09056007
000050 e9 70 1e 3e db 5a 67 3d 58 c9 80 be 8d db 26 be
       0.1547276 0.05648313 -0.25153613 -0.1629469
000060 38 8c 49 3e e2 9f 14 be 12 0f b5 bd 19 07 40 3c
       0.19682395 -0.14514115 -0.08840765 0.011720442
000070 90 ff a4 bc 3d 46 d8 bd 98 98 4e be 6b 19 8e 3d
       -0.020141393 -0.10560272 -0.20175397 0.06938442
000080 d1 4c 5e 3d 47 67 d0 bd e9 42 9d bd 95 6b e7 bd
       0.054272477 -0.101759486 -0.07678778 -0.112998165
000090 34 74 60 bc 7f ec 3c bc 6f 8f e2 bc 15 3c 96 be
       -0.01369958 -0.011530994 -0.027656285 -0.29342714
0000a0 00 5c f6 3d 11 08 01 be 23 4b a0 bd e1 a1 b3 3e
       0.12029266 -0.12600733 -0.07826831 0.3508444
0000b0 5d c0 b3 3e b5 95 01 be a9 42 8c 3c 57 72 61 bc
       0.351077 -0.12654765 0.01712163 -0.013760171
0000c0 1f 0f c9 3d f2 08 08 3e b8 56 33 bd ee 3a 1d bb
       0.09817337 0.13284662 -0.043783873 -0.0023991424
0000d0 f0 b2 85 3d 92 1d 00 3e 58 f1 ae be 04 04 47 bd
       0.0652827 0.1251128 -0.34168506 -0.048587814
0000e0 cd 4b 72 bd 19 d2 91 be 8a af fd bd 91 ce 4d 3d
       -0.05915432 -0.28480604 -0.12386997 0.050245825
0000f0 5f 09 6a be a1 11 e4 bd c6 25 ab bd ed 9e d8 3d
       -0.22855137 -0.11136175 -0.08356814 0.10577188
000100 0f a7 26 be d1 9d 25 3d 71 d8 77 3e 8b 5f 1b 3e
       -0.16274665 0.04043371 0.2420366 0.15173166
000110 fd f4 10 3d 56 2e 1a be 68 74 d7 3c 7e 84 ac 3b
       0.03538989 -0.15056738 0.026300624 0.0052648177
000120 66 9e 33 bd 44 94 dc bd aa b5 b5 3d 43 ff 1d bc
       -0.043852232 -0.10770467 0.0887254 -0.009643379
000130 47 ff f4 3d 8c 25 31 3d e8 7c ad bd 1c 98 ea bd
       0.11962753 0.043248698 -0.084710896 -0.11454794
000140 b3 aa 70 bd
       -0.05875654

down_blocks.0.conv_block.conv1.weight f4 [6, 3, 3, 3]
000000 9b 9f 55 be c6 75 c6 bc ac 78 8b bc 83 f7 ab be
       -0.20861666 -0.02422608 -0.017025314 -0.33587274
000010 22 5c 55 3d 2d 45 8c be d1 b0 c6 be e5 41 52 3c
       0.052089818 -0.27396527 -0.38806775 0.012833093
000020 32 72 8e be 35 f3 b4 3c 53 44 b5 bd ce e3 24 be
       -0.278215 0.022088626 -0.088509224 -0.16102526
000030 31 ad 9e bc 4a bb de bd e4 76 b0 3d 88 25 7a 3d
       -0.019369693 -0.10875566 0.086164266 0.06107095
000040 12 16 9c bd 57 7c 81 bd 55 64 9a 3b 84 55 63 bd
       -0.07621397 -0.06322544 0.0047116675 -0.055501476
000050 f6 74 64 3e d0 12 c1 3d f4 77 49 bd ab a8 23 3e
       0.22310242 0.09427416 -0.04918666 0.1598231
000060 9d 77 28 be 59 d0 60 3d 42 f3 b5 bd 47 53 7f bd
       -0.16451879 0.054886196 -0.08884288 -0.06233528
000070 e6 25 0f be 2c a9 04 3e 31 a6 b8 bb 43 d6 82 be
       -0.13979301 0.12955159 -0.005635046 -0.25554094
000080 8c d8 91 be a8 31 f5 bd d6 10 e5 bd 86 36 6f 3e
       -0.28485525 -0.11972362 -0.11184852 0.23360643
000090 60 50 1e 3e 71 ad 1d 3e db 3b 51 3d d7 f0 3e be
       0.15460348 0.15398194 0.051082473 -0.1864656
0000a0 18 38 30 3e 92 b5 e3 3d be ec a3 bc ab 97 8d bd
       0.17208898 0.11118616 -0.020010348 -0.06913694
0000b0 65 a2 86 3d 5c a5 31 bd 11 47 04 3e 56 9f b3 3d
       0.06573943 -0.04337059 0.12917735 0.08770625
0000c0 c7 98 a0 bd 77 88 35 be 1f 2a bf be db ea 05 bd
       -0.0784164 -0.17727838 -0.37336823 -0.03269468
0000d0 cf 64 ed 3d 9b f4 02 be 48 5f 50 3d 3a 69 dc bd
       0.11591493 -0.12788622 0.050872117 -0.10762258
0000e0 b6 e2 65 bd 19 ec 1b 3e db 6f 97 bd 24 b8 90 3e
       -0.05612441 0.15226783 -0.073943816 0.28265488
0000f0 6c 76 a8 bd 30 b4 c2 3c d6 13 87 3e 45 18 43 3d
       -0.08225712 0.02376756 0.2638232 0.047630567
000100 65 01 8b 3d 56 14 9f be f9 51 3c 3e 83 92 cb 3c
       0.06787375 -0.31070203 0.18390645 0.024850136
000110 c7 ab 82 3e 90 de d2 bd 4d a0 58 3e f3 07 14 be
       0.2552168 -0.10296357 0.211549 -0.14456157
000120 0b e6 43 be 41 20 69 3d 4e 9c cc 3c 39 09 99 3d
       -0.19130723 0.056915525 0.024976876 0.07472462
000130 27 57 40 3e 63 2c 29 3e a7 b5 97 3c c8 c5 fa 3d
       0.18783246 0.16520838 0.018519236 0.12244755
000140 bb c4 c8 bb 3a a5 3f be 22 cc e4 bd 4f ae c8 bd
       -0.0061269677 -0.18715373 -0.11171748 -0.09798872
000150 21 9f a0 3d 3b eb 0b 3e 1c b1 5b 3e ab a3 54 be
       0.078428514 0.13663952 0.2145428 -0.2076556
000160 b3 5d 53 ba 01 05 c2 bd 78 25 42 3d 56 2e 2c be
       -0.00080629735 -0.09473611 0.047399014 -0.16814551
000170 23 2b 87 bd e7 45 dc bd 26 ab 4e bd 37 40 2d 3e
       -0.066000246 -0.1075552 -0.05045619 0.16919027
000180 a5 9f 8f bd f3 7c f7 bc eb f9 1a 3e 78 77 7f be
       -0.07012872 -0.030210948 0.15134399 -0.24947917
000190 67 5e bc bd 2f c6 4f 3e 78 c8 1c 3e c9 40 15 bc
       -0.09197693 0.20290445 0.15310848 -0.009109684
0001a0 9d 5c 85 3d 16 8e ae bd da e5 35 be 0e 23 5d 3d
       0.06511805 -0.085231945 -0.17763463 0.05398851
0001b0 79 d7 a5 bd 94 a7 56 3e 2e 6f 00 3e 2f 0d a1 be
       -0.08097739 0.20962363 0.12542412 -0.3145537
0001c0 60 86 bb 3c f3 12 35 be a8 8f 37 be f0 8b 41 3e
       0.022891223 -0.1768301 -0.17925894 0.18901038
0001d0 ab 0e 01 be e2 1e 31 be 8c c8 25 be 3c 8b 71 3b
       -0.12603252 -0.17296937 -0.16189784 0.0036856672
0001e0 0b 2e 1b 3e fb f0 d4 bd e4 9a 0e 3e 39 ff b6 3d
       0.15154283 -0.10397526 0.13926274 0.089353986
0001f0 be 3c 80 bc a5 f6 06 3c 6f a5 de bd bf 7a 73 be
       -0.015653964 0.008237516 -0.10871398 -0.23777293
000200 a6 c4 3f 3d 7a 98 4a bd 73 92 24 3d 35 fb 2e 3e
       0.046818398 -0.04946182 0.040178727 0.17088015
000210 5a eb 34 bd f7 f3 04 be 0e ba 3f 3e bc 72 5b be
       -0.04416976 -0.1298369 0.18723318 -0.21430486
000220 49 95 34 3b ae dc 1e 3b 1c 54 06 3c 4a bd 5a 3e
       0.0027554801 0.0024240422 0.008198764 0.2136127
000230 d9 c2 8c bd 09 1c 2c bd fe 49 a6 3d 1a f1 cd 3d
       -0.06873102 -0.042018924 0.08119582 0.10055752
000240 30 b3 32 3e 09 c3 a9 bd 77 5e ea bd 28 9a 51 3d
       0.17451167 -0.08289153 -0.11443799 0.051172405
000250 29 60 20 be a8 c8 52 be d7 f0 43 bc ee 1b 50 bd
       -0.15661682 -0.20584357 -0.011959276 -0.050807886
000260 09 e8 a6 3d 34 0e bb 3d 60 6a 0f be fe f0 97 bc
       0.08149726 0.091335684 -0.14005423 -0.018547531
000270 64 bc b2 bd 41 90 4b be d8 e9 be 3b 1e 24 b0 3d
       -0.08727339 -0.19879247 0.005826216 0.08600639
000280 4a 45 93 bd 75 57 dd 3b
       -0.0719095 0.0067548105

down_blocks.0.conv_block.conv2.weight f4 [6, 6, 3, 3]
000000 5a 8a dc bd df c3 6c 3e d3 b4 89 bc a1 d4 15 be
       -0.10768576 0.23121594 -0.016809857 -0.14631893
000010 49 0a 78 3e b8 24 af 3d 48 24 70 be 71 91 33 3e
       0.24222673 0.085519254 -0.2345134 0.1753595
000020 bf a4 b8 bd b2 38 bb bd 78 51 81 bd 0d e0 fe 3d
       -0.09015798 -0.09141673 -0.06314367 0.12445078
000030 86 7f a3 bb f6 b4 db bd fa ce 21 bc ba 74 f7 3a
       -0.004989567 -0.10727875 -0.009876007 0.0018879392
000040 2e a0 3b bd ed f5 63 3d 9e 94 75 bd 3d e4 02 3e
       -0.045807056 0.055654455 -0.059956186 0.12782378
000050 db 78 c2 bc c5 6b 72 3d 0b 75 f1 bc 4f d5 fd bd
       -0.023739269 0.05918481 -0.029474756 -0.12394201
000060 2e de 09 be 16 20 a1 3c 0b 29 e2 3c 5f e7 a3 be
       -0.13463661 0.01966862 0.027607461 -0.3201246
000070 8f 1c c3 bd 51 bf 93 bd da cd ae be e6 4b cf 3b
       -0.095269315 -0.07214225 -0.34141427 0.0063261865
000080 69 44 b5 bd ae 42 1a be d4 4d 17 3e ae b3 a3 3d
       -0.08850939 -0.15064499 0.14775783 0.079932556
000090 13 25 97 3d ec 47 1a 3e b2 80 37 be 83 c5 09 3e
       0.07380118 0.15066499 -0.17920187 0.13454251
0000a0 62 8e c1 bd 55 9e 85 be ea 4f e0 3c e2 af 97 3d
       -0.094509855 -0.2609736 0.027381856 0.07406594
0000b0 13 39 2c bd 17 1a 5b bc d8 8b 50 3e 5b 40 ad 3d
       -0.042046618 -0.0133729195 0.20365846 0.084595405
0000c0 c6 97 3e bd be 51 fb 3d 09 15 3d 3d d1 53 af 3c
       -0.04653146 0.122714505 0.04616264 0.021402271
0000d0 4c 5d 13 3d aa a2 13 be 3f 78 0c be 0f 86 96 3d
       0.035977647 -0.1441752 -0.13717745 0.073497884
0000e0 ad 07 3d 3e 59 04 bf bd 74 f9 e8 bc 01 4e 29 3d
       0.1845996 -0.09327001 -0.028439261 0.041334156
0000f0 fe 4b a6 bd e4 3c 02 be b0 3d cd bc e2 8b ec 3d
       -0.08119963 -0.1271854 -0.025053829 0.11550118
000100 6c d8 71 bd e5 e7 18 3d 03 b9 cc bd 5f 2f 0b bc
       -0.059044287 0.037330527 -0.09996226 -0.008495181
000110 2a bd a9 3d f7 a3 c2 3d db ff 27 be 7b 2f 2c bd
       0.08288033 0.0950393 -0.16406195 -0.04203747
000120 8e fa 40 be fd 2b 27 3e d3 57 c7 3d 39 de 69 bd
       -0.18845579 0.16325374 0.09733548 -0.057096694
000130 b5 92 01 bc 7f d8 52 bd 17 70 35 3d 2e 24 2f 3e
       -0.007908513 -0.051475998 0.04429635 0.17103645
000140 ca 7e a1 3d 6d 59 0f 3b 37 60 8a 3c 60 d0 82 3d
       0.07885511 0.002187337 0.016891582 0.063874006
000150 b7 85 34 be 56 bf 96 be 1d 60 a3 bd db 3d 2f 3c
       -0.17629133 -0.29442853 -0.079773165 0.0106959
000160 59 b0 db 3d 78 3d c2 3d 6f 7d f3 3d 46 e5 23 bd
       0.10726995 0.094843805 0.11889159 -0.040013574
000170 d2 1f 39 bd 3a c6 83 bc b0 72 3e 3e 94 72 78 3d
       -0.04519636 -0.016085733 0.18598437 0.060656145
000180 a6 8c 27 3e f8 e8 bb 3c ce f9 4f 3c 89 0f 92 3c
       0.16362247 0.022938237 0.012693835 0.017829673
000190 c9 d8 fd 3d 92 85 51 3d 0c 10 5a 3d 71 54 df 3d
       0.12394864 0.051152773 0.05323796 0.10904778
0001a0 91 11 2e 3e ba 21 fd bc 90 68 ae 3d 4d e5 fc 3d
       0.16998889 -0.030899871 0.085160375 0.12348423
0001b0 b7 36 f1 bd 45 a7 51 3e 07 77 9c be e7 e4 c4 3c
       -0.11778014 0.20473965 -0.3055956 0.02403493
0001c0 db a4 88 3d 7c 32 7b be 62 d5 88 bd 91 f5 08 3e
       0.06672069 -0.24530977 -0.066813245 0.13374926
0001d0 e2 75 08 be 71 d9 43 be db 41 ac 3c 69 bb 12 bc
       -0.13326219 -0.19125916 0.021027496 -0.008955815
0001e0 48 8e 8d be be 6e 01 3d 92 a4 4a 3d 3e b8 81 bc
       -0.27647614 0.031599753 0.049473353 -0.015834924
0001f0 0c b0 42 3d 9b d8 41 3e cd 78 11 be 3e 18 b4 3d
       0.047531173 0.18930285 -0.14206238 0.08793686
000200 16 bc b9 bd 01 83 05 3e 21 9c 48 3e e6 9d 04 3e
       -0.09069078 0.13038255 0.19590808 0.12950858
000210 36 e6 a9 3d 31 64 a5 3d 4b 8b ac bd df f4 f8 3d
       0.082958624 0.080757506 -0.084250055 0.121560805
000220 6d 5a 47 3e 91 40 6e be 26 cc cf ba 57 01 43 3e
       0.19468088 -0.23266818 -0.0015853688 0.1904348
000230 c8 21 3e 3d 3a 6d a8 bb 06 4c f5 3d 6e 07 c0 bd
       0.046418935 -0.005139974 0.11977391 -0.09376417
000240 7f bc c7 3d 89 41 7b 3d b0 95 c8 bd 2d 81 0b 3e
       0.0975275 0.061341796 -0.097941756 0.13623495
000250 55 ef 15 3d 3c 7c 70 3e 2a c5 58 bc 07 f8 85 bd
       0.036605198 0.23484892 -0.013230601 -0.06541448
000260 7c 99 ca bc fc 90 37 bd 93 4c e5 3d 6c 58 2a be
       -0.02473139 -0.044816002 0.11196246 -0.16635293
000270 a8 ad 49 3d bd 35 35 3d 82 c3 11 be e4 46 0b be
       0.049237877 0.044240702 -0.14234737 -0.13601261
000280 cd f2 42 3e 35 e3 cc bb a6 b5 7f bd 1e 9e 1c be
       0.19037934 -0.006252671 -0.062429093 -0.15294692
000290 2b 36 a1 bd d9 39 54 be a0 44 99 bc 3c e5 04 be
       -0.0787166 -0.20725192 -0.01870948 -0.12978071
0002a0 be 02 bb bb 02 a9 f7 3c af 40 9d 3c b2 eb 85 3d
       -0.005707114 0.030231956 0.019195883 0.06539096
0002b0 1f 35 08 3d f7 67 e3 bc 67 40 07 3e 41 fe 46 3e
       0.033253785 -0.027759535 0.13208161 0.19432928
0002c0 f3 c2 a7 3d b2 58 1f be 1c dd c9 bb a5 f7 83 be
       0.081914805 -0.15561178 -0.0061603915 -0.25774875
0002d0 c7 20 61 3e 9d 40 26 3e 2a f7 3b 3e 5e 63 d2 3d
       0.2198516 0.16235586 0.18356004 0.10272859
0002e0 73 5d 10 be f4 58 16 be 0b 81 bb bd 19 7a 8c bc
       -0.14098148 -0.1468237 -0.09155472 -0.017148064
0002f0 02 2b c3 3c a1 a1 e1 3d f7 2f ce 3d 8a 73 19 3d
       0.023824219 0.110171564 0.10067742 0.037463702
000300 31 44 ef 3d 8c 35 ee 3d fd 1c f9 bd 92 8c d1 3d
       0.11682928 0.11631307 -0.12163732 0.1023189
000310 02 a3 6c 3d c2 b6 a6 bd 38 44 b6 bb ca 33 87 bc
       0.057772644 -0.08140327 -0.0055623315 -0.016504187
000320 1e f5 4c bd 7b 8a 23 be 2a 0a 99 3c 8c ce 5e bd
       -0.05003845 -0.15970795 0.018681604 -0.054396197
000330 5c ca e7 bd 14 89 13 be 9c 67 82 bd c8 b6 31 3d
       -0.11317894 -0.1440776 -0.06367418 0.043387204
000340 c2 5e 45 3c aa dc 15 3e 64 03 17 3b c7 0c b8 3c
       0.012046518 0.14634958 0.0023042792 0.02246703
000350 cb a2 84 3d 06 f6 b9 3c b9 5f d2 3d f7 b2 fe 3d
       0.06476363 0.02270032 0.10272164 0.124364786
000360 56 df c7 3c 71 3f 64 3c 1b 6d 9d be 62 c6 31 3e
       0.024398487 0.013931141 -0.30747303 0.17360833
000370 d1 b2 a5 3e 16 b3 30 be 84 44 3b 3e 32 19 98 3e
       0.3236299 -0.17255816 0.18287855 0.29706722
000380 73 d9 01 be 10 c5 8d 3e 6b 1d c7 3c 67 99 fb 3c
       -0.12680607 0.2768941 0.02430602 0.030712796
000390 8e ee b6 bd 69 f4 77 bd c2 80 e0 bd f5 82 c0 3d
       -0.089322194 -0.060535822 -0.109620586 0.09399978
0003a0 7d 87 d5 3c a0 2c ef bb b1 32 8b 3d 8c 68 0f 3c
       0.026065582 -0.007299021 0.06796778 0.008752953
0003b0 b4 e0 25 be 37 2e 3f bd 1d 1e b3 bc 5d b5 7a bd
       -0.16198999 -0.046674933 -0.021864945 -0.061208118
0003c0 ac f1 27 3d 2d a7 db 3d 07 81 20 bd be 2c a5 3d
       0.04100196 0.107252456 -0.03918555 0.080651745
0003d0 30 76 36 3e a2 c0 85 bd 25 eb 2b be e3 e9 1e bc
       0.17818522 -0.065308824 -0.1678892 -0.009699318
0003e0 23 cf ac bd 46 bc 27 bd 4c 26 6e 3e 7d 07 e2 bc
       -0.08437946 -0.040951036 0.23256797 -0.027591461
0003f0 74 dd 9c 3d 29 35 1c bd 96 88 d5 3d e2 76 5e bd
       0.07659426 -0.038136635 0.10426442 -0.054312594

down_blocks.1.conv_block.conv1.weight f4 [12, 6, 3, 3]
000000 58 a4 26 3e f7 0e b5 3d d5 48 49 be 7a 55 96 bb
       0.1627363 0.08840745 -0.1965669 -0.0045878263
000010 05 24 05 bd eb 2a f9 bd e2 46 e1 bc 86 f3 2c be
       -0.032505054 -0.12166389 -0.02749962 -0.16889772
000020 ef 5b 5d be 3c 21 48 bd cf 21 f3 3d 48 15 5e 3e
       -0.21617101 -0.04885982 0.11871683 0.21687806
000030 6c a9 e8 bd 76 d9 f9 bd 0a 4b 32 bd 24 cf cd bc
       -0.1136044 -0.121996805 -0.043528594 -0.025123186
000040 f6 f6 9f 3c bd 6f b0 3d a5 cc 0b 3d 7b 3e 82 3d
       0.01952694 0.086150624 0.03413071 0.063595735
000050 c5 8a c7 3c f1 0c 95 3d d8 70 27 3c 5c f3 44 3e
       0.024358163 0.07277859 0.010219775 0.19233459
000060 28 00 e7 bd fc 15 cc bd f0 c8 0b 3e ab e3 92 be
       -0.11279327 -0.09965131 0.1365087 -0.28689322
000070 9f 0d 2f be 44 74 d2 bd 97 0e 4c be 5c 8f e0 bd
       -0.1709504 -0.10276082 -0.1992744 -0.10964844
000080 6b 1d 3f be 22 52 77 3c c8 36 4f 3d 59 49 c8 bc
       -0.18663566 0.015095266 0.050589353 -0.024449037
000090 be fe 13 be 5b ae bd bd 33 49 a0 3d f1 4e cc bd
       -0.14452645 -0.09261771 0.07826462 -0.099759944
0000a0 15 9f 96 bd d0 58 d5 ba b8 93 ab be c3 18 41 bd
       -0.07354561 -0.0016277079 -0.33511138 -0.047142755
0000b0 0f 1e 8b bd ca 8d 01 3e 95 41 92 3d d1 03 a0 bd
       -0.067928426 0.12651744 0.07141415 -0.07813228
0000c0 7d f1 f6 3d 67 16 12 3e 3b 77 1b 3d 39 cf 22 bd
       0.12057779 0.14266358 0.037955504 -0.039748404
0000d0 f2 55 bb 3d bb 11 19 be f9 d8 a8 3d 9b 91 12 bd
       0.09147252 -0.1494817 0.08244509 -0.03578339
0000e0 11 e7 3e 3d 52 88 02 3e 0e fe d4 bd 78 c2 59 bd
       0.04660708 0.12747315 -0.104000196 -0.053163975
0000f0 51 f5 9a 3d 30 8e 32 bc f5 9a de 3d b0 15 e8 3d
       0.07566322 -0.010898158 0.108693995 0.113322616
000100 f5 88 13 3c 30 44 99 3e b4 81 1e 3e 9c 4b ac bd
       0.009004821 0.29934835 0.15479165 -0.08412859
000110 ca dd 22 3e c0 d3 93 bc 90 28 b0 bd 20 51 1e 3e
       0.15904918 -0.018045306 -0.08601487 0.15460634
000120 72 1c c3 bd b1 61 1f be 77 8a 83 bd 2d 16 fc 3d
       -0.0952691 -0.1556461 -0.064228944 0.12308917
000130 70 d4 99 3d ed c9 13 bd ff 6d 81 bd e7 85 f1 bd
       0.07511222 -0.036081243 -0.06319808 -0.11793118
000140 c6 ba 2e be e0 68 03 3e 00 79 93 3d 01 13 8b bd
       -0.17063436 0.12832975 0.07200813 -0.06790734
000150 56 2d 86 3d 09 18 d2 3c 2d 30 d8 bd ed a0 a1 bd
       0.06551616 0.025646226 -0.10556064 -0.07892022
000160 35 a7 8c 3c 19 3c 0c be b0 11 45 3d 01 ba 1e bd
       0.017169574 -0.136948 0.04811257 -0.038751606
000170 a6 88 1d 3e 1a 68 21 3d 26 52 7d 3d 2a 24 39 3d
       0.15384158 0.03940592 0.06184592 0.045200504
000180 53 f7 f1 3d e4 39 da 3c 99 7b 25 be be 4b 59 3c
       0.118147515 0.026638933 -0.1616043 0.013262687
000190 71 9c 20 3e 7e a0 15 be 23 35 c5 bd 1f 7e 7f 3b
       0.15684678 -0.14612004 -0.09629276 0.0038985086
0001a0 c5 3e 30 be b2 e7 c9 bd bf e1 90 bd 67 51 08 3c
       -0.17211445 -0.098586455 -0.07074308 0.008320189
0001b0 7c 4e 1d 3d 42 10 8a 3b 56 41 9c 3c 6b 12 4d 3d
       0.038404927 0.004213364 0.019074123 0.050066393
0001c0 e2 e0 59 3b e3 eb 0f be 83 89 10 3e 34 65 14 bd
       0.0033245613 -0.14054827 0.14114957 -0.036229327
0001d0 b8 8f ba bd f7 1b 89 bd 4b 98 85 bd 2a 01 91 bd
       -0.091094434 -0.06694787 -0.06523188 -0.070803
0001e0 f4 e2 11 3e 00 b5 66 bd bf 74 52 bd 20 33 02 bd
       0.14246732 -0.05632496 -0.05138087 -0.031787038
0001f0 df 75 77 3c 8e 19 4d be be e9 b1 3d a2 52 39 bd
       0.015103786 -0.2002928 0.08687161 -0.04524482
000200 ac f5 61 be fe 22 6b 3d 64 3f cf 3e 04 13 02 3e
       -0.22066373 0.057406418 0.4047805 0.12702566
000210 6f 66 45 bd e3 92 db 3c 4d 84 2e be 04 ac 38 be
       -0.04819339 0.02680344 -0.17042656 -0.18034369
000220 3c 6d 9a bd e7 7c 7b bd b7 54 28 3e f1 c2 68 3e
       -0.07540366 -0.061398413 0.16438566 0.22730614
000230 bd b6 0c 3e f3 8f a7 3c 38 6f 9f 3d 12 c1 18 be
       0.13741584 0.020454383 0.07784885 -0.149174
000240 fb 62 a6 b9 be f8 e4 3d 85 ad 2e 3e dd db 87 3d
       -0.00031735734 0.11180256 0.1705838 0.066337325
000250 6f 83 96 3e 67 f0 64 3e a1 6d 6c 3c 39 51 bc 3d
       0.2939715 0.22357331 0.014430434 0.091951795
000260 3e 15 c5 bc 98 93 6e bd 5d b7 5a 3d 06 64 86 bd
       -0.02405798 -0.058246225 0.053397525 -0.06562047
000270 b2 ec a8 bc a5 cd ec 3d 42 01 42 3e 1e b1 68 bd
       -0.020620678 0.11562661 0.18945792 -0.056809537
000280 65 cb ed ba 4e d8 ef 3d 89 8b e5 bd 20 e2 0e be
       -0.0018142281 0.11711179 -0.11208255 -0.13953447
000290 55 1f 22 3e b4 e0 cd 3d 53 f8 12 bd 5b d4 82 bd
       0.15832265 0.10052624 -0.03588135 -0.0638816
0002a0 54 e0 7e 3e 8b b0 04 3d 06 9d be 3d 14 9b 56 3b
       0.24890262 0.032394927 0.093072936 0.0032746242
0002b0 af e7 02 3d d7 73 86 3e c2 01 d4 bc a1 3b a8 bd
       0.031959232 0.26260254 -0.025879744 -0.08214498
0002c0 9e a4 60 3e 6b 25 11 bd 47 56 78 39 e8 be 61 bd
       0.21937796 -0.035436075 0.00023683264 -0.055113703
0002d0 36 41 37 3c 88 00 ee 3d 1d 8d 00 3d 0c 3b 3e be
       0.011184981 0.11621195 0.031384576 -0.18577212
0002e0 fa 20 56 3d a0 0e e1 3d c9 d5 46 be 4f 36 f0 bd
       0.052277543 0.109891176 -0.1941749 -0.117291085
0002f0 09 d6 03 3e 3f 37 1f be 04 da b7 bd a5 03 6d be
       0.12874617 -0.15548418 -0.0897713 -0.23145922
000300 56 a9 ea 3d 0e 06 e4 bd 88 26 1c 3d 54 9a 19 bd
       0.114580795 -0.11133967 0.038122684 -0.037500694
000310 0f d3 93 bd e3 fb 55 be 16 f5 30 bd 22 07 23 3e
       -0.072179906 -0.20896868 -0.043202482 0.1592069
000320 42 27 ac bc 93 cc 28 be be 66 90 bd 59 6d 99 bc
       -0.021014813 -0.16484289 -0.070508465 -0.018728899
000330 e6 10 2d 3e 01 73 84 3e 14 8c c8 3d f4 bf c7 bd
       0.16900977 0.2586899 0.09792343 -0.09753409
000340 8f 03 6e bc 54 96 c6 3d 79 78 cc 3d 3d 7b d6 3d
       -0.014527216 0.096966416 0.09983916 0.104727246
000350 57 48 d4 3c be 5d 9d bd a3 24 ea bd 71 1c 76 bc
       0.0259134 -0.076838955 -0.11432769 -0.015021429
000360 78 a5 56 bd 56 b8 4d bd f7 58 53 3e a4 67 f8 3d
       -0.052403897 -0.050224625 0.20639406 0.12129143
000370 b4 ba 72 3b 9f a5 7e 3e b8 a9 05 3e c2 4d d9 3d
       0.0037037553 0.24867867 0.13053024 0.10610534
000380 03 c9 33 3d 9f 6f aa bc bc db a2 bd a1 1a 59 3e
       0.04389287 -0.020805178 -0.07952067 0.21201564
000390 9d 1d 4b 3e 3e 07 df bb 88 c5 81 3e 80 da f5 bb
       0.19835515 -0.0068062833 0.25346017 -0.007502854
0003a0 00 81 d3 3c a0 2e e8 3d 7b c6 58 be 79 14 1a 3d
       0.025818348 0.11337018 -0.21169464 0.03761718
0003b0 dc d1 46 3d 43 87 60 bd 9b 7e 30 3e ad e4 bb 3d
       0.04853998 -0.054816496 0.17235796 0.09174476
0003c0 64 ba cb bc 7a b7 7d 3d 40 35 b2 3c c8 2c 9c 3d
       -0.024869151 0.061942555 0.021753907 0.07625729
0003d0 ce 6d 8e bc dc 50 22 be f7 ff bc 3b 0d 76 b6 bd
       -0.017386343 -0.15851158 0.005767818 -0.08909235
0003e0 38 9a ec bd 75 17 95 bc d6 4e 49 3c 45 56 5b 3d
       -0.115528524 -0.018199662 0.012286862 0.05354907
0003f0 93 ca d0 bc 83 18 a1 bd 61 fe 0a bd 39 5a 15 3e
       -0.02548722 -0.07866003 -0.033934 0.14585198

down_blocks.1.conv_block.conv2.weight f4 [12, 12, 3, 3]
000000 70 88 93 3c 6c fe e0 3d be c4 72 3d db 1e 0a 3d
       0.018009394 0.10986027 0.05926966 0.033720832
000010 19 50 7b 3e 78 cd 10 3c 64 9f 83 3d c0 41 0f 3e
       0.24542274 0.00883805 0.06426886 0.13989925
000020 c2 b5 c7 bb 9e 4f 1a bd 8e 7e ae bc df 03 af 3d
       -0.0060946653 -0.037673585 -0.02130058 0.0854566
000030 1b af 86 3d b0 21 a5 3d 19 cc de 3d b4 d9 a0 3d
       0.065763675 0.08063066 0.10878772 0.078540236
000040 0e 3f 03 3d 2a 88 9e 3d a4 79 f7 bd c2 b4 34 be
       0.032042556 0.07740815 -0.12083748 -0.17647079
000050 86 31 0f be 12 c9 01 be e6 06 01 be a4 8e 4f bd
       -0.13983735 -0.12674358 -0.12600288 -0.050673142
000060 67 a0 8e bd b0 a1 67 bd 7e b1 c2 bd 24 0c ee 3c
       -0.06964188 -0.05655068 -0.0950651 0.029058523
000070 ae 37 df 3d e6 35 92 bb 87 c4 8d 3d c0 15 20 3d
       0.10899292 -0.0044619916 0.0692225 0.039083242
000080 44 79 25 3d d3 ab 7f 3d 87 7f bc 3c 64 23 10 3d
       0.04039885 0.062419724 0.023010029 0.03519
000090 4a d8 cd bc 84 47 fe bb ed 0d 21 3d d6 8e d6 3c
       -0.025127549 -0.00775999 0.03931992 0.026191156
0000a0 8e d5 2a be a9 90 52 3c aa 43 17 3c b7 68 44 bd
       -0.16683027 0.0128518725 0.009232441 -0.047951426
0000b0 2c 89 39 3d 77 66 0c 3e 45 c5 bd bc 26 21 74 3d
       0.045296833 0.13710962 -0.023165355 0.059601925
0000c0 ca c1 03 3e bd 5f cc 3d 60 9a bf 3d c9 85 12 3e
       0.12866893 0.09979198 0.093556166 0.14308847
0000d0 dd ab d3 3d 93 2f 70 3d 4a d0 c6 3d bd ca 08 3e
       0.10335515 0.05863912 0.09707697 0.13358589
0000e0 20 99 f9 bd d2 56 45 bd b4 ec da 3d c8 b1 1d be
       -0.121874094 -0.0481785 0.10689679 -0.1539985
0000f0 3b d0 67 3d 1d 70 46 3d d9 0e da bd 78 f5 b9 3d
       0.05659507 0.048446763 -0.10647363 0.090800226
000100 c6 d3 af bc ea b8 be 3d 29 48 ff bc 4e 60 c0 bc
       -0.021463286 0.09312613 -0.031162338 -0.023483422
000110 d6 1a 70 bd d8 5d 0d 3d e8 6b 6a bc 13 6b a0 bc
       -0.058619343 0.034513324 -0.014307953 -0.019582307
000120 c9 fe 9d bc c4 52 83 bd 80 17 40 bd 55 20 d0 3d
       -0.01928653 -0.06412271 -0.04689741 0.10162417
000130 0d 6e 39 bc 63 24 37 3d 64 17 12 bd f4 21 92 bd
       -0.011317742 0.044712435 -0.03566684 -0.07135382
000140 ed a6 eb bc c8 50 a4 3c d4 67 8d 3d e1 e5 1d 3e
       -0.02876612 0.02005805 0.06904569 0.15419723
000150 cb 57 6b bc 10 93 1c bd 2c 48 97 3e 31 e1 66 3d
       -0.014364193 -0.038226187 0.2954725 0.056367103
000160 0b 50 b3 3d 3a a2 7a 3e c0 36 e9 bc fb 98 76 be
       0.08755501 0.24475947 -0.02846849 -0.24081795
000170 6a d7 6a be 70 37 55 bd 42 61 73 be 64 09 13 be
       -0.22933736 -0.052054822 -0.2376757 -0.14359051
000180 6c 50 3c be 1c 44 76 be 95 ec 70 be c6 08 1d 3e
       -0.18390054 -0.24049419 -0.23527749 0.15335378
000190 04 84 8f bd cb 6f 16 3d 18 5b 3f 3d 5e cb f6 bd
       -0.07007602 0.036727708 0.046717733 -0.12050508
0001a0 d0 fc 50 3d a0 82 af 3d 17 b6 cc 3b 8d 8b 33 3e
       0.05102235 0.085698366 0.0062472927 0.17533703
0001b0 ce 90 bc bd e9 be 3b 3e 78 22 5d bc 7f da 98 bd
       -0.09207307 0.18334545 -0.0134969875 -0.0746355
0001c0 24 18 11 3e 08 74 67 bd a0 71 80 be 0f 4c 8e 3d
       0.14169365 -0.05650714 -0.2508669 0.06948101
0001d0 b1 79 f1 bd b3 89 1a 3d a0 77 81 3c b3 a2 6d bd
       -0.11790789 0.037728976 0.015804112 -0.05801649
0001e0 ae b1 15 3d 9d c2 3e bb 4c 12 77 bd d1 c2 3c bd
       0.0365464 -0.0029107698 -0.060320184 -0.04608423
0001f0 2b 44 64 3d bd 18 f4 3c 9d 16 8f 3c 79 b7 a0 3d
       0.055729073 0.029796952 0.017466838 0.07847495
000200 c9 35 df 3d 46 8a 0f be 7e a3 b3 3d 76 02 30 3e
       0.108989306 -0.14017591 0.08771418 0.17188439
000210 c4 93 99 be ae 3f 33 39 24 8a 17 3e ca c2 70 bd
       -0.2999555 0.00017094493 0.1479879 -0.058779515
000220 6f aa ed bd ae 50 2d 3b d0 3c 24 bd 39 61 2d 3d
       -0.11604773 0.0026445794 -0.040097058 0.042329047
000230 1e 67 8a bd 24 fc 9c bb 6c 88 ad 3c ff 5f 97 3d
       -0.06757949 -0.0047907997 0.021183215 0.07391357
000240 b6 6b 34 be 45 15 18 bd 61 20 44 bd d4 1d 2c bd
       -0.17619213 -0.03712966 -0.04788244 -0.042020634
000250 4b e8 20 be 20 8b 4c 3d d1 b1 e6 bd 66 40 73 be
       -0.15713613 0.049937367 -0.112643845 -0.23755035
000260 99 19 bf bd ad d5 38 bd 12 b4 9e 3c 6f b0 0b be
       -0.09331054 -0.045125652 0.019372974 -0.13641523
000270 d5 73 9a bd ea 37 eb bc 0f c2 20 be 5d b6 ef bd
       -0.075416245 -0.028713185 -0.15699027 -0.11704705
000280 ca 7f 29 3c f4 29 9d bd 67 dc 6b bd 91 f9 bc bd
       0.010345409 -0.076740175 -0.05758324 -0.092272885
000290 df a9 8d bd 1b 72 84 3d c0 09 17 be 51 f5 7a 3c
       -0.06917166 0.064670764 -0.14749813 0.015317277
0002a0 95 15 13 be db 37 7a be 06 ed bb bd 6b cc f5 3c
       -0.14363702 -0.2443537 -0.09176068 0.0300047
0002b0 3b b4 2f be d0 38 8d bd 73 43 9e bc 9b 97 4d be
       -0.17158596 -0.06895602 -0.019319272 -0.20077364
0002c0 ac 62 d4 bc 88 05 34 3d f5 2f 19 be 5a f1 25 3d
       -0.025925957 0.043950588 -0.149597 0.040513374
0002d0 74 76 8e bc d5 d2 57 3d 2b b3 a5 3d 1a 08 86 bd
       -0.017390467 0.0526913 0.08090814 -0.06544514
0002e0 c3 8e a0 bc d4 d0 cc bd 0a 33 8a 3c 98 53 41 bc
       -0.019599324 -0.10000768 0.01687004 -0.011799715
0002f0 c4 6d 76 3d ba 2a 9e 3c d5 4c 71 bd 67 4b e3 3c
       0.060163274 0.019307483 -0.058911163 0.027745916
000300 c2 a3 51 bd 79 fc 17 bd 7b 0f 58 3c 9c 45 6b 3c
       -0.051181562 -0.03710601 0.013187285 0.014359858
000310 65 9b 89 bc 2a 1f 2c 3d 89 a6 18 bd ad 72 9c be
       -0.01679773 0.042021908 -0.037268195 -0.3055624
000320 3d 6a 2d be b6 4c 0e be 99 9f 89 bc 17 b0 bf bd
       -0.16935058 -0.1389645 -0.016799735 -0.09359758
000330 8a 91 66 3d 52 f4 cf 3d 83 67 38 3b f7 db 4c 3d
       0.05629114 0.10154022 0.002813787 0.050014462
000340 e1 81 12 3d f7 72 de 3d 36 1b 37 bd 64 4d 12 bc
       0.035768393 0.108617716 -0.044703685 -0.008929584
000350 81 93 8c 3d 8a 07 98 3c 71 83 d2 3c b8 37 c7 3d
       0.06864072 0.018558282 0.025697442 0.097274244
000360 7c 9a ab ba 32 e7 a8 bd fe cc ec 3d 72 6f e6 bd
       -0.0013092305 -0.08247222 0.11562537 -0.11251725
000370 91 d5 a1 bd c2 36 ea 3d b2 92 e8 bc f3 51 74 3d
       -0.07902063 0.114362255 -0.028390262 0.059648465
000380 92 ec 7d 3c ae 0b 26 be bb 2a 20 be c8 7f 19 3d
       0.015498297 -0.16215393 -0.156413 0.037475377
000390 67 be d9 bd d7 72 ea bd e8 34 e2 3d ec 11 ca 3c
       -0.106320195 -0.11447685 0.11045247 0.024666749
0003a0 3c 38 27 3b 8e 72 78 3d f4 74 04 3e 32 fa 9b bd
       0.0025515696 0.060656123 0.12935239 -0.0761608
0003b0 ea 0f d2 bd c9 ba a7 3d a9 c1 92 3d b4 1d aa bd
       -0.102569416 0.08189923 0.07165844 -0.08306447
0003c0 49 f6 2e 3d d4 d3 00 b9 53 a3 d9 bb 49 28 3d bb
       0.042715345 -0.00012285943 -0.006641784 -0.0028863123
0003d0 a6 03 5c 3d 52 6f 55 3d e1 0e 0f be 10 d6 ca bd
       0.053714417 0.052108116 -0.1397052 -0.099041104
0003e0 96 32 36 be ee 42 51 3c ac ea d2 bd 2e b6 b3 bd
       -0.17792735 0.012772305 -0.10298666 -0.087749824
0003f0 d8 39 e1 3d fa f5 ca 3d 8a 1e 99 3d ea b2 f1 3d
       0.10997361 0.099101976 0.07476528 0.11801703

up_blocks.0.transpose_conv.weight f4 [12, 6, 2, 2]
000000 b3 a5 97 3e a9 73 34 3d 65 10 3a be a0 3f a2 3c
       0.29618606 0.044055615 -0.18170317 0.01980573
000010 60 79 86 3d 57 9c ad 3d 27 26 eb 3d a7 d6 e3 bd
       0.06566119 0.08477085 0.11481886 -0.11124926
000020 fa 6a 98 be 01 21 13 3e 82 60 01 be 2f 28 e5 3c
       -0.29769117 0.14368059 -0.12634471 0.027973263
000030 8a 7d 0d bc de 15 2b 3e f7 f6 96 3d c0 47 b8 3d
       -0.008635888 0.1670756 0.073713236 0.0899806
000040 d5 96 3f bd 87 22 38 3d 16 1c b9 bd ac bb 84 be
       -0.046774704 0.044954803 -0.0903856 -0.25924432
000050 96 82 f0 3d e6 4b e8 3d 8d a8 6a bc 4b 08 a9 3d
       0.11743657 0.113426015 -0.014322412 0.08253535
000060 0c 42 00 3e 9b bb 9d bd e6 54 97 be 59 93 20 be
       0.12525195 -0.077017985 -0.2955696 -0.15681209
000070 4f 3c 97 3c 1f 05 03 be 74 52 c2 3d 26 66 2a bd
       0.018461375 -0.12794922 0.09488383 -0.041601323
000080 86 d1 14 3e c3 df 22 3e a8 0d 45 be d1 15 b4 3d
       0.14533052 0.15905671 -0.1924349 0.08793224
000090 ff 59 90 3e 00 40 16 3e 81 72 f1 bd af 45 71 bd
       0.28193662 0.14672852 -0.11789418 -0.058904346
0000a0 98 fe 4e bd 12 f7 a2 bd ad 4d 9c 3d 2f f3 a4 3d
       -0.05053577 -0.07957281 0.07632003 0.08054196
0000b0 2e 13 2d 3e 00 9d e9 bd ab 68 1f 3d 77 f4 07 3d
       0.16901848 -0.114068985 0.03891818 0.033192124
0000c0 aa bd 0e 3e aa 2e 11 be 70 74 44 3e 52 a5 9e 3d
       0.13939539 -0.14177957 0.19185042 0.07746376
0000d0 57 33 8b 3e 7c 9b db bd 4b ec 9b be bd 71 b0 3d
       0.27187607 -0.10723016 -0.30453715 0.08615444
0000e0 c0 3a 29 bd 1b 62 61 be 05 1c 97 bd bf df f9 bd
       -0.041315794 -0.2201008 -0.07378391 -0.12200879
0000f0 a1 64 68 3e aa a0 52 3e 1f d2 73 3e 4d df 20 3e
       0.22694637 0.20569101 0.23810624 0.15710182
000100 d6 27 86 3d ff 78 26 3e fa 00 04 3e ba f9 9a 3d
       0.06550567 0.16257094 0.12890998 0.07567163
000110 fd 84 20 ba 9c ba a9 3c 6e db 21 be 30 f2 8f bd
       -0.00061233324 0.020718865 -0.15806362 -0.070286155
000120 01 10 41 3e ca 7c 1e 3e 9b ac 5c 3e cc 3c 35 3e
       0.18853761 0.15477291 0.21550219 0.17698973
000130 44 38 2d 3e ee 8d 49 3d ec d3 38 3e 93 3a b4 3d
       0.16915995 0.04920762 0.18049592 0.08800235
000140 96 54 d9 bd 8d f7 1c 3d 23 03 76 be b7 c8 8d bd
       -0.106118366 0.03832202 -0.24024634 -0.06923049
000150 7e af 8e bc de 9f b3 3d 79 3d 8a 3d 10 6a 17 3e
       -0.017417666 0.087707266 0.06750006 0.14786553
000160 68 a7 ae bd 49 8f 7c 3d 1b d7 08 3e 6b 21 07 bb
       -0.08528024 0.061660085 0.13363306 -0.0020619284
000170 78 1b 7c bd 45 d1 ac bc e8 ca 02 3e 96 bf c3 bd
       -0.061549634 -0.021095881 0.12772715 -0.095580265
000180 9d 92 5c bd 30 11 94 3d f9 60 2c be f3 ca 66 be
       -0.05385076 0.07229841 -0.16833867 -0.22538356
000190 52 e8 e8 bc a7 43 25 bd 6c ca 4e be 24 2f e1 bd
       -0.028431091 -0.04034772 -0.20194405 -0.109953195
0001a0 73 06 04 3e 0e 47 d2 3d 6e e0 3b be fd 28 e3 bd
       0.12893085 0.10267459 -0.18347332 -0.11091802
0001b0 10 7a 66 be d5 86 4e 3e f9 68 8d 3d b2 5a 0a 3e
       -0.225075 0.20168622 0.069047876 0.1351116
0001c0 3f 06 68 be 7d a3 3d 3e 64 51 1c 3e a6 66 cd bd
       -0.22658633 0.18519397 0.15265423 -0.10029344
0001d0 68 fe f2 3c 0f 07 2a be 8c 99 14 bc d3 2b af 3d
       0.029662326 -0.16604255 -0.009069812 0.08553281
0001e0 8b 15 1c bd 14 49 67 3d a9 ee bf 3d 3c ee af 3d
       -0.038106482 0.056466177 0.09371693 0.085903615
0001f0 5a 9f 0b be d4 28 d9 bc 04 c6 6c bc 91 3c d7 bd
       -0.13635007 -0.026508726 -0.0144515075 -0.10509599
000200 5b 28 e3 3d a3 1d d7 bd 38 b5 68 be dd 94 00 3e
       0.110916816 -0.105037 -0.2272538 0.12556787
000210 c7 55 b5 3d ae 26 02 3e bd 9b dd bd 9b 29 39 bd
       0.08854251 0.12710068 -0.1082072 -0.045205694
000220 84 41 5f 3e 11 f9 c8 3d 9a 23 a9 bd 39 56 22 3e
       0.21802336 0.09813131 -0.082587436 0.15853204
000230 41 8f bc 3e 34 23 33 3e 4b 4c 23 bd d7 3a 9a bc
       0.36828044 0.17493898 -0.03986768 -0.018826885
000240 48 3f cb bd 5e d3 d2 3c b6 eb 01 3e 39 b7 88 3d
       -0.09924179 0.025735553 0.12687573 0.06675572
000250 a5 4e 7b be 1b a4 c8 3d 0b 05 30 be 00 9a 2d be
       -0.2454172 0.09796926 -0.17189424 -0.16953278
000260 fa b9 c5 3d f7 41 83 bd d9 55 2e bc 60 f3 12 3e
       0.09654613 -0.06409066 -0.010640585 0.14350653
000270 b4 ac ee bd 01 37 09 be 8f e5 fe 3d 5a 54 38 bd
       -0.11654034 -0.13399889 0.124461286 -0.04500232
000280 f7 b4 61 bd 18 4a 03 3e da a7 28 bd ec f7 0d 3e
       -0.055104222 0.12821233 -0.0411757 0.13864106
000290 98 36 ea 3d c8 53 78 3d 54 ae 0e bd fc 01 0c 3e
       0.11436194 0.060626775 -0.03483422 0.13672632
0002a0 8d 02 2e be fb 5b a6 bd 7f ea 04 be fc 5d 58 3d
       -0.1699316 -0.08123013 -0.12980078 0.052824005
0002b0 b8 00 87 be 63 4e ed bd 16 29 bb 3d 8f 9f 8a bc
       -0.26367736 -0.11587217 0.09138696 -0.016921787
0002c0 ba 9a 0f 3c a1 ee 4c 3d bb 0e 02 be 3f 64 dc 3c
       0.008764917 0.05003226 -0.12700932 0.02690327
0002d0 6d fb 5f be af 53 81 3d 8c 6d 96 bd d0 8c 6e be
       -0.21873255 0.063147895 -0.07345113 -0.23295903
0002e0 7e fa 4e be 9f e0 55 be 42 69 28 bd a9 70 1b 3e
       -0.20212743 -0.20886467 -0.041116007 0.15179695
0002f0 0b f4 47 3d ba 16 37 be 49 a5 13 3d f3 f0 f4 3d
       0.048816722 -0.17879763 0.0360463 0.1196002
000300 ca c8 16 bd 03 1c 52 3d 95 61 2d bd 3e a1 5a 3d
       -0.03681258 0.051296245 -0.04232939 0.05337643
000310 a8 94 6e be 8a 33 a0 3d ad 48 04 3e 2a 09 c8 bd
       -0.23298895 0.0782233 0.12918349 -0.09767373
000320 ae 49 28 3d ca f8 6b bd 54 c1 86 bd 3d 0c 2b 3e
       0.04108589 -0.05761031 -0.06579843 0.16703887
000330 90 26 3b 3e 90 93 74 3d 28 72 fb 3d 40 f0 5d 3d
       0.18276429 0.05971104 0.12277633 0.0541842
000340 81 de a0 bd 04 db 13 3e d1 15 45 3b 40 53 b2 3d
       -0.07854939 0.14439017 0.0030072818 0.08707285
000350 3c d0 50 3e 56 18 33 3e b7 5d ec 3c 86 2d 04 be
       0.20391935 0.17489752 0.02885328 -0.12907991
000360 ac cd a3 3c c4 96 fd bd 8b 17 8b 3e 18 0c 1b bb
       0.019995533 -0.12382272 0.271664 -0.0023658331
000370 d0 b6 1d 3d 58 36 fa 3d b7 2f 06 3e 0d 3a e3 3c
       0.03850442 0.122173965 0.1310414 0.027737642
000380 4b 22 34 bd 78 37 af 3c bf ec 2d 3e 89 c6 3b 3e
       -0.043978017 0.021388754 0.16984843 0.18337454
000390 77 6c 48 3e 59 27 82 3d 5b b0 07 3e 64 93 54 be
       0.19572626 0.06355161 0.13250868 -0.2075935
0003a0 f0 fe 41 3e 8a 5c c3 3d 06 3c c7 bd 42 3f ad 3d
       0.18944907 0.09539135 -0.097282454 0.08459331
0003b0 9c fd 0e 3e f8 07 dc bb ca 5b f3 3c 21 d9 0b 3e
       0.13963932 -0.006714817 0.029706854 0.13657047
0003c0 f1 9e f1 3d 79 44 a8 3d f5 6b 46 bd db 5c 84 3e
       0.11797894 0.08216185 -0.0484428 0.25852093
0003d0 97 40 bd 3b cf 81 4c bd c9 5f fa 3d 98 01 9f bd
       0.005775522 -0.049928483 0.12225301 -0.07763976
0003e0 c8 f0 8a be d0 a6 97 3d 22 d7 66 bd 28 7f be be
       -0.27136827 0.07404864 -0.05635751 -0.37206388
0003f0 ad 96 05 be dd c5 89 be cc de 2b be 2a e0 3c be
       -0.1304576 -0.2690877 -0.16784209 -0.18444887

up_blocks.0.transpose_conv.bias f4 [6]
000000 8c 30 56 3d 4a ec bd be 45 56 0c be 3a 57 31 be
       0.05229239 -0.37094337 -0.13704784 -0.1731843
000010 13 a7 15 3e a4 f7 c5 3e
       0.14614515 0.38665497

up_blocks.0.conv_block.conv1.weight f4 [6, 12, 3, 3]
000000 18 8b 83 bd 9c 99 11 be 00 5d cb 3c 31 1d ad bc
       -0.064230144 -0.14218754 0.02482462 -0.021132084
000010 c1 ea e5 bd 64 6c ed bd 1d a9 46 3d af c6 55 bd
       -0.112264164 -0.115929395 0.048501123 -0.052191433
000020 43 d4 d8 bc 06 29 09 3d cd 02 9c bc 6e 09 80 bd
       -0.026468402 0.03348639 -0.019044304 -0.062517986
000030 aa 9f 38 3c cc ee 92 bd 49 17 18 bd 80 ed f2 3d
       0.011268536 -0.07174453 -0.03713158 0.11861706
000040 f4 6f e2 bb 2f 22 4c 3d c1 6e a6 3d 21 e7 09 3e
       -0.0069103185 0.049837288 0.081265934 0.13467075
000050 82 46 1c 3c be d5 27 3e 5f 2a 1f 3e ef c8 ec 3d
       0.009538295 0.1639013 0.15543507 0.115617625
000060 30 85 27 bb 09 19 17 3e 66 27 3a 3d ec d3 07 bc
       -0.0025561564 0.14755644 0.04544773 -0.008290272
000070 8e ab ee bd 3e 62 aa 3c c9 20 46 bd 16 0f 9d 3d
       -0.11653815 0.020798799 -0.04837111 0.07668893
000080 78 54 f2 bd 58 0b 7d 3c 8f 88 81 bc d7 21 df 3b
       -0.118325174 0.015444599 -0.015812187 0.006809454
000090 ba 71 f7 3d bc a3 95 bc 1b 77 7d 3d 15 a3 f0 bc
       0.120822385 -0.018266551 0.061881166 -0.029374639
0000a0 ea db 1d 3d e8 d6 c8 bd dd db 21 bd 74 28 83 bc
       0.038539805 -0.09806615 -0.03951632 -0.0160105
0000b0 dc 75 88 3b 8a 16 74 3d be 48 8d bd c0 0d dc 3d
       0.0041644406 0.059591807 -0.0689864 0.1074481
0000c0 e2 24 f7 bc cd 00 53 be a4 8a 58 3d 1b 85 82 be
       -0.030168954 -0.20605774 0.052866593 -0.25492176
0000d0 b1 60 03 bd 78 9a 06 be 92 52 7b 3c 07 fc 58 3c
       -0.032074634 -0.13144863 0.0153395105 0.013243682
0000e0 89 36 54 3d fa c2 75 3c 2e 76 0f 3d 1b ae 2b 3e
       0.05180982 0.015000099 0.035024814 0.16765635
0000f0 49 8e a6 bb ea ee f3 3c 08 cb 7d bd 08 f9 7d bd
       -0.0050828797 0.029777009 -0.061961204 -0.062005073
000100 73 de de bd aa d7 28 3d 4f 3f 0b be 2a 5f e9 bc
       -0.108822726 0.0412213 -0.13598369 -0.02848776
000110 0e 56 60 bd 97 7d d5 3c 8e 98 23 3d b3 c3 cc bc
       -0.05476957 0.026060862 0.03994041 -0.02499566
000120 f3 ea c9 3d 5b 97 18 3d 78 a6 2c 3d 50 81 3c 3e
       0.09859266 0.03725372 0.042150944 0.18408704
000130 ca de 44 3e 48 cc 1c 3e 9a 45 21 3e 68 6a 00 bd
       0.19225612 0.15312302 0.15749207 -0.031351477
000140 7c ba 6c 3d 2f 4f 17 bd 9f 1a bb bc 4a 4e 9d bc
       0.057795033 -0.03694075 -0.022839842 -0.01920237
000150 15 c0 15 3d 1e f2 64 bd 6b 26 82 bc 16 9d 14 3e
       0.036560137 -0.055894963 -0.01588746 0.14513049
000160 6a 54 bd 3d e0 dc a4 39 32 47 c8 3c e3 d6 b1 bd
       0.09244616 0.00031445082 0.024448011 -0.086835645
000170 59 f7 0c be 01 c3 d7 3b 6d bd f0 b9 77 9d 91 bd
       -0.1376623 0.0065845256 -0.000459175 -0.07110112
000180 07 97 41 bd b4 be b6 bd 69 a0 29 be ed 54 e8 bb
       -0.04726317 -0.089230925 -0.16565098 -0.007090202
000190 20 2c 85 bd 34 44 0b be 5f 82 cc 3c cf 23 33 3e
       -0.06502557 -0.13600236 0.02496451 0.17494129
0001a0 37 c4 f6 3d 62 9f 62 3d 41 83 93 bd 64 0d fb 3b
       0.12049144 0.05532778 -0.07202769 0.0076615084
0001b0 2c 6e 32 be 51 c3 00 bd b8 bf 3f bd 47 5a d9 3c
       -0.1742484 -0.03143627 -0.046813697 0.026532305
0001c0 db f7 2f be 2b cf af 3b 63 57 73 bd 12 45 85 bd
       -0.17184393 0.0053652725 -0.05940951 -0.06507315
0001d0 a4 8b c1 bc 0c e6 6f bd c5 77 c1 bd a6 c4 52 be
       -0.023626156 -0.058569 -0.09446672 -0.20582828
0001e0 08 0a 89 bd de 9d 44 be 55 9e d1 3c 83 a1 85 bd
       -0.066913664 -0.19200847 0.025588194 -0.065249465
0001f0 c7 d6 c2 bd 90 37 47 be 40 9a 3c 3d 1b 42 3d 3d
       -0.09513622 -0.19454789 0.04604554 0.04620562
000200 3e 26 f0 ba f5 94 52 bc 61 9d 01 3e 71 ac fd 3b
       -0.0018321944 -0.012852897 0.12657692 0.007741504
000210 c1 97 06 3e 46 80 34 bd a9 8a 00 bd c1 29 cc bd
       0.13143827 -0.044067644 -0.031382237 -0.099689014
000220 65 bb 94 3d bf a1 c5 bd cf e6 81 bd 7b 2a 46 bd
       0.07262305 -0.09649991 -0.06342851 -0.048380356
000230 f8 5f b9 bd e3 95 87 bd a0 25 83 3d b6 b6 4c bd
       -0.09051508 -0.066203855 0.06403661 -0.049978934
000240 2b d4 7e 3d bc 6d 6b bd 7b 2b a6 3b ce 91 1b 3d
       0.062214058 -0.057477698 0.0050711012 0.037980847
000250 5b d2 b4 3d e1 70 29 3e 4f 37 b2 3d 27 97 de 3c
       0.088291846 0.16546966 0.087019555 0.027171684
000260 1c 82 93 3d 4c 77 44 bd a3 b5 bb 3c f9 b0 0f 3d
       0.07202551 -0.047965333 0.02291376 0.035080884
000270 63 f6 1e be d4 ee 9e bc e5 27 30 be 64 a6 3c 3b
       -0.15523677 -0.019400991 -0.17202719 0.00287857
000280 1c 37 86 3d fa 71 02 3e f7 b2 c8 3c e9 02 b1 3b
       0.0655348 0.12738791 0.0244994 0.0054019582
000290 5b c8 38 bd 16 d7 5f 3d d3 09 fd 3d d2 ad 66 3b
       -0.04511295 0.05464848 0.123553894 0.003519882
0002a0 36 d0 24 bd 77 b4 fb 3d de 1a 4a bd b2 a3 34 3d
       -0.040237628 0.1229028 -0.04934203 0.044101425
0002b0 fe 65 20 3e 19 af ee bc cc 97 a9 3d d3 d7 03 3e
       0.15663907 -0.029136227 0.08280906 0.12875299
0002c0 23 0d d8 3d fd 57 03 3e 9b 5b ac 3d ee 3d 3d bc
       0.10549381 0.12826534 0.0841591 -0.01155041
0002d0 12 7c 87 3c 35 85 69 3d ac 98 8d 3d 5d 28 57 3c
       0.016538654 0.0570118 0.069138855 0.013132182
0002e0 c0 71 5e 3d 2f 14 61 3d 56 d2 6e 3d 22 ad 13 3e
       0.0543077 0.05495089 0.05830606 0.14421514
0002f0 45 d1 76 3d 29 77 15 bd b9 47 99 bd ea 7e 48 3d
       0.06025817 -0.036490593 -0.07484383 0.04894916
000300 8c 4f fd bc 54 d8 b1 bd 09 3c 37 bd 04 a8 bc bc
       -0.03092172 -0.086838394 -0.04473499 -0.023029335
000310 96 49 ce bd c4 87 44 3d fd 8b 47 bb 67 a7 91 bd
       -0.10072629 0.04798104 -0.003044843 -0.071120076
000320 7b 04 11 3c 33 98 c2 bc 50 a8 8c bd 42 b6 b2 bd
       0.008851166 -0.023754215 -0.068680406 -0.08726169
000330 b6 fe b7 bc 99 90 f5 bd 1c 14 d9 bc 15 e3 8e 3d
       -0.022460323 -0.119904704 -0.026498847 0.06976906
000340 b7 cb ba 3c d8 66 9e bd 06 b0 57 3d 62 3c 1e bd
       0.022802217 -0.0773446 0.052658103 -0.038631804
000350 f6 eb 43 bd ee 9f f0 3d e9 b4 46 3c 16 6d 3a 3b
       -0.04783245 0.11749254 0.012128093 0.0028446368
000360 31 fe 12 3d ee c4 0f be a3 dc a1 3d d0 53 7e bd
       0.035886947 -0.14039966 0.07903411 -0.06209165
000370 b5 a6 fd 3c d4 ed 78 3b 82 8b 75 bb f5 b2 89 bd
       0.030963281 0.0037983553 -0.0037467186 -0.067235865
000380 b4 16 61 3d 15 ca 39 3c 29 5d 25 3d 5a 12 b6 bd
       0.054953292 0.011339684 0.040372048 -0.08890219
000390 8f d1 05 bd f9 fe 7d bb de 0f ae 3d 23 ae 7e 3d
       -0.032670554 -0.0038756712 0.0849912 0.06217779
0003a0 a9 de c7 3d f8 86 a6 3c 5e b4 eb bc ec 93 e0 bb
       0.09759266 0.02032803 -0.02877253 -0.006853571
0003b0 c4 ab 6f bb 76 f2 ca bc eb eb 42 3d d4 43 0a be
       -0.0036570886 -0.024773818 0.04758827 -0.13502437
0003c0 dd b4 2d bd bb 2e 8c bd 62 0e 1b bd 3a e5 bf bc
       -0.042408813 -0.06844851 -0.037855513 -0.023424733
0003d0 6e 55 92 bd 85 0d f2 3c 6a 1b 40 3d 71 58 06 3c
       -0.07145201 0.029547462 0.046901144 0.008199797
0003e0 8e 8a a1 bc 7e 7a f6 3d 88 3e 24 bd e2 19 02 b9
       -0.019719388 0.12035082 -0.040098697 -0.00012407408
0003f0 7a b7 9c 3b e0 c5 96 bd 4e 99 a5 3d 6f 76 b8 bd
       0.0047826143 -0.073619604 0.08085881 -0.090069644

up_blocks.0.conv_block.conv2.weight f4 [6, 6, 3, 3]
000000 62 ea d0 bb fb 87 0c 3d 74 8b df 3d 26 50 1f be
       -0.006375597 0.03430937 0.109152704 -0.15557918
000010 e2 24 30 3e c1 86 c6 3c d7 86 98 bd c8 ba 73 3c
       0.1720157 0.024234178 -0.07447594 0.014876075
000020 e9 cd 03 3e 40 e3 21 3d ff aa 1a 3e f0 23 0e 3e
       0.12871517 0.039523363 0.15104292 0.13880897
000030 02 08 93 3b 19 12 5d 3e eb c7 f6 3d 34 72 9d 3d
       0.0044870386 0.21588935 0.1204985 0.07687798
000040 09 87 16 3e 0a de 88 bd dc f2 92 3d c4 17 9d bd
       0.1469995 -0.066829756 0.07175228 -0.076705486
000050 ef 1e 4f bd 03 1d 29 3e ea 61 93 bd 06 4c 0a 3d
       -0.05056661 0.16514973 -0.0719641 0.033763908
000060 5a 6f 06 3d 3d c3 61 3d 59 c4 1d be 10 1a 37 be
       0.032821037 0.055117834 -0.15406932 -0.17881036
000070 23 58 72 3e 37 bf 2a be 2c 79 05 bd 42 a7 a5 3d
       0.23666434 -0.16674505 -0.03258626 0.080885425
000080 69 fb 34 3e 4b 39 d2 bd 3a 14 52 3e ca 2f 4f be
       0.1767403 -0.10264834 0.20515528 -0.20233074
000090 c8 eb 95 3c 31 7a 79 3d 12 69 0b be 3c 26 a1 3d
       0.018300906 0.060907546 -0.136143 0.07868621
0000a0 2f 56 ed bc 56 bf 0b 3e e2 20 74 bc 3f 12 89 3d
       -0.02897176 0.13647208 -0.014900418 0.06692933
0000b0 89 a2 15 be e1 2a 38 bd d6 7d 8b 3c 0d 37 aa bd
       -0.14612783 -0.044962768 0.017027777 -0.08311281
0000c0 3d 9e 11 be 3f 6e 76 3d c0 8b 22 be ee 05 12 be
       -0.1422052 0.060163733 -0.15873623 -0.14260074
0000d0 25 59 e9 3d dc 3a a4 3b 11 a1 7a 3d 52 e8 17 3e
       0.11393956 0.0050118994 0.06118876 0.14834717
0000e0 1f 20 67 bd c3 95 99 bd 41 fc 15 bd 4f e0 9a 3d
       -0.056427117 -0.07499268 -0.03661752 0.07562315
0000f0 e3 87 87 bd b2 1d 08 3e 9d 67 95 3c 69 b8 51 bd
       -0.06617715 0.13292578 0.018237883 -0.051201258
000100 3c af b6 3d b9 17 51 3d 83 14 6d 3e 7b 9e a1 3d
       0.08920142 0.051048014 0.23152356 0.07891556
000110 f4 ce 95 3d bb 35 ee bc 0b 2a 02 3e 26 73 82 3d
       0.07314864 -0.029078355 0.1271135 0.06369619
000120 e3 8f b4 bd 74 b8 9b bd c9 39 62 3d 5d 05 4b 3d
       -0.08816507 -0.07603541 0.05523089 0.04956566
000130 9f 7c b8 3b 43 9a aa bd 83 66 92 bb 35 1a c8 bd
       0.0056300904 -0.08330204 -0.0044677868 -0.097706236
000140 00 76 d1 3d f6 5e 02 be da 2a d5 3d c8 a8 a6 3e
       0.10227585 -0.12731537 0.10408564 0.32550645
000150 53 e9 5f bc 87 a7 12 3e b5 30 21 3e 49 d5 35 bd
       -0.013666469 0.14321719 0.15741237 -0.044392858
000160 04 c2 d7 3d 59 a6 4f 3e b2 9b 34 3d 52 8c 7d 3d
       0.105350524 0.202783 0.044093795 0.061901398
000170 cb 2a 12 be cd 65 c8 bd 21 2b 46 bd 4a 79 79 3d
       -0.14274137 -0.09785042 -0.048380975 0.060906686
000180 bc 3a 6e 3d 98 33 e3 3d 3d 91 a6 bc 5a b1 ec bc
       0.058161482 0.11093825 -0.020332927 -0.028893162
000190 51 15 55 bd 44 0f a0 bd e6 9a df bd da c5 5e 3b
       -0.052022282 -0.07815412 -0.109182164 0.003399244
0001a0 fc f8 9b 3c 84 b4 f3 bd 72 03 32 3e 0b fe a6 bd
       0.019039623 -0.11899665 0.17384127 -0.081539236
0001b0 4b 8b 9e 3d 65 92 83 bd 46 c0 0f 3e 3b f4 0c bd
       0.07741412 -0.06424407 0.1403819 -0.034412604
0001c0 a8 7d 2e 3e 34 3f b2 bd 56 52 dc 3d f3 82 90 bd
       0.17040122 -0.08703461 0.10757892 -0.070562266
0001d0 5e 87 3d 3e 18 ac b8 3b ee 86 15 3e fe 5e 45 3e
       0.1850867 0.0056357495 0.14602253 0.19274518
0001e0 d4 95 a2 3b 21 64 12 3e d3 60 7b 3e ea d2 a1 bd
       0.0049617086 0.14296009 0.24548654 -0.07901557
0001f0 7b 6d a1 3d 3e 4a 15 3e 4e 9f b9 3c 71 f4 a2 bd
       0.0788221 0.14579102 0.02265897 -0.0795678
000200 c1 eb ba bd 6d b7 84 3d 11 9e 7b 3c 95 a2 1f bd
       -0.09126998 0.06480298 0.01535751 -0.03897341
000210 93 8d 6f bd b3 a3 e5 3b ec b9 24 be 31 16 83 bd
       -0.058484625 0.00700804 -0.16086549 -0.06400717
000220 28 d9 b8 3d 82 6c 76 3d ce 97 85 3d b1 e6 26 be
       0.09025794 0.060162075 0.06523095 -0.1629894
000230 52 ce 80 3e bd f7 18 bd 48 6b 38 3e 77 27 b0 bd
       0.2515741 -0.037345637 0.18009675 -0.08601277
000240 35 12 39 bd b7 f7 e1 3d 22 4f ee bd a7 4a d1 3c
       -0.04518338 0.11033576 -0.11636187 0.025548292
000250 6b 8d 20 bd af ad 96 bd ad c2 ae bd ab 3d 4d 3c
       -0.039197367 -0.07357346 -0.08533225 0.01252691
000260 06 89 59 bd 51 07 08 be ed 49 ba 3c f5 22 96 3d
       -0.05310919 -0.13284041 0.022740329 0.07330886
000270 21 30 43 be 27 58 2f 3d 22 64 9a bc 4e cb 21 be
       -0.19061328 0.042808678 -0.018846575 -0.15800211
000280 61 66 a3 3d 9a 7e 79 bd 39 cd 87 3d 18 38 bf bd
       0.079785116 -0.060911752 0.0663094 -0.09336871
000290 29 cd e6 3d b7 1f 08 3c b9 a8 bc 3d 23 71 0e 3e
       0.112696 0.008308343 0.09211869 0.13910346
0002a0 27 88 7d 3c 7d e5 20 be 69 51 18 3e 8e 40 39 3d
       0.015474356 -0.15712543 0.14874806 0.04522758
0002b0 63 ae 5d bc 06 d1 d1 3d 10 9f b8 3c c8 b5 29 3c
       -0.013530347 0.10244946 0.022536784 0.010358281
0002c0 77 fb c6 3d 4b 6b 91 bd a4 a5 8d 3d 19 be 7f 3c
       0.09715932 -0.07100543 0.06916359 0.015609288
0002d0 01 a6 6c bd 92 c0 ea bd 65 2c 04 be 71 85 d2 bb
       -0.0577755 -0.11462511 -0.1290756 -0.006424599
0002e0 a7 02 c3 bc 47 e7 dc bd 66 bd 94 bc d4 4d 58 bc
       -0.023804976 -0.107863 -0.018156718 -0.013202149
0002f0 c9 bc b9 bd 54 36 da bd bf dc 91 3c 12 71 d9 3b
       -0.09069211 -0.106548935 0.017805455 0.0066357935
000300 a4 ae f8 3d 4e 66 c2 bd 36 18 b4 3e 36 48 b7 bd
       0.12142685 -0.09492169 0.3517472 -0.0894932
000310 77 06 36 3d 28 7a 75 ba 8b fc 84 bc da 66 a2 bc
       0.04443976 -0.0009364211 -0.016233703 -0.019824434
000320 c5 bb ef bd e5 65 a4 bc eb 20 34 be 07 0d fa bd
       -0.11705736 -0.020068118 -0.17590682 -0.12209516
000330 9b a0 4f bd 7c eb 47 bd df eb 06 be e7 d8 8b bd
       -0.050690275 -0.04880856 -0.13175915 -0.0682848
000340 c2 ca b5 be e0 69 ac 3d 68 45 07 be fa 74 a1 3d
       -0.35506254 0.084186316 -0.1321007 0.0788364
000350 07 17 a9 bd c8 c3 4b bd 88 6b b9 be aa 2e 5a 3d
       -0.08256345 -0.04974726 -0.36214852 0.05326716
000360 b3 44 a0 bb 62 a4 dc 3c 20 9a 99 3c a7 73 d6 3c
       -0.004891002 0.026933853 0.01875025 0.026178194
000370 c1 ed d2 bd ce a7 65 3e 1b 7f 7b bd 29 f4 2a 3e
       -0.10299254 0.22427294 -0.061400514 0.16694702
000380 04 11 cb 3c 89 58 90 bd 12 f8 9f ba 51 ff 0a 3e
       0.024788387 -0.07048137 -0.0012204668 0.13573958
000390 c0 68 a8 bd f3 24 3a 3e 17 df fd 3d 22 91 74 3d
       -0.082231045 0.18178158 0.12396067 0.059708722
0003a0 1a d3 a3 3d 19 ff ee 3d 43 ee 74 3d 5f 10 91 bd
       0.07999249 0.1166975 0.059797537 -0.07083201
0003b0 6e 29 ec 3b 2f d0 9a bd 9d 82 e4 3d ab 42 e1 bd
       0.0072070872 -0.07559239 0.11157725 -0.10999044
0003c0 49 a2 75 3b b7 c8 76 bd 74 f7 63 bc 3e ad 92 3d
       0.0037480763 -0.06025001 -0.013913978 0.071619496
0003d0 a8 56 b9 bd ea 0a 07 3e b2 5a 0a be 1f 8c 98 3e
       -0.090497315 0.13187757 -0.1351116 0.29794404
0003e0 de 54 e1 bd a0 c5 d1 3d 36 3a a9 bb 39 df e0 3d
       -0.11002515 0.10242772 -0.00516441 0.10980076
0003f0 6a 38 c9 bd 03 c6 9b bd 4a 39 4d 3d 96 27 0e bd
       -0.09825213 -0.07606127 0.050103463 -0.03470572
