final/baseline.pth (torch, 13900 bytes, 7 tensors)

encoder.0.weight f4 [16, 1, 3, 3]
0	0x3ea691e9	0.32533196
1	0xbbc27085	-0.0059338235
2	0xbe323956	-0.17404684
3	0x3eaf639c	0.34255683
4	0x3d605838	0.054771632
5	0x3e85b565	0.26114956
6	0x3eb2b6d8	0.34905124
7	0xbc8e6b24	-0.017385073
8	0xbd72cea1	-0.059279088
9	0xbe8ea8f6	-0.27863282
10	0x3e73765e	0.23775622
11	0x3e361b75	0.17783912
12	0x3e9bf049	0.3045676
13	0x3e0ec36b	0.13941734
14	0x3e8fff8c	0.28124654
15	0xbe92e850	-0.28692865
16	0x3e83b39c	0.2572297
17	0x3e40cb99	0.18827666
18	0xbd83265b	-0.064038
19	0x3ea54a46	0.3228323
20	0x3e2ff56d	0.17183466
21	0x3ea60e27	0.32432672
22	0x3e1a3b7e	0.15061757
23	0x3e2e1d63	0.17003398
24	0x3eaaa3c1	0.3332806
25	0x3e9610a2	0.29309565
26	0x3e726e13	0.23674802
27	0x3e2a86e1	0.16653015
28	0x3e41cee8	0.18926585
29	0x3e54ae9c	0.20769733
30	0xbe5f84c3	-0.21827988
31	0xbe628a2c	-0.22123021
32	0xbe34efcf	-0.17669605
33	0x3cfc65d1	0.030810269
34	0xbe73cfaf	-0.23809694
35	0x3e43ec12	0.19133022
36	0x3e22a068	0.15881503
37	0x3eb60589	0.35551098
38	0x3eb7e2a3	0.35915098
39	0x3ec12b96	0.37728566
40	0x3ed53fe2	0.416503
41	0x3ec060c7	0.37573835
42	0x3dcd209e	0.10015987
43	0xbe0b9d62	-0.13634256
44	0x3eb413c6	0.35171336
45	0x3e94fffa	0.29101545
46	0x3e9fb12f	0.31189868
47	0x3e1d6732	0.15371397
48	0x3e94e2ed	0.2907938
49	0x3e3891b4	0.18024331
50	0xbced240f	-0.028947858
51	0x3e56af69	0.20965351
52	0xbe264521	-0.16237308
53	0x3ce08978	0.0274093
54	0xbe761262	-0.2403045
55	0xbe8600dc	-0.2617253
56	0xbe6e0a79	-0.23246183
57	0xbd324c27	-0.043529656
58	0xbed0e2bd	-0.40797988
59	0x3e9fe669	0.31230476
60	0xbeeebc5e	-0.46628088
61	0xbe089f9e	-0.13342139
62	0xbe24d8f9	-0.16098393
63	0x3e62d3fc	0.22151178
64	0xbd4a9c12	-0.049465246
65	0x3ea33ada	0.31880838
66	0xbe8a96c0	-0.27068138
67	0x3ecd8bd6	0.4014575
68	0x3e27911e	0.16363952
69	0xbde5593b	-0.1119866
70	0x3ea52857	0.3225734
71	0xbe64041c	-0.22267193
72	0xbe8fc722	-0.28081614
73	0x3e065c0f	0.13121055
74	0x3e3c2780	0.18374443
75	0x3d468a47	0.048471715
76	0x3d3f4717	0.046698656
77	0x3e4953af	0.19660829
78	0x3e6fc03f	0.2341318
79	0xbce19ec5	-0.027541528
80	0x3ea6150c	0.32437932
81	0xbe712e96	-0.23552927
82	0x3de83327	0.113378815
83	0x3e2214c9	0.15828241
84	0xbe710251	-0.2353604
85	0xbe6c9fb0	-0.23107791
86	0xbe409f08	-0.18810666
87	0x3e4f1cf8	0.20225894
88	0x3e85665f	0.26054665
89	0xbe3dd5b9	-0.1853856
90	0x3eb544e0	0.3540411
91	0x3df7093a	0.12062307
92	0xbe1adff2	-0.15124491
93	0x3e58d74f	0.21175884
94	0xbc5ef9da	-0.013609374
95	0x3c999455	0.018747488
96	0x3e949683	0.2902108
97	0xbbd60859	-0.006531757
98	0x3e70bb0a	0.2350885
99	0xbe5c7bc6	-0.21531591
100	0x3de7ab2f	0.113119476
101	0x3df0f817	0.117660694
102	0xbe2dbb3c	-0.16965955
103	0x3ed599ea	0.4171899
104	0xbce524f3	-0.02797172
105	0x3eea0fd4	0.457152
106	0x3dd561ce	0.104190454
107	0x3ea10f02	0.31456763
108	0x3e78a587	0.24281894
109	0xbe604b3b	-0.21903698
110	0xbc187e1d	-0.0093074115
111	0x3cec7350	0.028863579
112	0xbe533511	-0.20625712
113	0xbe1a2610	-0.15053582
114	0xbe0091a3	-0.12555556
115	0xbd38b7c0	-0.045097113
116	0x3e55e973	0.20889835
117	0xbe425b87	-0.18980227
118	0x3e69b78c	0.22823924
119	0x3d9f03f8	0.07764429
120	0x3ea4acfa	0.3216322
121	0xbe4f77be	-0.20260522
122	0x3dde3a54	0.10850969
123	0x3dbbeaf8	0.09175676
124	0xbd986f7c	-0.07443139
125	0xbc4df752	-0.012571173
126	0x3d734388	0.059390575
127	0x3bb5e0e4	0.0055504907
128	0xbe674e88	-0.22588551
129	0xbe5bfd08	-0.21483243
130	0x3e8088c9	0.2510436
131	0x3ea7b4c3	0.32755098
132	0x3ec6048d	0.38675347
133	0x3e5a533e	0.21320817
134	0x3d57e956	0.05271276
135	0x3b87b8a3	0.0041418835
136	0xbbc527c0	-0.0060167015
137	0x3e0ea75d	0.13931032
138	0xbd8dc039	-0.06921429
139	0x3c46a2be	0.012123762
140	0x3e864d54	0.26230872
141	0x3e861520	0.26187992
142	0xbda6f711	-0.08152593
143	0x3ebeda2b	0.37275824

encoder.0.bias f4 [16]
0	0xbe0cf06e	-0.13763592
1	0xbe30abd6	-0.1725305
2	0xbe216ebf	-0.15764903
3	0x3e513075	0.20428641
4	0x3e13bddd	0.14427896
5	0x3d1bc395	0.03802832
6	0x3e68ea79	0.22745694
7	0xbe2d59ca	-0.16928783
8	0xbe240a41	-0.16019537
9	0x3ee38ff6	0.4444577
10	0x3e4b1735	0.19833072
11	0x3d84efa3	0.064910196
12	0x3eaad1d6	0.33363217
13	0x3ee82ef1	0.45348313
14	0x3c6e8ed1	0.014560417
15	0x3e807f35	0.2509705

encoder.3.weight f4 [8, 16, 3, 3]
0	0x3e681cdb	0.22667257
1	0x3d748c96	0.059704386
2	0xbd84052b	-0.06446298
3	0x3e6946fc	0.22780985
4	0x3dca940b	0.09891518
5	0xbe18612d	-0.1488082
6	0x3ebe4492	0.3716169
7	0x3e340260	0.17579031
8	0xbc7210f9	-0.014774554
9	0xbcc94067	-0.024566842
10	0xbe27d70b	-0.16390626
11	0x3e0f7f3b	0.14013378
12	0xbce291f9	-0.027657496
13	0xbe22c1fe	-0.15894315
14	0x3d67db30	0.056605518
15	0x3e21b08c	0.15790004
16	0xbd66b087	-0.056320693
17	0x3e9a2ebb	0.30113778
18	0x3e35727d	0.17719455
19	0xbe1b0882	-0.15139964
20	0xbd331c9f	-0.043728467
21	0xbc217a77	-0.009855858
22	0xbe579b17	-0.21055256
23	0xbe45ebfa	-0.19328299
24	0x3e368a73	0.17826252
25	0xbd961656	-0.07328479
26	0xbd017594	-0.031606272
27	0x3e3d94c6	0.18513784
28	0x3e544945	0.20731075
29	0x3d932e9a	0.07186623
30	0x3ea1268e	0.31474727
31	0x3eab6d0c	0.33481634
32	0x3dee0c82	0.116234794
33	0x3e5afe81	0.21386148
34	0x3e174297	0.14771496
35	0x3d327210	0.04356581
36	0xbd95791e	-0.07298492
37	0xbe9d98d2	-0.30780655
38	0xbe308033	-0.17236404
39	0xbd8b59e6	-0.06804256
40	0xbe9d24e2	-0.30692202
41	0xbecc13d3	-0.39858875
42	0xbdbe259d	-0.09284518
43	0xbea90622	-0.3301249
44	0xbe7aa997	-0.24478756
45	0x3df5101a	0.11965962
46	0xbdfb53b9	-0.12271828
47	0xbe90e4b8	-0.282995
48	0xbd84d5d8	-0.064861
49	0xbea6de11	-0.32591298
50	0xbeb30119	-0.34961775
51	0x3d512193	0.05105741
52	0xbea64675	-0.3247563
53	0xbef58e68	-0.4796021
54	0x3ec71e68	0.38890386
55	0x3eef19d6	0.466994
56	0x3e83e7c3	0.25762758
57	0x3f1776aa	0.5916544
58	0x3f136dae	0.5758923
59	0x3ec7c775	0.3901936
60	0x3ed1bc54	0.40963995
61	0x3f066e68	0.52512217
62	0x3eaa9764	0.33318627
63	0x3e64264a	0.22280231
64	0x3db5bd28	0.08873969
65	0x3e465653	0.19368868
66	0x3e4e61ef	0.20154546
67	0x3c7e36aa	0.015515963
68	0x3d3ec1a8	0.046571404
69	0x3e5f9334	0.21833497
70	0x3d015bfd	0.031581867
71	0x3d3527b2	0.04422731
72	0x3e1aead8	0.15128648
73	0xbe267dcc	-0.16258925
74	0x3d655fd3	0.05599959
75	0x3df86a21	0.121296175
76	0xbde4f82e	-0.11180149
77	0x3e4b6fc2	0.19866851
78	0x3e9d830a	0.30764037
79	0x3dfc189f	0.123093836
80	0x3ecc7562	0.39933306
81	0x3e4cd322	0.20002416
82	0x3e5597fe	0.20858762
83	0xbcd7333b	-0.026269546
84	0x3e9541b8	0.29151702
85	0x3e8db363	0.27675924
86	0x3d3390c3	0.043839227
87	0x3ddaa957	0.1067683
88	0x3e79ac42	0.24382117
89	0xbcbc1bc2	-0.022962455
90	0x3e8b504e	0.27209705
91	0xbd7b8615	-0.061407167
92	0xbec1f313	-0.37880763
93	0x3ea2e3c8	0.31814408
94	0x3c007747	0.007840938
95	0xbebf2f1f	-0.37340638
96	0x3e5e8a33	0.21732406
97	0xbd162a14	-0.036661223
98	0xbeb11e3d	-0.34593382
99	0xbe592220	-0.21204424
100	0xbeeef892	-0.4667402
101	0xbeb009b4	-0.34382403
102	0xbe463853	-0.19357423
103	0xbed87c8b	-0.4228252
104	0xbed4e380	-0.4157982
105	0xbd351385	-0.04420807
106	0xbe6be7ba	-0.23037615
107	0xbe8fa9f2	-0.28059345
108	0x3e77a032	0.24182203
109	0x3e9207c3	0.28521547
110	0x3d7baa9b	0.061442
111	0x3e89180a	0.26776153
112	0x3ea9ccf9	0.33164194
113	0x3db22345	0.086981334
114	0x3e1deb70	0.15421844
115	0x3e77b0f1	0.24188592
116	0x3da3712f	0.079805724
117	0x3e6cf830	0.23141551
118	0x3e40e91c	0.18838924
119	0xbbbad47c	-0.0057015996
120	0x3e48f29e	0.19623801
121	0x3e566df2	0.20940378
122	0xbd7f1c77	-0.062283006
123	0x3e195900	0.14975357
124	0x3e828644	0.25493062
125	0xbe17eed1	-0.14837195
126	0xbe43d13a	-0.19122782
127	0xbea96cca	-0.33090812
128	0xbeaa230f	-0.33229873
129	0xbe0202bc	-0.12696356
130	0xbe916f9f	-0.28405473
131	0xbec73f1f	-0.38915345
132	0x3df1f940	0.11815119
133	0xbe5ad5e3	-0.21370654
134	0xbe7a104b	-0.24420278
135	0x3d8cd532	0.06876601
136	0x3d507ed2	0.050902195
137	0xbe0273ee	-0.12739536
138	0x3e15f6ee	0.14644977
139	0x3db28a3c	0.08717772
140	0xbdd52ba7	-0.10408717
141	0x3e0b774b	0.13619725
142	0x3dc8f601	0.098125465
143	0xbd54aa70	-0.051920354
144	0xbe138541	-0.14406301
145	0xbd71c6e0	-0.059027553
146	0xbdbe4a2c	-0.09291491
147	0xbe19c942	-0.1501818
148	0xbd6cdec1	-0.057829622
149	0xbda9155d	-0.08256028
150	0xbd5d9f78	-0.05410716
151	0xbdb8784c	-0.0900732
152	0xbd64ef70	-0.055892408
153	0xbdd8ef51	-0.10592521
154	0xbb053a2f	-0.002032887
155	0xbd38f3c2	-0.04515434
156	0xbdb0b281	-0.08627797
157	0xbc82f06d	-0.015983785
158	0xbd806a78	-0.06270307
159	0xbc8f42a0	-0.017487824
160	0xbde5f667	-0.11228638
161	0xbd84d16d	-0.06485257
162	0xbca538d7	-0.020168705
163	0xbdfa690c	-0.12227067
164	0x3d6dcede	0.058058612
165	0xbe39bc46	-0.18138227
166	0xbdb2d801	-0.08732606
167	0x3d31417c	0.04327534
168	0xbd477b04	-0.0487013
169	0x3a8bcdbc	0.0010666172
170	0x3cb7c77e	0.022433992
171	0x3e2f12bf	0.17096995
172	0x3df49f8a	0.11944492
173	0x3dad28bb	0.08455034
174	0x3d8e64eb	0.06952842
175	0x3ba34e39	0.00498369
176	0x3bddd067	0.0067692283
177	0x3bf17da8	0.0073697157
178	0xbca1296d	-0.019673074
179	0x3bddda7c	0.00677043
180	0xbd8ff8ae	-0.07029854
181	0xbc95c97f	-0.018284557
182	0x3d5a927c	0.053362355
183	0xbda566bb	-0.08076235
184	0x3d3db004	0.04631044
185	0x3d641cf2	0.055691667
186	0xbcfb718f	-0.030693797
187	0x3c3069b5	0.01076739
188	0x3b0b9286	0.0021297052
189	0xbdc97117	-0.09836023
190	0xbd9fa82c	-0.07795748
191	0x3dc73442	0.09726764
192	0xbe3ad533	-0.18245392
193	0xbd7ad707	-0.061240222
194	0xbc2317c4	-0.009954397
195	0xbd79b132	-0.060960002
196	0x3da153b8	0.07877296
197	0x3db26dcc	0.08712348
198	0x3ed46e82	0.4149056
199	0x3ec13652	0.37736756
200	0x3e1122d7	0.14173447
201	0x3edc86d2	0.4307161
202	0x3e964395	0.29348436
203	0x3e54791a	0.20749322
204	0x3ece9588	0.40348458
205	0x3e9c099d	0.30476084
206	0x3cf09a1d	0.029370362
207	0xbe1ef288	-0.15522206
208	0xbd59a9d5	-0.05314048
209	0x3d22e429	0.03976837
210	0xbdaaad79	-0.083338685
211	0xbdbc67f6	-0.091995165
212	0xbdba4113	-0.09094443
213	0xbde19a46	-0.110157534
214	0x3c50fb49	0.012755224
215	0xbdadb1fa	-0.08481212
216	0xbc0aa233	-0.008461523
217	0xbc9c3d93	-0.01907233
218	0x3d69c878	0.057075948
219	0xbe1033d2	-0.14082268
220	0xbc99b5b9	-0.01876341
221	0xbd34faa6	-0.04418435
222	0xbdc1b6bd	-0.09458683
223	0xbdf6aff0	-0.12045276
224	0x3d53d423	0.05171598
225	0x3d92040a	0.07129677
226	0x3d1dc63b	0.038519125
227	0xbb1241b9	-0.0022317006
228	0x3e0d672e	0.13808891
229	0x3d375df9	0.044767354
230	0x3dba4326	0.09094839
231	0x3e1e40c4	0.15454394
232	0x3d903cef	0.07042872
233	0xbbd175df	-0.006392225
234	0x3cff7e63	0.031188196
235	0xbc291882	-0.0103207845
236	0x3da41478	0.080117166
237	0xbd6782d0	-0.056521237
238	0xbd63d545	-0.05562331
239	0x3d9e23ea	0.07721694
240	0x3dc648ba	0.0968184
241	0x3dd24971	0.10267914
242	0x3e0d4a69	0.13797916
243	0xbd3d8a92	-0.04627473
244	0x3bf448d6	0.007454972
245	0x3de62dac	0.1123918
246	0x3d38157e	0.04494237
247	0x3db1f5a2	0.08689429
248	0x3dfb8d3e	0.12282799
249	0x3de06ae0	0.10957885
250	0xbd0225d8	-0.03177437
251	0x3e1247be	0.1428518
252	0x3e3ae0ee	0.18249866
253	0x3dc239d4	0.09483686
254	0x3c50e89a	0.012750769
255	0x3dec5006	0.11538701

encoder.3.bias f4 [8]
0	0x3e97bb59	0.29635122
1	0x3e24369b	0.16036455
2	0x3df86f38	0.12130588
3	0x3caa0219	0.020752953
4	0x3d5fbaee	0.05462163
5	0x3de5f6c0	0.112287045
6	0x3c9e0659	0.019290136
7	0xbcc420ba	-0.023941386

decoder.0.weight f4 [8, 16, 3, 3]
0	0xbbca9995	-0.006182859
1	0xbd47b584	-0.04875709
2	0x3cd98c26	0.026556086
3	0x3dae53e0	0.08512092
4	0x3dbc5ed1	0.09197772
5	0xbf351f6a	-0.7075106
6	0x3e1753e6	0.14778098
7	0xbd47b464	-0.04875602
8	0xbc4ff6b7	-0.012693099
9	0x3dd23c12	0.10265364
10	0x3e92ce06	0.28672808
11	0x3da2caf5	0.07948867
12	0x3e8224e3	0.25418767
13	0xbd7a0765	-0.06104221
14	0x3ef5228d	0.47877923
15	0xbd360e1c	-0.04444705
16	0x3eaa580e	0.33270305
17	0x3e9941fe	0.2993316
18	0x3d87ad74	0.066248804
19	0x3d6f9fda	0.058502056
20	0x3d92c693	0.07166781
21	0xbd2c9130	-0.04213065
22	0x3f1d1c47	0.6137127
23	0x3d3770df	0.044785377
24	0x3d5ec44d	0.054386426
25	0xbc8a2672	-0.016864035
26	0x3c3305e9	0.010926702
27	0xbe27f8cf	-0.16403507
28	0x3e0661dc	0.13123268
29	0x3e95d214	0.2926184
30	0x3d6be582	0.057591923
31	0x3ec0171b	0.37517628
32	0x3ee5923a	0.44838125
33	0x3eb84889	0.3599284
34	0x3e5bc703	0.21462636
35	0x3f043555	0.5164388
36	0xbd479188	-0.048722774
37	0x3e8d7b05	0.2763292
38	0x3b548600	0.0032428503
39	0x3eb56ef4	0.35436213
40	0xbc6bfda9	-0.014403739
41	0xbecccaaf	-0.39998385
42	0x3d903fcf	0.070434205
43	0x3d687e76	0.056761228
44	0xbd1e9146	-0.038712762
45	0x3ddad0b2	0.10684337
46	0x3e57795c	0.21042389
47	0x3e8cb860	0.27484417
48	0xbd7e2dca	-0.062055387
49	0xbcedb2a1	-0.029015841
50	0xbd000691	-0.031256262
51	0x3da5b518	0.080911815
52	0x3e048fa0	0.12945414
53	0xbd95db23	-0.07317188
54	0x3e9073e9	0.28213432
55	0xbd01edb8	-0.031720847
56	0x3bbe953c	0.00581613
57	0x3e16dd4f	0.1473286
58	0xbcb2679c	-0.02177792
59	0xbeb0acce	-0.3450684
60	0x3dfa0789	0.122084685
61	0x3ba4baa0	0.0050271302
62	0xbe963b2b	-0.29342017
63	0x3c6bfa4b	0.014402936
64	0x3d890323	0.066900514
65	0xbd3de039	-0.046356414
66	0x3e3790fb	0.179264
67	0x3e866748	0.26250672
68	0x3e64bbb5	0.2233723
69	0x3d4fab9b	0.050700765
70	0x3e38284a	0.17984119
71	0x3dbda4c5	0.09259943
72	0x3ecba5ce	0.39774936
73	0x3eaafee9	0.33397606
74	0x3e976527	0.2956936
75	0x3e01eb50	0.12687421
76	0x3e6db884	0.23214918
77	0x3dc19d75	0.09453861
78	0x3e11b500	0.14229202
79	0xbdefd079	-0.11709685
80	0xbebead7c	-0.37241733
81	0x3e185112	0.14874676
82	0x3d73239a	0.059360124
83	0x3eb2828c	0.34865224
84	0x3cd124bc	0.025530212
85	0xbc7dd048	-0.015491553
86	0x3d531f9a	0.05154381
87	0x3e0e7bef	0.13914464
88	0x3c42f142	0.011898341
89	0x3edb5af6	0.42842835
90	0x3dbb5de2	0.09148766
91	0x3e75e8d5	0.240146
92	0x3d86d73a	0.0658402
93	0x3d3a7921	0.045525674
94	0x3e3b225b	0.18274824
95	0x3d23d8d2	0.040001698
96	0x3db122dc	0.08649227
97	0x3c3f10c6	0.011661714
98	0xbdc873b6	-0.09787695
99	0xbd173434	-0.03691502
100	0x3d4e1c60	0.05032003
101	0x3e872f51	0.26403287
102	0x3e8581eb	0.26075682
103	0x3eb33ed7	0.3500888
104	0x3ee0919f	0.438611
105	0x3d7b7ea5	0.061400075
106	0x3e579f09	0.21056761
107	0x3ec57511	0.38565877
108	0x3e906f0f	0.2820973
109	0x3ed68398	0.41897273
110	0x3d8c2837	0.06843608
111	0x3ce4e1a7	0.02793963
112	0xbd55fe1e	-0.0522443
113	0xbf033b4f	-0.5126237
114	0x3dc0501a	0.09390278
115	0x3cefa4f3	0.029253459
116	0xbe91b32c	-0.2845701
117	0x3d1ffedb	0.03906141
118	0x3cafa44d	0.02144065
119	0x3d95a367	0.07306557
120	0x3e9d04bc	0.30667675
121	0x3e017886	0.12643632
122	0xbe4e2a81	-0.20133401
123	0x3e03a9b4	0.12857705
124	0xbc9b43c5	-0.018953213
125	0xbe146a8a	-0.14493766
126	0x3db37d59	0.087641425
127	0xbd1e4568	-0.03864041
128	0x3dbabf44	0.09118512
129	0x3e9ad4f8	0.30240607
130	0x3e0c0cc0	0.13676739
131	0xbefca701	-0.49346164
132	0x3dd91d48	0.10601288
133	0xbcba4105	-0.022736082
134	0xbe71a4f3	-0.2359808
135	0xbd09a7dd	-0.033607353
136	0x3da6820f	0.081302755
137	0x3d81f688	0.0634585
138	0xbaefa300	-0.0018282831
139	0x3dbc6a32	0.09199943
140	0xbc598760	-0.013276905
141	0x3de358e8	0.11100942
142	0xbd0241dc	-0.03180109
143	0x3ed4e0e7	0.41577837
144	0xbcf47ca4	-0.02984459
145	0xbda015a4	-0.078166276
146	0xbc13da31	-0.009024189
147	0x3cfef545	0.031122813
148	0xbd12a908	-0.035805732
149	0xbd2b90e3	-0.04188622
150	0xbd5cd348	-0.05391243
151	0x3d3490bd	0.044083346
152	0x3cae24cf	0.021257786
153	0x3d83a18b	0.06427296
154	0xbd7edb81	-0.062221054
155	0x3d8124de	0.0630586
156	0x3db554a5	0.08854035
157	0x3c6e3383	0.014538649
158	0x3df687c6	0.120376155
159	0x3d8f4ea2	0.0699742
160	0x3e87bd95	0.26511827
161	0xbd44a759	-0.048011158
162	0xbd2a1f50	-0.04153377
163	0xbda75919	-0.08171291
164	0x3c66019b	0.014038469
165	0xbccb973c	-0.024852388
166	0xbe183da1	-0.1486726
167	0xbd499dc0	-0.049222708
168	0xbe00ceed	-0.12578936
169	0xbd1c4e9b	-0.0381609
170	0xbdc9e873	-0.09858789
171	0xbd91cd22	-0.07119204
172	0x3da851ae	0.08218704
173	0xbe416246	-0.18885145
174	0x3da18577	0.078867845
175	0x3e7b629d	0.24549337
176	0x3d1ceb87	0.038310554
177	0xbb8c6dec	-0.0042855646
178	0x3e539260	0.20661306
179	0x3db9ae75	0.09066478
180	0xbd27f926	-0.04100909
181	0xbd998102	-0.074953094
182	0xbcac157c	-0.021006338
183	0xbc6396db	-0.013890947
184	0x3d103a4d	0.03521185
185	0x3cbc63c1	0.022996785
186	0x3c911c84	0.017713793
187	0x3c2e7d6f	0.010650023
188	0xbc85e166	-0.01634283
189	0xbd859e6b	-0.065243565
190	0xbd88ef16	-0.06686227
191	0xbcd2736e	-0.025689807
192	0x3bd7f913	0.0065909713
193	0xbe1bd772	-0.15218905
194	0xbd89aa1c	-0.06721899
195	0xbe38c50c	-0.18043917
196	0xbe76aa7c	-0.24088472
197	0xbdf8264f	-0.12116682
198	0x3bf76101	0.0075494056
199	0xbb0306fc	-0.0019993177
200	0x3e089f1a	0.13341942
201	0x3beacbb6	0.0071653975
202	0x3c94c564	0.01816053
203	0x3bdb3b83	0.006690444
204	0x3d5f9522	0.054585584
205	0x3d2044b3	0.039128017
206	0x3addeba2	0.0016931186
207	0x3bd4abcb	0.006490206
208	0x3de8d667	0.11369019
209	0xbcf8db4f	-0.030378012
210	0x3e4d52c9	0.20051111
211	0x3e2c0710	0.16799569
212	0x3de65d35	0.112482466
213	0x3e2f6b37	0.17130743
214	0x3e5bae2e	0.21453163
215	0x3ca973ab	0.020685038
216	0x3c628088	0.01382459
217	0xbd394646	-0.045233034
218	0x3d4d8286	0.050173305
219	0xbd67817a	-0.056519963
220	0xbd70a5b4	-0.058751777
221	0x3d8464ef	0.06464564
222	0x3b9a489c	0.0047083627
223	0xbdd75579	-0.105143495
224	0x3d8ba7f7	0.06819146
225	0x3c34b978	0.011030547
226	0x3cf7a1a4	0.030228443
227	0x3dafa37d	0.08576105
228	0xbd3fd656	-0.046835266
229	0xbd8346d2	-0.06409992
230	0xbd9b7ac8	-0.07591778
231	0x3e0ca59b	0.13735048
232	0xbcc6f195	-0.024285117
233	0x3cd570c5	0.02605475
234	0xbd60d18b	-0.054887336
235	0x3d46b693	0.04851396
236	0x3de4f899	0.11180229
237	0xbcc4749e	-0.023981389
238	0xbdd67d20	-0.104730844
239	0xbd6eb174	-0.0582747
240	0xbdb01c82	-0.085991874
241	0xbd92d3ec	-0.07169327
242	0x3c26d58b	0.010182749
243	0xbb33893e	-0.0027395035
244	0x3ca47957	0.02007739
245	0xbd2665ff	-0.040624615
246	0x3dea9acb	0.11455306
247	0x3e6168ec	0.22012681
248	0x3df68d6c	0.12038693
249	0x3e1eba9d	0.15500875
250	0x3dd851ac	0.10562453
251	0x3e10517d	0.14093585
252	0xbc9424b6	-0.018083911
253	0xbda271f4	-0.07931891
254	0x3e1c0742	0.15237144
255	0xbd9580a8	-0.0729993

decoder.0.bias f4 [16]
0	0x3db66a90	0.08907044
1	0xbcc99d04	-0.024611004
2	0xbc6e043d	-0.014527378
3	0x3da76092	0.08172716
4	0x3cb6aeee	0.02230021
5	0x3a88bb51	0.0010431801
6	0xbd37e22d	-0.044893432
7	0x3d6553f0	0.055988252
8	0xbc6543d7	-0.013993225
9	0xbb2c183b	-0.002625956
10	0x3df1ddd7	0.11809891
11	0x3d930923	0.07179477
12	0x3b357637	0.002768887
13	0x3d24ffee	0.040283136
14	0x3d542380	0.051791668
15	0xbcb5a9a0	-0.02217561

decoder.2.weight f4 [16, 1, 3, 3]
0	0xbe99805d	-0.29980746
1	0x3eb7b274	0.35878336
2	0xbe209354	-0.15681201
3	0xbd964269	-0.073368855
4	0x3deac913	0.11464133
5	0x3e8f1c09	0.27951077
6	0xbe9473b0	-0.28994513
7	0x3e01177d	0.12606616
8	0x3db4174f	0.08793508
9	0xbcc1ec79	-0.02367233
10	0x3d482756	0.04886564
11	0xbc9071f3	-0.01763246
12	0xbe8b2e31	-0.2718368
13	0xbdd0f593	-0.102030896
14	0xbe94f97b	-0.29096588
15	0x3e685d5e	0.22691867
16	0xbe49cc46	-0.1970683
17	0x3ce743cf	0.028230576
18	0x3dc1dbcc	0.09465751
19	0x3eb097dd	0.34490862
20	0x3e818c04	0.25302136
21	0x3e42ce9a	0.19024125
22	0xbe05f8af	-0.13083147
23	0x3e707ab9	0.23484315
24	0xbe1492a4	-0.14509064
25	0x3d2bedf3	0.041974973
26	0x3e73d58d	0.23811932
27	0xbddf4b30	-0.10903013
28	0x3e26864c	0.16262168
29	0xbd29f330	-0.041491687
30	0x3cc077d9	0.023494648
31	0xbefe82fa	-0.49709302
32	0x3d4e7d02	0.050412185
33	0xbdae9157	-0.08523815
34	0xbed73d20	-0.42038822
35	0xbeb34aee	-0.35018104
36	0x3dd9b142	0.10629512
37	0x3dff0bb8	0.12453407
38	0x3e25ec2e	0.16203377
39	0x3ecfdc75	0.40597883
40	0x3eb88a39	0.36042956
41	0x3e80b590	0.2513852
42	0xbc0faf74	-0.008769859
43	0x3e2ab4da	0.16670552
44	0x3d96fb4d	0.073721506
45	0x3d88fceb	0.06688865
46	0xbe31ade9	-0.17351498
47	0x3e83ff3a	0.2578066
48	0x3e91e700	0.28496552
49	0xbcb247fb	-0.021762839
50	0x3a5c7784	0.0008410143
51	0x3e7c7cf9	0.24657048
52	0x3e90ebd7	0.28304932
53	0xbc40d7d7	-0.01177021
54	0xbd83df6f	-0.06439101
55	0x3eabc5d3	0.33549365
56	0x3e7e77c5	0.24850376
57	0x3c971adb	0.018445423
58	0xbce3391b	-0.027737191
59	0x3ec70d98	0.3887756
60	0x3e8ea194	0.2785765
61	0x3e2ad54f	0.16682933
62	0xbdedb35e	-0.11606477
63	0xbe642873	-0.22281055
64	0xbeaf2b98	-0.34212947
65	0x3d268388	0.04065278
66	0xbe27161e	-0.16317031
67	0xbee09acc	-0.438681
68	0xbc879fe2	-0.01655573
69	0xbe67a441	-0.22621252
70	0xbe9da22e	-0.30787796
71	0x3e6ab750	0.2292149
72	0x3d935530	0.071939826
73	0x3d32b816	0.04363259
74	0x3e14083e	0.14456269
75	0x3e9bc57d	0.3042411
76	0x3ed106c6	0.4082548
77	0xbc95c513	-0.018282449
78	0xbd3bff5d	-0.04589783
79	0xbe7e9091	-0.24859835
80	0xbd5bf40a	-0.05369953
81	0xbd80faf6	-0.06297867
82	0xbdaff990	-0.08592522
83	0xbe51d458	-0.20491159
84	0xbe1e8c77	-0.1548327
85	0xbeb6f9d2	-0.35737473
86	0xbe9f31ee	-0.3109278
87	0xbe19445c	-0.14967483
88	0xbd299c5e	-0.04140889
89	0xbe4f1185	-0.20221527
90	0x3e8ee56e	0.27909416
91	0x3e6c4afe	0.23075482
92	0xbe0ef30e	-0.13959906
93	0x3cfc8d30	0.030829042
94	0x3eb2fca3	0.34958372
95	0xbd5c0806	-0.05371859
96	0x3e902b2e	0.28157943
97	0xbe092256	-0.13392004
98	0x3e91b029	0.28454712
99	0xbddbbb14	-0.10729042
100	0xbc4fefb9	-0.012691432
101	0xbe40a9fe	-0.18814847
102	0xbe4761fd	-0.19470973
103	0xbda3d2d5	-0.079991974
104	0xbe98acef	-0.29819438
105	0xbdd7b13a	-0.1053185
106	0xbe82e70f	-0.2556691
107	0xbe431552	-0.19051102
108	0xbda2d1df	-0.07950186
109	0x3e29d9ea	0.16587034
110	0x3e946816	0.2898566
111	0xbde4981e	-0.111618266
112	0xbe164a94	-0.14676887
113	0x3d900d28	0.07033759
114	0x3db8442d	0.089973785
115	0x3eb49d2c	0.35276163
116	0x3c8ad5f8	0.016947731
117	0x3dd27a1b	0.10277196
118	0xbe6a5ee2	-0.22887757
119	0x3e1e63e6	0.15467796
120	0x3e8915df	0.267745
121	0x3e6ee8ae	0.23330948
122	0xbd699dc9	-0.05703524
123	0x3ea736c8	0.32658982
124	0x3d99ab11	0.075033315
125	0x3deb997b	0.115038835
126	0x3e072545	0.13197811
127	0xbd9966c7	-0.07490306
128	0x3e1d53a2	0.15363935
129	0x3dbb696f	0.09150969
130	0xbe0fb2b2	-0.1403301
131	0x3e8ee71f	0.27910706
132	0xbe95a60b	-0.29228243
133	0x3ebe6a85	0.37190643
134	0x3e4b0b70	0.19828582
135	0xbea840fe	-0.32862085
136	0x3ea2ae7d	0.3177375
137	0x3c0be5e6	0.008538699
138	0x3dbc1825	0.09184293
139	0x3d82c52e	0.06385265
140	0xbe23d432	-0.15998915
141	0xbe17c89c	-0.1482262
142	0x3e2c2f93	0.16815023
143	0xbeb2422f	-0.3481612
