saved_models/old_models/512SuperMRI_50.pth (torch, 29474 bytes, 25 tensors)

input_block.conv1.weight f4 [3, 1, 3, 3]
0.15203917 0.101332076 -0.81287307 -0.82295096 -0.8855666 -1.435735 0.081045784 -1.23458
-0.4158039 0.08453487 -3.255301 0.29128167 -0.20457172 0.22217286 0.4562959 0.06855374
0.37864527 0.33367017 0.16491327 -0.03833221 0.106757745 0.10619708 0.9977046 0.16240256
-0.07583398 3.44685 -0.046135355
00000000: 28b0 1b3e 3187 cf3d 7318 50bf eaac 52bf
00000010: 7eb4 62bf 2ac6 b7bf 55fb a53d b806 9ebf
00000020: 40e4 d4be 9e20 ad3d da56 50c0 df22 953e
00000030: 407b 51be 4881 633e 9e9f e93e e765 8c3d
00000040: cbdd c13e d1d6 aa3e 06df 283e 3c02 1dbd
00000050: cea3 da3d db7d d93d 9269 7f3f db4c 263e
00000060: d94e 9bbd 3199 5c40 6df8 3cbd

input_block.conv2.weight f4 [3, 3, 3, 3]
-0.6969167 -0.3321526 0.26607752 -0.54346377 0.22010568 0.076315336 -0.274172 0.45143324
-0.23623915 0.05782746 0.054813977 0.059307314 -0.06664061 -2.9899642 0.18316302 0.119331025
-0.058402658 -0.93951213 0.33138746 0.596876 0.8054468 0.25281674 0.40030056 0.64100176
0.1097767 0.23630893 0.09317678 0.0681245 -0.19789009 0.34901997 -0.35382494 -0.8033309
-0.31005928 0.15973823 -0.6587985 0.12446627 0.29056534 -0.07046849 0.2162503 -0.06196412
-0.3313583 -0.05828014 -0.07354799 0.073375836 -0.33948871 -1.3154293 -0.8310923 -3.2753947
-1.7350085 -0.8464639 -3.1993184 -0.95576185 -1.0896851 0.432545 -0.84936905 -0.839859
0.3992584 -0.3163491 0.33319774 0.59264654 0.101001605 0.51380897 0.24974307 0.025406182
0.13557158 0.089612365 0.29687527 -0.6189038 0.4781558 0.40000135 0.6636268 0.33065087
1.2010984 1.5372283 2.234547 0.9665295 1.8624319 1.7003188 0.05290016 1.6206697
0.3081944
00000000: 2269 32bf e80f aabe 503b 883e 7120 0bbf
00000010: 6263 613e 374b 9c3d 4660 8cbe 4222 e73e
00000020: ade8 71be 7ddc 6c3d 9f84 603d 3aec 723d
00000030: df7a 88bd 935b 3fc0 168f 3b3e d363 f43d
00000040: a037 6fbd de83 70bf 9eab a93e decc 183f
00000050: c331 4e3f 3271 813e 32f4 cc3e b118 243f
00000060: 9bd2 e03d f8fa 713e 78d3 be3d dc84 8b3d
00000070: b3a3 4abe bfb2 b23e 8b28 b5be 18a7 4dbf
00000080: 17c0 9ebe 6b92 233e 05a7 28bf 2ce8 fe3d
00000090: fbc4 943e c951 90bd b870 5d3e 17ce 7dbd
000000a0: cca7 a9be 28b7 6ebd 54a0 96bd 1246 963d
000000b0: 77d1 adbe fd5f a8bf 77c2 54bf 11a0 51c0
000000c0: c214 debf dcb1 58bf a2c1 4cc0 cfac 74bf
000000d0: cd7a 8bbf 8a76 dd3e 4070 59bf 0001 57bf
000000e0: 996b cc3e 82f8 a1be e598 aa3e afb7 173f
000000f0: eed9 ce3d fc88 033f a6bc 7f3e a020 d03c
00000100: 47d3 0a3e b086 b73d 0900 983e 7b70 1ebf
00000110: d6d0 f43e facc cc3e 72e3 293f 124b a93e
00000120: 98bd 993f e6c3 c43f d102 0f40 7a6e 773f
00000130: 2b64 ee3f 0ca4 d93f d7ad 583d 1b72 cf3f
00000140: a8cb 9d3e

down_blocks.0.conv_block.conv1.weight f4 [6, 3, 3, 3]
-0.8646834 -0.950415 -0.35678476 -1.1320972 -1.5026169 -0.781347 -0.91455054 -1.4813721
-1.0954008 -0.045316767 -0.677011 -0.53325194 -0.56252074 -0.94371957 -0.4322884 0.050079353
-0.6335621 0.08650348 -0.26781622 0.34319532 -0.11391662 0.16407497 0.51239085 0.33457732
0.18970042 0.12508292 -0.60514826 0.28991237 0.311059 0.09524142 0.5846482 0.5422098
0.04249653 1.0171623 0.73398155 0.40940866 1.1149216 3.0758924 0.69234324 0.7918007
2.4511015 0.62435377 0.8076192 2.5916991 0.0064029116 -0.26568636 -0.011838455 0.033655513
-0.29091927 0.21064974 -0.17493616 -0.1366653 0.026244055 -0.19060433 -0.3486149 0.1367236
-0.48508215 0.2895156 0.643979 0.08132654 -0.6535768 -0.51906896 -1.4124501 -0.3464742
-0.48373514 -0.84317267 0.14924295 -0.03186445 -0.12670362 -0.04917832 -0.4013175 -0.4188266
-0.9441447 1.6111026 0.03263729 0.19677982 1.6575997 0.5583451 -0.39122918 1.6898232
-0.71322805 0.3751515 -1.151211 -0.72567993 -0.40944973 -1.8669848 -0.5774059 -0.07970601
-0.6165818 0.44409016 0.074803375 -0.87748504 0.625097 -0.46116543 -1.1443679 -0.2873204
0.5668244 -0.42218122 0.40943173 1.3714389 -0.40417162 -0.026290987 0.24023254 -0.69360733
0.33834532 -0.6335178 0.012098528 0.9326552 -0.26170295 -0.46173692 -0.24438767 -0.29124588
-0.6209037 -0.5748982 -0.23799373 -0.231788 -0.1466881 -0.88156474 -1.3709348 -0.17519967
-1.0349172 -1.689849 -0.5998195 -0.59019554 -1.0999929 0.3186817 -0.253952 -0.4688397
-0.028685873 -0.31912026 -0.48052615 -0.28123415 0.19932081 -0.18400945 -0.36870182 0.10616793
-0.2348122 -0.36482328 0.09351111 -0.23874399 -0.4205942 0.18485789 -0.1679227 -0.26577327
-0.46294704 -0.8262469 -0.6849084 -0.3700402 -0.47258192 -0.5594116 -0.46439806 -0.5624077
-0.60942686 -0.7336891 -0.941203 -0.8224049 -0.59844446 -0.80445534 -0.80255145 -0.48916218
-0.63978285 -0.75069577
00000000: e45b 5dbf 664e 73bf 7eac b6be 90e8 90bf
00000010: c055 c0bf 5b06 48bf fc1f 6abf 9a9d bdbf
00000020: 1836 8cbf 139e 39bd 9850 2dbf 3383 08bf
00000030: 5c01 10bf 9b97 71bf e854 ddbe 0220 4d3d
00000040: 2031 22bf bd28 b13d 351f 89be 4cb7 af3e
00000050: 1e4d e9bd 4503 283e 0c2c 033f b84d ab3e
00000060: d440 423e bd15 003e ffea 1abf 656f 943e
00000070: 2043 9f3e ef0d c33d 81ab 153f 43ce 0a3f
00000080: d710 2e3d 6032 823f 37e6 3b3f 039e d13e
00000090: c0b5 8e3f 6cdb 4440 683d 313f 73b3 4a3f
000000a0: d9de 1c40 a6d5 1f3f 22c0 4e3f 66de 2540
000000b0: 84cf d13b 0b08 88be 14f6 41bc 5dda 093d
000000c0: 5ff3 94be 91b4 573e 7722 33be fdf1 0bbe
000000d0: c6fd d63c c82d 43be a77d b2be 4501 0c3e
000000e0: b05c f8be 643b 943e cfdb 243f 878e a63d
000000f0: cf50 27bf b4e1 04bf 2acb b4bf 1165 b1be
00000100: 22ac f7be 2ada 57bf 25d3 183e 4c84 02bd
00000110: 98be 01be 356f 49bd 7d79 cdbe 7170 d6be
00000120: 78b3 71bf 9c38 ce3f aeae 053d a680 493e
00000130: 3a2c d43f b4ef 0e3f 314f c8be 204c d83f
00000140: 1d96 36bf db13 c03e e25a 93bf 29c6 39bf
00000150: 65a3 d1be 5cf9 eebf e0d0 13bf e83c a3bd
00000160: 4ed8 1dbf c95f e33e 8332 993d dca2 60bf
00000170: 5b06 203f e01d ecbe a67a 92bf a91b 93be
00000180: 671b 113f 2328 d8be 09a1 d13e 4f8b af3f
00000190: 95ef cebe 3260 d7bc 85ff 753e 4090 31bf
000001a0: 993b ad3e 392e 22bf e838 463c 7ec2 6e3f
000001b0: eefd 85be c868 ecbe c340 7abe 2e1e 95be
000001c0: 8bf3 1ebf 872c 13bf a1b4 73be d559 6dbe
000001d0: 6835 16be 3aae 61bf cb7a afbf 8b67 33be
000001e0: 2b78 84bf f94c d8bf c58d 19bf 0e17 17bf
000001f0: 91cc 8cbf 3f2a a33e ff05 82be c20b f0be
00000200: a3fe eabc bb63 a3be 8607 f6be ecfd 8fbe
00000210: c11a 4c3e f96c 3cbe 7cc6 bcbe 926e d93d
00000220: 9c72 70be 1eca babe c182 bf3d 4e79 74be
00000230: 1f58 d7be 634b 3d3e eef3 2bbe 6f13 88be
00000240: 6507 edbe eb84 53bf 2856 2fbf e975 bdbe
00000250: 42f6 f1be 9935 0fbf 95c5 edbe f3f9 0fbf
00000260: 6603 1cbf 0dd3 3bbf aef2 70bf 2189 52bf
00000270: a833 19bf c9f0 4dbf 0374 4dbf 7773 fabe
00000280: cfc8 23bf 992d 40bf

down_blocks.0.conv_block.conv2.weight f4 [6, 6, 3, 3]
-0.16709489 1.5335668 0.6230386 1.1197466 2.8476353 2.2806125 -0.560647 0.84677553
0.2932157 0.33118203 0.86865914 0.6488874 0.38480407 0.89461976 0.63976866 0.344886
0.63900465 0.586065 -0.347821 0.83111167 0.5501477 -0.084661715 0.6525467 0.09550235
-0.07138404 0.22981103 -0.6909173 0.0773326 1.0923185 0.7438224 0.3055022 1.0469232
0.65404576 -0.78275657 0.4391389 0.05014756 -0.042202435 0.27205184 0.014447209 -0.072856
0.2316225 -0.24267015 -0.3957551 -0.05208012 -0.55587304 0.4098575 0.768937 0.18368243
0.7913266 1.2691855 0.7196706 -0.121702164 0.36701342 -0.31374413 0.041270297 -0.23306926
0.07856189 -0.270581 -0.40901253 -0.36408043 -0.083413154 -0.40126866 -0.086691655 -0.47191644
-0.6529159 -0.74941355 -0.7567151 -0.62841964 -0.79958576 -0.47376963 -0.34467945 -0.45217884
-0.43186283 -1.2534972 -0.77624476 -0.4789991 -1.1065977 -0.7323818 -0.48703542 -0.99124616
-0.34682706 0.24433158 0.6502404 0.6120245 0.33721337 0.73680705 0.3740965 0.6553938
0.78736556 0.3642527 -0.20301937 -0.67071605 -0.33206624 -0.399226 -0.9815257 -0.528847
-0.3590699 -0.5956413 -0.34187043 -0.12117789 -0.83052886 0.156457 -0.34617865 -1.1485331
-0.3028297 -0.20793992 -0.7651902 -0.22576739 -1.4486043 -0.88222224 -1.2653863 -1.7736307
-1.0588679 -1.6306789 -1.6603303 -1.0865153 -1.3348055 0.12180058 -0.45596898 -0.48912323
0.10972872 -0.17149866 -0.38454652 0.4859646 0.09183888 0.22149776 0.5069297 0.9497163
0.251387 1.0382841 1.5046364 0.79152083 0.6887357 0.77362317 0.14040883 -0.5868962
-0.31195852 -0.72276014 -0.5535311 -0.57499915 -0.19504778 -0.4295616 -0.4025918 -0.20266442
0.60798043 0.1293738 0.70249456 0.5318524 -0.68635046 -0.13329163 0.6270101 -0.27220908
0.3331563 0.19459634 -0.36688536 0.41639733 -0.10444958 -0.78629696 0.062182087 0.8302906
0.48077416 1.0513078 -0.19399786 -0.049899932 -0.897397 2.4862962 2.5944133 0.24630444
2.3563182 2.618488 0.35696137 -0.3295355 0.09960504 -0.071806185 0.21122663 0.41441715
0.34573853 -0.20088837 0.19797473 -0.08178544 -0.22515292 0.6186153 0.36647528 -0.037862957
0.25442564 -0.02854389 0.17428045 -0.18732198 -0.43671086 0.34601232 0.51834744 -1.1700962
0.9810236 1.2084417 0.20582055 0.86547107 1.3807786 0.15780294 -0.025762273 0.5471898
-0.94092375 0.3666658 0.6406994 -0.37674874 0.64711833 1.0070362 -0.07135445 0.40258443
0.12411146 -0.08334611 0.5507715 0.36402887 0.48293802 0.5340676 0.5327382 0.47451717
0.529881 0.9600943 0.58660454 0.4357568 1.3015469 1.0639267 -0.8501506 -0.0073057525
-0.38312194 0.052687522 0.23941514 -0.75758475 -0.06515641 0.25545964 -0.37450778 -0.19569163
0.32062578 -0.096627474 0.64337265 0.28368443 0.62778527 0.42210507 -0.3240623 0.26831478
0.23465508 -0.16570595 0.05100204 -0.3595187 1.6179942 0.559729 0.659899 2.1326308
0.65436393 -0.4214468 1.0094255 -0.78364 -0.0697818 0.5806781 0.9513355 0.37520292
00000000: ec1a 2bbe eb4b c43f 757f 1f3f db53 8f3f
00000010: a83f 3640 8ef5 1140 9086 0fbf 48c6 583f
00000020: 5e20 963e b190 a93e 7260 5e3f 7c1d 263f
00000030: 0a05 c53e cd05 653f e1c7 233f e694 b03e
00000040: cf95 233f 5b08 163f 9815 b2be bcc3 543f
00000050: 7bd6 0c3f 1f63 adbd 4d0d 273f bc96 c33d
00000060: cc31 92bd 9553 6b3e f5df 30bf 8e60 9e3d
00000070: 18d1 8b3f 256b 3e3f c96a 9c3e 9401 863f
00000080: 8b6f 273f bc62 48bf d0d6 e03e 8767 4d3d
00000090: 76dc 2cbd 614a 8b3e fdb3 6c3c 8735 95bd
000000a0: 732e 6d3e 867e 78be 6aa0 cabe f751 55bd
000000b0: b24d 0ebf d8d8 d13e 0ed9 443f 3f17 3c3e
000000c0: 6194 4a3f ac74 a23f 553c 383f fc3e f9bd
000000d0: 2fe9 bb3e 12a3 a0be 0b0b 293d b5a9 6ebe
000000e0: 0ee5 a03d 9889 8abe 176a d1be c068 babe
000000f0: 84d4 aabd 1673 cdbe 658b b1bd 089f f1be
00000100: 7f25 27bf 91d9 3fbf 15b8 41bf 1ce0 20bf
00000110: a7b1 4cbf ef91 f2be d379 b0be fc83 e7be
00000120: 201d ddbe 9972 a0bf fab7 46bf 5f3f f5be
00000130: fea4 8dbf 607d 3bbf b55c f9be 4fc2 7dbf
00000140: 5193 b1be 0f32 7a3e 2876 263f a3ad 1c3f
00000150: 3ba7 ac3e 639f 3c3f 9489 bf3e e3c7 273f
00000160: ca90 493f 547f ba3e 4fe4 4fbe 0cb4 2bbf
00000170: 9604 aabe 5a67 ccbe 4545 7bbf 8462 07bf
00000180: 03d8 b7be f37b 18bf a409 afbe 1d2c f8bd
00000190: 8a9d 54bf 4436 203e 543e b1be 2203 93bf
000001a0: 7f0c 9bbe 34ee 54be 81e3 43bf 912f 67be
000001b0: de6b b9bf 51d9 61bf 2ef8 a1bf 5506 e3bf
000001c0: fc88 87bf 16ba d0bf b485 d4bf ef12 8bbf
000001d0: e8da aabf 9572 f93d c474 e9be 5c6e fabe
000001e0: 73b9 e03d 589d 2fbe 48e3 c4be 5ad0 f83e
000001f0: 0616 bc3d 4fd0 623e 25c6 013f 9c20 733f
00000200: ccb5 803e 7ee6 843f ed97 c03f 1ca1 4a3f
00000210: fc50 303f 2b0c 463f 55c7 0f3e d43e 16bf
00000220: 07b9 9fbe cf06 39bf 37b4 0dbf 2533 13bf
00000230: 9bba 47be 7fef dbbe 8320 cebe 4387 4fbe
00000240: 9ba4 1b3f 917a 043e afd6 333f 7b27 083f
00000250: aab4 2fbf 9a7d 08be bc83 203f fd5e 8bbe
00000260: 7693 aa3e 4344 473e 66d8 bbbe 0832 d53e
00000270: a9e9 d5bd c24a 49bf a5b2 7e3d ed8d 543f
00000280: 0828 f63e 4191 863f 60a7 46be df63 4cbd
00000290: cfbb 65bf 7a1f 1f40 de0a 2640 3b37 7c3e
000002a0: ebcd 1640 4f95 2740 a4c3 b63e e1b8 a8be
000002b0: bafd cb3d 1f0f 93bd cb4b 583e 7c2e d43e
000002c0: a404 b13e aeb5 4dbe e3b9 4a3e 207f a7bd
000002d0: 7d8e 66be 935d 1e3f a6a2 bb3e 3016 1bbd
000002e0: 1444 823e e0d4 e9bc 9376 323e 55d1 3fbe
000002f0: 9198 dfbe 8728 b13e 6bb2 043f b6c5 95bf
00000300: 5d24 7b3f 38ae 9a3f 9fc2 523e 838f 5d3f
00000310: 5abd b03f 1897 213e 670b d3bc a114 0c3f
00000320: 61e0 70bf 9fbb bb3e e004 243f 36e5 c0be
00000330: 8ca9 253f 90e6 803f 4822 92bd 8c1f ce3e
00000340: 262e fe3d 5eb1 aabd 5cff 0c3f fe61 ba3e
00000350: a743 f73e a7b8 083f 8861 083f eaf3 f23e
00000360: 48a6 073f bdc8 753f b72b 163f 841b df3e
00000370: 1799 a63f c02e 883f 78a3 59bf 1865 efbb
00000380: 8f28 c4be dfce 573d 3e29 753e 13f1 41bf
00000390: b970 85bd 9bcb 823e 7cbf bfbe 6363 48be
000003a0: 1029 a43e a0e4 c5bd 12b4 243f 163f 913e
000003b0: 89b6 203f 281e d83e 7eeb a5be 8e60 893e
000003c0: 6c49 703e d2ae 29be 84e7 503d d612 b8be
000003d0: 6f1a cf3f 664a 0f3f 24ef 283f 067d 0840
000003e0: 6584 273f e0c7 d7be db34 813f a29c 48bf
000003f0: c3e9 8ebd 52a7 143f b98a 733f 991a c03e

down_blocks.1.conv_block.conv1.weight f4 [12, 6, 3, 3]
0.54455316 0.48902297 -0.12672827 1.1436573 1.4368038 0.92572576 0.54711425 0.55943805
0.28726196 -0.886674 -1.0853314 -0.50976217 -0.69744176 -1.0557026 -0.46206596 -0.43965358
-0.5733592 -0.19155467 -0.9215356 -0.8474097 -0.42863554 -0.881602 -0.70128816 -0.5896974
-0.82233506 -0.8897902 -0.5569737 0.09188095 0.68202984 -0.012776726 0.4603509 1.0194904
0.5058668 -0.060828105 0.0023161825 -0.40976033 -0.029489603 0.012642127 -0.30489457 0.4429222
0.30528286 0.26355588 0.20786089 -0.06460711 -0.39536342 -0.78875244 -0.87861 -0.8485737
-0.590646 -0.7662342 -0.81221056 -0.21668193 -0.31170484 -0.32524318 0.25431946 0.21239078
-0.5348236 0.88080555 0.99772894 0.08151973 0.92834145 1.04384 0.38628772 -0.52001804
-1.2689704 -1.0975955 -0.30040836 -1.1138045 -0.70299023 0.24138133 -0.13803276 0.1785168
-0.34478995 -0.3655523 0.36592206 -0.83631974 -0.7421286 -0.022424573 -0.604181 -0.7788585
-0.27008185 0.24702974 0.8068902 -0.33827466 0.874027 1.450943 0.119132176 1.1297289
1.3460568 0.049926683 -0.7261219 0.32245877 -0.15722647 -1.2960069 -0.48372385 -0.6878082
-1.2056104 -0.6534031 -1.0472618 -0.6981906 -0.90305936 -1.0018005 -0.31542444 -0.45317653
-0.66247433 -0.022918072 -0.02479044 -0.13130128 0.45643687 0.44524026 0.9088829 0.69140005
0.55078596 0.83621526 1.2466062 1.0652001 0.54238075 0.32152537 0.3341838 -0.809881
0.09891508 0.6839436 -0.71437943 -0.42560712 0.08448979 -1.0237337 -1.3464096 -1.5616583
0.11283211 -2.6515465 -2.2962542 -0.32541472 -2.6573765 -1.9059215 0.3773905 -0.24866007
0.25059435 0.114085846 -0.30551937 0.16977096 -0.4080729 0.12080184 0.44057846 -0.4355636
-1.1920174 -0.5200194 -0.5274446 -1.1876839 -0.85217917 -0.54502445 -0.6428037 -0.37902346
-0.597063 -0.36360276 -0.70162547 -1.2058687 -1.1096112 -1.3666352 -1.1624367 -0.7560281
-1.3225601 -0.8893284 0.09602065 0.2646662 -0.17200312 0.96274686 1.1492493 0.7052895
0.054133937 0.53164846 -0.47767684 -0.30171534 -0.11557698 0.15784658 -0.48344567 -0.26103252
-0.12617694 -0.5506113 -0.30624217 -0.26591694 -0.08574527 0.23615082 0.11057245 0.095351286
0.35332906 0.16161633 0.064787626 0.110321686 0.22744174 1.0861691 1.6253783 0.33590376
1.502903 2.6525505 1.4390935 0.2506428 1.7505082 -0.25298437 0.397165 0.6925206
0.3781902 0.6893559 1.1179394 0.67509204 0.3476439 0.54507 -0.16977364 0.86334777
0.64095813 0.7543006 0.64020973 0.5747942 0.6110707 0.6504849 0.39115068 0.47725984
-0.02027397 -0.38811344 0.11457224 -1.5253968 -1.9957136 -1.1993463 -1.7561361 -1.7345198
-1.5757978 0.37004304 0.71048534 0.442255 0.14100805 0.785756 0.6096237 0.69861823
0.7860716 0.6939889 -0.7979211 0.08026725 -0.26603428 -0.07046999 0.7019961 0.41345775
-0.6859287 0.085973606 -0.106641635 -0.09306376 0.396712 1.2160441 -0.4899012 0.10292704
0.2051506 -0.14068207 0.019864429 -0.14113402 -1.3326856 -1.0077251 -1.3083571 -1.4342281
00000000: d667 0b3f 3861 fa3e 0ec5 01be 5d63 923f
00000010: 30e9 b73f 5dfc 6c3f ae0f 0c3f 5537 0f3f
00000020: 0014 933e 11fd 62bf 24ec 8abf c67f 02bf
00000030: 8b8b 32bf 4321 87bf e993 ecbe 461a e1be
00000040: abc7 12bf e826 44be c2e9 6bbf d8ef 58bf
00000050: 1e76 dbbe abb0 61bf 9f87 33bf 69f6 16bf
00000060: 8d84 52bf 4ac9 63bf d495 0ebf 142c bc3d
00000070: 8299 2e3f 7955 51bc 1db3 eb3e a97e 823f
00000080: 7d80 013f e426 79bd 18cb 173b 1bcc d1be
00000090: 2e94 f1bc ed20 4f3c 241b 9cbe b3c6 e23e
000000a0: 094e 9c3e ccf0 863e 7cd9 543e bc50 84bd
000000b0: 136d cabe aeeb 49bf 96ec 60bf 203c 59bf
000000c0: 9434 17bf ed27 44bf 08ed 4fbf dee1 5dbe
000000d0: c797 9fbe 4686 a6be 2936 823e f87c 593e
000000e0: 33ea 08bf 797c 613f 2a6b 7f3f d1f3 a63d
000000f0: c9a7 6d3f 8d9c 853f 81c7 c53e e71f 05bf
00000100: 9f6d a2bf 027e 8cbf 20cf 99be 2591 8ebf
00000110: 2bf7 33bf ab2c 773e 7658 0dbe 1ccd 363e
00000120: 4f88 b0be ac29 bbbe 235a bb3e 0d19 56bf
00000130: 24fc 3dbf bdb3 b7bc 9bab 1abf 4563 47bf
00000140: 2b48 8abe 5df5 7c3e 5b90 4e3f 5632 adbe
00000150: 3cc0 5f3f 80b8 b93f 92fb f33d f59a 903f
00000160: 974b ac3f ec7f 4c3d 20e3 39bf 5119 a53e
00000170: faff 20be 8ee3 a5bf a7aa f7be 3314 30bf
00000180: 7151 9abf 6d45 27bf ad0c 86bf 9fbc 32bf
00000190: e62e 67bf 003b 80bf 507f a1be c106 e8be
000001a0: eb97 29bf aebe bbbc 5215 cbbc d873 06be
000001b0: 18b2 e93e 88f6 e33e 8dac 683f 98ff 303f
000001c0: 4f00 0d3f 3412 563f cb90 9f3f 7a58 883f
000001d0: 77d9 0a3f f99e a43e 241a ab3e 5c54 4fbf
000001e0: fd93 ca3d ee16 2f3f 92e1 36bf 2de9 d9be
000001f0: fc08 ad3d b509 83bf 2657 acbf 6be4 c7bf
00000200: 8514 e73d f0b2 29c0 d4f5 12c0 c29c a6be
00000210: 7512 2ac0 3cf5 f3bf 5439 c13e bfa0 7ebe
00000220: e74d 803e d7a5 e93d 096d 9cbe 70d8 2d3e
00000230: eeee d0be f566 f73d 8093 e13e 3102 dfbe
00000240: 0794 98bf fe1f 05bf 9c06 07bf 0706 98bf
00000250: 6a28 5abf b986 0bbf c98e 24bf 5d0f c2be
00000260: 1fd9 18bf 242a babe ba9d 33bf e859 9abf
00000270: bd07 8ebf e7ed aebf baca 94bf 0f8b 41bf
00000280: a649 a9bf 07ab 63bf 79a6 c43d 5482 873e
00000290: 9621 30be 9476 763f 9a1a 933f da8d 343f
000002a0: 8cbb 5d3d 1d1a 083f 0f92 f4be 6f7a 9abe
000002b0: a0b3 ecbd 89a2 213e 3186 f7be 0ea6 85be
000002c0: 8734 01be ddf4 0cbf c6cb 9cbe 4426 88be
000002d0: 379b afbd 85d1 713e cf73 e23d 8947 c33d
000002e0: 8ce7 b43e c07e 253e 60af 843d 56f0 e13d
000002f0: 7de6 683e 9707 8b3f 650c d03f 94fb ab3e
00000300: 205f c03f 63c3 2940 3734 b83f 4154 803e
00000310: a710 e03f 2b87 81be 3659 cb3e 0849 313f
00000320: 25a2 c13e a179 303f a318 8f3f d5d2 2c3f
00000330: 62fe b13e b589 0b3f 24d9 2dbe 5c04 5d3f
00000340: d515 243f d819 413f c9e4 233f b625 133f
00000350: 216f 1c3f 2e86 263f e744 c83e 675b f43e
00000360: 9915 a6bc ceb6 c6be daa4 ea3d 3440 c3bf
00000370: 8b73 ffbf 2e84 99bf 11c9 e0bf bf04 debf
00000380: beb3 c9bf 4876 bd3e 5ee2 353f 3f6f e23e
00000390: 6a64 103e 4e27 493f 4c10 1c3f a5d8 323f
000003a0: fd3b 493f 42a9 313f 8f44 4cbf 2863 a43d
000003b0: a535 88be 9252 90bd 04b6 333f bcb0 d33e
000003c0: 0699 2fbf ee12 b03d ee66 dabd 3698 bebd
000003d0: d61d cb3e 55a7 9b3f 55d4 fabe 69cb d23d
000003e0: 0013 523e f60e 10be baba a23c 7085 10be
000003f0: 7195 aabf 23fd 80bf 3f78 a7bf c994 b7bf

down_blocks.1.conv_block.conv2.weight f4 [12, 12, 3, 3]
0.26468715 0.32172847 0.3689581 -0.27201772 -0.01691465 -0.0013865358 -0.25643986 0.17141104
0.056642383 0.7625373 0.13267231 1.0414239 -1.0528324 -0.97781366 -0.23004821 -0.6527865
-0.73679286 0.1006845 0.3178946 0.65183127 1.180882 -0.25813037 0.50417197 0.939803
-0.5764949 -0.20582579 0.5263836 0.46492246 0.49937344 -0.4811327 0.559309 0.7032688
-0.4786845 0.58303005 0.95396703 -0.31915513 -0.986728 -0.68439925 -0.6157954 -0.8785854
-0.90785956 -0.81337243 -0.8599009 -0.8732598 -0.627737 0.09358348 -0.47316325 -0.7932197
0.4244154 0.15072496 -0.24337569 0.20231384 0.30988482 0.07041794 -0.6423062 -0.13377587
-0.3004588 -0.66899085 -0.35159254 -0.6123649 -0.355806 -0.44573563 -0.4203885 0.28364414
0.031636376 0.05747041 0.22253205 0.032599032 0.21311265 0.43795565 0.66436774 0.55052745
1.6166359 -0.4351195 -0.13538617 1.1425853 -0.3507065 -0.4547891 1.2050812 0.27713913
0.29286093 -0.9855206 -0.13897239 -0.08982693 -1.234304 -0.16555063 -0.047010545 -1.9195622
-0.56292444 0.0043807235 1.5115623 1.0217804 -0.66736186 0.8422132 1.6788952 -0.77618045
-0.1927178 1.301572 0.6373399 -0.31966177 0.44132537 -0.994053 -0.5005511 0.48541588
-0.9998056 -0.9334461 -0.03531669 -1.6621968 0.08690105 -0.018940777 0.36917323 -0.029097728
-0.30686042 -0.064164385 -0.07004526 -0.21659073 -0.11762552 0.8443521 0.27051952 0.61730146
0.07993656 -0.48311508 -0.22665858 -0.05377786 -0.22442085 0.002620737 -0.1462032 0.20550911
0.8425161 -0.8781143 0.07851714 1.1166604 -1.0938809 -0.6890551 0.3105625 -0.07235861
0.27128083 0.22164509 -0.06749651 0.18858562 0.15047504 -0.12322629 -0.22772484 -0.28307617
-2.9203424 -0.7311066 -0.29115355 -4.5678225 -2.7549596 -1.184297 -3.9388604 -2.5667422
0.5651013 -2.4283426 -2.1155756 -1.87588 -2.6082532 -2.2836497 -3.0663671 -1.4408362
-0.23573746 -0.5414819 -0.6132391 -0.21917106 0.22268525 -2.2912128 -2.7404504 -1.0477245
-1.938587 -2.4612262 0.38949966 -0.009699714 -0.43299845 -0.1164487 -0.07566596 -0.48206717
-0.37673262 0.3589222 0.34086302 0.40180087 0.31892347 -1.100758 0.4466251 0.008879936
-1.2085034 -0.13170487 0.87588775 0.16983558 1.4058433 0.6129046 1.0412384 0.52155524
-0.25479078 0.694279 -0.10366381 -0.5947294 0.7889934 0.49995124 0.8908043 -0.40305018
-0.3503078 0.06945219 -0.79834175 -0.81433684 -0.12908895 -0.038868196 0.707029 -1.5490373
-0.8908235 -0.97576356 -0.619161 -0.17281121 -0.42234498 -1.2644635 -0.9613043 -1.6315418
-1.5504442 -1.7372627 -1.466438 -1.0969595 -1.0620506 -1.1817551 -1.440453 -1.7436182
-1.7849253 0.3475952 -0.51674896 0.39142933 0.051275775 -0.1805161 -0.10360438 0.80249137
-0.54030323 0.24261387 1.0107253 -0.37567085 0.4179955 1.052437 0.20609258 0.013578041
0.8070083 0.21699223 0.61762583 0.47088784 -0.22970231 -0.1985463 0.26534948 -0.074266165
-0.27651414 0.28289682 -0.6967944 -0.49238843 -0.8229304 -0.18931489 -1.0203556 -0.3483273
00000000: 1385 873e 98b9 a43e 13e8 bc3e e845 8bbe
00000010: 9890 8abc 6cbc b5ba 164c 83be 6086 2f3e
00000020: d801 683d a535 433f 40db 073e 614d 853f
00000030: 36c3 86bf ff51 7abf c291 6bbe 041d 27bf
00000040: 759e 3cbf ad33 ce3d 15c3 a23e 6ade 263f
00000050: 2427 973f aa29 84be 6a11 013f ee96 703f
00000060: 2b95 13bf ffc3 52be 13c1 063f 510a ee3e
00000070: e0ad ff3e 0657 f6be e02e 0f3f 6d09 343f
00000080: 2316 f5be 7541 153f 2f37 743f 4d68 a3be
00000090: 359a 7cbf ca34 2fbf c4a4 1dbf f9ea 60bf
000000a0: 7c69 68bf 2d39 50bf 7722 5cbf f48d 5fbf
000000b0: 5fb3 20bf b2a8 bf3d 7442 f2be 7210 4bbf
000000c0: fa4c d93e a557 1a3e 7a37 79be 5c2b 4f3e
000000d0: 39a9 9e3e 4837 903d 2e6e 24bf 8bfc 08be
000000e0: bcd5 99be fc42 2bbf f003 b4be f2c3 1cbf
000000f0: 342c b6be 7637 e4be 293d d7be ce39 913e
00000100: 2595 013d 1866 6b3d 71df 633e 9086 053d
00000110: 343a 5a3e b93b e03e 0114 2a3f 5eef 0c3f
00000120: eded ce3f fcc7 debe aca2 0abe 3c40 923f
00000130: cd8f b3be 1eda e8be 1a40 9a3f 2ee5 8d3e
00000140: def1 953e 144b 7cbf c74e 0ebe 2ef7 b7bd
00000150: acfd 9dbf 1b86 29be 218e 40bd 37b4 f5bf
00000160: d11b 10bf 2c8c 8f3b e07a c13f b3c9 823f
00000170: 3ad8 2abf 499b 573f 0ae6 d63f c3b3 46bf
00000180: d157 45be e999 a63f b528 233f b5aa a3be
00000190: 66f5 e13e 427a 7ebf 1e24 00bf 6e88 f83e
000001a0: 43f3 7fbf 53f6 6ebf 3ca8 10bd ddc2 d4bf
000001b0: 2df9 b13d b029 9bbc 4604 bd3e 5c5e eebc
000001c0: cf1c 9dbe 9e68 83bd e473 8fbd f6c9 5dbe
000001d0: a6e5 f0bd 7627 583f 8981 8a3e 7807 1e3f
000001e0: c7b5 a33d dc5a f7be 3019 68be 2c46 5cbd
000001f0: 94ce 65be acc0 2b3b 4bb6 15be fb70 523e
00000200: 23af 573f 19cc 60bf 98cd a03d baee 8e3f
00000210: 4a04 8cbf ea65 30bf 0c02 9f3e c030 94bd
00000220: 52e5 8a3e eef6 623e 9c3b 8abd 971c 413e
00000230: 2116 1a3e 115e fcbd b330 69be 5cef 90be
00000240: e4e6 3ac0 cd29 3bbf 1412 95be 9a2b 92c0
00000250: 4251 30c0 0b97 97bf 4a16 7cc0 8145 24c0
00000260: 7baa 103f f769 1bc0 9765 07c0 d61c f0bf
00000270: 9fed 26c0 5127 12c0 5c3f 44c0 526d b8bf
00000280: 2965 71be 8f9e 0abf 3dfd 1cbf 616e 60be
00000290: 9a07 643e 3ba3 12c0 8a63 2fc0 d61b 86bf
000002a0: 9e23 f8bf bb84 1dc0 806c c73e 8deb 1ebc
000002b0: f9b1 ddbe a87c eebd c1f6 9abd 82d1 f6be
000002c0: 19e3 c0be a7c4 b73e 9985 ae3e d8b8 cd3e
000002d0: f049 a33e a3e5 8cbf 0cac e43e 277d 113c
000002e0: 3db0 9abf a4dd 06be 2e3a 603f 61e9 2d3e
000002f0: acf2 b33f 51e7 1c3f 4d47 853f a584 053f
00000300: f073 82be 45bc 313f b14d d4bd 3040 18bf
00000310: 79fb 493f 9cf9 ff3e c00b 643f 985c cebe
00000320: 8b5b b3be f33c 8e3d 2060 4cbf 6178 50bf
00000330: e52f 04be 4234 1fbd daff 343f db46 c6bf
00000340: 020d 64bf a4cb 79bf 5681 1ebf 6cf5 30be
00000350: 9a3d d8be f1d9 a1bf 0a18 76bf 5dd6 d0bf
00000360: f574 c6bf a05e debf 3eb4 bbbf 2b69 8cbf
00000370: 46f1 87bf c043 97bf c460 b8bf e22e dfbf
00000380: 6f78 e4bf 00f8 b13e a949 04bf 6d69 c83e
00000390: 8c06 523d 36d9 38be 882e d4bd 1370 4d3f
000003a0: 5051 0abf c56f 783e 725f 813f ee57 c0be
000003b0: 8203 d63e 41b6 863f ef09 533e 6f76 5e3c
000003c0: 1998 4e3f 3633 5e3e ba1c 1e3f 3618 f13e
000003d0: 1537 6bbe b94f 4bbe e3db 873e dc18 98bd
000003e0: 4393 8dbe dad7 903e 1e61 32bf 561a fcbe
000003f0: 91ab 52bf c3db 41be 039b 82bf f557 b2be

up_blocks.0.transpose_conv.weight f4 [12, 6, 2, 2]
-0.35121828 0.106123015 0.22221687 -0.4117088 0.03720019 0.5749221 -0.36465594 -0.2838366
-0.6244438 -0.03421243 -0.30258134 -0.21894193 -0.036383312 0.28245652 0.66683275 0.052254934
-0.14757925 0.16489169 -0.34975144 -0.40278828 0.1717696 0.018098231 0.226001 0.15249471
-0.2621631 0.6623023 -0.33209077 -0.16364017 0.3072241 -0.6435597 -0.16114904 -0.7954189
-0.39328492 -0.8148926 -0.15220568 0.07321233 0.020341147 0.5009976 -0.085403554 0.11906051
-0.5906654 -0.13633622 -0.2911298 0.025268326 -0.12481424 0.64410096 0.7975962 -0.11798285
-1.6824265 0.33659688 -0.39706364 -1.1052052 -0.47457066 -1.7066728 -1.220137 -0.7583041
-0.18502411 -0.60206836 -0.5894294 -0.61376804 1.2456951 -0.06099348 -0.16014853 1.6627148
-0.5277946 0.24895695 -0.29059443 -0.39759168 -0.9480815 -0.41369957 -0.5886224 -0.5319036
0.8262586 0.078119665 0.7195173 -0.09318078 0.17110874 0.8271324 0.023918005 0.2005128
0.45035982 0.5120754 1.1461406 0.94186443 1.1840492 -0.27427608 0.007351261 -0.35927948
0.5859995 -1.9722368 -0.39454234 -0.050319333 -0.12352219 0.5881313 -0.3888115 -0.110380374
-0.07103985 0.2805881 -0.44922736 -0.31925273 0.20917925 0.25800622 0.3811213 0.14420198
-0.3327841 -0.2611275 -0.122003324 -0.6095161 -0.13877353 0.6501724 0.20998171 0.000939413
-0.26440528 0.45753205 0.2526234 0.31007 0.09073697 0.07382151 -0.35854122 0.017310582
1.2077497 -1.1245308 1.1118851 0.82863724 -0.30972508 0.5383969 -0.18788207 -0.2854865
0.5939149 0.69473803 0.03404345 -0.057184327 0.47131425 -1.406833 -0.49964458 0.2611683
0.33137566 -0.3934667 -0.044090804 -0.30314222 0.071427636 0.3078687 -0.1672702 -0.29409644
-0.10801683 -0.9436702 0.4181601 -0.24678914 -0.716786 0.6985084 0.5122353 -0.117915496
0.60768634 0.6197632 0.7725412 0.13752027 -0.072888725 0.8227839 0.41815206 -0.15221927
-0.83652 -0.33458704 -0.37615338 0.23684026 -0.8485262 0.4522105 0.19245651 -0.7097995
-0.043552775 -0.6268906 -0.7475695 -0.46453086 -0.22355002 -0.38541588 -0.04831305 -0.5939057
-0.19719309 -0.0052324454 -0.5664907 -0.0911336 -0.11548954 -0.036284536 0.66073185 -0.19829279
-0.094601825 0.05107377 -0.1877298 -0.43312183 0.24073154 -0.09586958 0.6150234 -0.14674771
0.10267553 -0.04230795 -0.5024463 0.08909084 -0.1409885 -0.38042712 -0.53132665 0.073840484
0.18356137 0.24263747 -0.23660852 -0.36049145 0.2533541 0.00961408 0.7012718 0.32894948
0.09754683 0.4790179 0.12880592 1.0382028 -0.5956602 0.020047748 -0.057995185 0.12233197
-1.012265 -0.4334475 -0.5601094 -0.6535814 -0.72475916 -0.4966157 0.31434104 -1.337735
0.21360183 -0.87556744 -0.7132844 0.10103559 -0.22433288 0.9183803 1.8222808 0.07369932
-0.9708443 0.55496025 0.19620267 -0.1090742 0.1161933 -0.92565805 -0.7621042 -0.12880388
0.02960276 -0.54325724 -0.7097271 -0.21559136 -0.76064116 0.34596962 -0.50407356 0.10701288
-0.17553967 -0.5548579 -0.56536645 0.14357318 -0.7707056 0.7906368 -0.5616017 0.40655607
00000000: e2d2 b3be 0657 d93d d28c 633e 7fcb d2be
00000010: 3a5f 183d 182e 133f 2fb4 babe 0853 91be
00000020: 8ddb 1fbf 5522 0cbd f1eb 9abe 5032 60be
00000030: ab06 15bd 249e 903e 8db5 2a3f 4509 563d
00000040: 041f 17be 5ed9 283e 9f12 b3be 443a cebe
00000050: 5fe4 2f3e be42 943c ce6c 673e 9327 1c3e
00000060: 3e3a 86be a58c 293f cd07 aabe 4a91 27be
00000070: 7a4c 9d3e 54c0 24bf 4104 25be 93a0 4bbf
00000080: a45c c9be cd9c 50bf cedb 1bbe 59f0 953d
00000090: 7aa2 a63c 6141 003f 0fe8 aebd ffd5 f33d
000000a0: d935 17bf b99b 0bbe f70e 95be 85ff ce3c
000000b0: 9c9e ffbd cde3 243f 442f 4c3f fea0 f1bd
000000c0: c059 d7bf 6d56 ac3e ed4b cbbe 5d77 8dbf
000000d0: edfa f2be 4174 dabf 732d 9cbf 3820 42bf
000000e0: f676 3dbe 2721 1abf d8e4 16bf e71f 1dbf
000000f0: f072 9f3f 4dd4 79bd fafd 23be d7d3 d43f
00000100: 8c1d 07bf 92ee 7e3e cbc8 94be 2391 cbbe
00000110: 78b5 72bf 6ed0 d3be f5af 16bf d62a 08bf
00000120: af85 533f 34fd 9f3d 4932 383f 91d5 bebd
00000130: 2137 2f3e f3be 533f b1ef c33c 3a53 4d3e
00000140: 9095 e63e 6017 033f bcb4 923f 071e 713f
00000150: ed8e 973f ea6d 8cbe d9e2 f03b 7bf3 b7be
00000160: 1004 163f 4172 fcbf 7401 cabe a51b 4ebd
00000170: 34f9 fcbd c68f 163f 4d12 c7be 1b0f e2bd
00000180: 577d 91bd 3ea9 8f3e 2101 e6be 1875 a3be
00000190: 1633 563e 6419 843e 5522 c33e afa9 133e
000001a0: ad62 aabe 81b2 85be e1dc f9bd 3f09 1cbf
000001b0: a61a 0ebe b371 263f 7205 573e f042 763a
000001c0: 2160 87be a441 ea3e db57 813e 7fc1 9e3e
000001d0: 4ed4 b93d bb2f 973d b792 b7be ecce 8d3c
000001e0: 8b97 9a3f a0f0 8fbf 4052 8e3f 9221 543f
000001f0: 4994 9ebe 61d4 093f 2864 40be 492b 92be
00000200: cf0a 183f 5ada 313f 2571 0b3d 1d3a 6abd
00000210: 1a50 f13e 1b13 b4bf 6ad1 ffbe dab7 853e
00000220: 12aa a93e 7874 c9be 8f98 34bd 7535 9bbe
00000230: a748 923d f7a0 9d3e e148 2bbe cf93 96be
00000240: ee37 ddbd 5f94 71bf 1519 d63e 4bb6 7cbe
00000250: 4a7f 37bf 72d1 323f da21 033f ae7d f1bd
00000260: 5591 1b3f cda8 1e3f 43c5 453f 1dd2 0c3e
00000270: af46 95bd f7a1 523f 0718 d63e 5edf 1bbe
00000280: 2d26 56bf fe4e abbe 2d97 c0be 4186 723e
00000290: 0339 59bf 2288 e73e 5213 453e 6cb5 35bf
000002a0: 6564 32bd e77b 20bf b760 3fbf fdd6 edbe
000002b0: 4cea 64be 3b55 c5be e8e3 45bd 340a 18bf
000002c0: fcec 49be ef74 abbb 8905 11bf 41a4 babd
000002d0: c885 ecbd 189f 14bd b925 293f 440d 4bbe
000002e0: 9abe c1bd bb32 513d 3e3c 40be 25c2 ddbe
000002f0: 5482 763e 4557 c4bd 2c72 1d3f 0845 16be
00000300: 8c47 d23d 1a4b 2dbd 52a0 00bf 4275 b63d
00000310: 4a5f 10be 58c7 c2be 0605 08bf ae39 973d
00000320: 83f7 3b3e f575 783e 8149 72be 5692 b8be
00000330: a1b7 813e 6084 1d3c 8c86 333f 116c a83e
00000340: a2c6 c73d d641 f53e b3e5 033e d4e3 843f
00000350: 307d 18bf 2d3b a43c 5c8c 6dbd 2f89 fa3d
00000360: e691 81bf d5ec ddbe 5463 0fbf 1c51 27bf
00000370: d189 39bf 6a44 febe 4ff1 a03e e73a abbf
00000380: 70ba 5a3e 3025 60bf ce99 36bf bfeb ce3d
00000390: 85b7 65be f91a 6b3f 7f40 e93f abef 963d
000003a0: 4189 78bf e011 0e3f 5ae9 483e 4b62 dfbd
000003b0: c1f6 ed3d edf7 6cbf 4319 43bf 2ae5 03be
000003c0: 7d81 f23c e812 0bbf adb0 35bf fbc3 5cbe
000003d0: 61b9 42bf ee22 b13e f70a 01bf 9229 db3d
000003e0: acc0 33be 2b0b 0ebf dbbb 10bf d904 133e
000003f0: f64c 45bf 2c67 4a3f 21c5 0fbf 1e28 d03e

up_blocks.0.transpose_conv.bias f4 [6]
-0.1042847 -0.26184586 1.8171374 1.361305 0.010048926 2.1512232
00000000: 3793 d5bd a910 86be f597 e83f 3e3f ae3f
00000010: 40a4 243c a4ad 0940

up_blocks.0.conv_block.conv1.weight f4 [6, 12, 3, 3]
0.099030465 0.17930491 -0.2873834 0.055761214 0.07367661 -0.099797696 -0.15557392 -0.23956709
-0.018775005 -0.0979743 0.5100442 0.29155758 0.17011397 0.5222575 0.15128359 -0.12739556
-0.19106671 -0.27320147 -0.06727849 0.11077519 0.051794067 0.43595535 0.4350138 0.5655659
0.31929085 0.15783694 0.26422116 0.17257208 0.16639176 0.0061552953 0.29432106 0.06792417
-0.022315985 0.18470834 -0.44636777 -0.3518719 0.46414992 -0.4870943 0.5368101 0.638435
-0.4329734 1.0497887 0.6334283 -0.1789983 0.6506742 -0.119507656 -0.16187496 -0.06518626
-0.10972079 0.1877624 0.002967454 -0.4236861 -0.041444357 -0.26302278 0.5879388 1.7260826
-0.16474958 1.2399423 3.681598 0.5253578 0.36944267 0.90238243 -0.13900849 -0.073648706
-1.1530077 -0.9133199 0.7413015 -0.67963564 -0.21081096 0.3333732 -0.6932321 -0.19251461
-0.13538145 -0.19562174 0.86157197 -0.11266029 -0.3833626 0.40371624 -0.10948709 -0.5653083
0.27891725 1.3906666 2.4373853 1.5855495 1.4787447 2.6825333 1.353431 0.18479964
0.5362481 0.3267473 0.50570804 1.2221332 0.33906993 1.0417271 1.729993 0.9181599
0.24906561 0.7323044 0.12032796 0.5835807 0.31510225 0.6681644 0.64617735 0.9987566
0.77934486 -0.044778693 0.24585055 0.43154594 0.24025652 0.3824407 -0.07314754 0.23250915
-0.08899763 -0.3269684 0.5646809 -0.6925377 0.06890676 0.6933608 0.21801087 0.6037783
-0.030195557 -0.0053584226 -0.2269008 0.48720792 0.77667594 0.58811563 -0.34349567 0.4066016
-0.024900418 -0.35560948 0.5380551 -0.2217187 -0.34139132 0.33799136 -0.0064736353 -0.19505873
-0.17257905 -0.3897964 0.13067822 0.48889098 0.25067866 -0.3408935 0.18440972 -0.44866517
0.15715571 0.63521934 -0.046059966 -0.48445076 -0.17619178 -0.5558128 -0.22188444 -0.4134758
-0.4620339 -0.15689707 -0.1202695 -0.24192183 1.5756254 -0.82204384 1.6295935 -0.27689907
0.07240503 -0.34122446 0.19453599 1.4440737 -0.8654266 1.758481 1.8880249 0.99204713
0.79325783 1.6199859 -0.719859 -0.2840511 -1.0695983 -0.5753063 0.42047408 0.33798105
-0.068450674 0.6397831 -0.09856417 0.31024563 1.2859693 1.3193966 0.72215044 1.2896283
0.8461559 1.1998754 0.9189525 1.1153051 0.8505456 -0.5121381 -0.34786117 0.38961062
-0.36689612 0.15450826 0.15585361 -1.2777338 -0.35991013 0.04159642 0.36592653 0.52709585
-4.7402806e-05 0.6975972 1.3520511 0.34144402 0.0470533 0.060485583 -0.2924827 -0.18381785
0.9870398 0.29987684 0.50688565 -2.226369 1.1733483 -0.7930361 0.36539614 0.1632309
-9.9643745e-05 0.46721968 -0.13558558 -0.25260335 -0.86821795 -0.2682177 -0.86643285 0.7775843
-0.52200073 0.054656282 0.10245208 0.6190348 -0.116571076 -0.76892537 0.33851266 -0.46323004
-1.0073062 -0.08201074 -0.101003915 0.6487769 0.43143952 -0.1633981 0.15578392 -0.14274171
-0.62966806 -0.9625584 -0.016070202 0.028605288 -1.3975569 0.029596396 -0.69855833 0.15819554
-0.56919533 0.4841876 -2.2317033 0.019911863 0.0779243 -0.119745165 -0.114488095 0.24832481
00000000: 7cd0 ca3d b59b 373e eb23 93be df65 643d
00000010: c3e3 963d bc62 ccbd c54e 1fbe 1351 75be
00000020: 0ace 99bc c0a6 c8bd 4292 023f 0947 953e
00000030: 5b32 2e3e abb2 053f 16ea 1a3e fb73 02be
00000040: fea6 43be 10e1 8bbe 4ec9 89bd 1ade e23d
00000050: 0426 543d 8a35 df3e 21ba de3e edc8 103f
00000060: 177a a33e 02a0 213e ff47 873e bcb6 303e
00000070: 9a62 2a3e 5cb2 c93b 40b1 963e d41b 8b3d
00000080: 03d0 b6bc 2f24 3d3e 518a e4be 8e28 b4be
00000090: 0fa5 ed3e 6d64 f9be 636c 093f 7a70 233f
000000a0: b1ae ddbe 7a5f 863f 5b28 223f 554b 37be
000000b0: 9692 263f 6ec0 f4bd 8dc2 25be 6080 85bd
000000c0: 4bb5 e0bd c944 403e 9e79 423b 62ed d8be
000000d0: 8fc1 29bd ecaa 86be 2883 163f 46f0 dc3f
000000e0: 1db4 28be 6eb6 9e3f 4d9f 6b40 d97d 063f
000000f0: 9727 bd3e 8902 673f 3e58 0ebe 22d5 96bd
00000100: c295 93bf 55cf 69bf efc5 3d3f 9afc 2dbf
00000110: d4de 57be e4af aa3e a977 31bf 8d22 45be
00000120: 6fa1 0abe 1151 48be fb8f 5c3f 70ba e6bd
00000130: 1a48 c4be e5b3 ce3e c43a e0bd 0bb8 10bf
00000140: 3ece 8e3e 5d01 b23f 1ffe 1b40 49f3 ca3f
00000150: 8247 bd3f a0ae 2b40 3a3d ad3f 1e3c 3d3e
00000160: 8e47 093f 6c4b a73e 1576 013f dc6e 9c3f
00000170: 939a ad3e 5057 853f 6970 dd3f 870c 6b3f
00000180: 0e0b 7f3e 4d78 3b3f 816e f63d 8b65 153f
00000190: 1555 a13e d20c 2b3f e16b 253f 83ae 7f3f
000001a0: 2583 473f dd69 37bd 3fc0 7b3e 97f3 dc3e
000001b0: ce05 763e 44cf c33e 61ce 95bd e116 6e3e
000001c0: 6444 b6bd 6768 a7be ed8e 103f 274a 31bf
000001d0: fd1e 8d3d 1880 313f 3e3e 5f3e 3791 1a3f
000001e0: ac5c f7bc b595 afbb af58 68be 5173 f93e
000001f0: 3cd4 463f bf8e 163f aade afbe 162e d03e
00000200: f6fb cbbc 7212 b6be fbbd 093f 3a0a 63be
00000210: d8ca aebe 340d ad3e ca20 d4bb 7abd 47be
00000220: 90b8 30be 6593 c7be 83d0 053e eb4f fa3e
00000230: f458 803e 9889 aebe e7d5 3c3e 71b7 e5be
00000240: 6ded 203e bc9d 223f 60a9 3cbd ee09 f8be
00000250: 9e6b 34be bf49 0ebf ad35 63be 1ab3 d3be
00000260: b58f ecbe a0a9 20be db4f f6bd 5bba 77be
00000270: 18ae c93f 7771 52bf 8596 d03f b7c5 8dbe
00000280: 1749 943d f9b4 aebe 7134 473e 68d7 b83f
00000290: 998c 5dbf e815 e13f cdaa f13f cdf6 7d3f
000002a0: f212 4b3f b35b cf3f ae48 38bf 256f 91be
000002b0: 99e8 88bf 4647 13bf 6148 d73e da0b ad3e
000002c0: de2f 8cbd d3c8 233f 03dc c9bd 84d8 9e3e
000002d0: a49a a43f fde1 a83f dade 383f 8a12 a53f
000002e0: ac9d 583f 8495 993f 7940 6b3f 51c2 8e3f
000002f0: 5bbd 593f 7c1b 03bf dc1a b2be 0b7b c73e
00000300: cfd9 bbbe 6a37 1e3e 1798 1f3e c88c a3bf
00000310: 2446 b8be 0261 2a3d b95a bb3e c1ef 063f
00000320: 60d2 46b8 bb95 323f 0310 ad3f c0d1 ae3e
00000330: f6ba 403d bbbf 773d 4bc0 95be bf3a 3cbe
00000340: a4ae 7c3f 7589 993e 42c3 013f d47c 0ec0
00000350: 4730 963f 6a04 4bbf 3415 bb3e 0026 273e
00000360: d4f7 d0b8 6b37 ef3e f2d6 0abe 3a55 81be
00000370: 8843 5ebf d553 89be 8bce 5dbf c40f 473f
00000380: d7a1 05bf 44df 5f3d 65d2 d13d 1179 1e3f
00000390: d1bc eebd 4bd8 44bf 8851 ad3e 7d2c edbe
000003a0: 69ef 80bf 3ff5 a7bd 24db cebd 3e16 263f
000003b0: a4e5 dc3e d551 27be d285 1f3e e22a 12be
000003c0: ed31 21bf 3a6a 76bf a8a5 83bc a355 ea3c
000003d0: 25e3 b2bf 2474 f23c b8d4 32bf 03fe 213e
000003e0: c9b6 11bf 70e7 f73e 3ad4 0ec0 341e a33c
000003f0: c796 9f3d f43c f5bd bc78 eabd dc48 7e3e

up_blocks.0.conv_block.conv2.weight f4 [6, 6, 3, 3]
-0.2851202 -0.6831686 0.030845173 -1.3260431 -2.2994287 -1.3447726 -0.93476576 -1.7121714
-0.9211333 0.55265576 -0.5365359 0.13067415 0.25859496 -0.87734544 -0.21935834 -0.10979528
0.100658536 -0.4351832 -0.593384 -1.8480544 -0.32423526 -1.266546 -1.0427747 -0.7865868
-0.42334735 -0.9754552 0.2470108 -0.26540396 -1.2156737 -0.31283185 -0.0024690493 -0.69637036
0.13319236 0.31949097 -0.14365554 0.75217354 0.19168672 0.03722272 0.28114527 0.6286877
-0.04255608 0.5083107 1.0567131 0.6450976 0.6121953 0.0058656745 0.53595454 -0.14710163
0.38878995 0.46351808 0.9414772 0.11707077 0.9429256 0.42889604 0.06880737 -0.0964897
0.13772781 -1.3526024 -0.6865828 -0.64896244 -1.2791791 -0.3542633 -0.56915206 0.47259116
0.704195 -0.055702414 0.83262 0.71129245 0.8164886 0.3779398 0.6940487 0.41689193
-0.2572114 -0.2694316 0.226462 -0.18230005 0.41123092 0.10448715 -0.25486824 0.35976145
0.33551311 -0.42485797 -0.8725054 -0.26015922 0.3542804 -1.1960727 -0.18851796 0.5480749
-0.09456826 0.3238623 0.29831696 -0.52797246 0.33980903 -0.35740095 0.86152667 0.37987816
0.81174517 -0.34490535 0.6792282 -0.38672274 0.50885135 -0.57132995 0.46073398 1.3413918
0.13664496 -0.0061086733 1.6412296 -0.03845057 0.24509268 0.011919275 -0.19295333 -0.37964013
-0.896303 -0.42067736 0.6904452 -0.079051755 0.49701434 -0.30328166 0.469513 0.20187122
-0.052786384 -0.8450743 0.33625713 -0.6025613 0.16726361 -0.6179916 -1.5745105 -0.6571738
-0.54264456 -0.70863813 -1.6034733 -0.14894602 -0.51405954 -0.8350502 0.012450273 0.017565487
0.80856633 -0.04879718 -0.13887633 -0.80400103 0.00012606336 -0.5782846 0.4687201 -0.39932483
0.22180425 -0.42278656 -0.24779697 -0.7370011 1.0170686 -0.051556967 0.74495333 -0.34010416
0.062111963 0.8655406 -0.34094116 1.7140167 -0.20015773 2.8348897 0.77949834 0.8916531
-0.48318672 1.0605109 -0.5552746 -0.15098944 -0.22040585 0.6141843 1.2906597 0.5122787
0.46464968 0.5720421 0.19963022 -0.0782328 -0.30130422 -0.19838844 -0.0296519 0.2830459
-0.0012707426 0.025682544 0.19975346 0.3081377 -0.022196114 0.4254064 0.17710087 -0.44609305
-0.02065075 -0.3477976 -0.46526295 0.010442984 -0.39187664 0.20501001 0.28959978 0.21667735
0.58945674 0.5711962 0.5362405 0.095815375 0.15148582 0.17454755 -0.15526292 0.93928087
-0.71294767 0.62141895 3.0804524 -0.9784123 0.8021929 2.2195783 -0.51627123 -0.30914798
-0.70051396 -1.2584106 -0.7532296 -0.5571158 -1.0286041 -1.0012448 -0.5232063 -0.44728246
-0.20797028 -0.18069676 -0.12691551 0.32150012 0.42157415 0.2267843 0.085131824 -0.32643968
-0.09725099 -0.06936588 -0.052163314 -0.043212447 0.121242866 0.756784 0.04195194 0.38602647
0.522044 0.09984542 -0.40236905 0.7898261 -0.30133864 -0.7088426 2.0228467 -0.58303297
-0.63366604 0.72317594 -0.74248296 -0.009362901 0.26959535 0.19591478 0.16340977 0.64012283
0.45109648 0.07356411 0.38602227 0.09235654 0.057810605 0.11111784 -0.14198163 -0.07182758
00000000: 46fb 91be 23e4 2ebf 04af fc3c c8bb a9bf
00000010: d729 13c0 8221 acbf cf4c 6fbf 6f28 dbbf
00000020: 64cf 6bbf d97a 0d3f 6b5a 09bf 72cf 053e
00000030: 8f66 843e b699 60bf 799f 60be 59dc e0bd
00000040: 1026 ce3d 55d0 debe 04e8 17bf 0c8d ecbf
00000050: 2a02 a6be 2e1e a2bf a479 85bf c15d 49bf
00000060: fcc0 d8be 6fb7 79bf 66f0 7c3e 07e3 87be
00000070: 329b 9bbf 7f2b a0be c6cf 21bb 5445 32bf
00000080: 9463 083e 5294 a33e 701a 13be 728e 403f
00000090: 8649 443e da76 183d 46f2 8f3e adf1 203f
000000a0: 494f 2ebd a620 023f 6042 873f 1e25 253f
000000b0: d5b8 1c3f d834 c03b 5134 093f cfa1 16be
000000c0: 7a0f c73e 3e52 ed3e a604 713f cdc2 ef3d
000000d0: 9263 713f 4398 db3e e1ea 8c3d 649c c5bd
000000e0: 8508 0d3e 1322 adbf e4c3 2fbf 6722 26bf
000000f0: 24bc a3bf 0062 b5be f3b3 11bf 78f7 f13e
00000100: 2046 343f 3728 64bd 9626 553f 4317 363f
00000110: 6605 513f 5381 c13e 2dad 313f dc72 d53e
00000120: 36b1 83be f0f2 89be a8e5 673e ddac 3abe
00000130: dc8c d23e 5cfd d53d 177e 82be a732 b83e
00000140: 60c8 ab3e fc86 d9be 845c 5fbf 9733 85be
00000150: 3e64 b53e e918 99bf da0a 41be a34e 0c3f
00000160: 01ad c1bd 48d1 a53e 00bd 983e 3429 07bf
00000170: 73fb ad3e 42fd b6be 038d 5c3f 647f c23e
00000180: 88ce 4f3f 6f97 b0be e6e1 2d3f 8600 c6be
00000190: 1544 023f ae42 12bf 53e5 eb3e bab2 ab3f
000001a0: a8ec 0b3e 442b c8bb d013 d23f 587e 1dbd
000001b0: 93f9 7a3e 1049 433c 8f95 45be 3160 c2be
000001c0: 1d74 65bf 0663 d7be 04c1 303f e3e5 a1bd
000001d0: aa78 fe3e bc47 9bbe 0264 f03e 54b7 4e3e
000001e0: 8936 58bd ca56 58bf e529 ac3e 7541 1abf
000001f0: 2747 2b3e b334 1ebf 8f89 c9bf 8b3c 28bf
00000200: c1ea 0abf 4f69 35bf 9d3e cdbf 4e85 18be
00000210: 6899 03bf dac5 55bf 3bfc 4b3c 7fe5 8f3c
00000220: 34fe 4e3f 8ddf 47bd 9935 0ebe 03d3 4dbf
00000230: e02f 0439 760a 14bf 15fc ef3e 4e74 ccbe
00000240: a720 633e 7b77 d8be 7dbe 7dbe 1bac 3cbf
00000250: 4e2f 823f 662d 53bd 43b5 3e3f 2222 aebe
00000260: 1d69 7e3d 1294 5d3f d78f aebe e664 db3f
00000270: 26f6 4cbe d56e 3540 348d 473f 6143 643f
00000280: 4064 f7be d2be 873f 7a26 0ebf fa9c 1abe
00000290: 12b2 61be 2f3b 1d3f 5634 a53f b224 033f
000002a0: 90e6 ed3e 5a71 123f dd6b 4c3e 8538 a0bd
000002b0: 8c44 9abe 5726 4bbe 8be8 f2bc 64eb 903e
000002c0: 0c8f a6ba 3364 d23c 2c8c 4c3e 3ac4 9d3e
000002d0: a0d4 b5bc dece d93e ee59 353e 4f66 e4be
000002e0: c32b a9bc 8712 b2be f236 eebe 0d19 2b3c
000002f0: 0ea4 c8be 25ee 513e 6c46 943e abe0 5d3e
00000300: a3e6 163f ea39 123f 0f47 093f da3a c43d
00000310: 191f 1b3e 98bc 323e 3efd 1ebe b674 703f
00000320: bd83 36bf 5015 1f3f 2226 4540 3a79 7abf
00000330: 845c 4d3f 920d 0e40 5a2a 04bf a548 9ebe
00000340: e254 33bf 9913 a1bf a8d3 40bf 249f 0ebf
00000350: 4da9 83bf ca28 80bf d9f0 05bf 3502 e5be
00000360: 29f6 54be 9208 39be 24f6 01be aa9b a43e
00000370: 91d8 d73e 253a 683e 9859 ae3d 1a23 a7be
00000380: 872b c7bd b30f 8ebd 33a9 55bd 89ff 30bd
00000390: 2e4e f83d 99bc 413f ccd5 2b3d 43a5 c53e
000003a0: ada4 053f c17b cc3d 5103 cebe 0b32 4a3f
000003b0: 0f49 9abe b576 35bf 5276 0140 a641 15bf
000003c0: f037 22bf 0f22 393f 5d13 3ebf da66 19bc
000003d0: 6708 8a3e e29d 483e e454 273e 17df 233f
000003e0: 1ef6 e63e c8a8 963d b6a4 c53e 6d25 bd3d
000003f0: d0ca 6c3d c091 e33d a263 11be 571a 93bd

up_blocks.0.attention_gate.gating_conv.weight f4 [6, 6, 1, 1]
0.35371834 0.19024095 0.16456574 0.20796329 0.66102284 -1.6405634 -1.1042005 0.24225362
-0.7673246 -1.2739065 -0.7126805 -0.4355339 0.17407842 -0.071618035 2.0624118 -0.50379986
-0.20606963 0.8224648 -0.0870459 0.16458434 0.4963025 -0.5277273 1.0506657 0.6904456
-0.35496497 -1.0126827 -0.122062206 -0.025462653 -0.0002706003 -2.2909236 0.42311543 -0.43664566
-0.75990176 0.16860496 0.29003462 -1.3061471
00000000: 921a b53e 86ce 423e ec83 283e 54f4 543e
00000010: cb38 293f fbfd d1bf 7156 8dbf 5511 783e
00000020: 636f 44bf 5e0f a3bf 3b72 36bf 4dfe debe
00000030: 9d41 323e 7aac 92bd 8efe 0340 07f9 00bf
00000040: eb03 53be 0e8d 523f 1f45 b2bd cc88 283e
00000050: 5c1b fe3e 2319 07bf 377c 863f 0bc1 303f
00000060: f8bd b5be 969f 81bf c0fb f9bd 0e97 d0bc
00000070: 5cdf 8db9 7e9e 12c0 96a2 d83e 0590 dfbe
00000080: ec88 42bf c7a6 2c3e 6b7f 943e d42f a7bf

up_blocks.0.attention_gate.gating_conv.bias f4 [6]
-0.106153905 0.37059996 -0.08645866 -0.11367788 0.26524627 -0.22870061
00000000: 3867 d9bd 47bf bd3e 3d11 b1bd f3cf e8bd
00000010: 5cce 873e 7e30 6abe

up_blocks.0.attention_gate.input_conv.weight f4 [6, 6, 1, 1]
0.24345893 0.7875983 1.4046243 -0.5643082 0.28476596 0.0050818473 -2.1472824 0.33855066
0.6268832 -1.2667786 -0.083126195 0.114487156 1.2654444 -1.0323739 0.107839935 0.37945867
0.39670447 -0.3943409 -0.15093897 -0.83259064 0.9486156 -0.23424837 -0.32397172 -0.76358825
-0.06914817 0.047794122 0.15253809 0.89150685 0.19103043 1.7515582 -1.1443143 -1.168823
0.018199658 0.34642714 -0.7605205 0.1919143
00000000: 4c4d 793e 0ba0 493f bbca b33f 8176 10bf
00000010: d8cc 913e a085 a63b 136d 09c0 8356 ad3e
00000020: 6b7b 203f cd25 a2bf 113e aabd 3e78 ea3d
00000030: 15fa a13f d424 84bf 2fdb dc3d 6848 c23e
00000040: d91c cb3e 0de7 c9be bf8f 1abe a924 55bf
00000050: 79d8 723f cede 6fbe 9fdf a5be 857a 43bf
00000060: 8e9d 8dbd c5c3 433d f232 1c3e cb39 643f
00000070: 7b9d 433e 0f33 e03f e478 92bf fe9b 95bf
00000080: 7317 953c e65e b13e 79b1 42bf 2f85 443e

up_blocks.0.attention_gate.input_conv.bias f4 [6]
-0.3376992 -0.17779912 -0.11664232 -0.40734655 0.10540386 0.017777776
00000000: e9e6 acbe f910 36be 2be2 eebd ba8f d0be
00000010: fbdd d73d b3a2 913c

up_blocks.0.attention_gate.conv.weight f4 [1, 6, 1, 1]
-0.6740597 2.4814262 1.9553853 0.53747034 -0.16763207 0.107835636
00000000: 2d8f 2cbf b0cf 1e40 114a fa3f a897 093f
00000010: bea7 2bbe eed8 dc3d

up_blocks.1.transpose_conv.weight f4 [6, 3, 2, 2]
-1.0928454 -0.53714 -0.27144116 -0.6860089 -0.11126485 0.22583158 -0.7246309 -0.7913419
-0.35154778 0.258142 -0.2740486 -0.20406027 0.39094105 0.19856834 0.076130055 0.1274708
0.09137785 0.044446036 -0.5078555 -0.92389417 -0.025826247 -0.2924925 -0.2655179 -0.040844176
-0.7562182 -0.49755707 -0.20210253 -0.67380893 0.011578618 -0.055043757 -0.02136304 -0.013411548
-0.46854785 -0.62044233 -0.71177113 -0.53826034 -0.099187605 -0.038541075 0.28717953 0.37900558
1.3928564 1.4939158 -0.34472835 -0.3702016 -0.0897558 -0.057072487 -1.3936367 -1.5445946
0.48639962 0.5105616 0.4903518 0.41528943 -0.14274217 -0.12413908 -0.13111974 -0.10235681
0.47632706 0.48481256 0.46793264 0.54835683 -0.013702147 -0.59717655 -0.32273224 -0.34880346
-0.033178028 -0.033358887 -0.8943192 -1.0810337 -0.27184334 -0.45465156 -0.260104 -0.24834825
00000000: 5ce2 8bbf 0282 09bf 56fa 8abe 479e 2fbf
00000010: d3de e3bd 6540 673e 6981 39bf 6295 4abf
00000020: 12fe b3be 302b 843e 1950 8cbe 2df5 50be
00000030: 6d29 c83e 8055 4b3e 13ea 9b3d b587 023e
00000040: 4f24 bb3d 0c0d 363d d102 02bf 5484 6cbf
00000050: 9191 d3bc 94c1 95be f6f1 87be 394c 27bd
00000060: 8497 41bf cdbf febe f7f3 4ebe be7e 2cbf
00000070: 3eb4 3d3c 9075 61bd 8b01 afbc 1cbc 5bbc
00000080: 81e5 efbe 4fd5 1ebf a236 36bf 6ecb 09bf
00000090: df22 cbbd 3fdd 1dbd 3209 933e 050d c23e
000000a0: 1e49 b23f a238 bf3f 3c80 b0be 108b bdbe
000000b0: e4d1 b7bd d7c4 69bd b062 b2bf 47b5 c5bf
000000c0: 5f09 f93e 2ab4 023f 640f fb3e d1a0 d43e
000000d0: 012b 12be a13c febd 4144 06be 72a0 d1bd
000000e0: 24e1 f33e 5a39 f83e de94 ef3e 1d61 0c3f
000000f0: f87e 60bc 90e0 18bf 293d a5be 5e96 b2be
00000100: afe5 07bd 54a3 08bd 1af2 64bf 505f 8abf
00000110: 0d2f 8bbe 17c8 e8be 5a2c 85be 014f 7ebe

up_blocks.1.transpose_conv.bias f4 [3]
-0.13955067 -0.9516551 -0.1170917
00000000: 5fe6 0ebe ab9f 73bf c6cd efbd
