saved_models/old_models/bSuperMRI_50.pth (torch, 29410 bytes, 25 tensors)

input_block.conv1.weight f4 [3, 1, 3, 3]
0	0xbf488de2	-0.78341496
1	0x3cc91c00	0.024549484
2	0xbf6af244	-0.9177592
3	0xbf304c79	-0.6886669
4	0xbf25ed56	-0.6481527
5	0xbfae368a	-1.3610394
6	0xbf8688a9	-1.0510455
7	0xbf308f63	-0.6896879
8	0xbf5d9db6	-0.8656877
9	0x40601d10	3.5017738
10	0xbded7feb	-0.11596664
11	0xbe3b7080	-0.18304634
12	0x3d3a89ae	0.045541458
13	0x3e34d5a1	0.17659618
14	0xbd5cc0ec	-0.053894922
15	0xbd2df560	-0.042470336
16	0xbdca7826	-0.09886198
17	0xbe1fb8b2	-0.155978
18	0x3d3f8d0f	0.046765383
19	0xc00a3bf9	-2.1599104
20	0xbf07174a	-0.5276991
21	0xbfa0b30c	-1.2554641
22	0xbf187c2d	-0.5956448
23	0xbeb4d9e7	-0.35322496
24	0xbe33efdc	-0.17571968
25	0xbf2f98af	-0.6859235
26	0x3eb56d70	0.35435057

input_block.conv2.weight f4 [3, 3, 3, 3]
0	0xbfc56d82	-1.5424044
1	0xbf300c7d	-0.68769056
2	0x3c0adb11	0.008475081
3	0xbfb0c7f4	-1.3811021
4	0xbf60653c	-0.8765447
5	0xbeca949a	-0.395665
6	0xbf4edb53	-0.8080341
7	0xbf06c439	-0.5264316
8	0x3dd6c599	0.104869075
9	0x3ca18a4c	0.019719265
10	0xbee66643	-0.44999894
11	0xbef0b9d7	-0.47016785
12	0x3e79cdae	0.24394867
13	0x3e82d184	0.25550473
14	0xbf01c55b	-0.50691766
15	0xbe1e6fcb	-0.15472333
16	0xbf028274	-0.50980306
17	0xbf23889c	-0.63880324
18	0xbf76d653	-0.9642078
19	0xbc450160	-0.012024254
20	0x3e0f25c4	0.1397925
21	0xbf4e9a41	-0.8070412
22	0x3bc8eb54	0.006131569
23	0x3da7afb8	0.081878126
24	0xbeca76d1	-0.39543775
25	0x3e9c16ad	0.3048605
26	0x3ec8d31b	0.3922356
27	0xbf0b5f0e	-0.54441917
28	0xbdba1f99	-0.09088058
29	0xbe92d869	-0.28680733
30	0x3f5569df	0.8336467
31	0x3f5bd027	0.8586449
32	0x3fb8b4a0	1.4430122
33	0xbe9df12a	-0.30848056
34	0x3f1457d4	0.57946515
35	0xbf7b4482	-0.9815141
36	0xbe2b698f	-0.16739486
37	0xbd2a92e4	-0.041643992
38	0x3ecce581	0.40018848
39	0xbe509331	-0.20368649
40	0x3e8d65ba	0.27616674
41	0x3f162fcf	0.586667
42	0xbda91cb3	-0.08257427
43	0xbe1ab93b	-0.15109722
44	0x3f6861ed	0.9077442
45	0x3fc49da0	1.5360603
46	0x3ffbb2c3	1.9663929
47	0xbe65476a	-0.22390524
48	0x3fc65000	1.5493164
49	0x40405f99	3.0058348
50	0x3fc22c6d	1.5169808
51	0xbe37b4b5	-0.17940028
52	0x3fb73a76	1.4314716
53	0x3f3e0678	0.7422862
54	0xbdce6bca	-0.10079153
55	0xbeb5cbb0	-0.35506964
56	0xbea8243d	-0.32840148
57	0xbef1fdd8	-0.4726398
58	0xbeddd894	-0.43329298
59	0xbed3b773	-0.41350898
60	0xbef34ab0	-0.4751792
61	0xbf0b8ccc	-0.54511714
62	0xbe6ad2f8	-0.2293204
63	0xbea183f6	-0.3154599
64	0x3e08dd2b	0.13365619
65	0x3f095102	0.53639233
66	0xbdaff690	-0.0859195
67	0x3efa1fa9	0.4885228
68	0x3f95b06a	1.1694462
69	0xbd920b25	-0.07131032
70	0x3f1278c1	0.57215506
71	0x3f89aa11	1.0755025
72	0x3d10d8f3	0.03536315
73	0x3f30e99e	0.6910647
74	0xbdbde833	-0.09272804
75	0x3e94d135	0.29065862
76	0xbe759ad1	-0.23984839
77	0xbe3487f4	-0.17629987
78	0x3ea1c455	0.31595102
79	0xbe9051e6	-0.28187484
80	0xbeee02e9	-0.46486595

down_blocks.0.conv_block.conv1.weight f4 [6, 3, 3, 3]
0	0xbe9a3f50	-0.3012643
1	0x3ef22158	0.47291064
2	0x3e61492a	0.22000566
3	0x3eea7247	0.45790312
4	0x3f07eaf4	0.53092885
5	0x3e028ab3	0.12748222
6	0x3d46354b	0.048390668
7	0x3fb54a6a	1.4163334
8	0x3f55df5f	0.8354396
9	0xbf5a7312	-0.85331833
10	0xbe75920a	-0.2398149
11	0x3fbde01b	1.4834017
12	0xbeb39049	-0.35071018
13	0x3f0a8dca	0.541226
14	0x3fd8cbf7	1.6937245
15	0xbf918c54	-1.137095
16	0xbf74da18	-0.95645285
17	0x3ee43d07	0.4457781
18	0xbedffb11	-0.43746236
19	0xbeb283c2	-0.34866148
20	0xbedb9fc0	-0.42895317
21	0xbf4495f0	-0.76791286
22	0xbf31ee8a	-0.69504607
23	0xbf2f2df7	-0.6842951
24	0x3f2054a2	0.6262914
25	0x3e7e839b	0.24854891
26	0xbe7aef6f	-0.24505399
27	0x3c776276	0.0150991585
28	0xbf76e32c	-0.96440387
29	0xbf8fe1e3	-1.124081
30	0x3faa02bc	1.3282084
31	0x3f7664b6	0.9624742
32	0x3f75e75c	0.9605615
33	0x3e6b7784	0.2299481
34	0xbf38dc19	-0.7221084
35	0x3e1107e5	0.14163168
36	0xbe0f6005	-0.14001472
37	0xbf38cb51	-0.72185236
38	0x3ef89bf3	0.4855648
39	0x3cc343cd	0.02383604
40	0xbf6c95a9	-0.92415863
41	0x3e0b8b62	0.13627389
42	0x3d97f1e4	0.07419184
43	0xbfa948f6	-1.3225391
44	0xbdaccdbf	-0.084376805
45	0xbe79a0fd	-0.24377818
46	0xbf30e1f6	-0.6909479
47	0x3f967a92	1.1756155
48	0xbe88110b	-0.26575503
49	0xbee645e3	-0.44975194
50	0x3f29af9d	0.6628359
51	0xbfd0ef2e	-1.6322992
52	0xbf61e889	-0.88245445
53	0xbe13ac91	-0.14421298
54	0xbe95dd1f	-0.29270265
55	0x3e68165e	0.22664782
56	0x3ecd9432	0.40152127
57	0x3e52c750	0.20583844
58	0x3f770ffa	0.96508753
59	0x3f983cae	1.1893518
60	0x3e889ce5	0.266822
61	0x3f77573e	0.96617496
62	0x3f7d4e23	0.9894735
63	0x3e4e2f15	0.20135148
64	0xbf19dc4b	-0.60101765
65	0x3e262692	0.16225651
66	0x3e4a3448	0.19746506
67	0xbf92b3e5	-1.146115
68	0xbe1d27a8	-0.15347159
69	0x3ed21b2d	0.41036358
70	0xbf11269d	-0.56699544
71	0x3e5d5c21	0.21617176
72	0xbe9462e8	-0.2898171
73	0x3eec48e3	0.46149358
74	0xbea8cc59	-0.32968405
75	0x3f2acf9c	0.66723037
76	0x3fb70dcd	1.4301087
77	0x3ee50775	0.44732252
78	0x3eb07ca7	0.34470102
79	0x3f82e1dd	1.0225178
80	0xbed137bb	-0.4086283
81	0x3f479daa	0.7797495
82	0x3f1b929f	0.607706
83	0x3f34a349	0.70561653
84	0x3f1d526d	0.61453897
85	0x3f334353	0.70024604
86	0x3f361f45	0.71141464
87	0x3e99a8dd	0.30011645
88	0x3e9e3ada	0.30904275
89	0x3ecab5bd	0.3959178
90	0x3e64456a	0.22292104
91	0x3f36e372	0.71440804
92	0x3ee63e02	0.44969183
93	0x3f17defa	0.5932461
94	0x3f461dd4	0.77389264
95	0x3ede30a0	0.43396473
96	0x3ca6e12a	0.020371038
97	0xbd3bb02d	-0.04582231
98	0xbda73e4e	-0.081661806
99	0xbf96d5c5	-1.1783987
100	0x3f5edad5	0.8705266
101	0xbfe41ee5	-1.7821928
102	0xbf83890b	-1.0276197
103	0x40415dd6	3.0213523
104	0xbeab9772	-0.3351398
105	0xbf6ae8df	-0.91761583
106	0x3f32872d	0.6973751
107	0xbefe7158	-0.4969585
108	0xbf220b4c	-0.6329849
109	0xbf670d4c	-0.90254664
110	0xbde29cfe	-0.110651
111	0xbf39c07f	-0.7255935
112	0xbf50330e	-0.81327903
113	0x3b861eda	0.0040930333
114	0xbf29a525	-0.66267616
115	0xbf99be3e	-1.2011182
116	0xbf6a5906	-0.9154209
117	0x3ebcc28c	0.36867177
118	0xbf27d493	-0.6555874
119	0xbeb37735	-0.35051885
120	0xbf30b77e	-0.69029987
121	0xbfdbd74a	-1.7175076
122	0xbfae75fa	-1.3629754
123	0x3ee1c39d	0.44094554
124	0xbe873318	-0.2640617
125	0x3f085cc7	0.53266567
126	0xbf117fcf	-0.56835645
127	0xbee335ed	-0.4437708
128	0xbe837b9e	-0.2568025
129	0xbf4f8874	-0.81067586
130	0xbf7ede38	-0.9955783
131	0xbf13f932	-0.57802117
132	0xbe2dee7c	-0.16985506
133	0xbf32d22a	-0.69851935
134	0xbf6bc4be	-0.9209708
135	0x3ee688b1	0.45026162
136	0x3ecb8a89	0.3975413
137	0x3dfefd86	0.124506995
138	0xbe5d2d3f	-0.21599291
139	0xbefd0f0f	-0.4942555
140	0xbf79c69e	-0.9756869
141	0xbdb8177d	-0.08988855
142	0xbf476386	-0.77886236
143	0xbfc84271	-1.5645276
144	0xbf0c443a	-0.54791605
145	0xbf815435	-1.0103823
146	0xbe174b24	-0.14774758
147	0x3f30863f	0.68954843
148	0x3ddc0a82	0.10744192
149	0x3f1e1f95	0.6176694
150	0x3e401214	0.18756896
151	0xbe5edce2	-0.21763948
152	0x3ea8c536	0.3296296
153	0xbfa55cc0	-1.291893
154	0x3e564a04	0.20926672
155	0xbdec83ad	-0.11548553
156	0xbca9dbe2	-0.020734731
157	0x3faa77fd	1.3317868
158	0x3f8275ad	1.0192162
159	0x3bebd06c	0.0071964767
160	0x3fbe1599	1.4850341
161	0x3f862d5b	1.0482591

down_blocks.0.conv_block.conv2.weight f4 [6, 6, 3, 3]
0	0xbf99b48e	-1.2008226
1	0xbe9df743	-0.30852708
2	0x3fc4ca7e	1.5374296
3	0xbf837699	-1.0270568
4	0xbe2db1a0	-0.1696229
5	0x3fcedb67	1.6160706
6	0xbf87aee4	-1.0600247
7	0xbe10b2e2	-0.14130738
8	0x3f8c4648	1.0958948
9	0xbf151f92	-0.582513
10	0x3e0750bc	0.13214391
11	0x3ec8559e	0.3912782
12	0xbec3fe11	-0.38279775
13	0x3f22f2e4	0.6365187
14	0x3f9825b7	1.188651
15	0xbef363cc	-0.47537076
16	0x3eca44be	0.3950557
17	0x3f8b303d	1.0874096
18	0xbe8fbb19	-0.28072432
19	0xbf131987	-0.57460827
20	0xbf5c348b	-0.86017674
21	0xbe723b01	-0.2365532
22	0xbec91ebe	-0.39281267
23	0xbf878966	-1.0588806
24	0x3e5ce532	0.21571806
25	0xbdd617fd	-0.10453794
26	0xbf3a3551	-0.72737604
27	0xbe839064	-0.256961
28	0x3ec28b14	0.37996733
29	0x3eaff9d4	0.3437029
30	0xbd797c2b	-0.06090943
31	0x3da01720	0.07816911
32	0x3dbf90d9	0.093537994
33	0xbf18510f	-0.59498686
34	0xbe854a46	-0.2603323
35	0x3d9f55cc	0.07780036
36	0x3e3b996a	0.18320242
37	0xbe3ea30b	-0.18616883
38	0xbf7724bb	-0.9654042
39	0xbc23f2ad	-0.010006589
40	0x3dfe39a8	0.12413341
41	0xbee48879	-0.4463537
42	0xbe54cc62	-0.20781091
43	0xbe3b9ad5	-0.18320782
44	0xbdf1c875	-0.11805812
45	0x3f881393	1.0630974
46	0x3fe9f26c	1.8277106
47	0x3f4f3562	0.8094083
48	0x3ead79cc	0.33881986
49	0x3fa01eb4	1.250937
50	0xbe858bfe	-0.26083368
51	0x3f8f53d7	1.1197461
52	0x4004d96d	2.0757706
53	0x3ec1df29	0.3786557
54	0x3f2c8323	0.673876
55	0x3ef8964f	0.48552176
56	0x3df1b4ad	0.11802039
57	0x3e1e7912	0.15475872
58	0x3cdf3bd1	0.027250202
59	0xbf0f8d2d	-0.5607479
60	0x3e08498b	0.13309304
61	0xbdc65509	-0.09684188
62	0xbf80ade3	-1.0053066
63	0x3e8ae10b	0.2712482
64	0x3e9a27e4	0.3010856
65	0x3f1fe76c	0.62462497
66	0x3e433f1c	0.19067043
67	0x3f065d46	0.52486074
68	0x3f425ab4	0.7591965
69	0x3ecc5480	0.39908218
70	0x3eaff344	0.34365284
71	0x3f20cef5	0.6281579
72	0xbec21563	-0.37906942
73	0x3e9f8c41	0.31161693
74	0x3d824ca9	0.06362278
75	0x3e184dc5	0.14873417
76	0x3f56422a	0.8369471
77	0x3f0bf73a	0.5467411
78	0x3f08cb76	0.53435457
79	0x3f5c1766	0.85973203
80	0x3f47a1d7	0.77981323
81	0x3ca63b49	0.020291941
82	0x3f23fc4d	0.64056855
83	0x3e8bf030	0.27331686
84	0x3ee9823a	0.45607167
85	0x3f83e9fb	1.030578
86	0x3f17a093	0.5922939
87	0x3e5ac61c	0.21364635
88	0x3f3a6cdc	0.72822356
89	0x3f3dfe2f	0.7421598
90	0x3f1ea623	0.61972255
91	0x3f34e846	0.7066692
92	0x3f828760	1.0197563
93	0x3ceeafa0	0.029136479
94	0x3e8caff8	0.27478004
95	0x3e40c5ba	0.18825427
96	0x3eb45b52	0.35225922
97	0x3f1176e4	0.5682204
98	0x3e02480a	0.12722793
99	0x3f0eb064	0.557379
100	0x3f7cbba5	0.9872382
101	0x3e4c2724	0.19936806
102	0x3f32d0a1	0.6984959
103	0x3f87d822	1.0612833
104	0x3d662d72	0.056195684
105	0x3f087e91	0.53318125
106	0x3f375b91	0.71624094
107	0xbea14fd7	-0.31506225
108	0xbdba77ef	-0.09104907
109	0xbe122ce0	-0.14274931
110	0xbed1892b	-0.40924963
111	0x3ebde3e2	0.37087923
112	0xbde45bae	-0.11150299
113	0x3f310f18	0.69163656
114	0x3e84c44c	0.25931013
115	0xbecabc90	-0.39596987
116	0xbc33e83c	-0.010980662
117	0xbf752c20	-0.95770454
118	0xbf9b4e2c	-1.2133231
119	0xbe806350	-0.2507577
120	0xbfaf926e	-1.3716562
121	0xbfad533c	-1.3541026
122	0xbee9cc9e	-0.45663923
123	0xbfbe094e	-1.484659
124	0xc002cef7	-2.0438821
125	0xbf68f949	-0.9100538
126	0xc0158f3b	-2.336867
127	0xbfc9fc24	-1.5780072
128	0xbfb1ae38	-1.3881292
129	0xc0030807	-2.047365
130	0xbf9cac64	-1.224011
131	0xbf8f6d2a	-1.1205189
132	0xc02515ad	-2.579448
133	0xbfe7c8df	-1.8108176
134	0xbfbbff0e	-1.4687212
135	0xbe869f17	-0.2629325
136	0xbe967a45	-0.2939016
137	0xbe4ffaf8	-0.2031058
138	0x3e35519c	0.17706913
139	0x3e3972cf	0.18110202
140	0xbcdab296	-0.026696485
141	0xbe2db553	-0.16963701
142	0xbeb2b27f	-0.34901807
143	0xbebc8c5f	-0.36825845
144	0xbf312708	-0.6920018
145	0xbf550ba2	-0.83220875
146	0xbf3cf349	-0.73808724
147	0xbf5ee2a4	-0.87064576
148	0xbf66b8a6	-0.901255
149	0xbf8e9619	-1.1139556
150	0xbf05ef96	-0.52318704
151	0xbf3f7a15	-0.7479566
152	0xbf463626	-0.77426374
153	0xbdbe76a7	-0.09299975
154	0x3d312c00	0.043254852
155	0x3e7ad529	0.24495377
156	0xbe82e949	-0.25568607
157	0x3dc9ee09	0.09859855
158	0x3e035dce	0.12828752
159	0xbe74fa47	-0.23923598
160	0x3d605d79	0.054776642
161	0x3e771e3d	0.24132629
162	0x3ec34cc3	0.38144502
163	0x3ce93e38	0.028472051
164	0xc016af1d	-2.354438
165	0x3f19b404	0.6004031
166	0x3e78b41f	0.2428746
167	0xbfa33c5f	-1.2752799
168	0x3ed3c7f9	0.41363505
169	0x3eda7bd7	0.42672607
170	0xbf00a895	-0.50257236
171	0xbe63e510	-0.22255349
172	0xbf0c49d9	-0.5480018
173	0x3eb4006c	0.35156572
174	0xbf2cfbb5	-0.67571574
175	0xbf847ab0	-1.0349941
176	0x3d642dcd	0.05570774
177	0xbf6a8aa3	-0.9161779
178	0xbf83613d	-1.026405
179	0x3f0c4e11	0.5480662
180	0xbf42ff26	-0.76170576
181	0xbf36c28c	-0.71390605
182	0xbf27aab9	-0.6549488
183	0xbf711a7b	-0.9418103
184	0xbf2fa68a	-0.68613493
185	0xbf580b3d	-0.8439215
186	0xbf0808fd	-0.53138715
187	0xbeae7447	-0.34073088
188	0xbe96b6b2	-0.2943626
189	0xbf7ef44f	-0.99591535
190	0xbeede73b	-0.46465477
191	0xbe2f9d5a	-0.17149869
192	0x3f56f308	0.83964586
193	0x3ff51863	1.9148067
194	0x3ff26b2d	1.8938957
195	0x3e067d36	0.13133702
196	0x3f86772a	1.0505116
197	0x3f82bd3b	1.0213999
198	0xbf04c2ca	-0.51859725
199	0xbf1d300f	-0.61401457
200	0xbe11256b	-0.1417443
201	0xbde86bde	-0.11348699
202	0xbe7c39b4	-0.24631387
203	0xbe785e6a	-0.24254766
204	0xbd8e62c5	-0.069524325
205	0xbe5c0d42	-0.21489432
206	0xbebc13e5	-0.36733928
207	0x3f878e5a	1.0590317
208	0x3eb34475	0.35013166
209	0x3fa580a4	1.2929883
210	0x3ea51e29	0.32249573
211	0xbf025196	-0.5090574
212	0x3e9455e7	0.28971788
213	0xbed2d25e	-0.41176122
214	0xbfa23dc4	-1.2675099
215	0xbf7c9623	-0.9866659
216	0xbf9a1c2b	-1.2039846
217	0xbfa627fc	-1.2980952
218	0x3edd10bd	0.43176833
219	0x3f6ab298	0.9167876
220	0x3e80d7b1	0.2516456
221	0x3f972631	1.180853
222	0xbe9c1278	-0.3048284
223	0xbef267c4	-0.47344792
224	0x3e7bf89c	0.24606556
225	0xbf16f250	-0.5896349
226	0xbf8be366	-1.0928771
227	0xbf691567	-0.9104828
228	0xbf3bdfa3	-0.7338812
229	0xbf9f0c88	-1.2425699
230	0xbf597ba6	-0.849543
231	0xbf151438	-0.58233976
232	0xbf8cc69c	-1.0998111
233	0xbf5d8c3c	-0.86542106
234	0xbf38d9a1	-0.72207075
235	0xbf73a5f4	-0.951751
236	0xbf866987	-1.0500954
237	0xbf470976	-0.7774881
238	0xbef8c958	-0.48591113
239	0xbf0cc5d3	-0.54989356
240	0xbee42fca	-0.4456771
241	0xbec1788a	-0.37787277
242	0xbeab9b01	-0.33516696
243	0xbecf5496	-0.4049422
244	0xbf281d89	-0.6567007
245	0xbef3f2c3	-0.4764615
246	0xbf558194	-0.83400846
247	0xbf7f3e50	-0.99704456
248	0xbf03e9ab	-0.51528424
249	0xbec0e145	-0.37671867
250	0xbf314abb	-0.69254655
251	0xbe74145f	-0.23835896
252	0xbf8745ae	-1.056814
253	0xbea1e422	-0.31619364
254	0xbf7165c0	-0.94295883
255	0xbcfb9e07	-0.030715002

down_blocks.1.conv_block.conv1.weight f4 [12, 6, 3, 3]
0	0xc0126107	-2.287172
1	0xc0049ead	-2.0721848
2	0xbfe455c2	-1.7838671
3	0xbfb13e98	-1.3847227
4	0xbf380c3a	-0.71893656
5	0x3d066c4a	0.032818116
6	0xbf6b44f7	-0.91902107
7	0xbe678c56	-0.22612128
8	0x3f1f3352	0.62187684
9	0xbf22680d	-0.6344002
10	0xbeadf6e7	-0.33977434
11	0xbe86e6d9	-0.26347998
12	0xbf714113	-0.9423992
13	0xbf3baa9d	-0.7330721
14	0xbf1ea4d7	-0.61970276
15	0xbee522c8	-0.44753098
16	0xbe8fa217	-0.28053352
17	0xbe85d06f	-0.26135585
18	0x3d8f911d	0.070101
19	0xbc5f5c86	-0.013632899
20	0x3c96a316	0.018388312
21	0x3ed53e85	0.4164926
22	0x3ec92bad	0.39291134
23	0x3e9ed222	0.31019694
24	0x3f090473	0.53522414
25	0x3edee183	0.43531427
26	0x3e936f49	0.2879584
27	0x3d21ca67	0.039499667
28	0x3d860ba2	0.065451875
29	0x3d2a2c1c	0.041545972
30	0x3efaae7c	0.48961246
31	0x3e55f53b	0.20894329
32	0x3ea85b41	0.3288212
33	0x3e98fe41	0.2988148
34	0x3e2c88fc	0.1684913
35	0x3f103a2c	0.56338763
36	0x3d9b01aa	0.07568677
37	0xbf2d3225	-0.6765464
38	0xbf787c7d	-0.97064954
39	0x3eea9ed1	0.45824292
40	0xbf87a704	-1.0597844
41	0xbfb4eb25	-1.413426
42	0xbf8698a8	-1.0515337
43	0xbfed1a0e	-1.8523576
44	0xc00bfb71	-2.1872218
45	0xbf063357	-0.5242209
46	0xbee4f0b9	-0.44714907
47	0xc01e1e9c	-2.4706182
48	0x3f2a3b83	0.6649706
49	0x3f13b7fb	0.57702607
50	0xbfaae82c	-1.3352103
51	0x3ea7dba7	0.3278477
52	0x3d5a3953	0.053277325
53	0xbfc9292e	-1.5715692
54	0xbe8e198e	-0.27753872
55	0xbd253f94	-0.040343836
56	0x3f2451cf	0.6418733
57	0x3e0c4001	0.1369629
58	0xbd82e9c5	-0.06392244
59	0x3f374dcd	0.7160309
60	0xbcccf439	-0.025018798
61	0xbe590c3f	-0.21196078
62	0x3f2e4bd5	0.6808446
63	0xbd05089f	-0.032478925
64	0x3df8d1fd	0.12149427
65	0x3ee4b42a	0.44668704
66	0x3f21a4df	0.631422
67	0x3f5ae23d	0.8550146
68	0x3f9780f1	1.1836225
69	0x3f2589db	0.64663476
70	0x3f1d70d5	0.61500293
71	0x3f8854be	1.0650861
72	0xbf37d18f	-0.71804136
73	0xbf74b4c0	-0.955883
74	0xbedaeacc	-0.4275726
75	0xbfc36269	-1.5264407
76	0xbff5fe04	-1.9218144
77	0xbf87aecf	-1.0600222
78	0xbfb878a1	-1.4411813
79	0xbfe23621	-1.7672769
80	0xbf3cb575	-0.7371438
81	0xbf31c786	-0.69445074
82	0xbf437c91	-0.7636195
83	0xbdfcb585	-0.123393096
84	0xbfa9441d	-1.3223912
85	0xbfc09d7b	-1.5048059
86	0xbf86f30e	-1.0542924
87	0xbf71cf7f	-0.9445724
88	0xbfaceb91	-1.3509389
89	0xbeeb95e2	-0.4601279
90	0x3f5be40a	0.85894835
91	0xbd757abf	-0.059931513
92	0x3e8c0798	0.27349544
93	0x3f85b4dc	1.0445819
94	0x3d3c337b	0.045947533
95	0x3ef2f476	0.47452134
96	0x3fa9633f	1.3233413
97	0x3f235661	0.6380368
98	0x3fc8d724	1.5690656
99	0x3e8db65c	0.27678192
100	0xbe882564	-0.26591027
101	0xbd20465e	-0.039129607
102	0x3dd5e378	0.10443777
103	0xbf03ed53	-0.51534003
104	0xbdbdbf4d	-0.09265003
105	0x3eb75736	0.35808724
106	0xbe3ca0d0	-0.1842072
107	0xbe1fd251	-0.15607573
108	0x3f37140d	0.7151497
109	0x3ea56f52	0.32311493
110	0xbe80b00f	-0.25134322
111	0x3f6248b9	0.88392216
112	0x3de8e0ec	0.113710254
113	0xbf0d5ae2	-0.552168
114	0x3fbf5f52	1.4950964
115	0x3f859c58	1.0438337
116	0x3e75c698	0.24001539
117	0xbe619069	-0.22027744
118	0xbf002a92	-0.5006496
119	0xbee9c9e2	-0.45661837
120	0xbea4e6c4	-0.3220731
121	0xbfb5d8eb	-1.4206823
122	0xbff1413a	-1.884803
123	0x3f15c577	0.5850443
124	0xbf9dc46b	-1.2325567
125	0xbfcd471b	-1.6037325
126	0x3c4b5c9d	0.012412217
127	0xbe30923a	-0.17243281
128	0xbf21cf26	-0.6320671
129	0xbdaf5f45	-0.08563093
130	0xbd6cbab4	-0.05779524
131	0xbf213cfc	-0.6298368
132	0xbf18d567	-0.59700626
133	0x3eb2cc9f	0.34921739
134	0x3e2b896e	0.16751644
135	0xbf15fc7a	-0.58588374
136	0x3f7e33c7	0.99297756
137	0x3e7b6935	0.24551852
138	0xbfa6ad08	-1.3021555
139	0x3eba1087	0.36340734
140	0xbd90e701	-0.070753105
141	0xbfc8bc1b	-1.5682405
142	0xbdc8e6e1	-0.09809662
143	0x3ec105b9	0.3769968
144	0xbf547f6d	-0.83006936
145	0x3d4619fe	0.04836463
146	0xbf39e5bf	-0.7261619
147	0xbf619b5a	-0.8812767
148	0xbe0bdb2d	-0.13657828
149	0xbef1800e	-0.4716801
150	0xbfa1187c	-1.2585597
151	0x3e9dd98d	0.3083004
152	0xbd867acf	-0.06566393
153	0x3b46e557	0.00303491
154	0x3f534ec3	0.82542056
155	0xbf71e24e	-0.9448594
156	0xbd8129c1	-0.06306792
157	0x3eda9450	0.42691278
158	0xbfa29115	-1.2700526
159	0x3f14e7b1	0.58166033
160	0x3f6c7f35	0.923816
161	0xbf739840	-0.9515419
162	0xbf10d6f7	-0.5657801
163	0x3cf80bd2	0.030279074
164	0x3f342d9f	0.7038211
165	0xbf0508b2	-0.51966393
166	0xbeb7ac4c	-0.3587364
167	0xbcc8ca28	-0.024510458
168	0xbf76ab43	-0.96355075
169	0xbf461812	-0.7738048
170	0x3e6ff1c1	0.23432066
171	0x3bccb9db	0.0062477416
172	0x3f3708c2	0.7149774
173	0x3d89c52d	0.067270614
174	0x3f47b805	0.78015167
175	0x3faa9dfe	1.3329465
176	0x3f283364	0.65703416
177	0xbe88d438	-0.2672441
178	0x3e468455	0.19386418
179	0xbeb85abd	-0.36006728
180	0xbf835f12	-1.0263388
181	0xbf9c6dc1	-1.2220994
182	0xbf90a359	-1.129985
183	0xbfa09c3f	-1.2547683
184	0xbf927f31	-1.1445066
185	0xbfa285e6	-1.2697113
186	0xbf758e2a	-0.9592005
187	0xbf7f00f7	-0.9961085
188	0xbf880fc9	-1.0629817
189	0x3e725905	0.23666771
190	0x3f09f566	0.53890073
191	0x3ea8ade4	0.32945168
192	0x3ee4139c	0.4454621
193	0x3f802774	1.001204
194	0x3ef39882	0.47577292
195	0xbe041eab	-0.12902324
196	0x3e8d0d6b	0.275493
197	0xbe15b1b4	-0.1461857
198	0x3f29fcf3	0.66401595
199	0x3eac2241	0.33619884
200	0xbe445cec	-0.19176072
201	0x3f4719c2	0.7777368
202	0x3f54fb36	0.8319582
203	0xbdf3dc3e	-0.11907242
204	0x3fa16ad2	1.2610724
205	0x3ffa2925	1.9543806
206	0x3f959f3c	1.168922
207	0x3d15c570	0.036565244
208	0xbef29be7	-0.4738457
209	0xbf3a4379	-0.72759205
210	0xbe9fbe1b	-0.31199726
211	0xbf9b5466	-1.2135131
212	0xbfc3b8a3	-1.5290722
213	0x3e66dd3e	0.22545335
214	0xbe5ce1f8	-0.21570575
215	0xbf0e7f3d	-0.556629
216	0xbfc88e43	-1.5668415
217	0xc01fa24c	-2.4942808
218	0xbe816933	-0.25275573
219	0xbfcea5a8	-1.6144304
220	0xbfbfc473	-1.4981827
221	0xbc919182	-0.017769579
222	0xbfdc698b	-1.7219709
223	0xbfd0ca0d	-1.6311661
224	0xbf6f3c7c	-0.93451667
225	0xbca22528	-0.019793108
226	0x3d7dfafb	0.06200693
227	0x3f92164b	1.1413053
228	0x3ef2ff19	0.4746025
229	0x3ee15061	0.44006637
230	0x3f67df52	0.90575135
231	0x3c0c58d8	0.008566104
232	0xbf4d1752	-0.8011371
233	0xbf10974b	-0.56480855
234	0x3cc06658	0.023486301
235	0x3ba723b6	0.0051006926
236	0xbec31093	-0.38098583
237	0x3ee16294	0.44020522
238	0x3efbd331	0.49184564
239	0xbc520a25	-0.012819801
240	0x3ea6f65b	0.3260983
241	0x3ea0696e	0.31330436
242	0xbea0b662	-0.31389147
243	0xbfc461f5	-1.5342394
244	0xbdd79d72	-0.10528077
245	0xbdabbe92	-0.08385958
246	0xbe4beeb8	-0.19915283
247	0x3f30547d	0.6887892
248	0x3e788590	0.242697
249	0x3cb3ff27	0.021972252
250	0x3e7ed875	0.2488726
251	0xbdfa3cfb	-0.12218662
252	0x3f88fdab	1.0702413
253	0x3f630f6d	0.8869541
254	0x3e7d7011	0.24749781
255	0x3f7e7231	0.9939299

down_blocks.1.conv_block.conv2.weight f4 [12, 12, 3, 3]
0	0x3f4ed5da	0.8079506
1	0x3dfd0140	0.12353754
2	0x3e875393	0.2643095
3	0x3e2dc5dd	0.1697001
4	0xbef019e5	-0.46894756
5	0xbec957a3	-0.39324674
6	0xbd65735e	-0.056018226
7	0xbf188a1f	-0.59585756
8	0xbf5c97fb	-0.86169404
9	0x3ed57843	0.41693315
10	0x3db71422	0.08939387
11	0x3e460b99	0.19340362
12	0xbda3fa52	-0.08006729
13	0xbec59ea0	-0.38597584
14	0xbe99d2f7	-0.30043766
15	0xbf10f63e	-0.56625736
16	0xbf45e301	-0.77299505
17	0xbf5620a3	-0.8364355
18	0x3fc12c35	1.5091616
19	0x3ebaab3e	0.36458772
20	0xbf852f1e	-1.0405004
21	0x3e45ea3e	0.19327638
22	0x3dd74bb4	0.10512486
23	0xbf95cd31	-1.1703244
24	0xbf32260e	-0.69589317
25	0xbe7aa94f	-0.24478649
26	0xbf3c31ee	-0.73513687
27	0x3f298056	0.6621145
28	0xbe087379	-0.133253
29	0xbf9ad2b1	-1.2095548
30	0x3eeb1598	0.45914912
31	0x3c993915	0.018703977
32	0xbf2efcf2	-0.68354714
33	0x3e87092a	0.2637418
34	0xbee839a1	-0.45356467
35	0xbfb4d6fb	-1.4128107
36	0xc003e8d5	-2.061086
37	0xbfa66b32	-1.3001463
38	0xbfd911de	-1.6958578
39	0xbf1ee24e	-0.62064064
40	0x3d9d17e0	0.076705694
41	0x3d9203ef	0.071296565
42	0x3ea1df52	0.31615692
43	0x3fefe959	1.8743087
44	0x3fbf44a9	1.4942828
45	0xbe2c79cc	-0.16843337
46	0xbe6d5bfc	-0.2317962
47	0x3e04d3e3	0.12971453
48	0xbf0c18d4	-0.54725385
49	0xbef9d620	-0.48796177
50	0xbed50e6b	-0.41612563
51	0xbd8a5be9	-0.06755812
52	0x3e0f783b	0.14010708
53	0x3d1a99c3	0.037744295
54	0x3f529bda	0.8226906
55	0x3f438e86	0.7638935
56	0x3e1d4773	0.15359287
57	0xbf0300e6	-0.51173246
58	0xbe3236ad	-0.1740367
59	0xbf28343a	-0.6570469
60	0xbf2cce0c	-0.675019
61	0xbe758652	-0.2397702
62	0xbe6c8342	-0.23096946
63	0xbef44a77	-0.47713062
64	0xbdd049ce	-0.10170327
65	0xbbddd6f4	-0.006770009
66	0xbfc65eac	-1.5497642
67	0xbf659594	-0.89681363
68	0xbf4b8b8c	-0.79509807
69	0xbf636de1	-0.88839537
70	0xbf0a9215	-0.54129153
71	0xbf4fea04	-0.81216455
72	0xbf3322b0	-0.69974804
73	0xbf007f0f	-0.50193876
74	0xbef2ec47	-0.4744589
75	0xbf888c2c	-1.0667777
76	0xbf7325f6	-0.949798
77	0xbf5a4d6d	-0.8527439
78	0xbf9fddfc	-1.2489619
79	0xbf9d1812	-1.2272971
80	0xbf7401dc	-0.9531534
81	0xbf7fb105	-0.99879485
82	0xbefb4968	-0.49079442
83	0xbf2af9e7	-0.6678757
84	0xbfd8179d	-1.6882206
85	0xbf89d6d2	-1.0768683
86	0xbfb7189e	-1.4304388
87	0xbfaabf97	-1.3339719
88	0xbedf6ef0	-0.43639326
89	0xbfae99f5	-1.3640734
90	0x3faaf3b6	1.3355625
91	0x3f393050	0.72339344
92	0x3f49d795	0.7884458
93	0xbeb6a218	-0.35670543
94	0xbf5198d8	-0.81873846
95	0xbda9cc16	-0.082908794
96	0xbfee14d3	-1.8600105
97	0xbfa69b00	-1.3016052
98	0xbf0b48ce	-0.54407966
99	0xbf5ed781	-0.8704758
100	0x3f08a5ba	0.5337788
101	0x3cdf6022	0.02726752
102	0x3e5741c9	0.21021189
103	0x3f9394de	1.1529806
104	0xbcc2159a	-0.023691941
105	0x3d44790b	0.047966998
106	0x3f7eb5a2	0.994959
107	0xbe98dfbd	-0.298582
108	0x3ee622ed	0.4494852
109	0x3e0b4e28	0.13604033
110	0x3ea06acc	0.3133148
111	0xbc94595b	-0.018109014
112	0xbe844666	-0.2583496
113	0xbe1c202d	-0.15246649
114	0xbeacc66f	-0.33745143
115	0xbed4068e	-0.4141125
116	0xbf353e0e	-0.7079781
117	0x3f185cf2	0.59516823
118	0x3e81d996	0.25361317
119	0x3da13b62	0.078726545
120	0x3d6d49eb	0.05793182
121	0xbe154616	-0.14577517
122	0xbe8cdc36	-0.27511758
123	0xbee5435f	-0.44777963
124	0xbf58c233	-0.84671324
125	0xbf466c73	-0.7750923
126	0x3f41e13a	0.75734293
127	0x3ec9fffb	0.3945311
128	0xbf8e849a	-1.1134217
129	0xbd138e0b	-0.036024135
130	0xbd051a06	-0.03249552
131	0xbfd0587f	-1.6277007
132	0xbf7c72e2	-0.986128
133	0xbed4743f	-0.4149494
134	0xbf36cc67	-0.71405643
135	0x40083c25	2.128671
136	0x3f58c886	0.84680974
137	0xbe3709f6	-0.17874894
138	0x3f8b32fb	1.0874933
139	0xbfb6cb4d	-1.4280792
140	0xbfdd80de	-1.7304952
141	0x3f922547	1.1417626
142	0xbfc4b91c	-1.5368991
143	0xc00ad46e	-2.1692157
144	0xbfaea1fd	-1.3643185
145	0xbec26e34	-0.37974703
146	0xbe5e23ab	-0.21693294
147	0xbf3c99cb	-0.7367217
148	0x3de757cc	0.11296043
149	0x3d3a03b1	0.045413677
150	0xbe88dde6	-0.26731795
151	0x3f67f714	0.90611386
152	0x3f773438	0.96564054
153	0x3de5fe26	0.112301156
154	0xbe842bea	-0.25814754
155	0x3d8991fe	0.06717299
156	0xbe210f55	-0.15728505
157	0xbf3dcc0f	-0.74139494
158	0xbf5b871b	-0.8575303
159	0x3e183733	0.14864807
160	0xbf0a04e6	-0.53913724
161	0xbf4ddb4e	-0.8041276
162	0xbdd1cb1a	-0.10243817
163	0xbf298d0b	-0.6623084
164	0xbf949dd5	-1.1610667
165	0xbecbb810	-0.39788866
166	0xbf625a0d	-0.88418657
167	0xbfbd5849	-1.4792567
168	0xbd9dd26b	-0.0770615
169	0xbd85a99f	-0.06526493
170	0xbe32016a	-0.17383352
171	0xbf0234e6	-0.50861967
172	0xbf201ddc	-0.6254556
173	0x3f44aa1d	0.7682207
174	0xbf836594	-1.0265374
175	0xbf686465	-0.9077819
176	0x3ed1f4bc	0.4100703
177	0xbdff4f2e	-0.12466274
178	0x3e472025	0.19445856
179	0x3f4ec20e	0.80764854
180	0xbf381557	-0.7190756
181	0xbf84d495	-1.0377375
182	0xbfb2d861	-1.3972284
183	0xbfa994f1	-1.3248578
184	0xbfc2e94c	-1.5227447
185	0xc008a141	-2.1348422
186	0xbef8f3ea	-0.48623592
187	0xbf32ca8d	-0.6984032
188	0xbfc345c3	-1.5255665
189	0xbfcbfc13	-1.5936302
190	0xc00bc669	-2.183985
191	0xbfbd64bb	-1.4796365
192	0xc0072638	-2.1117077
193	0xc02ebd03	-2.7302864
194	0xc004c754	-2.074666
195	0xbf090ca2	-0.535349
196	0xbf44e8bc	-0.76917624
197	0xbf79f739	-0.97642857
198	0x3eb92569	0.36161354
199	0xbe0a2e31	-0.13494183
200	0x3e4013cf	0.18757556
201	0xbf262169	-0.6489473
202	0xbf5b188d	-0.85584337
203	0xbee23e0a	-0.44187957
204	0xbf1dc2b1	-0.616252
205	0xbede0a38	-0.4336717
206	0x3e081ea2	0.13292935
207	0x3dddfbfa	0.10839076
208	0xbccd24ca	-0.025041956
209	0x3f0b4091	0.54395396
210	0x3e776c4c	0.24162406
211	0xbd72e4dc	-0.05930029
212	0xbeb76fc3	-0.35827455
213	0x3c4e49b9	0.012590819
214	0xbe931cd1	-0.28732923
215	0xbf6589d9	-0.89663464
216	0xbf93f233	-1.1558288
217	0xbf38e80d	-0.7222908
218	0xbf1361d1	-0.5757113
219	0xbf0ba1c8	-0.54543734
220	0xbe8b4415	-0.2720038
221	0xbed6d8f9	-0.41962412
222	0xbefd621d	-0.49488917
223	0xbed24ae4	-0.41072762
224	0xbed189a6	-0.4092533
225	0xbf17e3f4	-0.59332204
226	0x3ea80d15	0.3282248
227	0x3e041cd4	0.12901622
228	0xbec9466d	-0.39311543
229	0x3f23f821	0.6405049
230	0x3f1d87d1	0.61535364
231	0xbf2925d9	-0.66073376
232	0x3eeeed85	0.46665588
233	0x3ec27ae0	0.3798437
234	0x3ef93265	0.4867126
235	0xbdfc5072	-0.12320031
236	0x3ed24284	0.41066372
237	0x3f84476c	1.0334296
238	0x3e827c49	0.25485447
239	0x3f2ab444	0.66681314
240	0x3f4260da	0.75929034
241	0x3ef118b0	0.47089148
242	0x3f32c4ba	0.6983143
243	0x3eb18826	0.34674186
244	0x3f14c635	0.5811494
245	0xbefee14c	-0.49781263
246	0x3e5b883c	0.21438688
247	0x3f49144b	0.7854659
248	0xbe0bde73	-0.13659076
249	0xbe12ff81	-0.1435528
250	0x3eedfbce	0.46481174
251	0xbe55ad8f	-0.20866989
252	0x3ea452c8	0.32094407
253	0xbf068e24	-0.5256064
254	0xbe89defb	-0.26927933
255	0xbecb4364	-0.39699852

up_blocks.0.transpose_conv.weight f4 [12, 6, 2, 2]
0	0xbf0ac472	-0.54206
1	0xbdde2480	-0.108468056
2	0xbf0f8683	-0.56064624
3	0xbee80ebe	-0.45323747
4	0xbe6ac58c	-0.2292692
5	0xbe37a3d1	-0.17933585
6	0x3df21309	0.11820037
7	0x3e0eeb44	0.13956934
8	0xbdd02271	-0.10162819
9	0x3ec1a5f5	0.37821928
10	0x3e87af7d	0.26501074
11	0xbf00392c	-0.5008724
12	0x3e9da7d1	0.30792096
13	0x3e9ea07f	0.30981824
14	0x3dfc4951	0.123186715
15	0xbf0dad7c	-0.5534284
16	0x3e2aa6ab	0.16665141
17	0x3e3c8414	0.18409759
18	0xbeea2a0d	-0.45735207
19	0xbc2f01c0	-0.01068157
20	0x3e950eda	0.29112893
21	0xbe4755b5	-0.19466288
22	0xbf2f294e	-0.684224
23	0xbe0ec750	-0.13943219
24	0xbee9681e	-0.45587248
25	0xbf2b1689	-0.6683126
26	0xbea85977	-0.32880756
27	0xbf90cb56	-1.1312053
28	0xbe7165c4	-0.23573977
29	0xbee70bb4	-0.45126116
30	0x3ece8a28	0.4033978
31	0xbd08fc49	-0.033443723
32	0xbf5c6ca9	-0.861033
33	0x3e3b4d63	0.1829124
34	0xbf9451de	-1.1587484
35	0xbf055542	-0.5208322
36	0xbf212c44	-0.6295817
37	0x3f21bc87	0.63178295
38	0xbeb08395	-0.3447539
39	0x3fae3d5f	1.3612479
40	0xbe27737e	-0.1635265
41	0xbf59276e	-0.8482579
42	0xbf33bace	-0.70206916
43	0x3ee8e2fe	0.4548568
44	0xbdd8266a	-0.10554202
45	0xbe6f3f7a	-0.23364058
46	0x3e501c70	0.20323348
47	0x3ea1256e	0.3147387
48	0x3f02fedf	0.5117015
49	0xbd7c966b	-0.061666887
50	0xbdfa020e	-0.12207423
51	0xbf1ff84f	-0.62488264
52	0x3dec3c91	0.115349896
53	0x3f5509b6	0.8321794
54	0xbdb072a0	-0.08615613
55	0xbe78381d	-0.24240156
56	0xbe30ce00	-0.17266083
57	0x3fa74a2c	1.306951
58	0xbf24b8ae	-0.643443
59	0x3ebb4aee	0.36580604
60	0xbefdeb49	-0.4959357
61	0x3e4cdc08	0.2000581
62	0x3f070c5d	0.5275324
63	0xbdf832e7	-0.12119084
64	0xbec58880	-0.38580704
65	0x3f4bc215	0.7959302
66	0x3def0fa2	0.116729036
67	0xbebd516f	-0.3697619
68	0x3f2292d7	0.6350531
69	0xbf1876d0	-0.59556293
70	0x3ed94165	0.42432705
71	0xbf64e7b7	-0.8941607
72	0xbdaa30fa	-0.08310123
73	0xbf8f0e7b	-1.1176294
74	0xbe58913f	-0.21149157
75	0xbd9eb548	-0.077494204
76	0xbf4fc935	-0.8116639
77	0xbf8b994b	-1.0906156
78	0x3e24cf9b	0.1609482
79	0x3ef57b78	0.47945762
80	0xbe7abda9	-0.24486412
81	0xbef7466f	-0.48295924
82	0xbe919483	-0.28433618
83	0x3f34a5ca	0.70565474
84	0x3bcb09ae	0.0061962223
85	0xbe773de6	-0.24144706
86	0xbf86954a	-1.051431
87	0x3f3f67c6	0.7476772
88	0xbf9cef66	-1.2260559
89	0xbe520573	-0.20509891
90	0xbe984fe0	-0.2974844
91	0x3efab054	0.48962653
92	0xbca996cc	-0.020701788
93	0xbf835206	-1.0259407
94	0xbd83c4ad	-0.06433997
95	0x3f0e3e3a	0.555637
96	0xbebf80ea	-0.3740304
97	0xbf994c57	-1.1976422
98	0x3f491370	0.78545284
99	0xbf2f1e66	-0.6840576
100	0x3f0dad8b	0.5534293
101	0x3f66fc5e	0.9022883
102	0x3f587db0	0.84566784
103	0xbfa0583c	-1.2526927
104	0xbf05328d	-0.5203026
105	0x3e8e0c9c	0.27743995
106	0xbec40296	-0.38283223
107	0xbf08233a	-0.5317875
108	0x3e555c1f	0.20835923
109	0x3f3b0bf9	0.73065144
110	0xbec72413	-0.3889471
111	0xbe268535	-0.16261752
112	0x3ee435fd	0.4457244
113	0x3f2cd436	0.6751131
114	0xbf8bcc50	-1.0921726
115	0x3d448e43	0.047987234
116	0x3f07b4da	0.5301033
117	0x3f92752d	1.1442009
118	0x3e4dbc88	0.2009145
119	0x3e57c7ca	0.21072307
120	0xbeccd99d	-0.40009776
121	0xbe9f1e02	-0.31077582
122	0xbda38609	-0.079845496
123	0xbf1741c9	-0.59084755
124	0x3cc5106a	0.024055678
125	0x3f2d2d74	0.6764748
126	0x3e8a5477	0.27017567
127	0x3e55d50a	0.20882049
128	0xbf36831e	-0.7129382
129	0xbf5a9db2	-0.85396874
130	0xbf27d5c0	-0.6556053
131	0xbf04f9c2	-0.519436
132	0xbe965951	-0.29365018
133	0x3f32afb0	0.6979933
134	0x3f240471	0.6406928
135	0x3d40817f	0.046998497
136	0x3aa22e5b	0.0012373434
137	0x3de04ea4	0.109524995
138	0xbf059788	-0.52184343
139	0x3cc60778	0.024173483
140	0x3f1fc684	0.62412286
141	0xbf81348d	-1.0094162
142	0x3e9c7251	0.30555966
143	0xbf8071da	-1.0034745
144	0x3ed5ab8e	0.41732448
145	0xbebaa496	-0.36453694
146	0x3ee9b0ec	0.45642793
147	0x3eaaa21f	0.33326814
148	0xbf705362	-0.9387723
149	0xbf8c407a	-1.0957177
150	0xbf186404	-0.5952761
151	0x3eb00fdd	0.34387103
152	0xbd05d493	-0.03267343
153	0xbeb324f5	-0.34989133
154	0xbed7e040	-0.42163277
155	0x3ed66d20	0.4188013
156	0x3ecd9aed	0.40157261
157	0x3e949b2b	0.29024634
158	0xbebd6de0	-0.3699789
159	0x3dace492	0.08442034
160	0xbf88d8c5	-1.0691153
161	0xbf289330	-0.6584959
162	0xbef65e10	-0.4811864
163	0x3f1f1d9e	0.6215457
164	0xbe483044	-0.19549662
165	0xbf4786d7	-0.77940124
166	0xbee2036b	-0.44143233
167	0x3d27901e	0.040908925
168	0x3f34a200	0.7055969
169	0xbe028a8f	-0.12748168
170	0xbecd088b	-0.4004558
171	0x3ee7760b	0.45207247
172	0xbf2474fc	-0.64241004
173	0xbf870822	-1.0549357
174	0xbeacf8d4	-0.3378359
175	0x3f78ba51	0.97159296
176	0x3c66d95d	0.014089909
177	0xbe9d0648	-0.30668855
178	0xbe9cee50	-0.30650568
179	0x3e85f952	0.2616678
180	0x3d6d07e4	0.057868853
181	0xbf1ad27d	-0.6047743
182	0x3e98c248	0.29835725
183	0xbc85b4aa	-0.016321499
184	0xbf838b90	-1.0276966
185	0xbf88d238	-1.0689154
186	0x3f0d318b	0.5515372
187	0xbd529793	-0.051414084
188	0xbf22c522	-0.6358205
189	0xbf4da15d	-0.80324346
190	0x3efbb257	0.491595
191	0x3ebd579c	0.36980903
192	0x3fb9b15b	1.450725
193	0x3f73918c	0.9514396
194	0x3f4870af	0.7829694
195	0x3f8149cb	1.0100645
196	0x3dd0d3fb	0.10196682
197	0xbdf11b84	-0.11772826
198	0xbf5edb9d	-0.87053853
199	0x3ea705fe	0.3262176
200	0xbf08d7b0	-0.53454113
201	0xbd9666b8	-0.07343811
202	0xbea2c6eb	-0.31792387
203	0x3ee3b89c	0.44476783
204	0xbda93d5b	-0.08263656
205	0xbe027aa1	-0.12742092
206	0x3f693996	0.91103494
207	0x3d78bdfc	0.06072806
208	0xbe48eb03	-0.196209
209	0xbea1fd02	-0.31638342
210	0x3f511c1c	0.81683517
211	0xbd996e73	-0.0749177
212	0x3e919c4a	0.28439552
213	0xbb9450c4	-0.0045262296
214	0x3f00c74b	0.50304097
215	0xbc6d6c6f	-0.014491185
216	0xbe40064e	-0.18752405
217	0xbecfea3e	-0.406084
218	0xbd41e9a4	-0.047341958
219	0x3f11a21f	0.56888
220	0xbe72500b	-0.23663346
221	0xbf1aa6cb	-0.60410756
222	0xbe390e04	-0.18071753
223	0x3f0ca084	0.5493243
224	0xbf379bb8	-0.7172198
225	0x3e9aacae	0.3020987
226	0xbf15357b	-0.5828473
227	0x3f5a8b4b	0.85368794
228	0xbac9605c	-0.00153638
229	0xbfaabb9d	-1.3338505
230	0xbc194fd2	-0.00935741
231	0xbeceeb92	-0.404141
232	0xbef87bfa	-0.48532087
233	0xbe37460c	-0.17897815
234	0x3e8b8817	0.27252266
235	0xbeed3718	-0.46331096
236	0x3ebf7283	0.37392053
237	0xbfa4e4f8	-1.2882376
238	0xbd7d85b4	-0.061895087
239	0xbcf1e7c8	-0.029529467
240	0xbee3110f	-0.44348952
241	0x3f9e6fb7	1.2377843
242	0x3eed6ea4	0.46373475
243	0xbebef6f7	-0.37297794
244	0x3f5e8d2d	0.8693417
245	0x3fa58526	1.2931259
246	0x3e1d9c84	0.15391737
247	0xbf8bcd40	-1.0922012
248	0x3ea8fc6f	0.33005092
249	0x3f8a2f37	1.0795659
250	0x3efa648a	0.4890483
251	0xbee9fd69	-0.4570115
252	0x3ee25bba	0.44210607
253	0x3d89f368	0.06735879
254	0xbead89e9	-0.3389428
255	0xbf68b1af	-0.90896124

up_blocks.0.transpose_conv.bias f4 [6]
0	0xbe880493	-0.2656599
1	0x401887d4	2.3832903
2	0x3fac86e7	1.3478669
3	0xbfd8b554	-1.6930337
4	0xbfd87826	-1.6911666
5	0xbe903213	-0.28163204

up_blocks.0.conv_block.conv1.weight f4 [6, 12, 3, 3]
0	0x3f0f9525	0.5608695
1	0xbf11c8a6	-0.5694679
2	0x3eee7ecd	0.46581116
3	0x3ddaa905	0.10676769
4	0x3d7d8acc	0.061899945
5	0xbe446872	-0.19180468
6	0x3f9642db	1.1739153
7	0xbf11f4a7	-0.57013935
8	0x3f867e1a	1.0507233
9	0x3cc9aed5	0.0246195
10	0x3fd8eb62	1.6946833
11	0xbdaaf9c5	-0.08348421
12	0xbdd83aee	-0.10558115
13	0x3f4a430a	0.79008543
14	0xbd595834	-0.053062633
15	0xbe0862d5	-0.13318951
16	0x3f275372	0.653617
17	0x3de6ec08	0.11275488
18	0x3eab3acd	0.334433
19	0x3f2e550d	0.6809853
20	0x3e64a124	0.22327095
21	0x3e4926f2	0.19643763
22	0x3f38cb51	0.72185236
23	0x3c6c80be	0.014434991
24	0x3ec27f7a	0.37987882
25	0x3f91ff98	1.1406126
26	0x3e8b046c	0.2715181
27	0x3e06ff30	0.13183284
28	0xbda20c9b	-0.079125606
29	0x3e2be9ff	0.16788481
30	0xbe09c2f2	-0.13453272
31	0x3f41b963	0.756735
32	0xbf9b136a	-1.21153
33	0xbf301eef	-0.687972
34	0xbf8c512c	-1.0962272
35	0xbf1f25ad	-0.62166864
36	0x3f221a20	0.63321114
37	0x3ff2a153	1.8955482
38	0x3ec23545	0.37931266
39	0x3d1febd4	0.039043263
40	0x3d133255	0.035936672
41	0xbeefa38b	-0.4680446
42	0xbb0ed81a	-0.0021796287
43	0x3ddae3d0	0.10687983
44	0x3d0ba593	0.03409345
45	0x3ed74b92	0.42049843
46	0xbcca9311	-0.02472833
47	0x3fb8efa0	1.4448128
48	0x3dddac25	0.108238496
49	0x3e54d7ca	0.20785442
50	0x3e82afd8	0.25524783
51	0x3eede55f	0.4646406
52	0xbf054fdc	-0.5207498
53	0x3fbbedfd	1.4682003
54	0xbe91cbc7	-0.28475782
55	0x3dc3d1c0	0.09561491
56	0x3e29a34e	0.16566202
57	0xbf7e308e	-0.9929284
58	0xbdff5452	-0.12467255
59	0xbe991ced	-0.2990488
60	0xbde935ad	-0.11387191
61	0x3ec89fa5	0.391843
62	0x3adfea72	0.001708342
63	0xbe8b6f8b	-0.27233538
64	0xbeae0cef	-0.33994243
65	0xbe4780fd	-0.19482799
66	0x3fea6e1e	1.8314855
67	0x3fd09491	1.6295339
68	0x3f88dd86	1.0692604
69	0x3f4cc6de	0.7999095
70	0x3f50a8a1	0.8150731
71	0x3ee68ed8	0.45030856
72	0xbe8dee80	-0.27721024
73	0xbd1fea17	-0.039041605
74	0x3f45d1ac	0.7727306
75	0x3f314e19	0.6925979
76	0x3f2f8bc3	0.68572634
77	0x3f2456da	0.64195025
78	0xbf573e2f	-0.8407926
79	0xbeb8c1ff	-0.36085507
80	0x3f2c9afd	0.67423993
81	0xbfe92b5b	-1.8216356
82	0xbfcd0092	-1.6015799
83	0xbfc52004	-1.5400395
84	0x3fa270f8	1.2690725
85	0x3f425be8	0.7592149
86	0x3e4bcb64	0.19901806
87	0xbfd59e49	-1.668893
88	0xbfe4b426	-1.7867477
89	0xbfab934c	-1.3404326
90	0x3f621509	0.8831335
91	0x3fc174e1	1.5113794
92	0x3f179ca6	0.592234
93	0x3d8efa88	0.06981379
94	0x3f6663a6	0.899958
95	0xbe1eee03	-0.15520482
96	0x3d55783a	0.05211661
97	0x3f88fcf2	1.0702193
98	0xbdb70b37	-0.08937686
99	0x3e4a31bf	0.19745539
100	0x3f4f4289	0.809609
101	0x3f403c21	0.7509175
102	0xbc1c706c	-0.009548288
103	0x3f58655e	0.84529674
104	0x3f016c47	0.50555843
105	0x3eac8db8	0.33701873
106	0x3f851388	1.0396585
107	0x3eb45ece	0.3522858
108	0xbea6f132	-0.32605892
109	0x3f3122b6	0.6919359
110	0x3bf843dd	0.0075764493
111	0xbc7fb899	-0.015607976
112	0x3ebdf23a	0.37098867
113	0x3e4d409e	0.20044181
114	0x3e52f3f5	0.20600875
115	0x3ec288e9	0.3799508
116	0x3e39d5e1	0.18147995
117	0xbccc617f	-0.024948834
118	0x3ee41e3d	0.4455432
119	0x3ed53264	0.41640007
120	0xbdf426e0	-0.11921477
121	0x3f913c03	1.1346439
122	0x3ed7a433	0.42117462
123	0xbe67fe3b	-0.22655575
124	0x3f62f0e3	0.88648814
125	0x3dc0163f	0.09379243
126	0x3f448071	0.76758486
127	0xbd4f7d79	-0.05065677
128	0x3f8b1631	1.0866147
129	0x3e61c316	0.22047076
130	0xbe2df8d1	-0.16989447
131	0x3ee613ac	0.44936883
132	0x3eed8ea7	0.46397898
133	0x3dabf29b	0.08395883
134	0x3ef5a086	0.47974032
135	0xbdbaa1a9	-0.091128655
136	0x3e8b2a24	0.27180588
137	0xbe3289ab	-0.17435329
138	0x3dd032d9	0.101659484
139	0xbe420c7f	-0.1895008
140	0x3e866cb2	0.26254803
141	0x3f07ebb8	0.53094053
142	0xbeefb124	-0.46814835
143	0x3f3cc8cd	0.737439
144	0x3eafe854	0.3435694
145	0x3d8ffe35	0.07030908
146	0x3f2022a1	0.6255284
147	0x3e5d62f9	0.21619786
148	0x3dc709af	0.09718644
149	0x3ecd8e27	0.40147516
150	0xbe6eaef2	-0.23308924
151	0x3eb4968b	0.35271105
152	0x3e0e74f5	0.13911803
153	0xbd98547a	-0.074379876
154	0xbef893fc	-0.48550403
155	0xbecf3e12	-0.40477043
156	0xbdb3f480	-0.08786869
157	0xbed7fbb8	-0.42184234
158	0xbe8ea963	-0.27863607
159	0xbea57f69	-0.3232377
160	0xbe9b20ac	-0.30298364
161	0xbf4680b9	-0.77540165
162	0x3f5b63e6	0.8569931
163	0x3e58aa29	0.21158661
164	0x3f4ec004	0.8076174
165	0xbdd96726	-0.10615377
166	0xbdfea377	-0.12433522
167	0x3d60bce5	0.054867644
168	0x3f1c99eb	0.6117236
169	0x3e75af3f	0.23992632
170	0x3f063e23	0.52438563
171	0x3f9ff46c	1.2496467
172	0x3f14b99a	0.58095706
173	0x3f4d6b1d	0.80241567
174	0x3e631646	0.22176465
175	0xbe46f6db	-0.19430105
176	0xbd422793	-0.047401022
177	0x3f8c1092	1.0942557
178	0x3ed1b0e8	0.4095528
179	0x3f0f47a3	0.55968684
180	0x3ec1a26a	0.37819225
181	0x3fc49815	1.5358912
182	0x3f8b33b9	1.087516
183	0x3f999fdc	1.200191
184	0x401b4ecc	2.4266844
185	0x3f905c9e	1.1278265
186	0x3f2658a8	0.6497903
187	0x3f9ab62e	1.2086847
188	0xbf000791	-0.50011545
189	0xbf5a0f1b	-0.851793
190	0x3f792360	0.973196
191	0x3f42a1e5	0.7602828
192	0x3e416ca2	0.18889096
193	0x400d6063	2.209008
194	0x3faf6eae	1.3705652
195	0xbeb7562b	-0.35807928
196	0x3f819664	1.012402
197	0xbda5b715	-0.08091561
198	0xbe7b3cd0	-0.24534917
199	0xbeae9534	-0.34098208
200	0x3f502405	0.8130496
201	0x3ede8906	0.43463916
202	0x3ea0fac0	0.31441307
203	0x3f95a371	1.1690503
204	0xbe117007	-0.14202891
205	0xbe8be3fe	-0.27322382
206	0x3f6343d3	0.88775367
207	0x3ef549fc	0.47908008
208	0xbcb04c17	-0.021520657
209	0x3f351b34	0.70744634
210	0x3cf120f5	0.02943466
211	0xbe0d9898	-0.13827741
212	0x3e4bd5e3	0.1990581
213	0x3e9b76dc	0.3036412
214	0xbea141bb	-0.3149546
215	0x3f17c6ac	0.59287524
216	0x3e458619	0.19289435
217	0x3e786f41	0.2426119
218	0xbe8741c1	-0.26417354
219	0x3e2ab140	0.16669178
220	0xbf12c12a	-0.57325995
221	0x3ce05086	0.027382147
222	0x3e291be2	0.16514543
223	0x3dfe94ad	0.124307014
224	0xbe191d4b	-0.1495258
225	0xbea9fb5c	-0.33199584
226	0x3ead3c75	0.33835188
227	0xbe7b569a	-0.24544755
228	0xbf25d501	-0.64778143
229	0x3e491258	0.19635904
230	0xbef5d54c	-0.48014295
231	0xbd90dc1b	-0.07073232
232	0x3eb26fff	0.3485107
233	0xbda775d5	-0.081767716
234	0xbf3f65f7	-0.7476496
235	0xbe0904ea	-0.13380781
236	0xbf0d5fb4	-0.55224156
237	0xbf6eb599	-0.93245846
238	0xbe2f2e5c	-0.17107528
239	0xbf052cab	-0.5202128
240	0xbf9cbbfa	-1.2244866
241	0xbc3706cb	-0.011171053
242	0xbf777694	-0.9666531
243	0x3e2e65a9	0.17030968
244	0x3f7550ab	0.95826215
245	0xbe95c246	-0.2924978
246	0x3fcf88e0	1.6213646
247	0x3f08aa32	0.533847
248	0x3f7ee996	0.99575174
249	0xbeacd97e	-0.33759683
250	0xbf3db63b	-0.74106187
251	0xbdbeb196	-0.093112156
252	0x3fdc7d74	1.7225785
253	0xbe15a69b	-0.14614336
254	0x3f85af00	1.0444031
255	0x3e8908dd	0.26764575

up_blocks.0.conv_block.conv2.weight f4 [6, 6, 3, 3]
0	0xbf010182	-0.50392926
1	0xbff4ac46	-1.9115074
2	0xbe8eedb8	-0.2791574
3	0xbed64e25	-0.41856495
4	0xbff9e90a	-1.9524243
5	0xbe270571	-0.1631067
6	0xbeb01bed	-0.34396306
7	0xbfb7b8be	-1.4353254
8	0x3e40e8d1	0.18838812
9	0xbdc6683b	-0.09687849
10	0x3e4cb71d	0.19991727
11	0xbdf74758	-0.120741546
12	0xbef50a47	-0.47859403
13	0xbf18409d	-0.5947359
14	0x3e850b97	0.25985405
15	0xbf119d19	-0.56880337
16	0xbe3d0154	-0.18457538
17	0xbe3ab177	-0.1823176
18	0x3d90bcff	0.07067298
19	0xbf20a4e7	-0.6275162
20	0x3da6015a	0.081057265
21	0xbe15b919	-0.1462139
22	0xbf949720	-1.160862
23	0xbe2d5e25	-0.16930445
24	0xbd2c0bfc	-0.042003617
25	0xbe922fc1	-0.28552058
26	0xbe26a85c	-0.16275162
27	0x3e0c571d	0.13705106
28	0xbf9efc28	-1.2420702
29	0x3f11f893	0.5701992
30	0x3f236f40	0.6384163
31	0xbfb52f14	-1.4154992
32	0x3fc98f6a	1.5746891
33	0x3e543b61	0.20725776
34	0xbf9c8876	-1.2229145
35	0x3f528fd4	0.82250714
36	0xc008456f	-2.129238
37	0xbf59ce20	-0.85080147
38	0xbfb0832f	-1.3790034
39	0xc02bb426	-2.6828704
40	0x3ddfac66	0.10921554
41	0xbfb2dbab	-1.3973287
42	0xc010280a	-2.2524438
43	0x3f282486	0.6568073
44	0xbfb3cad3	-1.4046272
45	0x3c5843a2	0.013199719
46	0x3cc901a8	0.024536923
47	0xbe0ba8d5	-0.13638623
48	0xbe571328	-0.21003401
49	0xbf758c55	-0.95917255
50	0xbe24124d	-0.16022606
51	0x3c565c3f	0.013083517
52	0xbe164ce8	-0.14677775
53	0x3de5a55d	0.11213181
54	0xbe8f390e	-0.27973217
55	0x3e5b901a	0.21441689
56	0xbe78e8f9	-0.24307622
57	0xbe9163bf	-0.28396413
58	0x3eb31f8f	0.34985015
59	0xbec83d89	-0.39109448
60	0xbe44710b	-0.19183747
61	0x3eb9f54a	0.36319953
62	0xbf107af7	-0.5643763
63	0x3e08b3dc	0.13349861
64	0xbe84d99c	-0.25947273
65	0xbd2d747c	-0.042347416
66	0xbf38eaf3	-0.72233504
67	0x3fba87d1	1.4572698
68	0xbebffee5	-0.37499157
69	0xbf6e8f9d	-0.93187886
70	0x3f96a499	1.1768981
71	0xbec5f3af	-0.38662478
72	0xbe84ecc2	-0.25961882
73	0xbe90d334	-0.28286135
74	0xbe9d04b3	-0.30667648
75	0xbe2738b2	-0.16330221
76	0x3e08095c	0.1328482
77	0xbeebe996	-0.4607665
78	0xbd995036	-0.07486002
79	0x3e655238	0.22394645
80	0xbeae1320	-0.33998966
81	0xbeb11a98	-0.34590602
82	0xbe3e3e56	-0.18578467
83	0xbe8ef9d4	-0.2792498
84	0xbe7ca623	-0.24672751
85	0x3c44be71	0.012008295
86	0x3f3ad763	0.72984904
87	0x3d8e89ac	0.069598526
88	0xbde303e6	-0.11084728
89	0xbd73db0e	-0.05953508
90	0x3ea631eb	0.3245996
91	0x3f0a691e	0.54066646
92	0x3d8da6af	0.06916558
93	0x3eded000	0.43518066
94	0xbf0dde8d	-0.5541771
95	0xbe0b07d2	-0.13577202
96	0x3e38d1c4	0.18048769
97	0xbf0fe325	-0.5620597
98	0xbef2717d	-0.4735221
99	0xbee0e72c	-0.4392637
100	0x3ee8eb6d	0.45492116
101	0xbeea768d	-0.45793572
102	0x3f6311ee	0.88699234
103	0x402e0158	2.718832
104	0x3fa6828d	1.3008591
105	0xbe0dd5d0	-0.13851094
106	0x3fd40bf6	1.656615
107	0xbf52d322	-0.82353413
108	0x3ecd27b4	0.40069354
109	0x3df2fe45	0.11864904
110	0x3eb12634	0.3459946
111	0x3eb8a104	0.36060345
112	0xbe89e4ce	-0.26932377
113	0x3e44c0f2	0.19214228
114	0x3da77e19	0.08178348
115	0xbf0ab7fb	-0.5418698
116	0xbda70de0	-0.08156943
117	0x3e373ddb	0.1789469
118	0x3f185f63	0.5952055
119	0xbe2cff49	-0.16894259
120	0x3e4557e8	0.19271815
121	0x3e8b4328	0.27199674
122	0xbe97ccb3	-0.2964836
123	0x3df42d36	0.11922686
124	0x3d9db1dc	0.076999396
125	0x3e087715	0.13326676
126	0xbe0b24b8	-0.13588226
127	0xbeb88796	-0.36040944
128	0xbe818e79	-0.2530401
129	0xbd6f416a	-0.058411993
130	0xbed413fb	-0.41421494
131	0xbdddcea7	-0.108304314
132	0x3e085651	0.13314177
133	0xbda458b0	-0.08024728
134	0x3b8ffb4c	0.0043939706
135	0xbc52257d	-0.012826321
136	0xbdb8dcc1	-0.090264805
137	0xbd7c9ed1	-0.061674897
138	0xbe1599d2	-0.14609459
139	0x3e73acac	0.23796338
140	0xbe36828c	-0.17823237
141	0xbe19d6b2	-0.15023306
142	0x3c98a597	0.018633647
143	0xbee10eb5	-0.43956533
144	0xbf271aa5	-0.6527503
145	0xbee1ce9f	-0.44102952
146	0xbf2f3b04	-0.68449426
147	0xbf8a10cd	-1.0786377
148	0xbef2c82e	-0.4741835
149	0xbf2b9677	-0.67026466
150	0xbe6d6efa	-0.23186865
151	0x3dee92ba	0.116490796
152	0xbee03d25	-0.4379665
153	0xbe046a68	-0.12931216
154	0xc03e7d18	-2.976385
155	0xbda2f683	-0.07957175
156	0xbf030e83	-0.5119402
157	0xc0dbcf2b	-6.869039
158	0xbf47f004	-0.7810061
159	0xbef0e782	-0.47051626
160	0xc0cb997b	-6.3624854
161	0x3e78cb26	0.24296245
162	0xbec42bf8	-0.38314795
163	0x3f738d20	0.95137215
164	0x3eaa4f2a	0.33263522
165	0xbf404623	-0.7510702
166	0x3fc5761f	1.5426673
167	0xbe21e627	-0.15810452
168	0xbf5bcfbc	-0.8586385
169	0x3f818bfb	1.0120844
170	0xbe9fe91b	-0.31232533
171	0xbee9e5ae	-0.45683044
172	0xbea8b820	-0.32952976
173	0xbe7b190a	-0.2452127
174	0xbf1a8394	-0.6035702
175	0xbfc29ee9	-1.5204746
176	0xbf1edc52	-0.6205493
177	0xbf5dc7a4	-0.8663275
178	0xbfaf4916	-1.3694179
179	0xbf00c723	-0.5030386
180	0x3da91bf6	0.08257286
181	0xbe28c15a	-0.16480008
182	0xbe6a2d00	-0.22868729
183	0x3e9d34c8	0.3070433
184	0x3e053f8b	0.13012521
185	0x3d8b13de	0.06790899
186	0x3daf4e6e	0.08559881
187	0x3e037259	0.12836589
188	0x3e4a2eda	0.19744435
189	0xbf9cfd8e	-1.2264879
190	0x3f37b7ee	0.7176503
191	0xbfb16355	-1.3858439
192	0xbfcf65da	-1.6202958
193	0x3ef6a1c5	0.48170295
194	0xbfed7b9b	-1.8553346
195	0xbf92405d	-1.1425892
196	0x3f23f16c	0.64040256
197	0xbeb7c356	-0.35891217
198	0x3f392c0a	0.72332823
199	0xc03e748c	-2.9758635
200	0x3e9011f1	0.28138688
201	0x3f8aee23	1.0853924
202	0xc014888b	-2.320834
203	0x3f3fb2c6	0.7488216
204	0x3f5a068c	0.8516624
205	0xbfdf7ab8	-1.7459326
206	0x3ea54690	0.32280397
207	0x3eed7345	0.46377006
208	0x3e64e9f1	0.22354867
209	0x3e8b5083	0.27209863
210	0x3ec6b9eb	0.3881372
211	0xbe6c1044	-0.2305308
212	0xbd02f361	-0.031970385
213	0x3f247cc5	0.64252883
214	0x3e4e6bfa	0.20158377
215	0x3e3e13d0	0.18562245
216	0xbf9a6421	-1.2061807
217	0xbe163738	-0.14669502
218	0xbfee64c2	-1.8624499
219	0xbff1569a	-1.8854554
220	0x3e5bd0f5	0.2146643
221	0xc01e1f7c	-2.4706717
222	0xbf91585c	-1.135509
223	0x3e8cdf40	0.27514076
224	0xbfcab0aa	-1.5835164
225	0x3f3852c6	0.720013
226	0xbed9590d	-0.42450753
227	0x3f1d61d2	0.61477387
228	0x3f6ab1db	0.91677636
229	0xbfe4f5ad	-1.7887474
230	0x3ef9bfde	0.48779196
231	0x3f41a0c4	0.75635934
232	0xc00db55d	-2.2141945
233	0x3f724641	0.9463845
234	0x3f1aaffd	0.60424787
235	0x3edcab9d	0.4309968
236	0x3f11fd25	0.5702689
237	0x3f0c508f	0.5481042
238	0x3eb151d6	0.34632748
239	0x3f14f710	0.5818949
240	0x3ea2b094	0.31775343
241	0x3d54f2ca	0.051989354
242	0x3eb189b7	0.3467538
243	0xbebdc36a	-0.37063152
244	0xbf020731	-0.50792223
245	0xbfe766b6	-1.807822
246	0xbf2a78c4	-0.66590524
247	0xbf370f78	-0.7150798
248	0xc00d9b9e	-2.2126231
249	0xbf59f27b	-0.8513562
250	0xbf7bf6b1	-0.98423296
251	0xbfcddc22	-1.6082804
252	0xbeee4a44	-0.46541035
253	0xbf6bb321	-0.92070204
254	0xbe62eb9a	-0.22160187
255	0xbf15dca6	-0.5853981

up_blocks.0.attention_gate.gating_conv.weight f4 [6, 6, 1, 1]
0	0xbfade481	-1.3585359
1	0xbf4aa869	-0.79163224
2	0xbf6c7df6	-0.923797
3	0xbb9be59f	-0.0047575976
4	0x3e89d83b	0.26922783
5	0xbf736e2c	-0.95089984
6	0xbe8be3d6	-0.27322263
7	0xbe7ed927	-0.24887525
8	0xbf86fc94	-1.0545831
9	0xbd4d20d6	-0.050080143
10	0xc0194fec	-2.395503
11	0xbee0118f	-0.43763396
12	0xbf9939ed	-1.1970803
13	0xbea4acaa	-0.32162982
14	0x3f0855bc	0.5325582
15	0x3e14d560	0.14534521
16	0xbfabda11	-1.3425924
17	0xbf9ab708	-1.2087107
18	0xbefbe11b	-0.4919518
19	0xbf3ef6a1	-0.74595076
20	0x3f35af06	0.7097019
21	0x3e98a206	0.29811114
22	0xbfc27919	-1.5193206
23	0x3e142368	0.14466631
24	0xbecf5612	-0.40495354
25	0xbf1e9af5	-0.61955196
26	0xbea99dd3	-0.33128223
27	0x3f56a49e	0.83844936
28	0xc0095632	-2.145886
29	0xbf0640ec	-0.5244281
30	0x3f2f56d5	0.6849187
31	0x3e8f2810	0.27960253
32	0x3f3c0cfd	0.7345732
33	0x3f26bc4e	0.6513108
34	0x40046092	2.0683942
35	0x3ed0a0ee	0.4074778

up_blocks.0.attention_gate.gating_conv.bias f4 [6]
0	0x3e85e5b5	0.26151815
1	0xbe897e81	-0.26854327
2	0xbc00964e	-0.007848335
3	0x3e26fd75	0.16307624
4	0x3e98bcd8	0.29831576
5	0xbec7d333	-0.3902832

up_blocks.0.attention_gate.input_conv.weight f4 [6, 6, 1, 1]
0	0x3f18e035	0.5971711
1	0x400bccbc	2.184371
2	0x3ef822ee	0.4846415
3	0x3dfcd7b4	0.123458296
4	0xbf0fde80	-0.56198883
5	0x3f254275	0.6455453
6	0x3fe38606	1.7775276
7	0x3f7b99e0	0.9828167
8	0x3e59bd8f	0.21263717
9	0x3e93dd44	0.2887975
10	0xbf118da0	-0.5685673
11	0xbd743860	-0.059624076
12	0x3f058d93	0.5216915
13	0xbfcfa693	-1.622271
14	0x3db53522	0.08848025
15	0x3e3c2e07	0.18376933
16	0xbf2c0705	-0.6719821
17	0xbeeec60b	-0.4663547
18	0x3f9c8edd	1.2231098
19	0x3f3a4f7e	0.72777545
20	0x3f317d7f	0.69332117
21	0x3e8701fe	0.26368707
22	0x3f86ef85	1.0541846
23	0x3f034706	0.5128025
24	0xbeff518a	-0.49866897
25	0x3eda93a8	0.42690778
26	0x3f05889d	0.5216158
27	0x3ee22747	0.4417059
28	0x3fa529c6	1.2903373
29	0x3f4cdd54	0.8002522
30	0xbeba3c31	-0.36374047
31	0x3dc7a3e0	0.097480536
32	0xbf186819	-0.5953384
33	0x3e96e5a7	0.29472086
34	0x3fdf24c2	1.7433093
35	0x3edb0571	0.4277759

up_blocks.0.attention_gate.input_conv.bias f4 [6]
0	0x3e03131c	0.12800258
1	0x3d6467a9	0.05576292
2	0xbe4e5383	-0.20149045
3	0xbebf8829	-0.3740857
4	0x3eabc834	0.3355118
5	0x3e6e31d5	0.23261197

up_blocks.0.attention_gate.conv.weight f4 [1, 6, 1, 1]
0	0xbf66ef67	-0.9020905
1	0xbee5562f	-0.44792315
2	0x3e85fb32	0.2616821
3	0x3fe55b10	1.7918415
4	0xbf2b1975	-0.6683572
5	0xbed18ec5	-0.40929237
