saved_models/old_models/conv_autoencoder_without_noise.pth (torch, 16596 bytes, 8 tensors)

encoder.0.weight f4 [16, 3, 3, 3]
000000 8e 41 64 3e a1 04 19 bd 5c 27 23 3e 8b fe bd bc
       0.22290632 -0.03735793 0.15932983 -0.023192665
000010 e4 a4 4b 3e b6 ee 57 3e a6 64 93 3c ac 93 5b 3e
       0.1988712 0.21087155 0.017992329 0.21443051
000020 07 83 fd bd cc e1 92 bc 5b d6 07 bc fb 4a 29 3e
       -0.12378507 -0.017929934 -0.008290852 0.16532509
000030 46 19 e6 bd a2 0b c3 3c 8c 09 df 3d c9 31 3b bd
       -0.11235289 0.023809258 0.10890493 -0.045701776
000040 01 72 ab bd a0 de 23 3e db 0a be bb a8 d8 50 3e
       -0.08371354 0.16002893 -0.005799634 0.20395148
000050 1b 7f 61 3e c3 87 22 3d ac 15 34 bc b7 01 a7 3d
       0.22021143 0.039680254 -0.010991495 0.08154624
000060 62 2b 38 3e 48 cb 07 be 22 d5 f2 bc 4b 91 b6 3d
       0.17985299 -0.1326114 -0.029642645 0.08914431
000070 31 19 4b 3e 23 b9 81 3c c0 40 d3 bd 61 02 e0 3d
       0.19833829 0.01583535 -0.103150845 0.10937954
000080 c7 6f b8 3b 63 aa e4 3d 4b c3 68 bc 1f 35 dd bc
       0.0056285593 0.11165311 -0.014206718 -0.02700287
000090 2b af e1 3d 84 d6 56 3d 56 9d 41 3e fa 2b d5 3d
       0.11019739 0.05245067 0.18907675 0.104087785
0000a0 08 08 86 3d ce b0 5c 3d 51 93 59 3e 4b 40 11 3e
       0.065445006 0.05387955 0.21247603 0.14184682
0000b0 85 71 1f bc 0e d1 48 bd fd 62 a3 3c 77 f3 8b 3c
       -0.009731655 -0.049027495 0.019944662 0.017083867
0000c0 77 e3 4f 3e 98 0b 40 3e f9 e9 dd bd 7a f3 3c 3e
       0.20301615 0.18754423 -0.10835642 0.18452254
0000d0 a6 0d 14 3d 29 3e 82 3d af 1b 28 3e fc 4d d2 3d
       0.03614583 0.06359512 0.1641681 0.102687806
0000e0 d7 55 17 be 0a a4 f3 3d 46 1f 89 bd a7 da 15 be
       -0.14778839 0.11896522 -0.06695418 -0.1463419
0000f0 66 4d b1 bd 06 ce 22 3e af 8c 92 bc a8 b8 91 bd
       -0.08657341 0.15898904 -0.017889349 -0.071152985
000100 d9 f1 25 3e 0d a6 f3 bd d4 63 dc 3d de 5c a9 bd
       0.16205539 -0.11896906 0.10761228 -0.08269666
000110 86 07 ed bb 00 85 a5 3c d4 f7 74 bd 5d 0b 9b bd
       -0.007233563 0.02020502 -0.05980666 -0.07570527
000120 25 78 3d bd a5 ad 6b bd a0 ed 63 bd 07 a6 26 bd
       -0.046257157 -0.057538647 -0.05564654 -0.04068568
000130 dc 9a c2 bd b7 3d c5 3d 5b 36 16 be c4 af ae ba
       -0.09502193 0.09630912 -0.14669172 -0.0013327529
000140 ae 1c 02 3e 24 ed 4a 3e e6 7e a4 3d a6 9d bc bd
       0.12706253 0.19817024 0.080320165 -0.092097566
000150 03 53 e6 3d f6 9b ce 3d 95 f8 5e 3e 9a 86 ba 3d
       0.11246302 0.10088341 0.21774514 0.091077045
000160 6c 07 f2 3d ec 8e e0 bd 15 f0 6f 3d c2 2e 4d bd
       0.11817822 -0.1096476 0.05857857 -0.05009342
000170 ac d2 18 3e e8 8a 84 bd 71 33 51 bd e9 77 ec bc
       0.14924115 -0.06471807 -0.05107445 -0.028865771
000180 60 35 18 bd fb 4c 4f 3e 9e 0b 30 bd 06 52 58 3d
       -0.037160277 0.2024421 -0.04297983 0.0528126
000190 49 ec 82 3d fd dc 8e bd 98 2c c8 bd 47 83 6e bc
       0.06392724 -0.06975744 -0.097741306 -0.014557666
0001a0 c3 0e 57 3e 0f e7 08 3e c2 0b e1 bd 0f 10 e2 3d
       0.21001725 0.13369392 -0.10988571 0.11038219
0001b0 3d 5d 44 be 39 9b 44 be 46 2c d2 3d d5 30 36 3e
       -0.19176193 -0.19199838 0.10262351 0.17792065
0001c0 d5 09 91 ba 12 2f 33 be 3f 4b 1f 3e 0f 6d 62 3d
       -0.0011065552 -0.17498425 0.15556048 0.055279788
0001d0 ee d8 fb bd 38 b6 98 3d 98 86 cc bc 53 f6 a2 3d
       -0.122972354 0.074566305 -0.024966523 0.07957139
0001e0 d4 db ac 3d ca 48 0a be f7 12 e7 3d 25 3d 80 bd
       0.084403664 -0.1350433 0.11282914 -0.062616624
0001f0 9a 28 81 3d ba 8e ff bd a4 1e 1a 3d 6f 98 8d 3d
       0.06306572 -0.12478395 0.037626877 0.0691384
000200 33 04 03 be 89 a2 51 3d ec 9f b1 3d 3f 2b a7 bd
       -0.1279457 0.051180396 0.08673081 -0.081625454
000210 c1 41 21 be 5b e2 2f bc 90 39 45 3e f9 19 3f bc
       -0.1574774 -0.01073512 0.1926024 -0.011663907
000220 45 38 f1 3c 9d 19 dd 3d 9b 64 e9 bd 45 75 b0 3d
       0.029445777 0.10795901 -0.11396142 0.086161174
000230 cc ad 11 3e a1 66 e5 bb 1f 5a 3e 3e b8 85 39 3e
       0.14226454 -0.0070007597 0.18589066 0.18117416
000240 c7 ac a3 3d 6e d8 e0 3c 12 ef 62 3d e3 ad 86 bd
       0.07991939 0.027446952 0.055403776 -0.06576135
000250 97 00 7e 3d 64 f9 0b bd ab 77 b4 bd 0d a4 2e 3e
       0.06201228 -0.034173384 -0.08811887 0.17054768
000260 87 db 97 3d 81 7c af 3d 94 bf fb 3b 1f 77 e7 bd
       0.074149184 0.08568669 0.00768275 -0.113020174
000270 20 48 64 3d c1 b6 c2 3d 2a ba c8 bd 41 12 ca bd
       0.055732846 0.09507514 -0.09801133 -0.09866763
000280 c7 f0 2c 3e 45 4f ce 3d 40 b4 3a 3e 72 5d 22 3e
       0.16888724 0.10073713 0.18232822 0.15855959
000290 79 eb c4 3d c9 f0 f2 3d 88 ea 8e bd 57 cd f2 3d
       0.09615225 0.118623324 -0.06978327 0.11855572
0002a0 3c 2b d3 bd d7 8a 12 3d d8 4f 27 be 51 30 de bd
       -0.10310981 0.03577694 -0.16339052 -0.108490594
0002b0 83 bf 10 bd cd b0 e5 bd 37 90 df bd 77 46 23 be
       -0.03533889 -0.11215363 -0.10916179 -0.15944849
0002c0 68 e6 dc 3d 82 d4 3a 3d a3 07 29 bd ad 7b 35 3b
       0.10786134 0.04561282 -0.04126705 0.0027692125
0002d0 4e c5 ca bd 1b 72 72 3d b1 ac e0 3d c0 72 3f be
       -0.09900914 0.05919085 0.10970438 -0.18696117
0002e0 88 1f 18 be 13 bf 95 bd 99 de ca bb 34 40 3d 3c
       -0.14855778 -0.07311835 -0.0061910865 0.011550952
0002f0 57 83 2c 3e 2f 84 6f 3d 77 d0 00 3e 81 af 3b 3d
       0.16846977 0.05847567 0.12579523 0.04582167
000300 80 3f 94 bd e0 a9 6a bb c6 8b 7c bd 27 41 28 3d
       -0.07238674 -0.003580682 -0.061656736 0.04107776
000310 ee 43 94 3d 92 0a 6b bd a3 1f ce 3d 18 4c 64 bd
       0.07239519 -0.057383128 0.10064628 -0.05573663
000320 c8 ad 2b bc 98 5f cf 3d c6 3a e3 3d 5b 2e 3e 3e
       -0.010478444 0.10125655 0.110951945 0.1857237
000330 be 6e a7 3d 97 73 49 3e 1c 45 01 be a6 90 fc bd
       0.08175419 0.19673 -0.1262402 -0.12332277
000340 5f e8 ee 3d 5d 73 68 3e 86 bd 60 3e e9 ed 1a bc
       0.11665415 0.22700258 0.21947297 -0.009456136
000350 c3 68 c8 bd ea cd 04 3e a2 db 1e bd 34 eb 1e 3e
       -0.09785607 0.12969175 -0.038783677 0.1551941
000360 ba 2b a1 3d 2a 55 28 3d 66 8d ed bd b3 a8 ab bd
       0.07869668 0.041096844 -0.11599235 -0.08381786
000370 0e 59 4c 3c fd 56 14 3d 31 c2 35 3e c5 0b be 3d
       0.012472404 0.03621577 0.1774986 0.092795886
000380 66 19 c3 bd 9f b9 46 3e d0 1c 22 3e 72 d5 37 3e
       -0.09526329 0.19406746 0.15831304 0.17952517
000390 65 b1 2d 3e 0c 95 38 bd a1 93 ff 3d 8f 88 39 3e
       0.16962202 -0.045064017 0.1247933 0.18118499
0003a0 30 74 8f 3d 41 6b 43 3e 65 09 e4 bd 6e d9 b2 3c
       0.07004583 0.19083883 -0.11134604 0.021832194
0003b0 72 ef 00 3d 86 86 60 bb 41 1a cc 3d 5a 77 d7 bb
       0.031478353 -0.003425987 0.09965945 -0.006575507
0003c0 ce 6c 91 3d cd 9b f8 bd 18 d7 04 3e ea d5 3f 3e
       0.07100831 -0.12139092 0.12972677 0.18733945
0003d0 92 2d 3f 3e c9 80 13 3d 1e d9 4f 3e e1 55 96 3a
       0.18669727 0.03601149 0.20297667 0.0011469686
0003e0 14 71 f2 bd f6 01 d1 bd 73 2b ea 3d 2a 96 bd 3d
       -0.11837974 -0.10205452 0.114340685 0.09257157
0003f0 6b 0b 73 3c 53 ef eb bd d9 66 18 3e 69 f6 50 3e
       0.014834265 -0.11520257 0.14882983 0.20406498

encoder.0.bias f4 [16]
000000 20 76 47 bc 1e 03 8c be 4a 06 8b 3e e0 ae 98 3d
       -0.012174159 -0.27346128 0.27153236 0.0745523
000010 4a 4a 21 3e 54 65 12 3e a7 91 57 3e 54 e3 7e be
       0.15750995 0.14296466 0.21051656 -0.24891406
000020 4b 68 29 be 31 e9 00 be 59 2a 5f 3e 7e 8b 9d be
       -0.16543691 -0.12588955 0.21793498 -0.30770487
000030 d7 bf 56 be 92 9a d1 bd f4 90 13 bc 96 9c 5b 3e
       -0.20971619 -0.1023456 -0.0090067275 0.21446452

encoder.3.weight f4 [8, 16, 3, 3]
000000 c6 a6 0a bd bb f9 0e be 20 f9 36 bd 60 9e b3 bd
       -0.033850454 -0.13962452 -0.044671178 -0.08770442
000010 a3 48 aa bc ed 9f 95 bd ee bc d2 bd 94 72 47 bd
       -0.020786589 -0.07305894 -0.10289942 -0.048693255
000020 b5 9e c6 bd 75 24 99 bd e9 cf 7e bd 67 c8 7a bd
       -0.0969824 -0.07477657 -0.062209997 -0.061226275
000030 5b c6 28 bc 50 c6 4c bd c3 c7 62 bd e8 47 4b 3c
       -0.010301198 -0.049993813 -0.05536629 0.0124072805
000040 62 fd d9 bc e8 a6 d3 bc c4 b8 d5 bd d4 51 e1 3c
       -0.02661008 -0.025836423 -0.10435632 0.027504839
000050 97 d3 b8 bb f9 2d 20 3d 41 d2 45 3c 9f b2 bd bc
       -0.005640458 0.039106343 0.012074054 -0.023156462
000060 98 cf d8 bc 62 d0 80 3d e0 3b ee 3c 01 4c 7e bd
       -0.026466176 0.06289746 0.029081285 -0.0620842
000070 8b 03 7e bc ca 44 b7 3c 91 2e c5 bd d7 2e f8 bc
       -0.015503774 0.022371668 -0.096280225 -0.030295772
000080 93 60 0b bd 4e af 8f bd 4b 1c b4 bd 4c d9 36 bd
       -0.034027647 -0.070158586 -0.08794459 -0.044640824
000090 41 b4 ad bd ef c3 5f bd 89 9d 8b bd ca 7a c1 bd
       -0.08481646 -0.054630216 -0.06817157 -0.09447248
0000a0 28 2f 12 3c b7 5f 9f bd 40 41 f9 3c 60 2f c6 3c
       0.008922376 -0.07781928 0.030426621 0.024192512
0000b0 74 b1 e8 3c 09 f2 d2 bc 90 5a 52 bd 1b 27 04 be
       0.028404929 -0.025750177 -0.0513559 -0.12905543
0000c0 1b 99 42 bd 84 0a 6e bd 04 da 3d bc 4a 6b 34 bc
       -0.047509294 -0.058115497 -0.0115876235 -0.011011908
0000d0 1e 1e 0a be 0c c8 c2 bd 57 f0 94 bd c2 fa 9f 3d
       -0.13488051 -0.09510812 -0.07272404 0.078115
0000e0 6a 5a 68 3c 9b 2e d5 3c 2a 87 5b bc 9c e2 98 bd
       0.014181713 0.0260232 -0.013398925 -0.07465097
0000f0 f7 73 44 3d 61 e7 3a 3d 0c 45 97 3d 52 24 d6 bc
       0.047962155 0.045630816 0.073862165 -0.026140366
000100 a9 1c ab 3d 70 91 c0 3d a1 cc 95 bd a4 fb 04 be
       0.08355076 0.0940274 -0.073144205 -0.12986618
000110 78 1e 89 bd b8 5b 0e bb 45 4e 43 bd 7a 97 d7 bd
       -0.066952646 -0.002172215 -0.047682066 -0.10526939
000120 7f 16 a5 bd 35 0b b9 3a e8 9d 95 bd ff 33 8f bd
       -0.080609314 0.001411772 -0.07305509 -0.06992339
000130 7c ac 94 3c e1 d4 d3 bd d5 d3 af 3b a4 5b e6 bd
       0.018148653 -0.10343338 0.0053658285 -0.11247948
000140 f1 a3 fa bd 9c 79 28 bc f7 55 9a 3a 31 8a 59 3b
       -0.122383006 -0.0102829 0.0011774887 0.003319394
000150 7e e1 ef bd 6c c2 db bd a9 19 e7 bd 12 79 70 bc
       -0.11712931 -0.107304424 -0.11284191 -0.014677303
000160 a4 14 a0 bd 8b c9 4e bc 35 e2 95 bd a3 73 27 3c
       -0.07816437 -0.012621294 -0.07318536 0.010220441
000170 76 72 79 3d ac 8c 2a bd 74 be 1a bd 30 e8 bf 3d
       0.060900174 -0.04163806 -0.037779287 0.09370458
000180 51 b9 05 bd ce e1 b0 bd fb e9 eb bc 46 59 05 be
       -0.032647435 -0.08636819 -0.028798094 -0.13022336
000190 59 b5 11 bd c8 42 21 bc 8d 55 c5 bc c6 b1 5f bc
       -0.035573337 -0.009842582 -0.024088645 -0.013653224
0001a0 45 d9 2c bd 27 e8 b0 bd 13 b6 f4 bd 71 d9 89 bc
       -0.042199392 -0.086380295 -0.119487904 -0.016827317
0001b0 a4 ba 77 3c 2a c2 ea bd e1 a4 04 be e4 19 53 3b
       0.015120182 -0.11462815 -0.12953521 0.0032211477
0001c0 e1 5e ce 3b 61 05 0f be ac 49 0f bd 0a e3 a0 bd
       0.0062979315 -0.13966896 -0.03498237 -0.07855804
0001d0 a4 7e a2 3c 12 a6 f7 bc b3 c4 eb bd 30 4c 01 3b
       0.019835778 -0.030230556 -0.11512127 0.001972925
0001e0 fb f8 b4 bd ee 64 ec bd 94 ca 89 bd 48 b7 a2 bb
       -0.08836552 -0.11542688 -0.06728092 -0.0049656965
0001f0 58 ee 70 bd 89 7e 10 bc 8f c9 e5 bd 2f 34 e1 bc
       -0.058821052 -0.008819231 -0.11220085 -0.027490703
000200 c9 08 f1 bd f5 cd 94 bd bb a9 05 bd 8a 1d a2 bd
       -0.11769254 -0.07265846 -0.03263257 -0.079157904
000210 51 40 17 3b f3 aa 04 be ff a8 dd bd 67 91 9c bd
       0.0023079107 -0.12955837 -0.10823249 -0.07644921
000220 96 0b af bd c8 ef 96 bd 6b 66 71 bd 79 62 4a bd
       -0.08547132 -0.073699534 -0.058935564 -0.049410317
000230 48 55 73 bd 13 d1 a4 bd 8c 1c a7 bd 4f 6b a5 bd
       -0.059407502 -0.0804769 -0.08159742 -0.08077108
000240 ad 1f 0e be 58 8e 63 bd f4 b2 00 bd 1d 28 dd bd
       -0.13879271 -0.05555567 -0.031420663 -0.107986666
000250 15 20 e8 bc a0 68 06 bb 6b ce 99 3b 60 d0 4b bd
       -0.02833561 -0.0020509139 0.0046937964 -0.04975927
000260 6f 61 d8 bd 34 0e 0a bc 69 66 da bd 7e a2 61 bc
       -0.10565459 -0.008426238 -0.106640644 -0.013771651
000270 75 66 a4 3c fd bb b1 bb 28 77 a6 3c 66 f5 04 be
       0.020068387 -0.0054240213 0.02032049 -0.12984237
000280 23 ea 2f bd 9d 13 46 bd 91 69 bd bd 38 5d 10 bb
       -0.0429479 -0.04835855 -0.09248651 -0.002202822
000290 cc 2c e5 bd 00 eb 2d bd 1d d9 c6 bd 34 60 06 be
       -0.11190185 -0.04246044 -0.0970938 -0.13122636
0002a0 85 50 e1 39 61 9b e3 bd d3 bf ef bd 79 02 96 3b
       0.00042975336 -0.111136205 -0.117065094 0.0045779315
0002b0 85 2e 00 be 79 a0 d4 bd 0a 15 a6 3c 1b 35 0a bd
       -0.12517746 -0.1038217 0.020273704 -0.03374205
0002c0 bc 06 9e 3c 30 35 06 be 4a f5 b0 bd 7a 7b 46 b8
       0.01929032 -0.13106227 -0.08640535 -4.7321875e-05
0002d0 e9 65 c9 bd ef d1 a4 bc 27 f3 56 bd bf be cb 3c
       -0.09833891 -0.020119635 -0.052477982 0.024871228
0002e0 3c f3 04 3c d6 bb d0 bc ad 60 13 3c 82 9e d9 bd
       0.008114632 -0.025480192 0.008995217 -0.10625936
0002f0 4e 57 8e bd 49 90 0f be c8 7b 93 bb a7 e4 c0 bd
       -0.06950246 -0.14019884 -0.00450084 -0.09418612
000300 02 84 fa bd a8 59 dc bb a2 ab 52 bd ff 56 82 bd
       -0.1223221 -0.006724555 -0.051433213 -0.063642494
000310 8b a0 d7 bd 81 d7 3d bd a8 a0 86 3c 97 16 b5 bc
       -0.10528668 -0.0463481 0.016434029 -0.022105498
000320 5f 14 b5 bd b6 54 61 3c 53 64 92 bd 09 7c 8a bd
       -0.08841776 0.013753107 -0.071480416 -0.06761939
000330 57 73 da bd 1f 37 96 bd 14 7c d3 bd f8 b4 a8 3b
       -0.106665306 -0.07334732 -0.103264004 0.0051485263
000340 22 ed f8 bc bf 76 0c bc d2 8f d6 bd 41 74 39 bd
       -0.030386511 -0.008573233 -0.1047665 -0.045276884
000350 cb b3 f2 bd 0d 7d c5 bd ab 48 50 bd 67 a7 05 be
       -0.11850699 -0.09642992 -0.05085055 -0.1305214
000360 c8 af a3 bd a2 99 2a bd 24 ab bc bc ef 62 89 bd
       -0.07992512 -0.041650422 -0.023030825 -0.06708323
000370 bc fb 21 bb 08 68 d3 bc f2 7e ab bd 3c ad fc bd
       -0.0024716696 -0.025806442 -0.08373822 -0.12337729
000380 34 ad 22 bd 37 c2 2e ba 9f 30 a7 bd 14 85 21 3c
       -0.03971596 -0.00066665135 -0.081635706 0.009858388
000390 eb 3e c2 bd 6c 39 fa bd d0 4d aa bd 7e d5 87 bd
       -0.09484657 -0.122179836 -0.08315623 -0.06632517
0003a0 3c ea a8 bd e3 27 e7 bd 96 59 40 3c 8f db 22 bd
       -0.08247802 -0.11286905 0.011740109 -0.03976017
0003b0 9a ba 63 bc e7 bf 0d bd 73 18 63 bd 57 2e d1 bd
       -0.01389947 -0.03460684 -0.05544324 -0.10213917
0003c0 e1 00 95 bd a1 d8 f0 3b bc 46 b6 bb 34 78 b8 bd
       -0.07275558 0.007350043 -0.0055626314 -0.09007302
0003d0 46 06 dd bd 59 a7 c8 bc 30 47 97 bd 8d 3b 17 bc
       -0.10792212 -0.02449386 -0.07386625 -0.009230507
0003e0 51 75 dc bc d2 ab a6 bd a0 a8 f7 bd f7 1d 16 bc
       -0.02691141 -0.08138241 -0.120927095 -0.009162418
0003f0 0d 68 9a bd cd 34 f4 bd 2c 8d 39 bd ac 96 88 bc
       -0.07539377 -0.119241334 -0.045300648 -0.016673408

encoder.3.bias f4 [8]
000000 4c 8d 5e bd 76 90 36 bb 5e e4 d5 bd 46 19 5d be
       -0.05433397 -0.0027857102 -0.10443948 -0.21591672
000010 2d 0f 47 be d7 43 cd bd b1 99 d2 3d 96 f4 03 bd
       -0.19439383 -0.10022705 0.102832206 -0.032215677

decoder.0.weight f4 [8, 16, 3, 3]
000000 f7 d2 96 bd aa 38 10 be 12 17 c4 bc 39 95 b2 bd
       -0.07364457 -0.14084116 -0.023936782 -0.08719868
000010 42 9a 85 bd bf 24 a5 bd d1 93 02 bd cf 99 10 be
       -0.06523563 -0.080636494 -0.03187925 -0.14121173
000020 03 78 f1 bd 23 7b a8 bd b0 59 ba 3c 4e e5 0d 3d
       -0.117904685 -0.082266115 0.022747844 0.03464251
000030 b0 66 83 bc 37 77 0a 3d 14 07 d9 3c 21 30 67 3d
       -0.016040176 0.0338051 0.026492633 0.056442384
000040 88 f2 13 3d 8a ba 4a 3d e4 39 49 3d c8 a7 29 3c
       0.036119968 0.049494304 0.049127474 0.010354944
000050 8b 50 b6 3d 0f d7 fb 3d d9 cf d2 bd 05 1d 7f bb
       0.08902081 0.122968785 -0.1029355 -0.003892721
000060 c7 2d 03 3e 5e 4c 22 3d 3f 5a bb 3d 20 92 18 3d
       0.12810431 0.03962361 0.091480725 0.03724873
000070 07 5c 23 3d 48 87 52 3c 2b 34 a5 3d 88 16 14 bc
       0.039882686 0.012849636 0.08066591 -0.009038575
000080 d3 7f 7f bc 91 f1 99 3d ed aa a5 bd 4d 93 9b 3d
       -0.0155944405 0.07516778 -0.08089242 0.07596455
000090 fc 9c c9 3c d2 56 81 bd 19 6c 9f 3d a0 54 98 bd
       0.024610989 -0.06315388 0.0778429 -0.07438016
0000a0 fa 3f 2a 3d 78 f3 5b bd e1 dd 90 3d f0 71 94 3b
       0.04156492 -0.053698987 0.0707357 0.004530184
0000b0 9d b7 8c bd 30 e3 f9 bc 49 bb 96 3d 54 5a 81 bd
       -0.06870959 -0.03050384 0.073599406 -0.06316057
0000c0 88 89 d0 3b 49 41 fb bc 39 2f d6 bc 98 f3 c7 bd
       0.0063640513 -0.030670779 -0.026145564 -0.09763259
0000d0 09 aa 94 3d 6d 66 ab bd ad f1 bb 3c b3 31 63 3d
       0.07258994 -0.083691455 0.022942388 0.05546732
0000e0 af 3f fb 3d fe b9 ad 3d 5e e1 a1 3d 3f 10 11 3d
       0.12268006 0.08482741 0.079043135 0.035415884
0000f0 a3 ab 0f 3d 76 8a 97 3c 57 45 54 bc cb 17 61 3c
       0.035075795 0.01849864 -0.012955985 0.013738583
000100 06 1d 3a 3c 07 c6 c5 3d 87 3d ed 3d 92 84 a6 3c
       0.011359459 0.09656911 0.11584001 0.020326886
000110 af 1e a4 3d c8 98 a6 3d ec db 0c 3d bf 9f be 3d
       0.08013665 0.081346095 0.03438942 0.09307813
000120 f4 5c d8 bd 54 0e 96 38 63 fc 34 bb 01 43 6f bd
       -0.105646044 7.155226e-05 -0.0027616255 -0.05841351
000130 b2 c9 80 bd 33 a1 c2 bd cc 72 31 bd 1d 53 1e bc
       -0.0628847 -0.095034026 -0.04332237 -0.00966337
000140 eb 31 70 bd e5 53 e5 3d 47 1a d5 3d a5 14 89 3d
       -0.058641355 0.11197642 0.10405403 0.06693391
000150 09 e7 97 3d 65 f9 b7 3d 4f 3e 07 3e 47 99 24 3d
       0.07417113 0.08983115 0.13207363 0.04018524
000160 ef 01 8d 3d bc 11 00 3e 90 9e 57 39 33 12 0b bd
       0.068851344 0.12506765 0.00020563067 -0.033952903
000170 80 02 09 3c 38 62 c0 bd 04 51 00 bd 9a 89 4e bc
       0.008362412 -0.09393734 -0.031327263 -0.012606049
000180 64 7e fe bd a1 dd ca bd 22 e7 80 3c 2c 20 c7 3c
       -0.12426451 -0.099055536 0.015735213 0.024307333
000190 8e 51 02 be a3 0f 91 bd 00 25 c4 bd cb f2 9c bc
       -0.12726423 -0.070830606 -0.0957737 -0.019158741
0001a0 02 bb a1 3c a8 39 bb bd c6 8d 08 bc cb 40 c3 3b
       0.019742493 -0.091418564 -0.008334583 0.0059586517
0001b0 46 bd 7b 3c db 55 90 bd 0a 6d e5 bd 4b ab f2 bd
       0.0153649505 -0.07047626 -0.11202438 -0.11849078
0001c0 02 2e aa bd 6b ab d9 bb 0e 39 10 be fd 9b 31 bd
       -0.083095565 -0.006642749 -0.14084265 -0.043361653
0001d0 8d 18 ae bd 20 3e 0c 3b 53 30 93 bd 7d 57 a5 3d
       -0.085007764 0.0021399334 -0.071869515 0.08073328
0001e0 53 0d 55 bd 26 bf 99 bd 9c 26 8c 3d 10 ca d3 bb
       -0.05201466 -0.07507162 0.06843302 -0.0064632967
0001f0 36 bb 30 bd 34 8a a0 3c 3d fa d5 3d 05 dc 32 3d
       -0.04314729 0.01959715 0.1044812 0.04366686
000200 26 55 88 3b 83 59 ae 3b a0 c7 40 3c ba 55 33 3c
       0.004160541 0.005320729 0.011766344 0.010945732
000210 65 f8 72 3d 66 07 d8 3c 9b 87 e9 3c 11 05 94 3d
       0.05931892 0.026370715 0.028507045 0.07227529
000220 ea b6 62 3d 0b 8f 0c bd 1c 87 db bc 9e 98 2b bd
       0.05535022 -0.034316104 -0.026797824 -0.041893594
000230 ef 60 8e bd 12 ee 30 3d 03 48 96 3d 49 6a 90 3d
       -0.06952082 0.04319579 0.07337954 0.07051522
000240 a1 0a ac 3d 9f 1c 09 3e 0f f3 bf 3d e2 87 08 3e
       0.08400465 0.13389824 0.093725316 0.13333085
000250 89 8b 5b 3d d9 b2 ec 39 25 20 db 3d 4b dc 74 bc
       0.053599868 0.0004514668 0.106994905 -0.0149451
000260 4c 32 65 3d 38 8b 3e bc 60 db 86 3c 66 c2 c4 bc
       0.05595617 -0.011629872 0.016462028 -0.024018478
000270 5e a3 99 bd ae bb c2 bd 3c a2 4c bd 7d c8 95 3c
       -0.07501863 -0.09508453 -0.049959406 0.018284077
000280 3b 93 8a 3c df 53 1e 3d 14 29 f9 bd 0c ae b8 3c
       0.016915908 0.038654204 -0.12166038 0.02254393
000290 e4 12 f7 bd e6 2b c7 3b 34 6b 3e bd b0 0f 5b 3c
       -0.1206415 0.006078231 -0.046488956 0.013370439
0002a0 39 cf bd bd 82 cd a2 3d cc 5c 5a bd 32 58 6b 3d
       -0.0926804 0.07949354 -0.053311154 0.057457156
0002b0 e6 20 2b bd 76 da 25 3d 7c 32 51 3d 8f 8a 91 bd
       -0.04177942 0.040491544 0.051073536 -0.07106506
0002c0 bd 07 2d 3d 0c 0e 99 bc 8f c8 99 bd 00 3e ef bc
       0.042243708 -0.018683456 -0.07508957 -0.029204369
0002d0 5e 6d 29 bd bc f4 94 bd 08 03 13 3d 20 de 78 bc
       -0.041364066 -0.07273242 0.035891563 -0.0151896775
0002e0 6c 8e f6 bc 92 cb 7b 3d f4 3a 29 3d 9c f0 a9 bc
       -0.030097209 0.061473437 0.041315988 -0.020744614
0002f0 41 d7 75 3d 37 eb a6 bc 64 13 c5 3c 0e 03 06 bd
       0.060019735 -0.020375831 0.024057098 -0.032717757
000300 62 16 ab 3d 6e 9f cf bd a6 27 dd 3d 25 92 bb 3c
       0.083538786 -0.10137831 0.10798578 0.022896836
000310 68 79 63 bd 5e 3d 26 bd d2 37 07 be 84 94 e3 3b
       -0.055535704 -0.040585868 -0.13204888 0.0069451947
000320 30 64 b9 bd 97 a0 ae bc e9 0f c0 bd 24 ce 5e bd
       -0.090523124 -0.02131681 -0.093780346 -0.05439581
000330 97 b5 06 bd 73 c1 ad bd e0 fa e6 bd ce 5a 5c 3c
       -0.03288802 -0.08484163 -0.11278319 0.013449384
000340 ee 82 6d bd b0 ea bb 3b fc 87 b2 bc de 30 44 bd
       -0.057986192 0.005734764 -0.021793358 -0.047898166
000350 35 d3 bb bc a5 0b 3a 3d 2d ae 0d bb 7d de 1e be
       -0.02292786 0.04542126 -0.002161871 -0.1551456
000360 4f fd 94 bd 26 c7 a2 3b 63 8e ee bd be a2 6b ba
       -0.07274877 0.004967588 -0.11648252 -0.0008988789
000370 b1 3a e2 3d 25 75 b1 3d a8 c3 64 3d 58 da 06 3e
       0.11046351 0.08664922 0.055850655 0.13169229
000380 4f cf b5 3d 14 37 32 bb 57 f6 80 bd 3b 54 b0 bc
       0.088774316 -0.0027193474 -0.062969856 -0.02152454
000390 d3 13 d4 bd 43 67 7c bd f7 c1 3f bd 10 1f ad 3c
       -0.10355344 -0.061621916 -0.04681584 0.021132976
0003a0 c2 0a cf bd 78 11 a3 bd 9d 22 d0 3d 65 56 8b bc
       -0.10109474 -0.07962316 0.10162852 -0.01700897
0003b0 89 dc 83 3c 13 ea 9d bd 59 40 fa bc f4 39 24 3d
       0.01609637 -0.07710662 -0.030548261 0.04009433
0003c0 aa 90 07 ba 06 01 3d bc 98 96 1a 3d 94 a4 9b 3c
       -0.0005171398 -0.011535889 0.037741274 0.018999375
0003d0 48 72 2d bc 08 6a 04 3d 42 e8 7b 3d ed f6 08 3e
       -0.010586329 0.03232768 0.061500795 0.13375445
0003e0 2a 21 e3 3d 52 89 4e bd 5b 49 f6 bd 55 43 09 bd
       0.1109031 -0.050423928 -0.1202571 -0.03351148
0003f0 7e d8 c0 bd 55 ff c0 bc 59 b0 48 bc df 7c e7 bc
       -0.094162926 -0.023559252 -0.012249076 -0.028257785

decoder.0.bias f4 [16]
000000 4b 5a 9f bd 47 8e 48 be a5 d3 1a be 02 fc 8a be
       -0.07780894 -0.19585524 -0.15119798 -0.27145392
000010 fa a9 d8 be 89 4a f0 bd 05 76 a3 bd 11 5a 81 bd
       -0.42317182 -0.117329665 -0.07981495 -0.06316007
000020 c5 4d 24 be 4e c4 f4 bd f9 55 02 be b8 ef 1d bd
       -0.16045292 -0.11951505 -0.12728108 -0.03855869
000030 8c 21 9b be 9b 64 80 be f9 8c f0 bd 16 87 06 be
       -0.30299032 -0.25076756 -0.117456384 -0.13137469

decoder.2.weight f4 [16, 3, 3, 3]
000000 53 dd bd bd 57 e6 47 3d 6f f4 20 3e 01 4e fe bc
       -0.0927073 0.048803654 0.15718244 -0.031043055
000010 34 ca 22 3e 66 5d 0d 3e 4b b4 d2 3d 22 31 6d 3e
       0.15897447 0.1380516 0.102882944 0.23163274
000020 98 1d 71 3d dd ac 5e 3e 8c f0 d2 bd 32 70 a5 3c
       0.058866113 0.2174563 -0.10299787 0.0201951
000030 aa 65 81 3e 3a 95 65 3c 04 2c f7 3c bd 7c a1 bd
       0.25272876 0.014012629 0.030172355 -0.0788512
000040 c7 76 a8 bd 23 02 7a bc b1 5a 00 be 13 dc ed bd
       -0.0822578 -0.0152592985 -0.12534596 -0.116142415
000050 d3 c6 a0 bd 20 fa 1b 3d ba ea 4d bd ae f7 4f 3e
       -0.07850423 0.038080335 -0.05027268 0.20309326
000060 2e 16 49 3e 15 e5 60 3b 04 d5 29 3d 1a c5 73 bd
       0.19637367 0.003431623 0.041462913 -0.059514143
000070 c8 26 3e bd 3f 0c 00 3e 3c d3 fd 3c 32 cd b7 3d
       -0.046423703 0.12504672 0.030984513 0.08974685
000080 b8 c0 54 3e 91 d8 0e 3e db 2c a3 3e c7 4d 9b 3e
       0.20776641 0.13949801 0.3187016 0.30332777
000090 f6 7f 08 3d 5c 83 1a 3d f1 18 1f 3e 59 a0 20 3e
       0.033325158 0.03772293 0.15536858 0.15686168
0000a0 45 70 f6 3d a1 97 a6 3d aa e2 99 3d 56 95 9c 3e
       0.120331325 0.0813439 0.07513936 0.30582684
0000b0 b9 82 26 3e 01 7c cf 3d 1f b1 50 bb 9e 72 51 3d
       0.16260804 0.10131074 -0.0031843854 0.051134698
0000c0 8a 64 16 3d 6a 32 20 3e 06 1a 22 3e 9d c0 4b 3e
       0.036716975 0.15644231 0.1583024 0.19897695
0000d0 5d 6d b8 3e 42 9a 8c 3e a0 71 78 bd 7f 43 18 bc
       0.36020938 0.2746144 -0.060655236 -0.009293436
0000e0 69 0a 0d 3e 51 df 0a 3e 41 f1 2e 3e 7b 90 31 3e
       0.13773502 0.13561751 0.17084219 0.17340271
0000f0 81 87 54 3e ea 61 5b 3e df 51 28 3d 37 e3 af bd
       0.20754816 0.2142407 0.041093703 -0.0858826
000100 7e dc 33 3e 13 23 7c 3c e6 f0 4e 3e 1f 63 91 3e
       0.1756458 0.015389222 0.20209083 0.28395936
000110 16 2b 68 3e ea dc 30 be 44 dc 9d bb 0f 50 a5 3b
       0.22672686 -0.17271772 -0.0048175175 0.005044944
000120 53 da b9 3c 00 5d 17 3e df 06 1c 3e 14 5d 81 3e
       0.022687113 0.1478157 0.15236996 0.25266325
000130 9c b1 09 3e 1d 78 8d 3e b9 60 3e 3e 16 92 68 3d
       0.13446659 0.27630702 0.18591584 0.056779943
000140 f5 7e ca 3d b6 2d a4 3d c7 6f 63 3e c9 a9 f6 3d
       0.098874964 0.08016531 0.22210608 0.12044103
000150 08 a8 ff 3d 1f cf 31 3d 4f c5 3a 3e 9d 5e a4 3d
       0.12483221 0.043410417 0.1823933 0.080258586
000160 2a de 33 3e 3e 5e 34 3e eb 99 b5 3d b5 db a7 3d
       0.17565218 0.17614076 0.08867248 0.08196203
000170 58 f8 51 3e 1c 53 cb 3d 49 2e 1a 3e 51 dd 9e 3c
       0.20504892 0.09927961 0.15056719 0.019392641
000180 f1 ac 71 bd 0c 74 37 3e bf 20 16 3d ac 4b 3c 3d
       -0.05900282 0.17915362 0.036652323 0.045970604
000190 48 c6 7a 3e 5d ee 07 bb 64 7b 82 3d c5 91 ab 3e
       0.24489701 -0.002074144 0.06371191 0.3350965
0001a0 94 fb 78 3d 6d 27 73 3e af 13 39 3e 6f cf 6b bb
       0.0607868 0.23745508 0.18073915 -0.0035981794
0001b0 4d d3 3a bc 3e 2a 3c 3e cf 25 ba 3e f4 77 41 3e
       -0.011402917 0.18375489 0.3635697 0.18893415
0001c0 25 ac 9a 3e ce f0 02 3f 33 75 5f 3d bc 54 97 3e
       0.3020946 0.5114869 0.05455513 0.29556835
0001d0 8a 4d 2e 3e 48 d7 85 3e 60 89 4d 3e 24 16 42 3e
       0.17021766 0.2614081 0.20071936 0.18953758
0001e0 59 5c bb 3e 36 90 a2 3e c7 1d a6 3e c6 ea ba 3d
       0.36593893 0.3175065 0.32444593 0.09126811
0001f0 3e 9e ae 3e a9 8a 9e 3e 2d 93 d9 3e a5 34 ce 3e
       0.34105104 0.30965164 0.424951 0.4027454
000200 a0 c7 aa 3e 53 d1 a9 3e a6 97 fe 3e c5 b6 e7 3e
       0.33355427 0.33167514 0.49725074 0.4525663
000210 2c d8 c2 3e 30 19 ee 3e a6 ca 81 3e 4d 0c 8f 3c
       0.3805555 0.46503592 0.2534992 0.01746192
000220 2b c5 ce bd 6c 76 15 3e 94 29 4a 3e c8 fc d0 bb
       -0.100962006 0.14595956 0.19742423 -0.00637779
000230 67 08 dd bc d8 81 93 bd 42 52 6f 3d 6e 4f 63 3e
       -0.026981546 -0.072025 0.058428057 0.22198269
000240 9b eb 8c 3e fc 2f 99 bd 88 9a 9c bd a0 fe 47 3e
       0.27523503 -0.074798554 -0.07646662 0.19530725
000250 e8 dc a8 3d cf cf b3 3d ec b2 bd 3d b6 40 17 3d
       0.082452595 0.08779871 0.09262642 0.036926948
000260 df 87 1a 3e 6b 72 a0 bd e7 be 57 3e 9e d4 66 3c
       0.15090893 -0.078343235 0.21068917 0.014088778
000270 15 6f fd bc fb 0e a7 bd 88 a7 93 3c 4d 53 42 3e
       -0.030936757 -0.08157154 0.018024221 0.18977089
000280 29 50 b8 bc 69 32 53 3e 3e b3 26 3d ad 7d 2e 3e
       -0.02249916 0.20624699 0.040698282 0.17040129
000290 fe cf 9a bd 9d 51 40 b9 0d 5f 97 3e 93 ff 30 3e
       -0.075592026 -0.0001834095 0.29564705 0.17284994
0002a0 ec ab ba bc 52 de 2c 3e f8 b7 7c bb 67 81 b0 3c
       -0.022787057 0.16881683 -0.0038561802 0.021546079
0002b0 66 b8 99 bb 18 5a 88 3d 38 0a 63 3e 13 89 55 3e
       -0.0046911715 0.06657809 0.22171867 0.20853071
0002c0 73 79 09 3e 51 25 95 3d 2f 1f 56 3e b5 30 b5 3d
       0.13425235 0.07282508 0.20910333 0.08847181
0002d0 c8 ba ee bc d4 13 a0 3c c7 aa db bd ce 51 ce 3d
       -0.029141799 0.019540705 -0.107259326 0.10074197
0002e0 21 4f 35 3e dd 73 ac 3d 4f 46 09 3e 3a 72 87 3e
       0.17705967 0.08420537 0.13405727 0.26454335
0002f0 08 39 99 bd f3 22 19 3e 34 55 82 3d 5d 84 9b 3c
       -0.07481581 0.14954738 0.063639075 0.018984014
000300 2b f9 c0 3d d9 6d 2b 3e ee 1e 31 3e b7 5b 10 3e
       0.09422525 0.16741122 0.17296955 0.14097486
000310 65 df 84 3e 7d db 0c 3d d4 12 6c bd d5 b0 30 3e
       0.25951687 0.034389008 -0.057635143 0.17254956
000320 0d 9d 3d bd 20 80 26 bd c0 64 42 3e 8a ee 2e 3d
       -0.046292353 -0.040649533 0.18983746 0.042707957
000330 94 c2 04 3e 59 2b 78 3e 33 53 39 3e 98 16 0d be
       0.1296485 0.24235286 0.18098144 -0.1377815
000340 c8 bb 9d 3d f8 0a 48 3e 57 18 97 bd 44 d4 89 3e
       0.07701832 0.19535434 -0.07377689 0.26919758
000350 8c 9d 0a bd ee 91 41 3d e0 7c 14 3c b1 36 da bb
       -0.033841655 0.04725831 0.009062976 -0.0066593518
000360 44 dd 35 3e 41 46 4f 3e a9 e9 1b 3d 22 c7 49 bd
       0.17760187 0.20241643 0.038064633 -0.049262173
000370 96 05 e8 3c d1 78 86 3e e3 54 dc bd 44 3f 21 bd
       0.028322976 0.2626405 -0.10758378 -0.039366975
000380 ec 47 e4 3c 52 7b 6e 3e 33 08 50 bd 28 8c 47 3e
       0.027866326 0.2328923 -0.05078907 0.19487059
000390 6f ef 0d 3e b8 01 92 3d ed 4b 05 3b 3d 5f 04 3d
       0.13860868 0.07129234 0.0020339445 0.03231739
0003a0 3c 0e 35 3e 64 af 51 3d d0 05 35 3d c3 95 a6 bd
       0.17681211 0.051192656 0.044194996 -0.081340335
0003b0 3e 53 0b 3e 50 af d8 3d 99 1b b5 3e 18 b3 04 3e
       0.13605973 0.10580313 0.35372618 0.12958944
0003c0 12 23 19 be 25 77 07 3b b7 e9 83 3d ae 03 aa bd
       -0.14954785 0.002067038 0.06441062 -0.08301483
0003d0 b3 c0 79 bc 8b 38 1d 3e aa 0d c2 3d eb 9b 67 3e
       -0.015243697 0.153536 0.094752625 0.22618072
0003e0 db 3f 58 3c a6 7b 33 3d 65 4e 1d 3e 90 d5 89 3b
       0.013198818 0.043819092 0.15361936 0.004206367
0003f0 24 0f cc bd 2e 0c ae bd a3 7c 17 3d 66 d5 17 3d
       -0.09963825 -0.08498417 0.036984097 0.037068747

decoder.2.bias f4 [3]
000000 71 50 90 bf 19 96 8f bf 37 1f 8c bf
       -1.1274549 -1.1217681 -1.0947026
