saved_models/old_models/nSuperMRI_10.pth (torch, 29378 bytes, 25 tensors)

input_block.conv1.weight f4 [3, 1, 3, 3]
0	0x3ecab7d5	0.39593378
1	0x3f1e1770	0.6175451
2	0x3e562c88	0.20915425
3	0x3de133bb	0.10996195
4	0x3eaf7321	0.34267524
5	0x3c8fda06	0.017560016
6	0x3e552eec	0.2081868
7	0x3ec66b31	0.38753656
8	0xbe2c89a2	-0.16849378
9	0x3ef19ad4	0.47188437
10	0x3ef95fd5	0.48705927
11	0x3e83b143	0.25721177
12	0x3ec7d488	0.39029336
13	0x3ebd18cd	0.36932984
14	0x3eb55589	0.3541682
15	0xbe5ee3ec	-0.21766633
16	0xbe1ce2d4	-0.15320903
17	0xbe85a195	-0.2609984
18	0xbf16b2df	-0.58866686
19	0x3e191f83	0.14953427
20	0xbd1b77cf	-0.037956055
21	0x3f48283b	0.78186387
22	0xbe70d7ad	-0.23519774
23	0x3e570217	0.20996891
24	0x3e89c7fd	0.2691039
25	0x3ea74ca4	0.3267566
26	0x3e60ede0	0.21965742

input_block.conv2.weight f4 [3, 3, 3, 3]
0	0xbf213e3d	-0.62985593
1	0x3e20c35a	0.1569952
2	0x3dc02628	0.09382278
3	0xbe78be93	-0.24291448
4	0xbe891447	-0.26773283
5	0xbf0bd315	-0.5461896
6	0x3e587bab	0.21140926
7	0x3ecc651a	0.39920884
8	0x3e2f5ab0	0.17124438
9	0x3e9864d3	0.29764423
10	0x3e304184	0.17212492
11	0x3e014ff2	0.12628153
12	0x3f09e0db	0.5385873
13	0x3efbd149	0.4918311
14	0x3f339548	0.7014966
15	0x3d919e42	0.071102634
16	0x3dd06ad2	0.10176624
17	0x3d795ca8	0.06087938
18	0xbe3224a4	-0.1739679
19	0xbe2572bf	-0.16157053
20	0xbe88415d	-0.26612368
21	0x3e4867a6	0.19570789
22	0xbd96776c	-0.07346997
23	0x3ef379bf	0.47553822
24	0x3e1d03fa	0.15333548
25	0x3e3675bd	0.17818351
26	0x3d1f8ab4	0.038950637
27	0x3dd1ab72	0.10237779
28	0x3f2582c3	0.6465265
29	0x3dc52465	0.09626082
30	0xbe4e2b65	-0.20133741
31	0x3ecadebf	0.39623067
32	0xbe80ad1a	-0.25132066
33	0xbe278010	-0.16357446
34	0xbe15e7c0	-0.14639187
35	0xbe054c1f	-0.13017319
36	0xbe1259ae	-0.14292023
37	0x3ea0ea9d	0.31428996
38	0xbea9185a	-0.3302639
39	0x3e231119	0.15924491
40	0x3e4357f6	0.19076523
41	0x3e55eaa4	0.2089029
42	0x3ec9bcde	0.39401907
43	0x3ea57717	0.3231742
44	0x3e58b79b	0.2116379
45	0xbd0ba6db	-0.034094673
46	0x3edfe177	0.43726704
47	0x3dc6eefe	0.09713553
48	0x3c350473	0.011048424
49	0xbf147055	-0.57983905
50	0x3e84875c	0.2588452
51	0x3e8a60ef	0.2702708
52	0x3ecb08de	0.39655203
53	0x3c3c76bd	0.011502919
54	0x3cc9c66c	0.024630748
55	0xbe5b6a5d	-0.21427293
56	0xbdeccd52	-0.11562599
57	0xbe56eb02	-0.20988086
58	0xbfadae6f	-1.3568858
59	0xbf9c2b66	-1.2200744
60	0x3de50abd	0.11183689
61	0xbf31476d	-0.6924961
62	0x3d33a476	0.043858014
63	0x3bf8d7f2	0.007594102
64	0xbd20b80d	-0.039238025
65	0x3b3ab780	0.0028490722
66	0xbd0c70fa	-0.03428743
67	0x3cc93a2b	0.02456387
68	0xbd19a422	-0.037510045
69	0xbc16bdb2	-0.0092005
70	0xbd0912d0	-0.033465207
71	0xbbaa68ba	-0.0052004727
72	0xbd35b8ce	-0.044365697
73	0xbe0963d6	-0.1341699
74	0xbac48e55	-0.0014996032
75	0xbe280f76	-0.16412148
76	0x3cacb2b0	0.021081299
77	0xbf0dd519	-0.55403286
78	0x3b191f6b	0.0023364674
79	0x3b8191ed	0.0039541633
80	0xbd32b552	-0.04362995

down_blocks.0.conv_block.conv1.weight f4 [6, 3, 3, 3]
0	0xbe61bd47	-0.2204486
1	0x3e013aeb	0.12620132
2	0x3e7bac8d	0.24577542
3	0xbf44617c	-0.7671125
4	0xbf2f3b9d	-0.6845034
5	0x3e0d2055	0.13781865
6	0xbf45fc61	-0.77338225
7	0xbf1663c6	-0.5874599
8	0x3d7ae1c1	0.061250452
9	0x3e937c5a	0.2880581
10	0x3bd150b0	0.0063877925
11	0x3e3c140e	0.18367025
12	0x3bc5c23b	0.006035117
13	0x3e0923fa	0.1339263
14	0x3f1bb10c	0.6081703
15	0xbf2fc659	-0.6866203
16	0xbeef2c79	-0.46713617
17	0x3e5cb350	0.21552777
18	0x3d708583	0.058721077
19	0x3d7e8e63	0.06214751
20	0x3e369b2e	0.17832634
21	0x3d66a72d	0.056311775
22	0x3d0584a7	0.03259721
23	0xbe02bacf	-0.12766574
24	0x3e2057fb	0.15658562
25	0x3e0aae1d	0.13542981
26	0xbd7eeade	-0.062235706
27	0xbd9b0ca0	-0.075707674
28	0xbd96d05c	-0.0736396
29	0xbd2f4b94	-0.042796686
30	0xbdb8e71a	-0.09028454
31	0x3a826fb6	0.0009951505
32	0xbeccd53c	-0.40006435
33	0x3e9f6d6c	0.3113817
34	0x3f08cab0	0.53434277
35	0xbdaf7d5b	-0.085688315
36	0x3e084ec3	0.13311295
37	0x3d4e8b4a	0.050425805
38	0xbbc50a6a	-0.0060132043
39	0xbd9377d9	-0.072005935
40	0xbc6b53e5	-0.014363264
41	0xbe15043e	-0.145524
42	0x3ec23f8f	0.37939116
43	0x3f2c9461	0.6741391
44	0x3e03825b	0.12842695
45	0xbcda545d	-0.026651556
46	0xbe668586	-0.22511873
47	0xbd95a11c	-0.0730612
48	0xbe98ff45	-0.29882255
49	0xbea76d3d	-0.3270053
50	0xbdb5b32d	-0.08872066
51	0x3e22b2b9	0.1588849
52	0x3e9b7316	0.3036124
53	0x3eb132d6	0.34609097
54	0xbdc380b7	-0.09546035
55	0x3d58c328	0.05292049
56	0x3d84ed40	0.06490564
57	0xbe331e58	-0.17492044
58	0xbdf30ec7	-0.11868053
59	0xbd7b9b90	-0.061427653
60	0x3d8de14c	0.069277376
61	0x3ef2a35d	0.4739026
62	0x3e7930e9	0.24335064
63	0x3d8328e5	0.064042844
64	0x3d18e420	0.037326932
65	0x3d34eeef	0.044173177
66	0xbe225084	-0.15851027
67	0x3dd604dd	0.10450146
68	0xbdccae28	-0.09994155
69	0xbc3c7305	-0.011502032
70	0x3e8d2dcb	0.27574
71	0x3ed5332c	0.41640604
72	0xbe685ad4	-0.22690898
73	0x3e800414	0.2500311
74	0xbd265d72	-0.04061646
75	0x3d7be289	0.061495338
76	0x3f27effc	0.6560056
77	0x3e2aea24	0.1669088
78	0x3e7efc43	0.24900918
79	0x3f0d7aca	0.55265486
80	0x3f09e537	0.5386538
81	0x3dbc64e2	0.09198929
82	0xbe23722d	-0.15961523
83	0x3e1fb779	0.15597333
84	0x3e4b3d55	0.19847615
85	0x3e420dba	0.18950549
86	0x3dd597cb	0.10429343
87	0xbdbc6afe	-0.09200095
88	0xbdc95d80	-0.09832287
89	0xbe8dbe19	-0.27684096
90	0xbdc19d12	-0.09453787
91	0x3dd8cb45	0.105856456
92	0x3e7881f5	0.24268325
93	0xbee4a90e	-0.44660228
94	0xbe8f0c1b	-0.27938923
95	0xbefb8308	-0.49123406
96	0x3d546fd3	0.051864456
97	0xbddddcc0	-0.1083312
98	0xbe0eafed	-0.13934298
99	0xbe98d5cf	-0.29850623
100	0xbed0496e	-0.40681022
101	0x3f0894fc	0.5335233
102	0x3c916bf6	0.017751675
103	0x3ea03eee	0.31298012
104	0x3f427c81	0.7597123
105	0x3d20eaca	0.039286412
106	0x3d04b46e	0.032398634
107	0xbed1f1e8	-0.41004872
108	0x3d0f9e50	0.035063088
109	0x3c4174b2	0.0118076075
110	0xbcd78ca5	-0.026312182
111	0xbda50fd5	-0.0805966
112	0x3d80a0d5	0.06280676
113	0xbce431a8	-0.02785571
114	0xbc13cb3c	-0.009020623
115	0x3e9a52ff	0.30141446
116	0x3d24a85f	0.040199634
117	0xbb9bd51a	-0.0047556283
118	0xbc969c6c	-0.018385135
119	0xbcfacbf8	-0.030614838
120	0x3c84f8ee	0.01623198
121	0xbd1d4f4e	-0.03840571
122	0xbcd0842d	-0.025453651
123	0x3daa4174	0.083132654
124	0x3de05dd0	0.10955393
125	0x3e035523	0.12825446
126	0x3d7b4ac3	0.061350595
127	0xbbec9218	-0.007219564
128	0xbd4b5141	-0.049638037
129	0xbd9e2b68	-0.07723123
130	0x3f317e60	0.6933346
131	0xbe3efa7c	-0.1865024
132	0xbd1bd320	-0.03804314
133	0x402c9ca5	2.6970608
134	0x3e2b1197	0.16705929
135	0xbd07c898	-0.033150285
136	0xbe7a1a0b	-0.24423997
137	0xbc5de936	-0.013544371
138	0xbd8cdb68	-0.06877786
139	0xbe979838	-0.2960832
140	0xbe22c817	-0.1589664
141	0xbdef392c	-0.116808265
142	0xbe7ea374	-0.2486704
143	0xbe0cad65	-0.1373802
144	0xbe014340	-0.1262331
145	0xbd1b2548	-0.03787735
146	0xbeacd8c7	-0.33759138
147	0xbdb04fa8	-0.08608943
148	0xbda9d8d4	-0.0829331
149	0xbe32bfed	-0.17456026
150	0xbd63c67d	-0.055609215
151	0xbe714fb2	-0.23565558
152	0xbe796945	-0.24356563
153	0x3e079efd	0.13244243
154	0x3e20f313	0.15717725
155	0xbe743f1f	-0.23852204
156	0xbee362fb	-0.44411454
157	0xbeefe32e	-0.46853012
158	0xbe555709	-0.20833983
159	0xbe0406a0	-0.12893152
160	0xbe11b2c9	-0.14228357
161	0xbe1975a2	-0.1498628

down_blocks.0.conv_block.conv2.weight f4 [6, 6, 3, 3]
0	0x3e2cd6c6	0.16878805
1	0x3e4125ee	0.18862125
2	0x3dcd257d	0.10016916
3	0xbd0f166b	-0.03493349
4	0xbdf4fbad	-0.11962066
5	0xbc2d7366	-0.010586595
6	0x3d1311ab	0.03590552
7	0xbd4ee5ea	-0.050512232
8	0xbd62652a	-0.05527226
9	0x3e645354	0.22297412
10	0x3ed8b80f	0.42327926
11	0x3ee5f5bd	0.44914046
12	0xbdfa8fa0	-0.122344255
13	0xbc5354b0	-0.012898609
14	0xbc225a34	-0.009909201
15	0xbdd33565	-0.103129186
16	0xbdbf4792	-0.09339823
17	0x3d959ea2	0.073056474
18	0x3c7dc246	0.015488213
19	0x3e2455ed	0.16048403
20	0xbd2afb8b	-0.041743796
21	0xbe860d27	-0.2618191
22	0x3da7d582	0.0819502
23	0xbdec064d	-0.11524639
24	0xbe47c12b	-0.19507281
25	0xbe6dd43a	-0.2322549
26	0xbc85c110	-0.016327411
27	0x3d58ed2a	0.052960552
28	0x3dbcd40b	0.092201315
29	0x3d089360	0.033343673
30	0x3e978859	0.29596213
31	0x3e8b7961	0.27241042
32	0x3c8bc7f9	0.017063128
33	0x3d290f30	0.04127425
34	0xbc04e02b	-0.008110086
35	0x3d9e6499	0.07734031
36	0x3e6f2c97	0.23356853
37	0x3fb71bcc	1.4305358
38	0x3e5e9ad0	0.21738744
39	0x3ca0a965	0.019612024
40	0x3eb917f8	0.361511
41	0x3d36838f	0.044559058
42	0x3dc24ad6	0.0948693
43	0x3e29c8b0	0.16580462
44	0x3d976ee6	0.07394199
45	0xbd03c180	-0.032166958
46	0x3e1c105c	0.15240616
47	0xbd270ea4	-0.040785447
48	0xbe6635cd	-0.22481461
49	0x3e32f510	0.17476296
50	0xbdc4ed14	-0.096155316
51	0xbe1bf38a	-0.15229622
52	0x3e1ef392	0.15522602
53	0xbd3b3eda	-0.045714237
54	0x3e44cf34	0.19219667
55	0x3dedcb3c	0.116110295
56	0x3e8097ba	0.25115758
57	0x3a612e74	0.0008589991
58	0x3e1d411d	0.1535687
59	0x3e951842	0.2912007
60	0xbda86931	-0.08223189
61	0xbe5a0b7c	-0.21293443
62	0x3d91894c	0.071062654
63	0xbd5248f6	-0.051339112
64	0xbe16c1cb	-0.14722364
65	0xbc213e20	-0.009841472
66	0x3e965afc	0.2936629
67	0x3eeea3f9	0.46609476
68	0x3e945739	0.28972796
69	0xbec77ab0	-0.3896079
70	0xbee563d8	-0.44802737
71	0xbeaf3bd7	-0.34225342
72	0xbea413fe	-0.32046503
73	0xbea8ae47	-0.32945463
74	0xbe1123ac	-0.14173764
75	0x3e84b25c	0.25917327
76	0x3ea2f210	0.31825304
77	0x3dd0cfba	0.10195871
78	0xbe9125a4	-0.2834903
79	0xbcc12258	-0.023575947
80	0xbd1080df	-0.03527915
81	0x3e678707	0.22610103
82	0x3e7fac01	0.24967958
83	0xbc9d7391	-0.019220145
84	0x3d52cdce	0.051465802
85	0x3e2e34eb	0.17012374
86	0xbd9ff84d	-0.078110315
87	0x3ed8a988	0.42316842
88	0x3eb15eb1	0.34642556
89	0x3c51c25d	0.0128026875
90	0xbd83718c	-0.06418142
91	0xbe58910a	-0.21149078
92	0xbe10a46d	-0.14125223
93	0xbe26fdd1	-0.16307761
94	0xbdf7cd30	-0.12099683
95	0x3c46f6e6	0.012143826
96	0x3d976319	0.07391948
97	0x3ebcbf99	0.36864927
98	0x3e1f229a	0.15540543
99	0x3ccfb25a	0.0253536
100	0x3cff1de6	0.031142186
101	0xbbf71afb	-0.007541058
102	0xbbe5687a	-0.00700098
103	0xbd2d5155	-0.042313892
104	0x3d334adb	0.04377256
105	0xbd473a13	-0.04863937
106	0xbd047988	-0.032342464
107	0xbc87a165	-0.016556451
108	0xbe2a603c	-0.16638273
109	0xbda08564	-0.07837942
110	0x3dd9bda2	0.10631873
111	0x3c740e36	0.014895966
112	0x3e906a9f	0.28206345
113	0x3e6393ff	0.22224425
114	0xbea4bf6d	-0.32177296
115	0xbe438f3e	-0.19097611
116	0xbe033844	-0.12814432
117	0x3d15e200	0.036592484
118	0xbf764161	-0.9619351
119	0xbf6603e6	-0.898497
120	0x3da30e6f	0.07961737
121	0xbef87feb	-0.48535094
122	0xbecdded9	-0.40209082
123	0x3d757432	0.059925266
124	0xbe6957a3	-0.22787337
125	0xbea964ea	-0.33084804
126	0x3dab1e99	0.083554454
127	0xbe40bb91	-0.18821551
128	0x3e57e37e	0.21082875
129	0x3ebf8a9f	0.37410447
130	0x3e943841	0.28949168
131	0x3ee3b102	0.44470984
132	0xbe43d5b1	-0.19124486
133	0xbdd8e227	-0.1059001
134	0xbd2fed05	-0.04295065
135	0x3c26eca9	0.01018826
136	0x3d82cd73	0.063868426
137	0xbd5284c3	-0.051396143
138	0xbdbb9147	-0.09158569
139	0x3d886e86	0.06661706
140	0x3a651e4a	0.000874017
141	0xbe503997	-0.20334469
142	0xbd830bc6	-0.0639873
143	0x3d5eaff3	0.054367017
144	0x3e773ef4	0.24145108
145	0xbb960003	-0.004577638
146	0xbc1cd89f	-0.009573131
147	0x3de6057b	0.11231514
148	0xbdbcfb4d	-0.09227619
149	0xbddc863e	-0.10767792
150	0xbc86f67f	-0.01647496
151	0xbb64f425	-0.003493556
152	0xbe4160bb	-0.18884556
153	0xbe96c58d	-0.29447594
154	0xbe82e6be	-0.25566667
155	0xbe05ca7b	-0.13065521
156	0x3a090f9c	0.0005228461
157	0xbb65fc02	-0.0035092835
158	0xbd31daf7	-0.04342171
159	0x3c1e7c01	0.0096731195
160	0xbe819b0e	-0.2531361
161	0xbe5f7845	-0.21823223
162	0xbd188915	-0.037240107
163	0x3cfab118	0.030602023
164	0x3d5d4e84	0.054029956
165	0xbd8202d2	-0.06348194
166	0x3dc2b37e	0.09506892
167	0x3e8ca5bc	0.27470195
168	0xbe0d069b	-0.13772051
169	0xbcb0b0c1	-0.021568658
170	0x3e445c22	0.19175771
171	0xbe8a574e	-0.27019733
172	0x3c48127b	0.012211437
173	0xbd749421	-0.05971158
174	0x3c8b51da	0.017006803
175	0x3e56ecbe	0.20988747
176	0x3d622f25	0.05522074
177	0x3e1ae981	0.15128137
178	0x3f0563b7	0.5210528
179	0x3f01dc5b	0.5072686
180	0xbd860691	-0.06544221
181	0x36019b00	1.931272e-06
182	0xbe8e70bc	-0.27820385
183	0x3d92ad9d	0.0716202
184	0x3e0a067b	0.13479035
185	0xbdb532a5	-0.0884755
186	0x3ea2ab0b	0.3177112
187	0x3ee9ddf9	0.45677164
188	0xbe44dd7f	-0.19225119
189	0x3d6a3313	0.057177614
190	0x3d931368	0.07181436
191	0x3ec8f19d	0.39246836
192	0x3e5dc680	0.21657753
193	0xbd81b5f9	-0.06333537
194	0xbdc62b20	-0.09676194
195	0xbbb0ab33	-0.0053915023
196	0xbe8399a5	-0.2570316
197	0xbe1d24c0	-0.1534605
198	0x3e2d34e2	0.16914704
199	0x3faa8166	1.3320739
200	0x3f19a0ff	0.60011286
201	0x3d61df7f	0.055144783
202	0x3ef24e65	0.47325435
203	0x3e1c833d	0.15284438
204	0xbe332c78	-0.17497432
205	0x3d77f126	0.06053271
206	0xbe42a0ff	-0.19006728
207	0x3c414473	0.011796105
208	0x3dc74f8c	0.09731969
209	0xbd4dbd30	-0.05022925
210	0x3e3c72a2	0.18403104
211	0x3ea451e6	0.32093734
212	0x3cd5b333	0.026086425
213	0x3e59829a	0.21241227
214	0x3f14a1c9	0.58059365
215	0x3e9fa1df	0.31178185
216	0x3d864249	0.06555612
217	0xbeccd5b0	-0.4000678
218	0xbeed9799	-0.46404722
219	0x3e99663b	0.29960808
220	0xbedcaaf5	-0.4309918
221	0xbf418071	-0.7558661
222	0x3ee248bb	0.44196114
223	0xbe31872f	-0.17336725
224	0xbea05671	-0.3131595
225	0xbe5992c7	-0.21247397
226	0x3d6b66ff	0.05747127
227	0x3d9a360d	0.075298406
228	0x3dc6366a	0.096783474
229	0x3f0483d5	0.5176366
230	0x3ecd58f3	0.40106925
231	0xbe5d6d9f	-0.21623848
232	0x3e28937c	0.16462511
233	0xbd5239cd	-0.051324654
234	0xbe20c1f6	-0.1569899
235	0xbc83681a	-0.01604085
236	0xbe82b8ee	-0.25531715
237	0x3f32de10	0.6987009
238	0x3f28d4b5	0.65949565
239	0x3c28f742	0.010312857
240	0x3d76760c	0.060171172
241	0xbd22f886	-0.03978779
242	0xbe8c719d	-0.2743043
243	0xbeae351b	-0.3402489
244	0xbdbc0337	-0.09180301
245	0xbb11ba0c	-0.0022236137
246	0xbe11fd43	-0.14256768
247	0xbec371f4	-0.38172877
248	0x3dcc9fac	0.099913925
249	0x3ea9ea3b	0.33186516
250	0x3eea8d03	0.45810708
251	0x3f379163	0.7170622
252	0x3e824e9a	0.25450593
253	0x3ce3c656	0.027804535
254	0x3e094b47	0.13407622
255	0xbe2aaeed	-0.16668291

down_blocks.1.conv_block.conv1.weight f4 [12, 6, 3, 3]
0	0xbc8f9825	-0.017528603
1	0x3e4c33cf	0.19941638
2	0x3e800932	0.25007015
3	0xbe3ac792	-0.18240193
4	0x3e43d5e4	0.19124562
5	0x3d790680	0.060797215
6	0xbd25ab40	-0.04044652
7	0x3e85ac1c	0.26107872
8	0x3ea6e616	0.32597417
9	0x3c87af8a	0.016563196
10	0x3ed27363	0.41103658
11	0x3e4ce8c4	0.20010668
12	0xbd0a00db	-0.033692222
13	0x3ecb538b	0.39712176
14	0x3e62c02e	0.22143623
15	0x3e6be457	0.23036323
16	0x3eccabcb	0.39974818
17	0x3eb061b6	0.34449548
18	0x3d04f547	0.032460477
19	0x3d6ff286	0.058580898
20	0x3e0c576d	0.13705225
21	0xbd8bb1a2	-0.0682099
22	0xbd3c3921	-0.04595292
23	0x3df99e31	0.12188376
24	0x3d56bbf1	0.05242533
25	0x3ea3a5ab	0.31962332
26	0x3ea2953b	0.3175448
27	0xbddf650a	-0.109079435
28	0x3e0e8caa	0.13920847
29	0xbe0277ca	-0.12741008
30	0xbb02225c	-0.0019856906
31	0x3d5f8040	0.054565668
32	0x3e09809d	0.13427968
33	0xbe29f45c	-0.16597122
34	0x3e10957b	0.14119522
35	0x3e7b16b0	0.24520373
36	0xbd0d2e74	-0.03446813
37	0xbe5f3b92	-0.21800068
38	0xbe5d75c4	-0.21626955
39	0xbda0cece	-0.07851945
40	0x3d1a2106	0.03762915
41	0xbdd2a80b	-0.10285958
42	0x3a99d66d	0.0011736877
43	0xbe002d67	-0.1251732
44	0xbdbcf909	-0.09227187
45	0x3d8a3c00	0.06749725
46	0x3d4f0696	0.05054339
47	0x3ea68828	0.32525754
48	0xbdbeecba	-0.09322496
49	0xbe16cfd5	-0.14727719
50	0x3dc8fafb	0.09813496
51	0x3e8bbda7	0.2729313
52	0x3e6def06	0.23235711
53	0x3eb6aba6	0.35677832
54	0x3e0a8fee	0.13531467
55	0x3cff5543	0.031168586
56	0xbd817bec	-0.06322464
57	0xbe1d1129	-0.15338577
58	0xbe4ba625	-0.19887598
59	0xbde76043	-0.11297657
60	0x3dd2adfd	0.10287092
61	0xbd59fadf	-0.053217765
62	0x3d99d74c	0.07511768
63	0xbeed7632	-0.46379238
64	0xbf136619	-0.57577664
65	0xbe924de3	-0.28575048
66	0xbec878ff	-0.39154813
67	0xbf455718	-0.7708602
68	0xbe247ea1	-0.1606393
69	0x3de294e0	0.11063552
70	0xbd6e5988	-0.058190852
71	0x3e9fbaa8	0.31197095
72	0xbdbd6ab9	-0.09248871
73	0xbd85da24	-0.06535748
74	0xbdc3bcdd	-0.09557507
75	0xbeacaf5e	-0.33727545
76	0xbef6e884	-0.4822427
77	0xbec23ace	-0.3793549
78	0xbd61d8cd	-0.055138398
79	0xbdf96313	-0.121771
80	0xbda307c9	-0.07960469
81	0xbd98bb5e	-0.074576125
82	0xb98ca3fc	-0.0002682506
83	0x3e973818	0.29534984
84	0xbed70f43	-0.4200383
85	0xbee9e21b	-0.45680317
86	0xbedd0500	-0.43167877
87	0xbcee4803	-0.029087072
88	0xbdd4a0eb	-0.10382255
89	0xbe25b327	-0.16181622
90	0x3d83a3e7	0.06427746
91	0x3e8a421f	0.2700357
92	0x3db38100	0.08764839
93	0x3d2475a8	0.04015127
94	0x3e8ad7e4	0.27117836
95	0x3e13201b	0.14367716
96	0x3bf7da79	0.0075638858
97	0x3db553c2	0.08853866
98	0x3dd74d21	0.10512758
99	0x3ea766f6	0.3269574
100	0x3e369c5f	0.17833088
101	0x3d949850	0.07255614
102	0x3e1577f3	0.14596538
103	0x3d2ea5c6	0.042638563
104	0x3e1e59f0	0.15463996
105	0x3e732926	0.23746166
106	0x39c93ed8	0.0003838453
107	0xbd7a89bc	-0.06116651
108	0xbca42944	-0.020039208
109	0xbd32a07f	-0.043610092
110	0x3e171c0a	0.1475679
111	0x3c90b1ff	0.017663
112	0x3ca744cd	0.020418549
113	0x3e5cc3f8	0.21559131
114	0x3d5660cf	0.052338418
115	0x3e338fd0	0.17535329
116	0x3eae7c85	0.34079376
117	0x3a5f98ca	0.0008529542
118	0x3db13d84	0.08654311
119	0x3e151eb7	0.14562498
120	0x3e1395ba	0.14412585
121	0x3dbdf87b	0.092759095
122	0x3e6649e3	0.22489123
123	0x3e420c9f	0.18950127
124	0x3e785954	0.24252826
125	0x3eadd174	0.33948863
126	0xbea066d6	-0.31328458
127	0xbe16df14	-0.14733535
128	0xbe2b7cf2	-0.16746882
129	0xbe81ab17	-0.25325844
130	0xbeb7322c	-0.35780466
131	0xbea9186e	-0.3302645
132	0xbe3dcd3a	-0.18535319
133	0xbd4224ea	-0.047398485
134	0xbdd47dde	-0.1037557
135	0xbe063da7	-0.13109456
136	0xbeb283b4	-0.34866107
137	0xbe59d4eb	-0.21272628
138	0xbe303808	-0.17208874
139	0xbe82791c	-0.25483024
140	0xbdc4cd1e	-0.096094355
141	0x3deef5b3	0.11667957
142	0x3b439c7e	0.0029847915
143	0xbd204b8b	-0.039134543
144	0x3ec2a5ad	0.38017026
145	0x3ef67838	0.48138595
146	0x3e3f4d65	0.18681867
147	0x3ed5404f	0.41650626
148	0x3e900f33	0.28136596
149	0x3e57b6f6	0.21065888
150	0x3e8329a3	0.25617704
151	0x3e4ed9e1	0.20200302
152	0x3e6ab447	0.22920333
153	0xbdd78557	-0.105234794
154	0x3d1d481e	0.038398854
155	0xbe547c42	-0.20750526
156	0xbe2c993c	-0.1685533
157	0xbe3ed0b8	-0.18634307
158	0xbe996ea6	-0.2996723
159	0xbe0f12d3	-0.13972025
160	0xbd36f5de	-0.04466807
161	0xbe373ed0	-0.17895055
162	0xbe8dfc2b	-0.2773145
163	0xbe79f51e	-0.24409911
164	0xbe8dc5cf	-0.27689978
165	0xbe586042	-0.2113047
166	0xbdf8b99f	-0.121447794
167	0xbe70f5da	-0.23531285
168	0xbd0cadb9	-0.034345362
169	0xbde64a3d	-0.112446286
170	0xbdbb8c5a	-0.09157629
171	0x3da0fcc6	0.07860713
172	0xbe1e1d1b	-0.1544079
173	0x3e77c6d1	0.24196936
174	0xbf156f54	-0.58373
175	0xbe851e2c	-0.25999582
176	0xbea3cf38	-0.31994033
177	0xbe9622aa	-0.29323322
178	0xbe6fdb2e	-0.23423454
179	0xbcb79f66	-0.022414874
180	0xbe8f6560	-0.2800703
181	0xbea9f6ae	-0.33196014
182	0xbe19d789	-0.15023626
183	0x3e829597	0.25504753
184	0xbe7064fd	-0.23476024
185	0x3e5d4eed	0.21612139
186	0xbe409eb9	-0.18810548
187	0xbe8caf8e	-0.27477688
188	0xbe159bc9	-0.14610209
189	0x3c0f1bc2	0.008734645
190	0x3ecdab5f	0.40169808
191	0x3dabfd7c	0.08397958
192	0x3e839265	0.25697628
193	0x3ef78cf5	0.4834973
194	0x3e5778b4	0.21042138
195	0xbe140398	-0.14454496
196	0x3db942b7	0.09045928
197	0xbe78dad8	-0.24302232
198	0xbd700016	-0.058593832
199	0x3e49858e	0.19679853
200	0x3e64317c	0.22284502
201	0x3da442e4	0.08020571
202	0x3e34fba7	0.17674123
203	0x3dc52275	0.09625713
204	0xbe2ec229	-0.17066254
205	0x3c45604e	0.012046887
206	0x3c1c59b8	0.009542875
207	0xbec26d2b	-0.37973914
208	0xbeaf6c22	-0.34262186
209	0xbe27050c	-0.16310519
210	0xbec1e3e2	-0.37869173
211	0xbe899d28	-0.26877713
212	0xbe70b970	-0.23508239
213	0x3e91f9b4	0.2851082
214	0x3cb54d71	0.022131654
215	0x3ea451e9	0.32093742
216	0xbe41323c	-0.18866819
217	0xbca3f9b7	-0.020016534
218	0xbdbe45ac	-0.092906326
219	0xbe0d8395	-0.13819726
220	0xbd3b3de9	-0.04571334
221	0xbde4f2eb	-0.111791454
222	0xbe0f0dea	-0.13970152
223	0x3e7938f3	0.2433813
224	0x3d236f77	0.039901223
225	0x3d0358ef	0.032067236
226	0xbeb66909	-0.3562701
227	0xbeafd19d	-0.3433961
228	0x3e87a0de	0.2648992
229	0xbc9f8c47	-0.01947607
230	0x3e037eca	0.12841335
231	0xbe6ea971	-0.23306824
232	0xbf35731f	-0.70878786
233	0xbf0bf644	-0.54672647
234	0x3e418a37	0.18900381
235	0x3df05000	0.11734009
236	0x3ea9c322	0.33156687
237	0xbe8a419a	-0.27003175
238	0xbeca72f8	-0.3954084
239	0xbcdffdfb	-0.027342787
240	0x3e825af3	0.25460014
241	0xbd9162b4	-0.07098904
242	0x3ea79325	0.3272945
243	0x3e3d41f6	0.18482193
244	0x3f01c682	0.50693524
245	0xbc380234	-0.011230994
246	0x3eff36cd	0.49846497
247	0x3f67ca88	0.90543413
248	0x3e8bba73	0.27290687
249	0xbc862ded	-0.016379321
250	0x3e9cabe7	0.305999
251	0x3e7d77ed	0.2475278
252	0xbce0d5a1	-0.027445616
253	0x3e39eadd	0.18156
254	0xbdd18413	-0.10230269
255	0x3e42f86e	0.19040081

down_blocks.1.conv_block.conv2.weight f4 [12, 12, 3, 3]
0	0x3e425439	0.18977441
1	0x3d5ba127	0.053620484
2	0xbe236f9a	-0.15960541
3	0x3dc51cf7	0.09624665
4	0x3e1b1733	0.15145569
5	0xbe2cfe3d	-0.16893859
6	0x3cac6a8f	0.021046905
7	0x3e2410b2	0.16021994
8	0xbe62ee48	-0.2216121
9	0x3de07ba8	0.109610856
10	0xbec582f9	-0.38576487
11	0x3dc95ad0	0.09831774
12	0xbf042faf	-0.5163526
13	0xbf9a91db	-1.2075762
14	0xbf1df702	-0.6170503
15	0xbdcfc446	-0.10144858
16	0xbf5d9492	-0.86554825
17	0xbe8a4d7d	-0.27012244
18	0xbdc05788	-0.09391695
19	0xbe1a8943	-0.15091424
20	0xbd9c41b2	-0.07629718
21	0x3caa3c46	0.020780694
22	0xbe125c70	-0.14293075
23	0xbdd7b736	-0.105329916
24	0x3da0279b	0.07820054
25	0xbe8244b7	-0.2544305
26	0xbe5e6bb9	-0.2172078
27	0x3c2d4215	0.010574837
28	0xbf1ce945	-0.6129344
29	0xbe8253a6	-0.25454444
30	0xbf084bbd	-0.5324057
31	0xbf80dc4d	-1.006723
32	0xbf1aa6df	-0.60410875
33	0x3bb356e7	0.005473006
34	0xbeabf268	-0.3358338
35	0xbc9e46b4	-0.019320823
36	0x3d72a645	0.0592406
37	0x3d66b26b	0.056322496
38	0xbd1e1e56	-0.03860315
39	0x3e9cf0e4	0.30652535
40	0x3e898aff	0.26863858
41	0x3e702aba	0.23453799
42	0xbdc06fd9	-0.09396333
43	0x3dab5b00	0.08366966
44	0xbd6f97ea	-0.058494486
45	0xbdae2376	-0.085028574
46	0xbe9f9710	-0.3116994
47	0xbdb82a50	-0.089924455
48	0xbe6cd052	-0.23126343
49	0x3d48cb93	0.04902227
50	0xbe691aaa	-0.22764078
51	0xbdb92332	-0.09039916
52	0x3cfc13b2	0.03077111
53	0xbd89efa8	-0.06735164
54	0x3dad7243	0.08469059
55	0x3df160c8	0.11786038
56	0x3e331078	0.17486751
57	0xbe176142	-0.14783195
58	0x3ccc22fc	0.024919026
59	0xbe08b3af	-0.13349794
60	0x3dcd38d5	0.100206055
61	0x3edff9cd	0.4374527
62	0x3e88a6bf	0.26689717
63	0xbe71553a	-0.23567668
64	0xbec28d8b	-0.37998614
65	0xbe5bf8d4	-0.21481639
66	0xbf01c77b	-0.5069501
67	0xbeb4a134	-0.35279238
68	0xbeb215d1	-0.3478227
69	0x3cbe10ce	0.023201372
70	0x3e2011a1	0.15631725
71	0x3df832ff	0.12119102
72	0x3d0bdbe7	0.034145262
73	0xbe0f707b	-0.14007752
74	0xbdc16842	-0.09443714
75	0xbd6edeb1	-0.058317844
76	0x3ea9068b	0.33012804
77	0x3dccfdf9	0.10009379
78	0xbe413fce	-0.18871996
79	0x3e847c2f	0.25875995
80	0xbdc8770a	-0.0978833
81	0x3e1a86c4	0.15090472
82	0x3e2a901a	0.16656533
83	0x3e1f1598	0.15535581
84	0xbe12f2e9	-0.14350475
85	0xbe6bb119	-0.23016776
86	0x3e174e68	0.14776003
87	0xbde0870b	-0.109632574
88	0xbc7801b3	-0.015137124
89	0x3e727695	0.23678048
90	0x3dc91ed6	0.098203346
91	0xbcb676ec	-0.022273503
92	0xbe4f19cd	-0.20224686
93	0x3c7c8050	0.015411451
94	0x3d4b096d	0.049569536
95	0xbda0ddee	-0.0785483
96	0xbe8f58ce	-0.2799744
97	0xbe077a6f	-0.13230298
98	0xbe5b2b79	-0.21403302
99	0xbd8ed996	-0.06975095
100	0x3e2330b8	0.15936553
101	0xbd85dcc6	-0.0653625
102	0xbdc4ff8f	-0.096190564
103	0xbe3eb21d	-0.18622632
104	0xbe77e139	-0.2420701
105	0xbe47305c	-0.19452041
106	0x3d396a36	0.045267306
107	0xbe8207ba	-0.2539652
108	0x3d4a2200	0.04934883
109	0x3d6a55f0	0.057210863
110	0xbdfcf666	-0.12351684
111	0xbd65182f	-0.055931266
112	0x3aa8db15	0.0012882674
113	0xbe0c64a3	-0.13710265
114	0xbdd15eb6	-0.10223143
115	0xbd4c5629	-0.049886856
116	0xbe075ce1	-0.13219024
117	0x3d8fd8c6	0.07023768
118	0x3e54614f	0.20740245
119	0x3e2d0b42	0.16898826
120	0x3d603fa7	0.054748204
121	0x3b850543	0.004059465
122	0x3dca1bcf	0.09868585
123	0x3e514c45	0.20439251
124	0x3dd4c1e0	0.10388541
125	0x3db6b75d	0.089216925
126	0xbc9ab36c	-0.018884383
127	0x3c8dcc48	0.017309323
128	0x3d822a61	0.063557394
129	0x3c967a65	0.01836891
130	0x3e1148f2	0.14187983
131	0x3e275124	0.16339546
132	0x3e0af8f2	0.13571528
133	0x3e6df43b	0.23237698
134	0x3e10bee7	0.14135323
135	0xbc34f731	-0.011045263
136	0x3e78d15e	0.24298617
137	0x3dca4c58	0.09877843
138	0xbc29bbaf	-0.010359689
139	0x3e027ad5	0.12742169
140	0x3e51ddc9	0.2049476
141	0x3ee7c231	0.45265344
142	0x3f04f4b6	0.519359
143	0x3f0c3a9f	0.5477695
144	0x3d938e5c	0.07204887
145	0x3e4a341b	0.19746439
146	0x3e64fe1f	0.22362565
147	0x3e5b3ac9	0.21409144
148	0x3f03c5dc	0.51473784
149	0x3ecf6a1b	0.4051064
150	0xbead7a2c	-0.33882272
151	0x3dc65e5e	0.09685968
152	0x3c902d8b	0.017599842
153	0x3ec3be7d	0.3823127
154	0x3ed3be66	0.413562
155	0x3ca3470c	0.019931339
156	0xbeb1e102	-0.3474198
157	0xbebd5aa8	-0.36983228
158	0xbed73224	-0.42030442
159	0xbe300134	-0.17187959
160	0xbea1a558	-0.3157146
161	0xbea9ca75	-0.33162275
162	0x3f051cdb	0.51997155
163	0x3f1c6284	0.6108782
164	0x3f1912e3	0.59794444
165	0x3d692865	0.05692329
166	0x3dde476e	0.10853468
167	0x3df45568	0.119303524
168	0x3d825be3	0.06365182
169	0x3e1460e5	0.14490087
170	0x3e12500b	0.14288346
171	0xbcca27c1	-0.02467716
172	0x3ca709d9	0.020390438
173	0xbdd4601a	-0.103698924
174	0xbe7f666a	-0.24941412
175	0xbe702c27	-0.23454343
176	0xbe7d7dfd	-0.24755092
177	0xbf056f1a	-0.5212265
178	0xbf0c946b	-0.5491397
179	0xbed1f867	-0.41009828
180	0x3e151682	0.14559367
181	0x3dce11c1	0.1006198
182	0x3d9a9c62	0.07549359
183	0xbca89a78	-0.020581469
184	0xbcd91473	-0.026499009
185	0xbc0eb14e	-0.008709265
186	0x3e137115	0.14398606
187	0x3e72e1f2	0.23719004
188	0x3da9f332	0.08298339
189	0x3ecb3ebb	0.39696297
190	0x3ed95d3e	0.4245395
191	0x3ef0abad	0.47005978
192	0x3d9f1565	0.077677526
193	0x3e8534f6	0.26016968
194	0x3ebaadac	0.36460626
195	0x3e992672	0.29912144
196	0x3ed3c3d8	0.41360354
197	0x3efcd743	0.49382982
198	0xbe761db9	-0.24034776
199	0xbde6fb82	-0.1127844
200	0xbd044940	-0.03229642
201	0x3ecfb3c6	0.40566844
202	0x3eec6629	0.46171692
203	0x3f03abb7	0.5143389
204	0x3f2dc9ac	0.6788585
205	0x3f6efcad	0.933543
206	0x3f3f1a4a	0.7464949
207	0x3ee0ed63	0.43931112
208	0x3ea86f2a	0.3289731
209	0x3d7598f9	0.05996034
210	0x3e8b6d25	0.27231708
211	0x3e9452de	0.28969473
212	0xbdbf26ee	-0.09333597
213	0x3e924ba8	0.28573346
214	0x3e7976e7	0.24361764
215	0x3e180194	0.14844352
216	0x3ec103ed	0.37698308
217	0x3e4fa742	0.20278648
218	0x3da41de1	0.080135114
219	0x3e8ac673	0.2710453
220	0x3ddcbbc3	0.10778
221	0x3ca8a06f	0.020584313
222	0x3e87f3e6	0.26553267
223	0x3c836e83	0.016043907
224	0xbd666bdf	-0.056255218
225	0xbeb57a12	-0.35444695
226	0xbee3bab6	-0.44478387
227	0x3e10b7e1	0.14132644
228	0xbf24cb03	-0.6437227
229	0xbf8539ee	-1.0408304
230	0xbe382b3f	-0.17985247
231	0xbf37d61c	-0.7181108
232	0xbf6e7a67	-0.9315552
233	0xbe4486fd	-0.19192119
234	0x3baa29d6	0.0051929755
235	0xbda3a069	-0.0798958
236	0xbe0ecc65	-0.13945158
237	0xbc32c066	-0.010910129
238	0xbe54c711	-0.20779063
239	0xbe2b0431	-0.16700818
240	0xbdafe2ef	-0.08588206
241	0xbe6837ff	-0.22677611
242	0xbe2b25e7	-0.16713677
243	0xbcf5b199	-0.029991912
244	0xbe33ccc8	-0.17558587
245	0x3aad2d00	0.0013212264
246	0xbe901669	-0.28142098
247	0xbeee17d8	-0.46502566
248	0xbe690b6a	-0.2275826
249	0xbd7ae74a	-0.06125573
250	0xbd25d02f	-0.040481742
251	0xbc964fd2	-0.018348608
252	0x3cebaffa	0.028770436
253	0x3bd8ce9d	0.006616427
254	0x3c97c64b	0.01852717
255	0x3dcbd65b	0.099529944

up_blocks.0.transpose_conv.weight f4 [12, 6, 2, 2]
0	0xbe1eaec9	-0.15496363
1	0xbede8c3a	-0.4346636
2	0xbe01d236	-0.12677845
3	0x3e3f7165	0.186956
4	0xbe6d5d31	-0.23180081
5	0xbf121ae7	-0.570723
6	0xbebea055	-0.372317
7	0xbeb33043	-0.34997758
8	0xbd2719e2	-0.04079617
9	0xbe87b727	-0.26506922
10	0xbe903584	-0.2816583
11	0xbe98cbeb	-0.29843077
12	0xbe9f835a	-0.311549
13	0xbcde78eb	-0.027157268
14	0xbe4c7ea0	-0.19970179
15	0xbdaef34c	-0.08542499
16	0xbdd9cfb2	-0.10635318
17	0x3db98d24	0.090601236
18	0xbd5f3f0f	-0.054503497
19	0xbd6a1467	-0.057148363
20	0xbec0ba71	-0.37642244
21	0xbd52c3aa	-0.05145613
22	0x3b1cd3be	0.002392992
23	0x3e96bbb0	0.2944007
24	0xbed0d81c	-0.40789878
25	0xbf46fc2c	-0.77728534
26	0x3eb35366	0.35024565
27	0x3ee12624	0.4397441
28	0xbe962da8	-0.29331708
29	0x3c5f6298	0.013634346
30	0x3e9c23d4	0.30496085
31	0x3ebb04e4	0.3652717
32	0xbdb25028	-0.08706695
33	0xbedd1275	-0.43178144
34	0xbb8f2b86	-0.004369202
35	0xbe981909	-0.297066
36	0xbeda120e	-0.425919
37	0xbce88a53	-0.02838627
38	0xbeaca0a1	-0.337163
39	0xbce429cb	-0.02785196
40	0xbeb13b01	-0.3461533
41	0xbda1cde8	-0.079006016
42	0xbd580cc0	-0.052746534
43	0xbeb49bba	-0.3527506
44	0xbe09d55e	-0.134603
45	0xbed3ba2b	-0.41352972
46	0x3ec20dd6	0.3790118
47	0x3d9a10bf	0.07522725
48	0xbe9fdb52	-0.31222016
49	0x3cfd9ded	0.030959094
50	0x3df6f223	0.12057903
51	0xbe1d1abe	-0.15342233
52	0xbb79f29e	-0.0038138996
53	0x3dcee17f	0.10101604
54	0xbe1a0289	-0.1504003
55	0xbcc80924	-0.024418421
56	0x3ddd70b1	0.1081251
57	0xbe3a7c0d	-0.18211384
58	0x3d735e24	0.05941595
59	0xbd38bd46	-0.04510238
60	0x3c219ffa	0.009864802
61	0xbe2b8a5a	-0.16751996
62	0x3d27836e	0.040896825
63	0xbe06ed72	-0.13176516
64	0xbe8cfb9a	-0.27535707
65	0x3e369f88	0.17834294
66	0xbe6a8f10	-0.22906137
67	0x3e92cbf6	0.28671235
68	0xbe778235	-0.24170764
69	0x3d695158	0.05696234
70	0xbe3b6604	-0.18300635
71	0x3e722995	0.23648675
72	0xbd41171e	-0.047141187
73	0x3e2d52cd	0.16926117
74	0xbdbd7d53	-0.09252419
75	0xbf1b6ae8	-0.6071
76	0x3dedf7e8	0.1161955
77	0xbe07e65d	-0.1327147
78	0xbda84340	-0.08215952
79	0xbd564c97	-0.052319136
80	0xbe107b31	-0.14109494
81	0xbeea4db8	-0.4576242
82	0xbddc8c57	-0.10768955
83	0xbde7ce73	-0.11318674
84	0x3e379445	0.17927654
85	0x3e4f3b3d	0.20237441
86	0xbe525f4b	-0.20544164
87	0xbe8ccd04	-0.27500165
88	0xbe3939cb	-0.18088453
89	0x3f10262d	0.5630825
90	0xbe6b802a	-0.2299811
91	0x3de5e8a2	0.11226012
92	0xbf01bf1e	-0.50682247
93	0xbd97c9f5	-0.07411567
94	0xbe515884	-0.20443922
95	0x3e24248d	0.16029568
96	0x3ec710cb	0.3888
97	0x3f168e23	0.58810633
98	0xbe686e58	-0.22698343
99	0xbd00a3e1	-0.031406287
100	0x3e9746d7	0.29546234
101	0x3d2fa842	0.042885073
102	0xbedca3a7	-0.43093607
103	0xbee4c6e5	-0.44682994
104	0x3f30c777	0.6905436
105	0x3f606d32	0.8766662
106	0xbeb21890	-0.34784365
107	0xbe3049a5	-0.17215593
108	0xbd4464c7	-0.04794767
109	0x3e9bd98e	0.3043942
110	0x3ed29ecd	0.4113678
111	0x3a9d5c24	0.001200561
112	0x3ed75c8a	0.4206279
113	0x3e811da5	0.2521793
114	0x3efd292f	0.49445483
115	0x3ed2e043	0.41186723
116	0xbe8ef262	-0.27919298
117	0xbe5d0769	-0.21584858
118	0xbe94a398	-0.29031062
119	0xbf027104	-0.509537
120	0xbeb2b8af	-0.34906527
121	0x3dbacb6c	0.09120831
122	0x3d87815a	0.06616469
123	0x3d721c78	0.05910918
124	0xbe332615	-0.17494996
125	0xbe8ee18b	-0.2790645
126	0xbd0fb282	-0.035082348
127	0xbe337a75	-0.17527182
128	0x3dccb9b4	0.099963576
129	0x3c995969	0.018719392
130	0xbde71940	-0.11284113
131	0x3e823eea	0.25438625
132	0x3e2bdc30	0.16783214
133	0xbd42c9d1	-0.04755575
134	0xbea19507	-0.3155901
135	0xbf01052a	-0.50398505
136	0xbe531bdc	-0.20616096
137	0x3ef4cab1	0.4781089
138	0x3d80c0a3	0.062867425
139	0x3ea48c21	0.3213816
140	0xbe819cce	-0.25314945
141	0x3d91d865	0.07121352
142	0xbc86d3f5	-0.01645849
143	0x3ea4204b	0.32055888
144	0xbe6650a1	-0.22491695
145	0xbd0d1256	-0.034441315
146	0x3e611702	0.21981433
147	0x3e151cf1	0.14561822
148	0xbdc5bc9b	-0.09655114
149	0xbe1ce20c	-0.15320605
150	0x3e54c99f	0.20780037
151	0xbe343932	-0.17599943
152	0xbe4ea51f	-0.20180176
153	0xbea385e7	-0.31938097
154	0xbdd5716e	-0.104220256
155	0xbd4c1f10	-0.04983431
156	0xbdd79c07	-0.10527807
157	0xbea2aba8	-0.31771588
158	0x3d6e4157	0.05816778
159	0xbe9988f4	-0.299873
160	0x3df26c71	0.1183709
161	0x3e249373	0.16071872
162	0xbd95a833	-0.07307472
163	0x3ddc65f0	0.107616305
164	0xbdd4f2c4	-0.10397866
165	0x3eb39cdd	0.35080615
166	0x3e2ff435	0.17183001
167	0x3d550990	0.052011073
168	0xbd35ae4a	-0.044355668
169	0xbe0a1ca6	-0.13487491
170	0x3e69680d	0.22793598
171	0x3e144640	0.14479923
172	0xbd9851f0	-0.07437503
173	0xbb76eb2b	-0.0037676792
174	0xbc175320	-0.009236127
175	0x3e1df098	0.1542381
176	0x3eddd3ec	0.43325746
177	0x3e84def8	0.25951362
178	0xbe5332fe	-0.2062492
179	0x3dc90651	0.09815658
180	0x3d51acc5	0.051190156
181	0x3d146b40	0.036235094
182	0xbbc69c4c	-0.0060611125
183	0xbe4a6795	-0.19766076
184	0x3de74124	0.112917215
185	0xbdbbf8c5	-0.091783084
186	0xbd1fb62b	-0.03899209
187	0xbe741dfc	-0.23839563
188	0xbeab16e9	-0.33415917
189	0xbe821e71	-0.2541385
190	0xbeac6ca8	-0.33676648
191	0x3c536fe8	0.0129050985
192	0xbec9f993	-0.39448223
193	0xbf138e50	-0.57639027
194	0xbe85726c	-0.2606386
195	0x3e140906	0.14456567
196	0x3dbeee0c	0.093227476
197	0x3e0f1829	0.1397406
198	0xbdee9cf2	-0.11651029
199	0xbdea242e	-0.11432682
200	0xbd9592ad	-0.07303367
201	0xbdb9673c	-0.090528935
202	0x3eed8c30	0.46396017
203	0x3ec0f0eb	0.37683806
204	0xbe0d46a2	-0.13796476
205	0xbe71e283	-0.23621564
206	0x3d054521	0.03253663
207	0xbdf44add	-0.119283415
208	0xbd88c7fc	-0.06678769
209	0x3db6db2f	0.08928525
210	0x3ee28adb	0.44246563
211	0x3ea16451	0.31521848
212	0x3b809511	0.00392402
213	0x3da49350	0.0803591
214	0xbde05ac6	-0.10954814
215	0xbed1b7f7	-0.40960667
216	0x3e2f6cdc	0.1713137
217	0x3ec4e252	0.3845392
218	0x3ead3a31	0.3383346
219	0x3c19f20a	0.0093960855
220	0xbe413dcd	-0.18871231
221	0x3ec1c11b	0.3784264
222	0xbe60173d	-0.21883865
223	0x3e1147ae	0.141875
224	0xbe60429a	-0.21900406
225	0xbdffe3ce	-0.12494622
226	0xbe3d2694	-0.18471748
227	0xbeb61025	-0.35559192
228	0xbd082617	-0.03323945
229	0xbf3bd6de	-0.73374736
230	0x3d0c02d0	0.03418237
231	0xbf1c2f0b	-0.6100928
232	0x3d5f797b	0.054559212
233	0x3ee2a580	0.4426689
234	0xbcaf27e1	-0.02138132
235	0x3f0fdf3b	0.562
236	0xbe8b0400	-0.2715149
237	0xbe44567b	-0.19173615
238	0xbe96b689	-0.29436138
239	0xbda42ce6	-0.08016376
240	0xbee05b6b	-0.43819746
241	0xbe17a88c	-0.1481039
242	0xbca13248	-0.019677296
243	0x3d497e79	0.04919288
244	0xbe52bf22	-0.20580724
245	0xbe9fe5fd	-0.31230155
246	0xbbf3eadb	-0.0074437684
247	0x3e1a7fa2	0.1508775
248	0x3c8232c2	0.015893344
249	0x3d30d830	0.043174922
250	0xbe7b148d	-0.24519558
251	0x3ddb21e0	0.106998205
252	0x3e0d280e	0.13784811
253	0xbee0905c	-0.43860137
254	0xbdaf3d1c	-0.085565776
255	0xbf04784d	-0.51746064

up_blocks.0.transpose_conv.bias f4 [6]
0	0x3e82742b	0.25479254
1	0x3d95f89c	0.07322809
2	0xbda6138c	-0.08109197
3	0xbec04fef	-0.37560984
4	0x3d97eda0	0.0741837
5	0x3ea4f5fb	0.32218918

up_blocks.0.conv_block.conv1.weight f4 [6, 12, 3, 3]
0	0xbcfa6bfe	-0.030569073
1	0xbdf15e8e	-0.11785613
2	0x3e6d1257	0.23151527
3	0x3dc95c79	0.09832091
4	0x3d892c9b	0.06697961
5	0x3db7942e	0.0896381
6	0xbf0441a5	-0.51662666
7	0xbe95acff	-0.29233548
8	0xbf0dd02f	-0.5539579
9	0xbe69f9d0	-0.22849202
10	0x3d91efcf	0.07125818
11	0x3dd0735e	0.101782545
12	0xbe9e3144	-0.30896962
13	0x3d4facc4	0.05070187
14	0xbd7b0dcc	-0.061292455
15	0xbdb16a4b	-0.08662852
16	0xbe36a17f	-0.17835043
17	0x3c141c57	0.00903996
18	0xbf0c45d4	-0.5479405
19	0x3ea7fec6	0.32811564
20	0xbde381c7	-0.111087374
21	0xbc9b820c	-0.01898291
22	0x3eefce56	0.4683711
23	0x3ef05392	0.4693876
24	0xbe88807b	-0.26660523
25	0xbf095801	-0.5364991
26	0xbddc4f13	-0.1075727
27	0x3e2823df	0.16419934
28	0x3ed88044	0.4228536
29	0x3eb3ade6	0.3509361
30	0xbdd8e9ac	-0.105914444
31	0x3ed333fc	0.41250598
32	0x3de27046	0.11056571
33	0xbe4999d6	-0.1968759
34	0xbcbf5b53	-0.023358976
35	0xbc5e39d4	-0.013563592
36	0x3ee4391b	0.44574818
37	0xbd4f4fe4	-0.0506133
38	0x3e8ee1ef	0.2790675
39	0x3e6f6363	0.23377757
40	0xbedf6bba	-0.43636876
41	0x3d2ed26b	0.04268114
42	0x3d53e758	0.0517343
43	0xbe8f36d6	-0.27971524
44	0x3dfac010	0.12243664
45	0xba789df7	-0.0009483988
46	0xbe5f5b3c	-0.21812147
47	0xbe67bed2	-0.22631386
48	0x3f17a0f1	0.5922995
49	0xbda32567	-0.07966118
50	0x3e6745c5	0.22585209
51	0x3ec37d8f	0.3818173
52	0x3d5fea34	0.054666713
53	0x3e361195	0.17780145
54	0xbeca7d5f	-0.39548776
55	0x3f033961	0.5125943
56	0x3e7eaa4a	0.24869648
57	0xbeb29d92	-0.34885842
58	0xbdabaf26	-0.08383016
59	0x3d5542a2	0.0520655
60	0xbf371d2b	-0.7152888
61	0x3d2a01dc	0.04150568
62	0xbe3c5c70	-0.18394637
63	0xbf0d154c	-0.5511062
64	0x3dfcdb64	0.12346533
65	0xbeb614c7	-0.35562727
66	0xbe534635	-0.2063225
67	0x3e14d789	0.14535345
68	0xbca3f473	-0.020014023
69	0xbe870925	-0.26374164
70	0x3e12d00b	0.14337175
71	0xbe3b1009	-0.18267836
72	0x3e5c022c	0.21485204
73	0x3f35a9a0	0.7096195
74	0x3f426cef	0.7594747
75	0x3dcdd308	0.10050017
76	0x3e416777	0.18887125
77	0x3f1ba7b7	0.6080279
78	0xbe66cd7a	-0.2253932
79	0x3edb2e82	0.4280892
80	0x3e62aec1	0.22136976
81	0xbf17c5cd	-0.59286195
82	0x3ce5bdb5	0.02804456
83	0x3ccf33d4	0.025293268
84	0xbcaf984e	-0.02143493
85	0x3e69d7b4	0.2283619
86	0x3eeb7e30	0.4599471
87	0xbe9a10e8	-0.30091023
88	0x3e154c15	0.14579804
89	0xbc838620	-0.016055167
90	0x3e855cd9	0.260474
91	0x3da84a06	0.08217244
92	0x3ebdfba1	0.3710604
93	0x3e7c420e	0.24634573
94	0xbe1f1c70	-0.15538192
95	0x3dfd73ec	0.12375626
96	0xbd932b67	-0.07186013
97	0xbed2205e	-0.4104032
98	0xbde66fb1	-0.11251772
99	0xbd9b6010	-0.07586682
100	0x3eb83b12	0.35982567
101	0xbd8cb6c9	-0.06870801
102	0x3eaa80b8	0.3330133
103	0x3e9a74c4	0.3016721
104	0x3ea00021	0.31250098
105	0x3d834cb2	0.06411113
106	0x3eedc7b0	0.46441412
107	0x3e8f8b8e	0.2803616
108	0x3e496f42	0.19671348
109	0x3ea547c4	0.32281315
110	0x3e75c9be	0.2400274
111	0xbe8357df	-0.25652978
112	0xbe0be18d	-0.1366026
113	0xbdbd901e	-0.09256004
114	0xbdd980c5	-0.10620264
115	0xbd5d4c15	-0.054027636
116	0xbda01503	-0.07816508
117	0xbddf1b7b	-0.10893913
118	0x3d03d293	0.03218324
119	0xbbca8280	-0.0061801076
120	0x3d1fda35	0.039026458
121	0x3e455317	0.19269978
122	0xbd2d46d0	-0.04230386
123	0xbe2ceb45	-0.16886623
124	0x3e87e420	0.26541233
125	0x3d991457	0.07474583
126	0xbd28957d	-0.041158188
127	0xbcd0ebe1	-0.0255031
128	0xbd2c083f	-0.04200005
129	0x3df11e49	0.117733546
130	0xbde13abd	-0.109975316
131	0x3bf8bced	0.007590881
132	0xbde2eb4d	-0.11080036
133	0xbebace7f	-0.3648567
134	0xbe0029fc	-0.12516016
135	0x3de29d39	0.11065144
136	0xbd59852b	-0.053105514
137	0x3d688df7	0.056776013
138	0xbd05e4ff	-0.03268909
139	0x3c330800	0.0109272
140	0x3d22a720	0.039710164
141	0xbd147d37	-0.036252227
142	0xbe256aa1	-0.16153957
143	0xbd19372f	-0.037406143
144	0xbd2563aa	-0.04037825
145	0xbef22ba7	-0.4729893
146	0xbe81be80	-0.25340652
147	0x3c289161	0.010288567
148	0xbed27988	-0.41108346
149	0xbd9ae91b	-0.075639926
150	0x3d536156	0.0516065
151	0xbe9ffb11	-0.31246236
152	0xbd10fd1e	-0.03539764
153	0xbe3ca66e	-0.18422863
154	0xbcda8d96	-0.026678842
155	0x3df894b4	0.12137738
156	0x3cca68b0	0.024708122
157	0xbea49302	-0.32143408
158	0xbdc32b05	-0.0952969
159	0xbe04f5ab	-0.1298434
160	0xbd0d56de	-0.03450667
161	0xbd68bbca	-0.056819715
162	0xbd799343	-0.060931455
163	0xbee9c933	-0.45661315
164	0xbdb45583	-0.088053726
165	0x3f109084	0.56470513
166	0xbd91c9a8	-0.07118541
167	0x3f02fbbe	0.5116538
168	0x3e29276c	0.16518945
169	0x3deeba89	0.116566725
170	0x3e878375	0.2646748
171	0x3f0af86e	0.54285324
172	0x3f067c0b	0.52533025
173	0x3f26dab1	0.65177447
174	0x3ece91e0	0.4034567
175	0x3d4bd98e	0.049768023
176	0x3e99f3e4	0.30068886
177	0xbeb77c48	-0.35837007
178	0xbf3a6874	-0.7281563
179	0xbedcf80f	-0.43158004
180	0x3e0a3716	0.13497576
181	0xbcc48f79	-0.023994194
182	0x3e3da276	0.18519005
183	0x3c9f6454	0.01945702
184	0xbf47f1e8	-0.78103495
185	0xbe27d4b7	-0.16389738
186	0xbe1a61a0	-0.15076303
187	0xbed2e037	-0.41186687
188	0xbe801a5c	-0.2502011
189	0x3eab408e	0.3344769
190	0x3d4d2848	0.050087243
191	0x3eb6daaf	0.35713717
192	0xbe29a265	-0.16565855
193	0xbf244531	-0.6416808
194	0xbdfa3fc0	-0.122191906
195	0xbe8476d3	-0.25871906
196	0xbe7669b8	-0.24063766
197	0xbdd139da	-0.102161124
198	0xbe66664b	-0.22499959
199	0xbee89604	-0.45426953
200	0xbed5830a	-0.41701537
201	0xbee26003	-0.44213876
202	0xbe9b00ac	-0.3027395
203	0xbedbf181	-0.4295769
204	0xbf79ebc2	-0.9762536
205	0xbf838834	-1.0275941
206	0xbf2c0531	-0.6719542
207	0xbe2ae40e	-0.16688558
208	0xbea9af34	-0.33141482
209	0x3d44228d	0.047884513
210	0x3e5c79e6	0.21530876
211	0xbeb02521	-0.34403327
212	0x3d8d5b13	0.06902137
213	0xbd1583a9	-0.036502514
214	0xbee2b060	-0.44275188
215	0xbdcf451a	-0.10120602
216	0x3e063f38	0.13110054
217	0x3db874ea	0.090066746
218	0x3ca2e7de	0.019885954
219	0x3d2a6544	0.04160048
220	0x3f06b51c	0.526201
221	0x3d7355e2	0.059408076
222	0x3e023ec3	0.12719254
223	0x3e2e1a24	0.1700216
224	0xbdb3f5c0	-0.087871075
225	0x3e59521e	0.21222731
226	0x3e969a79	0.29414728
227	0x3dc7b759	0.09751768
228	0xbd6dce3a	-0.058058
229	0x3e88d15f	0.26722237
230	0xbe2f0b78	-0.17094219
231	0x3d72ac40	0.0592463
232	0x3e95968f	0.2921643
233	0x3cb0d7a5	0.021587202
234	0x3e6f0b1d	0.23344083
235	0x3d01c666	0.031683348
236	0xbc7c1b11	-0.0153873125
237	0xbdb74b1b	-0.08949872
238	0x3ea4c7b9	0.32183626
239	0xbeb6b0d9	-0.356818
240	0x3de975cf	0.11399423
241	0xbe3bd1a8	-0.18341696
242	0xbd55d9ef	-0.05220979
243	0x3c29de26	0.010367906
244	0x3e36c070	0.17846847
245	0x3e275df6	0.16344437
246	0x3de170cc	0.110078424
247	0x3ce42a78	0.027852282
248	0x3e0adab0	0.13559985
249	0x3e652775	0.22378333
250	0x3d90478b	0.07044896
251	0x3e618069	0.22021641
252	0x3c578fb6	0.013156822
253	0xbd8de576	-0.06928532
254	0xbe3ec6c4	-0.1863051
255	0xbd4297d8	-0.04750809

up_blocks.0.conv_block.conv2.weight f4 [6, 6, 3, 3]
0	0x3d924fc3	0.071441196
1	0xbd6982a8	-0.05700937
2	0x3ec7c2e0	0.39015865
3	0x3e10c25e	0.14136645
4	0xbeaf8e63	-0.3428832
5	0x3da5418d	0.080691434
6	0xbd7944c9	-0.060856614
7	0xbf552ada	-0.8326851
8	0x3dce57e9	0.10075361
9	0xbdf3e80a	-0.11909492
10	0xbe3bbe72	-0.18334368
11	0xbd4b34ef	-0.04961103
12	0x3ea15a0e	0.3151402
13	0x3eb7d59a	0.35905153
14	0x3e9b94cd	0.30386963
15	0xbe78f6e3	-0.2431293
16	0xbe120a7b	-0.1426181
17	0xbe886ca3	-0.26645383
18	0xbe2b5376	-0.16731057
19	0x3e071b89	0.13194098
20	0xbda325df	-0.07966208
21	0x3d14a83c	0.036293253
22	0xbd8b4ae1	-0.068013914
23	0x3e2781e6	0.16358146
24	0xbde0c684	-0.10975364
25	0x3deabe92	0.1146213
26	0x3ccb00e1	0.024780693
27	0xbdc51f5e	-0.096251234
28	0xbe4f8a9d	-0.2026772
29	0x3d5b55c7	0.0535486
30	0x3ecb3b95	0.39693895
31	0x3ed46777	0.41485187
32	0x3ebf9d54	0.3742472
33	0x3dcb7eef	0.0993632
34	0x3e1db4d6	0.15401015
35	0x3da8a8d5	0.08235327
36	0xbd812f0e	-0.06307803
37	0x3dc05494	0.09391132
38	0xbdf3069f	-0.11866497
39	0xbd68c5fc	-0.056829438
40	0xbd2c686b	-0.04209177
41	0xbe0a4118	-0.13501394
42	0xbdd5b887	-0.104355864
43	0x3e6bd326	0.23029765
44	0xbdce3a15	-0.10069672
45	0xbe1d8262	-0.15381768
46	0xbcec0820	-0.028812468
47	0xbe928948	-0.28620362
48	0x3e8bdda2	0.2731753
49	0x3f17d615	0.5931104
50	0x3dd0acfa	0.10189243
51	0xbd756816	-0.059913717
52	0x3de3407d	0.110962845
53	0xbdc8faf2	-0.09813489
54	0xbeeec7cc	-0.46636808
55	0xbf2c0f1d	-0.6721056
56	0xbf01abf3	-0.50653
57	0xbeafe71d	-0.34356013
58	0xbdc2f24b	-0.0951887
59	0xbdab3e5e	-0.08361505
60	0x3e1bd2ec	0.15217179
61	0x3ce0848d	0.027406955
62	0xbe79ee91	-0.24407412
63	0x3e771429	0.24128784
64	0x3e4ae155	0.1981252
65	0x3dbd16b6	0.092328474
66	0x3e820a31	0.253984
67	0x3dcd9d2b	0.10039743
68	0x3d9ef556	0.07761638
69	0x3dff3769	0.124617405
70	0x3eaa254f	0.3323159
71	0x3e5e835c	0.21729797
72	0xbe02d546	-0.1277667
73	0xbe102490	-0.14076447
74	0xbbc3ba78	-0.0059731565
75	0x3d913ae2	0.07091309
76	0x3e388fce	0.18023607
77	0x3e05947f	0.13044928
78	0xbcfa377d	-0.030544037
79	0xbe37f831	-0.17965771
80	0x3d48b5c2	0.049001463
81	0x3e3ebb03	0.18626027
82	0x3e17ed15	0.14836533
83	0xbdb52ebf	-0.08846807
84	0xbd9b65cc	-0.075877756
85	0xbe952b2e	-0.29134506
86	0xbe2604a3	-0.16212706
87	0xbe009cf5	-0.12559874
88	0xbee4f8f9	-0.447212
89	0xbeac4baa	-0.33651477
90	0xbe114b13	-0.14188795
91	0x3d8b8012	0.06811537
92	0x3cfd0b5a	0.030889202
93	0xbeb0f5a6	-0.34562415
94	0xbda99b51	-0.082815774
95	0xbe905b2c	-0.2819456
96	0xb905682c	-0.00012722675
97	0x3e7760b4	0.24157983
98	0x3e99a1ba	0.300062
99	0x3ea78438	0.32718062
100	0x3ebe724b	0.37196574
101	0x3e91df90	0.28490877
102	0x3d6f7d63	0.058469187
103	0x3e57bfda	0.2106928
104	0x3caf50fe	0.021400925
105	0x3e063472	0.13105944
106	0x3e82f4a7	0.2557728
107	0x3c397acf	0.011320784
108	0x3d944bb8	0.07241005
109	0x3e26afc9	0.16277994
110	0xbe8efe4d	-0.2792839
111	0x3e5c734f	0.21528362
112	0xbdbeea4c	-0.09322032
113	0xbed7e45c	-0.42166412
114	0x3db053f0	0.0860976
115	0xbdb839fa	-0.08995433
116	0xbe9c7db1	-0.30564645
117	0x3df55d8c	0.11980733
118	0x3dcaf944	0.09910825
119	0xbe212722	-0.15737584
120	0xbe188229	-0.14893402
121	0xbe931e28	-0.28733945
122	0x3db7fa55	0.08983294
123	0xbdb4a1fa	-0.08819957
124	0xbe1d1ee6	-0.15343818
125	0x3c8a654c	0.016894005
126	0xbc943ecb	-0.018096348
127	0x3f183097	0.5944914
128	0x3e59e5d2	0.21279076
129	0x3de95042	0.11392261
130	0x3fa3b6b4	1.2790132
131	0x3eea9d1f	0.45823
132	0x3e5c0680	0.21486855
133	0x3edc73c8	0.43057084
134	0x3eb91fb2	0.36156994
135	0xbd3788e0	-0.04480827
136	0x3e333142	0.17499259
137	0xbc1d9970	-0.009619102
138	0xbe2dd87a	-0.1697711
139	0x3ca33510	0.019922763
140	0xbcfb6d57	-0.030691786
141	0x3d8d33f4	0.06894675
142	0x3d6f37ce	0.05840283
143	0x3da782e4	0.08179262
144	0xbda9d0f1	-0.082918055
145	0xbe42ad1a	-0.19011346
146	0xbbf57176	-0.0074903322
147	0xbeb04075	-0.34424177
148	0xbd10f650	-0.035391152
149	0xbeb0856d	-0.34476796
150	0xbdd29de3	-0.10284021
151	0xbe5a6fad	-0.21331663
152	0xbe58df1c	-0.2117886
153	0x3af84c04	0.0018943553
154	0x3ec72c49	0.38900974
155	0x3ea8f005	0.3299562
156	0x3e3771d4	0.17914516
157	0xbe6d307a	-0.23163024
158	0x3e523c18	0.20530736
159	0xbea6e24b	-0.32594523
160	0xbf042112	-0.5161296
161	0xbde734d3	-0.11289372
162	0xbdd60b03	-0.10451319
163	0x3e247b45	0.16062649
164	0x3dbecc93	0.09316363
165	0xbe49120b	-0.19635789
166	0x3da14b42	0.078756824
167	0xbe0ec9b3	-0.1394413
168	0xbe3e95ae	-0.18611786
169	0x3c80086c	0.015629016
170	0xbe27c7e7	-0.1638485
171	0xbe5325a6	-0.2061983
172	0x3dd1d459	0.1024558
173	0xbe2f7be1	-0.171371
174	0xbe6ad94f	-0.22934459
175	0xbea122e0	-0.3147192
176	0xbeb2a6af	-0.34892794
177	0x3c3abc85	0.011397486
178	0xbd8cea8a	-0.06880672
179	0xbd7cd069	-0.061722193
180	0x3ed8477e	0.42242044
181	0x3ec8ebb8	0.3924234
182	0x3e8e4120	0.2778406
183	0x3e1fea9b	0.15616839
184	0x3e808939	0.25104693
185	0x3ddbb08a	0.107270315
186	0x3e358e3d	0.17730041
187	0x3ea990bb	0.33118233
188	0x3e8fbef2	0.28075367
189	0xbf1950f6	-0.5988916
190	0x3ea5c5c1	0.32377437
191	0xbefe5464	-0.4967376
192	0xbf02dd94	-0.5111935
193	0xbcc003da	-0.023439337
194	0xbebeada1	-0.37241843
195	0xbf0b8f8a	-0.545159
196	0x3dcf0a48	0.10109383
197	0xbee8aad2	-0.45442826
198	0x3f15b58a	0.5848013
199	0x3edf259a	0.43583375
200	0x3e934f9d	0.28771678
201	0x3f136ce3	0.5758802
202	0x3e0e0b7a	0.13871565
203	0x3e9f4986	0.3111078
204	0x3e0a5032	0.13507155
205	0x3e2b7577	0.16744028
206	0xbe730ff0	-0.23736548
207	0xbd56f4f9	-0.052479718
208	0xbed21906	-0.41034716
209	0x3e254f16	0.1614345
210	0xbeb31c55	-0.34982553
211	0xbf2084e1	-0.6270276
212	0xbde94c26	-0.11391477
213	0xbe5da385	-0.21644409
214	0xbdc77979	-0.09739966
215	0x3dcca841	0.099930294
216	0x3e742573	0.2384241
217	0x3ddb0346	0.10693984
218	0x3dfe87b9	0.12428231
219	0xbee0ac76	-0.43881577
220	0x3e888c28	0.2666943
221	0xbee7ef70	-0.45299864
222	0xbf2f7980	-0.6854477
223	0xbb2c0bce	-0.0026252153
224	0xbeae3077	-0.3402135
225	0xbca0229b	-0.019547751
226	0x3cc8bea8	0.024504974
227	0x3e1c37de	0.15255687
228	0x3de6e8f4	0.11274901
229	0x3eccb46e	0.39981407
230	0x3ec60c81	0.38681415
231	0xbe72d3fd	-0.2371368
232	0xbe15c702	-0.14626697
233	0xbe09090c	-0.13382357
234	0x3e206e4a	0.15667072
235	0xbe73f81d	-0.23825116
236	0x3dff6890	0.124711156
237	0x3c34e209	0.011040219
238	0xbe8782b3	-0.26466903
239	0xbc06582c	-0.008199733
240	0x3e5cad9f	0.21550606
241	0xbe1a4a14	-0.15067321
242	0x3e59b23b	0.21259396
243	0xbe844ad2	-0.25838333
244	0x3cc2ec49	0.02379431
245	0xbe1afab5	-0.151347
246	0x3eef2307	0.4670641
247	0x3ea0950b	0.3136371
248	0x3efd9239	0.49525622
249	0x3d2cee23	0.042219292
250	0x3e151560	0.14558935
251	0x3de388d1	0.1111008
252	0xbde6d1c1	-0.11270476
253	0x3c34a295	0.011025091
254	0x3d51955f	0.051167842
255	0xbe50b2be	-0.20380685

up_blocks.0.attention_gate.gating_conv.weight f4 [6, 6, 1, 1]
0	0xbe2360a3	-0.15954833
1	0xbefca95b	-0.49347958
2	0xbe813402	-0.2523499
3	0xbf1388ca	-0.576306
4	0xbe9869db	-0.2976826
5	0x3ee28dfa	0.44248945
6	0xbe507321	-0.20356418
7	0x3da5bbc6	0.080924556
8	0xbe8f8c22	-0.280366
9	0xbf023781	-0.5086594
10	0xbe94472a	-0.28960544
11	0x3f2f6010	0.68505955
12	0x3e303e34	0.17211229
13	0xbe51309b	-0.20428698
14	0xbd2f6f01	-0.04283047
15	0xbcb96592	-0.02263144
16	0xbe82fc52	-0.2558313
17	0x3f65f1db	0.8982217
18	0x3f30e49f	0.6909885
19	0xbeaad2f5	-0.33364072
20	0xbd973e53	-0.07384934
21	0x3e82ae00	0.25523376
22	0xbcf2ae58	-0.02962415
23	0xbe9cc800	-0.30621338
24	0x3f2b2043	0.668461
25	0x3db7e3be	0.08978985
26	0x3d2fe899	0.04294643
27	0x3ea5b4f0	0.32364607
28	0xbe988ea9	-0.2979634
29	0xbf282367	-0.6567902
30	0xbe6a166d	-0.22860117
31	0x3ded1956	0.11577098
32	0xbc8e1d09	-0.01734783
33	0xbe35a2fd	-0.17737956
34	0x3f12daca	0.57365096
35	0xbf4941a1	-0.78615767

up_blocks.0.attention_gate.gating_conv.bias f4 [6]
0	0xbe90ff8a	-0.2831996
1	0xbe0128eb	-0.12613265
2	0x3e273d97	0.16332088
3	0x3d90eb14	0.070760876
4	0x3e9d09d9	0.30671576
5	0xbe36baa0	-0.1784463

up_blocks.0.attention_gate.input_conv.weight f4 [6, 6, 1, 1]
0	0xbe7bb66a	-0.24581304
1	0x3e239be8	0.15977442
2	0xbe536a00	-0.20645905
3	0x3f6ff7dd	0.93737584
4	0xbef6b986	-0.48188418
5	0xbdc2f69b	-0.095196925
6	0x3e8909fc	0.2676543
7	0x3e60973a	0.21932688
8	0xbea435de	-0.32072347
9	0x3e054537	0.13014685
10	0x3e80082a	0.2500623
11	0x3f614f31	0.8801146
12	0xbed82e12	-0.4222265
13	0x3ed7697b	0.42072663
14	0xbdd200c1	-0.1025405
15	0x3f6ae1e5	0.9175094
16	0x3e81a72f	0.25322863
17	0x3d8fb571	0.07017029
18	0x3e0b19eb	0.13584106
19	0x3f351b6a	0.70744956
20	0xbeaccd30	-0.33750296
21	0xbeef99ce	-0.4679703
22	0x3f0c68ce	0.5484742
23	0xbe67ec18	-0.22648656
24	0xbf24dd4c	-0.6440017
25	0xbecdd5b9	-0.4020212
26	0xbc5d399d	-0.013502506
27	0x3ef7254c	0.48270643
28	0xbe3aca4c	-0.18241233
29	0xbf16a1e4	-0.58840775
30	0x3f1ec812	0.62024033
31	0xbd101237	-0.03517362
32	0x3ded48f3	0.115861796
33	0x3ee3ccaf	0.444921
34	0xbce6a902	-0.028156761
35	0x3f3fb183	0.74880236

up_blocks.0.attention_gate.input_conv.bias f4 [6]
0	0x3e876357	0.26442978
1	0xbde964d2	-0.11396183
2	0xbe86f7e1	-0.26360992
3	0x3cb01997	0.021496577
4	0x3eac00c3	0.3359433
5	0x3e14c014	0.14526397

up_blocks.0.attention_gate.conv.weight f4 [1, 6, 1, 1]
0	0x3ed85c91	0.42258123
1	0x3e9ba333	0.3039795
2	0xbe22d8d8	-0.15903032
3	0x3f030971	0.5118628
4	0x3edde754	0.43340552
5	0x3eec68f3	0.4617382
