models/SkidFCN_25.pth (torch, 970594 bytes, 81 tensors)

encoder.0.weight f4 [32, 1, 3, 3]
00000000: 445b 06bd e061 bc3e 83d4 7b3e b737 a43e
00000010: bf56 bebd 9c18 bf3e 7c8e 9d3d 87f2 11be
00000020: 1855 813d 643c bf3c 7647 af3c 2351 0b3e
00000030: 1598 013e 2492 c63e ce00 02be 0bee 463e
00000040: c3e6 d73e f08c 523e d498 adbd f08d d73e
00000050: 9c8c 823e ca3c e0bc 7fef cf3e 65eb 413e
00000060: d59e d9bd a953 843e a4b2 de3c 2677 8dbe
00000070: f238 dc3d 26d3 c2be cdd9 f33d 532b 8cbe
00000080: 83ea d2be 795b 66bc 37bf 053e c928 82be
00000090: 6b5b 743e b9a2 86bd a357 563e 3e1a a93d
000000a0: 73b2 a73e 72f0 d53e bd94 363e e4e4 0d3e
000000b0: f469 5f3e 153d 9e3e 9142 163d 54a1 36bd
000000c0: 867a 6b3e 3089 fd3d ef95 a63e a7b9 ccbc
000000d0: 8339 ce3e 423f c3bd 58be 90bd 00d5 95be
000000e0: 8391 4fbd 76e5 97be 2a19 37be 7c80 8fbe
000000f0: d219 b33c 19b5 473d 77d2 3ebe 0832 8fbe
00000100: adf6 51bd f968 c1be 095e 06be d17d e13d
00000110: eb0a a03d 1359 9bba 5d25 4cbc d657 64be
00000120: 9993 c33e 290c 9b3e 3bd8 263e ad71 773d
00000130: 566b a13d a173 3dbe 2a1f 3abe 6000 a03e
00000140: 980e 123e 9a73 b2be 544a c7be ed76 0fbe
00000150: af23 9a3d bfb2 753d 0ff8 b0be 07a2 febe
00000160: f45c 34be 6369 193e cb4b 673d b330 08be
00000170: 198d 4e3e 5283 283e d34e 6a3e 81bd f13c
00000180: 63b2 a93e ae93 0ebe fbdc d33e 3970 8bbe
00000190: 4dec 8abe b82c 92be 6c7f 2cbe ced9 91be
000001a0: 46dd 3ebe 7a0d 9e3d 6348 173d ac76 103d
000001b0: 7e76 a7be 1e46 6abe ae19 6d3d d6fb 993c
000001c0: cdb1 e2bd cb37 abbd 9662 93be 9f22 293e
000001d0: cfa4 35be a2d3 d03a 342e 0fbe 5f55 89bd
000001e0: cb72 903e 4eca b03d 4721 d73e 7b23 cf3e
000001f0: d5f5 ffbd e670 be3e ebbd 23bd c62b 353d
00000200: f09a a4be 2707 aebe 716a b9be 7a54 80be
00000210: ccd2 5fbe f447 4cbe 5969 dc3d 6fb8 54be
00000220: f242 f53b 549b 1b3e 14ff b83e 4012 213e
00000230: bd02 953e f26d 503e 889d bc3d b1e2 85bd
00000240: bd18 b0be 963f 333e 1ebb 88be e534 b3be
00000250: fc06 1bbe 9c71 b9be 79f9 b23d 4575 a3be
00000260: 0915 6fbe 3b7b 4d3c 353e ba3e 429f 0cbd
00000270: 4355 2f3d b6c2 8d3d 4831 ae3e 653d 223e
00000280: 0393 36be 6bce 983e 3b11 b3bb cf71 bbbe
00000290: cd9d 83be 3ba8 09be 970e d2be 57e9 f3be
000002a0: 929a 8fbd 5ed6 203e 1071 a0be 5b2e 003e
000002b0: 620b cbbe a1ab 1fbd b2e4 223e 1d6a 9fbe
000002c0: f380 23be c3af 3bbe 1166 ea3a 942b b1be
000002d0: 2fd0 593c cac6 403e 4ccf 813e 2644 1e3e
000002e0: a616 833e 920e 123d 6c8d 4f3e 762c b43e
000002f0: e744 f63e 7f83 733d 32e4 263d da51 da3d
00000300: 6a7c 263e 3b0a a93c f828 ae3e 5d84 233e
00000310: 5be9 853e 7a2c 913e 4ee5 a63d 5c88 e63d
00000320: b25d d73d 183b 613e 1773 803d ce1c e33d
00000330: c679 63be bf50 b43e 669c 8c3e 27df 33bd
00000340: 1337 a43d bafc 8abd 9e99 55bc 0409 7dbe
00000350: 2fea b5bd 03b5 bcbb 41a3 b3be e4e9 b8be
00000360: 9681 8cbd 4cdd 083e 5b22 373e d9fe 4e3d
00000370: 221b 5abe 2259 b63e 5d9d b63e f6ea a93e
00000380: 4303 ad3e cc89 253e 5706 873e 6b39 d73e
00000390: bebf b93e cefd 34be b7f3 523d dd6e a53e
000003a0: 0513 c33e bc45 4a3e ccbb 5dbd d6b9 943e
000003b0: 9d92 483e 0f63 823e 4203 993d 586d a33e
000003c0: d7b0 0d3e 0c4e 5cbd beb0 d13c f896 febd
000003d0: 187a ce3e 386b 733e 0cf5 003e 57da 87bd
000003e0: efc6 e8bd da4f ae3e aa24 a13d 4d59 b63e
000003f0: 92e8 343e 681c b63d 0682 503e f298 7a3e
-0.03280188 0.36793423 0.24592786 0.32073757 -0.09293889 0.37323463 0.07693192 -0.14252673
0.063150585 0.023344226 0.02139638 0.1360517 0.12655671 0.3878337 -0.1269562 0.19426744
0.42168245 0.20561576 -0.08476415 0.42100477 0.254979 -0.027372736 0.4061241 0.18937452
-0.10625998 0.25845078 0.027184792 -0.27629966 0.10753049 -0.38051718 0.119067766 -0.27376804
-0.41194543 -0.014059895 0.13061224 -0.25421742 0.23862998 -0.06574006 0.20931868 0.082569584
0.32753333 0.41785008 0.17830177 0.13856846 0.21817762 0.30905977 0.036684576 -0.04458745
0.22995958 0.12379682 0.32536265 -0.02499087 0.40278253 -0.0953355 -0.07067555 -0.2926407
-0.05067588 -0.29667252 -0.17880693 -0.28027713 0.021862898 0.048756693 -0.18634973 -0.27967858
-0.05126064 -0.377754 -0.13121809 0.11010326 0.078145824 -0.0011852108 -0.01246008 -0.22299132
0.38198546 0.30282715 0.16293423 0.060411144 0.07881801 -0.1850114 -0.1817595 0.31250286
0.1426338 -0.34853822 -0.38923895 -0.1401021 0.07526337 0.05998492 -0.34564254 -0.49732992
-0.17613584 0.14981608 0.056468766 -0.13299827 0.20171012 0.16456345 0.22881632 0.029509308
0.3314391 -0.13923523 0.41379532 -0.27234057 -0.27133408 -0.28549743 -0.16845483 -0.28486484
-0.18639097 0.07717414 0.036934268 0.035269424 -0.3270759 -0.2287831 0.05788582 0.018796843
-0.11069069 -0.08360251 -0.28786153 0.16517113 -0.1773865 0.0015932212 -0.13982469 -0.06705736
0.2821258 0.086323366 0.42017576 0.40456757 -0.124980606 0.3719551 -0.03997604 0.0442312
-0.32149458 -0.33989832 -0.3621402 -0.2506445 -0.21857756 -0.19949323 0.10762281 -0.20773481
0.007484787 0.15195972 0.3613211 0.15729618 0.29103652 0.20354441 0.09209734 -0.065373786
-0.34393874 0.17504725 -0.2670526 -0.35001293 -0.15139383 -0.3621949 0.087389894 -0.31925407
-0.23347868 0.012541587 0.36375585 -0.034331568 0.04280592 0.06921904 0.34021974 0.15843733
-0.17829518 0.29844984 -0.0054647005 -0.36610267 -0.2570633 -0.13443081 -0.41026756 -0.47638962
-0.07011904 0.15706775 -0.3133626 0.12517683 -0.39657122 -0.038982037 0.15907553 -0.31135646
-0.15967159 -0.18328767 0.0017883201 -0.3460356 0.013294264 0.18825832 0.25353467 0.15455684
0.25603217 0.035658427 0.20268792 0.3519017 0.48099443 0.059451576 0.040744968 0.10660143
0.16258398 0.020634761 0.34015632 0.15968461 0.261546 0.28354245 0.08149205 0.11256477
0.10515918 0.21995199 0.06271952 0.110894784 -0.22214422 0.35217854 0.27463073 -0.043913987
0.08018317 -0.06786485 -0.0130371135 -0.2471047 -0.088825576 -0.005758883 -0.3508549 -0.36115944
-0.06860654 0.13365668 0.178842 0.05053601 -0.21299413 0.35614878 0.35666934 0.33187073
0.3379155 0.16165847 0.26372024 0.42035994 0.362791 -0.17674944 0.051501956 0.32311144
0.38100448 0.19753164 -0.054134175 0.29048032 0.19587179 0.254662 0.074713245 0.3191936
0.1383699 -0.05378537 0.025596973 -0.12431139 0.40327525 0.2377137 0.12593478 -0.06633442
-0.113660686 0.34045297 0.07868321 0.35615006 0.17666844 0.08892137 0.203621 0.24472407

encoder.0.bias f4 [32]
00000000: bb15 433e 0871 b73e 9ec3 32be a23a 823d
00000010: b5b6 73be 6a66 c0be 27a0 99be fefa bebb
00000020: 4fbf 95be 55eb 6e3e 94b6 ecbd 33ee babd
00000030: 2d65 1abe b63c 6c3c 0fc0 3b3d 26a4 463e
00000040: ffde 2cbd e0bd f73c c943 88be 4759 98be
00000050: d5d7 28bd bb9d c33d a650 bc3e 3e00 5ebe
00000060: 827b 3fbd 8d41 be3d 5d8e 83bd 1678 4d3e
00000070: d7af 1a3e 9891 b2be fd13 b53d 84bb b2be
0.19051258 0.35828424 -0.17457435 0.063588396 -0.23800166 -0.37578136 -0.30005 -0.0058282604
-0.2924752 0.2333196 -0.115582615 -0.09127464 -0.15077658 0.0144187715 0.04583746 0.19398555
-0.042204853 0.030241907 -0.26614216 -0.29755613 -0.04122146 0.09551569 0.3678028 -0.2167978
-0.046748646 0.092898466 -0.06423638 0.2006534 0.1510614 -0.34876704 0.08841703 -0.34908688

encoder.1.weight f4 [32]
00000000: fd1c 673f 4f3e 583f a8b1 473f d24e 343f
00000010: c54e 413f 11cd 3a3f 932e 253f e8b4 343f
00000020: b353 5b3f cbb3 2a3f d4e2 443f f677 2b3f
00000030: db6b 3b3f dadd 413f 56e7 1f3f 487e 573f
00000040: 5c22 233f bde8 5d3f d4bd 083f e1d4 303f
00000050: e50a 363f c2e8 583f 75fc 533f b729 1f3f
00000060: 39ae 563f c35c 5b3f d250 583f 3572 543f
00000070: b886 533f 6b72 373f 9e5d 1b3f a9eb 573f
0.9027861 0.84470075 0.78005457 0.7043277 0.7551082 0.72969157 0.6452419 0.7058854
0.8567459 0.6668059 0.7690861 0.6697992 0.7321145 0.75729144 0.62462366 0.84177065
0.63724303 0.86683255 0.53414655 0.6907483 0.71110374 0.8473016 0.82807094 0.62173027
0.8385959 0.8568842 0.8449832 0.82986766 0.8262744 0.7165896 0.60689723 0.84343964

encoder.1.bias f4 [32]
00000000: e69a cbbd 0f73 15be e714 76be 0cfe 8bbe
00000010: cadc 62be 8d32 8abe 62bb a4be 5656 aebe
00000020: 87ae 06be dbdb 92be cb22 81be 8653 93be
00000030: e633 9fbe 0ec8 8cbe 446e a5be 141a 27be
00000040: 10a3 a7be 2d35 0bbe efd7 c3be fa6b a2be
00000050: 796a 65be b760 20be 5783 30be fefc babe
00000060: 2032 1dbe 7fbd 1ebe 15bd 0bbe cfd0 1cbe
00000070: a4c6 27be 3b29 90be 9604 aebe 011d 1dbe
-0.09941654 -0.14594673 -0.24031411 -0.2734226 -0.22154537 -0.26991692 -0.32174212 -0.34050244
-0.13152514 -0.2868336 -0.25221857 -0.2877466 -0.31094283 -0.2749638 -0.32310688 -0.16318542
-0.32741594 -0.13594504 -0.38250682 -0.31723005 -0.22403897 -0.15661894 -0.17237602 -0.36521143
-0.15351152 -0.15501975 -0.13646348 -0.15314029 -0.16384369 -0.28156456 -0.33987874 -0.15343095

encoder.1.running_mean f4 [32]
00000000: bb82 693f e1e6 9a3f 5247 253f db03 34bf
00000010: 91b9 543f 96fc cb3e b641 8bbf 542c 0cbf
00000020: e40b bb3e f704 41bf c12c 173f 6728 66bf
00000030: d007 3fbf f857 453f 7d35 6cbf ef51 4d3f
00000040: bfcc 8fbf 6fd6 2f3f ed24 b5bf 9043 80bf
00000050: 4696 923f ed3d 793f 761f 853f 42d6 63bf
00000060: 5467 593f 68ad a73f ed34 2a3f 2d2e 753f
00000070: 5c32 713f 9392 6fbf 677c 93bf 97d0 df3e
0.91215104 1.2101709 0.6456195 -0.7031838 0.8309565 0.39841145 -1.0879428 -0.5475514
0.3653251 -0.753982 0.59052664 -0.899054 -0.74621296 0.77087355 -0.92269117 0.80203146
-1.1234359 0.68686575 -1.4151894 -1.0020618 1.145211 0.97360116 1.0400226 -0.88998806
0.8492329 1.3099794 0.6648701 0.95773584 0.9421747 -0.9358303 -1.152234 0.4371383

encoder.1.running_var f4 [32]
00000000: 65d0 ab3d 78ed e93d 5bf8 db3d 3e00 c33d
00000010: eb50 373e faac c13d 6f2e c83d 3595 433d
00000020: b4ec 8e3d d63f 1e3e e3d1 a23d f5f5 d53d
00000030: 826f 683d 9603 bc3d fdd0 163e 8c89 703d
00000040: a651 3c3e 66f7 8c3d eef9 553e de67 a23d
00000050: 4cca 613e 89ec f73d c287 923d 1c60 933d
00000060: c0f7 023e bd8d 6d3e ae5b ac3d e64f bb3d
00000070: fa7b c53d 39d0 613d b374 763e 60d7 c93d
0.083893575 0.11422247 0.107407294 0.095215306 0.17901962 0.09456821 0.097744815 0.047749717
0.06978741 0.15454039 0.07950189 0.10447303 0.056746967 0.091803715 0.1472816 0.058724925
0.18390521 0.06883125 0.20896122 0.07929967 0.22049826 0.121056624 0.071548 0.07196066
0.12789822 0.231986 0.08415924 0.09146099 0.09642787 0.055130217 0.24067955 0.09855533

encoder.2.weight f4 [64, 32, 3, 3]
00000000: b40a 60bd 6c98 b3bd a712 a2bd b0eb 2dbc
00000010: 618a 8ebd 3150 4b3c d97e b53b 5e12 6ebd
00000020: 3431 01bd 7aac 14bd 6276 47bd 153b 61bd
00000030: 31c1 b3bb 2f3a 11bd 5267 a13c 2dd0 90bd
00000040: ea2b 733c f7d3 2ebd f465 0dbd 7c9f 133d
00000050: 1ff3 88bd 896d 92bd 9302 5b3c e06a 25bd
00000060: 07bc 5dbd a168 e53c 5ef0 2e3c 06d9 64bd
00000070: 91e9 a53d 47ec 083e 3b4b ab3b 3831 ba3c
00000080: 3a6c 123e e372 0f3a 9829 d43d aa7d 093d
00000090: c7b8 14bc 6f21 0cbd 8811 9abb de5f 59bd
000000a0: 9a0f 8cbc 2f63 253c 7092 79bd dd37 62bd
000000b0: 50f9 4ebd 52d3 dabc 8820 00bc 74ea 34bc
000000c0: 3404 31bd bea3 463b 2db2 87bd ea19 a4bc
000000d0: e8f9 81bd ec19 76bd ebae 813d e966 ad3c
000000e0: 3473 ac3d f719 8f3d 988c af3d f40b c1bb
000000f0: 8d8a ce3d c0fa 843d ff11 ce3d e573 85bd
00000100: 4b14 093d 1b3b 323e 57da 213c 0111 9f3d
00000110: 3b09 e53c fbfe aebc cd66 a03d 07d5 a4bc
00000120: a84e 5e3b b33b e93d 96e7 fdbb 58c6 2abd
00000130: 0b38 2d3d 042d 383d c6cf 9dbd f7c6 853b
00000140: 49f2 6abd df8c 8b3d 36e3 053d f8e4 22ba
00000150: 9069 5dbd 17bf 953d e752 193d 951a a63d
00000160: 1122 15bd b644 65bc 26ad 243d 5041 21bd
00000170: a798 7cbd 5d3b 99bb b0ad 233c acb2 bbbd
00000180: 24be 433d b975 763b 2d09 0ebd 4ea1 2a3c
00000190: db4c 2fbc cf3e 723d 7032 cd3d d4cd 8c3d
000001a0: 0ebd 713d eb08 be3d 4548 433d fc7b d33c
000001b0: 2b21 59bd 9b4f ae3d b29a 73bd 1d75 e0bc
000001c0: 2f37 73bd 3ece 123e 8bee ac3d db5a 203d
000001d0: 2c2f 973c bd5e 55bd c496 43bd f2f5 1cbc
000001e0: fa36 71bd e2f0 af38 b9cb 48bd 6432 38bc
000001f0: fc74 483c a7f4 243b 3fe2 0c3e ccab 2b3d
00000200: 2933 ac3d 9f0f e03d e9f6 373d 5af8 533d
00000210: 71c4 6c3d 504c 243e d5bf 1f3e 9e17 86bd
00000220: 82b2 debc 567d adbd b16a dbbc 5ee6 1dbc
00000230: 755e 60bd 0dc6 b5bc 3b20 81bc 467f dfbb
00000240: e9cd e13c fbc1 d03b 4b30 c03d 18de b43d
00000250: 1e55 ff3d 3ea6 3b3d 1da9 c83c 69fa f43d
00000260: b1f8 473d 9e7a b239 ad85 55bc 2823 1aba
00000270: e9a3 54bd b007 e4bc ff76 adbd 0e24 4cbb
00000280: 9aa5 0c3c 0c1f 8fbd b4e0 6b3c d9a5 e83c
00000290: 8bb8 633d 32f3 0039 1987 8f3c 5bd7 103e
000002a0: 7fbb 253e 49ae c93d bd29 0c3e 7ee0 3b3d
000002b0: cb6a 953d 0cb9 ad3d c218 6c3d 912f acbc
000002c0: 9004 8d3d 3cbd 1d3e 639a 183d 002a 11bd
000002d0: c829 c3bd d06c 323c 11ed 7cbd 4dcf acbd
000002e0: 937e 2b3c 29ce acbd 4aa3 4bbd 1fd4 f7bc
000002f0: 1d14 a5bd 4624 abbd b469 98bd a29f 87bd
00000300: e9cf 06bd 9581 71bd c591 2cbc d57c 75bc
00000310: 29e8 fabc 48df f9bc d7d3 7fbd 822e 293d
00000320: 32c1 58bd 25a4 94bd 1977 65bd bb8c 8d3c
00000330: f145 c5bd 7137 a4bd 8977 abbd fe07 923d
00000340: e87a e23c 9e59 a03d 9035 633d b453 bf3a
00000350: 7d1f 8e3d 3502 543d 0948 103e 4dfe 8e3d
00000360: 6d00 b8bd 4786 21bd 82ab 95bd ba06 1cbd
00000370: 2c19 da3a e075 59bc d536 65bd b4a2 8abd
00000380: 16d7 f8bb 9eda b8bd 660b a5bc b847 a8bd
00000390: edaf 81bb 5b32 bcbd e274 49bd 8151 9dbd
000003a0: 8af4 e9bc 87ba acbd 7730 0b3b 636f 86bd
000003b0: 6f35 a0bc e8a1 64bd ed2c 3fbd 86f5 8cbc
000003c0: fb59 3ebd 9403 c63b 90ea abbd fb53 813c
000003d0: 439f d73c d3fa 5bbd 466b 383d 0cfd e83b
000003e0: 40cd f63c 36f0 41bd 7f9d 253c 178c 1cbd
000003f0: 21ba a8bd aba6 36bd 4fa6 b1bd c8ff 09bc
-0.054697707 -0.087693065 -0.07913714 -0.010615274 -0.069599874 0.012409256 0.005538803 -0.058122985
-0.031541064 -0.0362973 -0.048696883 -0.054987986 -0.0054856767 -0.03545588 0.019702587 -0.070709564
0.014842013 -0.042682614 -0.03452106 0.036040768 -0.06686997 -0.071497984 0.013367313 -0.040385127
-0.054134395 0.028003993 0.010677425 -0.055871032 0.0810119 0.13371383 0.005227474 0.022728547
0.14299098 0.00054721365 0.10359496 0.03356711 -0.0090772575 -0.034211572 -0.004701797 -0.05306994
-0.017097283 0.010094448 -0.06093067 -0.055229057 -0.05053073 -0.026712094 -0.007820256 -0.011042226
-0.0432169 0.003031 -0.06625781 -0.020031888 -0.06346494 -0.060083315 0.06332191 0.021167235
0.08420411 0.06987374 0.08571738 -0.0058913175 0.1008502 0.06493139 0.10062026 -0.06516246
0.03346662 0.1740536 0.009878716 0.07766915 0.027958503 -0.021361819 0.07832108 -0.02012111
0.0033921394 0.1138834 -0.0077485545 -0.04169306 0.042289775 0.044964805 -0.07705645 0.0040825563
-0.057359967 0.068139784 0.03268739 -0.00062139286 -0.05405575 0.07311838 0.037432577 0.08110539
-0.03640944 -0.013993433 0.04020419 -0.039368927 -0.061669018 -0.004676266 0.009990141 -0.09164938
0.047788754 0.003760679 -0.03467672 0.010414435 -0.010699476 0.05914193 0.10019386 0.06875196
0.059018187 0.09279045 0.047676343 0.025815956 -0.053010147 0.08511277 -0.0594737 -0.027399594
-0.0593788 0.14336488 0.08443936 0.039149147 0.01845511 -0.052092303 -0.047751203 -0.009580122
-0.05889032 8.389518e-05 -0.04902241 -0.011242483 0.0122349225 0.0025170238 0.13758181 0.041911885
0.084081955 0.109404795 0.044913206 0.05175052 0.05780453 0.16044736 0.15600522 -0.06547473
-0.027184729 -0.084711716 -0.026784273 -0.009637443 -0.05477758 -0.022189165 -0.015762439 -0.006820592
0.027564006 0.0063707805 0.09384211 0.088314235 0.12467407 0.045812838 0.024494702 0.119618244
0.048821155 0.00034042163 -0.013032359 -0.00058798725 -0.05191413 -0.027835697 -0.08469962 -0.003114942
0.008584404 -0.069883436 0.014396835 0.028399395 0.055595916 0.00012297629 0.017520474 0.14144652
0.16184805 0.098476954 0.13687797 0.04586839 0.0729576 0.084825605 0.0576408 -0.021018775
0.06885636 0.15404218 0.03725661 -0.035440445 -0.095294535 0.010890201 -0.06174952 -0.08437977
0.010467189 -0.084377594 -0.04971627 -0.030252514 -0.08060477 -0.08356528 -0.07442036 -0.066222444
-0.032913122 -0.05896147 -0.010532801 -0.014983376 -0.03062828 -0.030501977 -0.062457886 0.04130412
-0.05291862 -0.072578706 -0.056021784 0.01727902 -0.09632481 -0.08018387 -0.08372409 0.07130431
0.027646497 0.07829593 0.055471003 0.0014597089 0.069396 0.051759917 0.14089979 0.06982098
-0.08984456 -0.039434697 -0.07308103 -0.038092352 0.0016639582 -0.0132727325 -0.055960495 -0.067693144
-0.0075939996 -0.09026073 -0.020147037 -0.08216804 -0.0039577396 -0.09189292 -0.049183734 -0.07681561
-0.028558988 -0.08434015 0.0021238604 -0.06564214 -0.01955673 -0.05581847 -0.046673704 -0.017206918
-0.04647253 0.006042907 -0.083943486 0.015787115 0.02632106 -0.053706 0.04502418 0.0071102437
0.030127168 -0.047348224 0.010108351 -0.038219538 -0.08238626 -0.04459254 -0.08674299 -0.008422799

encoder.2.bias f4 [64]
00000000: e0d6 ebba 440f b4bc 1cba a83c d903 9bbd
00000010: 3b78 9a3d 55ac d43d 755e e03d f91a 57bc
00000020: 8b18 d73d 98c4 ad3b 5b6d 583d 1f28 f43d
00000030: de2b c63b 63a4 68bd e361 e53c c0c9 9f3d
00000040: 485d 08bc d2cb 29bd 10cb 83bd 82d5 eebc
00000050: 27c3 c23d dd9d 60bc 5bfa e2bc 7a9c b4bc
00000060: 5a99 1b3d 5dfe 82bd e47e a13d 44e9 afbd
00000070: dd3a 2bbd 9370 86bd 6925 24bd 973e 8c3d
00000080: d428 50bd d446 f4bd d4c5 423c 3d85 483d
00000090: 6b8e 81bd d588 04be 62f7 f9bd b9c1 e13d
000000a0: 1e50 913d 72ee 9b3d 37ed a8bc d879 81bd
000000b0: a126 50bd 35cb 99bd 8ad3 1dbd 33e4 1b3c
000000c0: b5fc cd3c 9452 e43d eb89 0dbd b255 fabb
000000d0: 5054 763d a4c0 67bd 424b c7bd 1f5d 9b3d
000000e0: daa6 1ebd fbf9 6d3b ecc9 a53d e83a 8b3d
000000f0: 0d20 713d d574 bf3d 7568 363d ad39 963d
-0.0017993115 -0.021979935 0.020596556 -0.07569093 0.075424634 0.10384432 0.10955516 -0.013128989
0.10502728 0.005302977 0.052838665 0.11921715 0.00604771 -0.056797396 0.028000778 0.07802153
-0.008323021 -0.041454144 -0.064352155 -0.029154543 0.095098786 -0.013709513 -0.02770727 -0.02204727
0.037988044 -0.06396172 0.078855306 -0.08589414 -0.041804183 -0.065644406 -0.04007474 0.068478756
-0.050820187 -0.11927572 0.011887986 0.04895519 -0.06325992 -0.12942822 -0.12205388 0.11023278
0.07095359 0.07613839 -0.020620925 -0.06322068 -0.05081809 -0.07509462 -0.038531817 0.009514856
0.025144914 0.11148563 -0.034555357 -0.00763961 0.060139 -0.0565802 -0.09731151 0.07586121
-0.03873334 0.003631233 0.08095154 0.06798345 0.058868457 0.09348456 0.04453321 0.073352195

encoder.3.weight f4 [64]
00000000: dfe8 743f 4733 883f 5fed 763f 3a0c 743f
00000010: f3b5 873f fcfd 893f 29ca 803f 20f7 7a3f
00000020: c023 7c3f d888 5a3f 81ea 4d3f bf16 8d3f
00000030: cd45 7f3f 1396 793f 66fc 673f 316a 833f
00000040: 58ef 893f ca50 8a3f 7eb1 6d3f 6b75 773f
00000050: 5240 6b3f a815 5d3f 4836 543f f422 8e3f
00000060: b5c1 5b3f a7f0 813f 5828 743f adda 623f
00000070: 24a8 273f 051d 933f 9bc3 8a3f cb32 733f
00000080: f8b3 6d3f ae37 4c3f f4f5 6c3f 4164 523f
00000090: 8063 693f 9dc3 893f e6ff 683f 811e 743f
000000a0: 6e7c 873f 4296 713f 4459 8d3f 80eb 8b3f
000000b0: 76c7 623f a6b8 873f 5e82 6e3f 766b 803f
000000c0: d93f 743f c7f9 753f cb66 8f3f bd71 8a3f
000000d0: 49ae 5c3f c35b 5f3f 301a 893f 79df 623f
000000e0: b598 873f 7707 6d3f 2d68 8d3f c263 843f
000000f0: b2ce 833f 7209 8c3f 9eee 713f 7042 803f
0.95667833 1.0640649 0.9645595 0.95331156 1.0602401 1.0780635 1.0061694 0.9803333
0.9849205 0.85365057 0.8043595 1.1022567 0.9971588 0.9749462 0.90619504 1.0266782
1.0776167 1.0805905 0.92848957 0.9666354 0.9189502 0.8636117 0.82895327 1.1104417
0.8584245 1.0151566 0.9537406 0.8861492 0.6549094 1.1493231 1.0840944 0.9499938
0.92852736 0.7977246 0.92562795 0.82184225 0.9116745 1.0762821 0.9101547 0.95359045
1.0584848 0.943699 1.1042867 1.0931244 0.88585603 1.0603225 0.93167675 1.0032794
0.95409924 0.96084255 1.1203245 1.081596 0.8620344 0.8724939 1.0711117 0.8862224
1.0593477 0.92589515 1.1047417 1.0342944 1.0297453 1.0940382 0.94504726 1.0020275

encoder.3.bias f4 [64]
00000000: c883 b5bd ee05 cbbe d901 dabd 5850 0cbd
00000010: 7eb7 aabe ecd7 c7be 006a 76ba e691 9c3e
00000020: ba71 eabd 6ba0 63bd d2a4 89be 5996 82be
00000030: deb0 e33d 9bc0 2fbc 8d99 08be b6ea 6fbe
00000040: 66d8 96be ebca 1cbe 8358 b1bd bf6a 5e3e
00000050: 2a99 15be 9845 3ebe 0be1 09be 56e3 8b3c
00000060: f226 bbbd 332c 16be 3706 13be 9411 31be
00000070: 2e02 6dbe 1fc0 993e dc3f c0be 42d6 64bc
00000080: 67ca 10be 2a03 32be d52e 12be 0118 44be
00000090: 98bb 97bc 197a d7bd 6097 0bbe 7321 283d
000000a0: a65f b0be d241 27bd 47c4 fdbe 6b4a d4be
000000b0: af91 0bbe 6f01 90be 73f5 40be ab3f 24be
000000c0: 2330 333d 193e 24bd bea7 7fbe fb95 dfbe
000000d0: be6f 43bd b24a 58be 3c55 a1be 347d 17be
000000e0: 75c7 c1bc a799 30be e826 b1be 050b 6cbe
000000f0: 428b a1be 1285 b0be aa48 34be 3b88 e4be
-0.08863026 -0.39652961 -0.10644884 -0.03425631 -0.33343118 -0.39031923 -0.00093999505 0.30580062
-0.11447473 -0.05557291 -0.2688356 -0.2550533 0.11117719 -0.010727073 -0.13339825 -0.23429379
-0.29461974 -0.15311782 -0.086594604 0.21720408 -0.14609209 -0.18581235 -0.13464753 0.017076176
-0.091382876 -0.14665298 -0.1435784 -0.17291862 -0.23145363 0.3002939 -0.3754872 -0.013967099
-0.1413971 -0.1738402 -0.14275678 -0.19149782 -0.018522069 -0.10521335 -0.13631964 0.041047525
-0.34447974 -0.040834256 -0.4956381 -0.41463026 -0.13629793 -0.28126094 -0.18843631 -0.16039912
0.04374708 -0.040098283 -0.24966332 -0.43669114 -0.047713988 -0.21122244 -0.3151034 -0.14793855
-0.023654679 -0.17246114 -0.34599996 -0.23051079 -0.31551558 -0.34476525 -0.17605844 -0.44635186

encoder.3.running_mean f4 [64]
00000000: a62c eebe 8316 5240 41ff 4140 87c2 46c0
00000010: 1cdf 3e40 9c0b 4b40 60a9 893e 9b04 56c0
00000020: 03a7 0340 72e1 8bbf 2bd8 b7bf 47b6 e03f
00000030: eede 52c0 b007 30bf 0945 99bf 6243 ec3f
00000040: ca23 c23f 0723 c93f fd77 6bbf f719 87c0
00000050: ffaf 573f 7240 20bf b3f9 60c0 d053 a83f
00000060: 2e6a 3dc0 f503 903f c296 2f40 3ce3 e2bf
00000070: 6cef c43f 8ae7 72c0 827b ac3f a369 38c0
00000080: 78d0 bb3f 463c 8540 2218 983e fbc8 293f
00000090: a28e 46c0 d307 0340 3447 5d3f 51a8 25c0
000000a0: 6ed6 0e40 de22 c8bf a6c6 3d40 acd6 5140
000000b0: 9e5c 213f 83db ea3f 6f88 d73f 0369 eb3f
000000c0: 05c7 88c0 ae75 cebf 3451 cf3f 4fc8 5440
000000d0: 0272 14c0 46a3 86be 8136 4140 2ba7 3c3f
000000e0: bdd3 d63f 9826 db3f 98f2 3240 565e 0240
000000f0: 4332 6140 9d68 2140 4854 64bf 1845 2040
-0.4651844 3.282624 3.0312045 -3.105623 2.9823675 3.1725836 0.26887035 -3.344031
2.0570686 -1.0928175 -1.4362844 1.7555627 -3.2948565 -0.6876173 -1.1974193 1.8458064
1.5167172 1.5713814 -0.9197996 -4.2219195 0.84252924 -0.62598336 -3.5152404 1.3150578
-2.9596057 1.1251208 2.7435765 -1.7725596 1.5385566 -3.795382 1.3475192 -2.8814476
1.4672995 4.1636076 0.29705912 0.66322297 -3.1024556 2.0473526 0.8643677 -2.5883982
2.2318377 -1.5635641 2.9652495 3.2787275 0.6303195 1.834824 1.6838511 1.8391422
-4.2742944 -1.6129663 1.6196656 3.3247259 -2.3194585 -0.26296443 3.0189517 0.7369258
1.6783367 1.7121153 2.7960567 2.0370078 3.5186927 2.52201 -0.89191103 2.5042171

encoder.3.running_var f4 [64]
00000000: 41e3 0a41 f5b6 7c41 06ad 0741 14a1 3041
00000010: 1d6d 4141 b87b 6b41 818c df40 ac8b 2441
00000020: bad3 a440 5819 2d41 e686 0841 737d a740
00000030: 8a2f 1c41 3da8 d640 0d81 4b40 e988 bd40
00000040: 6925 8840 c1aa b040 6e13 0941 e8e3 6f41
00000050: d392 9540 2e2d d340 8d17 0d42 217a 8940
00000060: 3bbf ae41 452e 4240 62e9 d240 6801 d040
00000070: 064a b340 297e 4c41 9809 6740 32c4 f141
00000080: 740f 9c40 e4bb 8b41 89be 3741 60c9 1d41
00000090: 8ad7 4441 e2bb e040 cc89 3841 d402 e540
000000a0: 1861 0a41 acb6 9640 68a9 6241 3e40 8f41
000000b0: 25ac 6b41 c363 dc40 2f9e 8d40 cf49 b040
000000c0: 4660 8141 e3bd 8940 0572 9c40 766e 6241
000000d0: e4c3 8f41 a0b8 2041 16c3 7b41 9e4b cb3f
000000e0: 3aa3 c340 a242 0941 eac0 5641 b00d f940
000000f0: e719 7b41 91f4 2a41 4f9d 4041 4c0c 1e41
8.680482 15.794667 8.479742 11.039326 12.089139 14.717705 6.9859014 10.2841
5.1508455 10.818687 8.532934 5.2340636 9.761606 6.708037 3.1797516 5.9229627
4.2545667 5.520844 8.567244 14.993141 4.674173 6.599265 35.273 4.2961583
21.843374 3.034074 6.590989 6.5001717 5.602786 12.780801 3.6099606 30.220798
4.8768864 17.466743 11.484017 9.861664 12.302622 7.022935 11.533642 7.156595
8.648705 4.709799 14.166359 17.906368 14.729527 6.887178 4.4255595 5.50901
16.172009 4.3044295 4.8889184 14.151968 17.97065 10.045074 15.735128 1.5882452
6.113675 8.578768 13.422098 7.782921 15.693824 10.684709 12.038405 9.878002

encoder.4.weight f4 [32, 64, 3, 3]
00000000: fe26 bdbc 8fd7 bcbd 2a79 a5bd c202 1bbd
00000010: 07d6 28bc e098 a3bd c445 19bd a9b7 8dbd
00000020: 251b 37bd a16d 99bd 2434 6fbd 04a8 95bd
00000030: 4fcc bfbd 1db2 efbd aa20 95bd bd9d 9dbd
00000040: bdf4 19bd 5c86 9fbd 6c45 86bd e82f 21bd
00000050: 4fc7 c4bd 1958 bcbd 1db7 ffbc 0f7b 9dbd
00000060: 47d6 acbd 254d 62bd 11a5 6fbd a3c5 763d
00000070: eba4 613d 868a a53d aad8 8d3d 6355 f43d
00000080: f229 5d3d 68fc af3d 2f5f b73c acba 973c
00000090: f3c6 91bd b5f7 c4bd 8c91 c6bd 2612 ecbd
000000a0: fc11 9abd 91df 8dbd 05fe 7fbd 8994 13bd
000000b0: e72e bbbd aa31 8cbd 44db 98bd 5462 91bd
000000c0: d8a2 9fbd 3eb3 cfbc 54af 96bd 9899 eabd
000000d0: e5a6 c2bd e610 48bd 453b c7bc 7e35 91bc
000000e0: 65cf 25bd 87a3 5ebd af2c 31bc 36b2 10bd
000000f0: 4497 0abd 7101 adbd 2415 4dbd ff37 e93d
00000100: 961f 633d 6c52 a13d e5da cc3d df46 223d
00000110: e770 fd3c a6c4 9f3d ea3d a93c 9569 c83d
00000120: 16f9 41bd fb2e a5bd dd53 c8bd 002c 8ebd
00000130: 3d91 9ebd e2bc a3bd 493b b5bd 91f7 24bd
00000140: c448 b2bd 0e0f b63b b71f aa3d 863d 7c3d
00000150: 0672 80bb 7518 2b3d 4d35 b73b 0961 a0bc
00000160: 3b6a 403d e3ca cfbb 5910 61bd 33b5 b1bc
00000170: 2322 a8bd 38bb 69bd b65b 9fbd 8e14 6abd
00000180: 5f83 84bc 035f 173b d0e4 b0bd 6048 90bd
00000190: 00ef d4bc 2f6b 42bd 8b76 25bd 12c3 bcbc
000001a0: 4bb3 f4bc a330 c6bd 0552 6abd 74f1 27bd
000001b0: a4aa 8e3d 8059 873d 53e4 083d bb2d b93d
000001c0: 808a 883d 27c9 cb3d 2ddf 433b d852 d93c
000001d0: e050 8c3d 9df8 be3d 271d 753d 53f7 4d3d
000001e0: bad9 ce3d 7275 7f3d 264e a53c bf5c 543d
000001f0: 9dee d23c e231 433d fdcf 60bd cac9 7fbc
00000200: 0505 9bbc ad6a 54bd 4133 24bd 52c5 97bd
00000210: 044f 91bd 2ed6 dcbc 889a 85bd a890 dcbd
00000220: 740f 6bbd c4b3 d5bd 0658 38bd d0ef 95bd
00000230: 87de b8bd a63f d8bd 3022 d9bd 9b93 2abd
00000240: b969 76bd 1d1d 4dbd a541 2ebd 35cd 8abd
00000250: 145d b7bd d950 88bd 8ae5 87bd a4e4 66bd
00000260: 412d fbbd c1eb 0ebd fed1 3cbd 18d3 8bbd
00000270: c96a 5abd 48cc e1bc cc1d cabd ceb7 92bd
00000280: c1f4 99bd b3bb b5bd e79f 903b 6af6 24bd
00000290: cb43 1bbd f6f2 52bd 49a4 aabc 0309 d2bb
000002a0: 8b1e 67bc d751 a1bd ba98 0cbb 3557 30bd
000002b0: 86a1 02bc c6cb 91bd 1d3b dbbc 7552 54bd
000002c0: e7c9 2abd a291 07bd eece 393c 7bf7 30bc
000002d0: c399 67bb f279 36bd f9df 3fbd 1195 12bd
000002e0: 384a 0a3b 6001 48bd 603e a3bc d181 0cbd
000002f0: ef00 33bd 085e 59bd 7868 81bc 5124 9cbd
00000300: 9dbc 87bd 6edd 8ebd e402 58bd a950 67bc
00000310: 22d4 22bd c504 11bd 8cbb 2fba a1a1 a43d
00000320: 6101 803d db9a d43c d954 2d3c aa12 833d
00000330: e142 0e3d 25af 763d c4b1 213d 0f87 8abd
00000340: 37d9 c6bd 6831 92bd 9e65 c9bd bebb 7bbd
00000350: 1327 c4bd 8274 5abd fccc f1bd a0ad 2bbd
00000360: 85a4 a83d bfa6 0d3d 4bf3 8f3d 64a7 933b
00000370: 2855 b23c d93e c03c eec7 a13d b40b 88bb
00000380: 7378 823d d61e aebd e510 b3bd 27dc efbd
00000390: 3d04 94bd b411 e1bc 13d4 87bd 430b 47bd
000003a0: c300 92bd 1ad4 d0bd d7a8 33bd df18 51bd
000003b0: 6719 80bd 1a8b cebd aba0 4bbd c92a d7bd
000003c0: 1fc3 bcbd ce25 97bd 580a c7bd 722c e9bc
000003d0: 3f1a 23bd d937 a0bd 4b82 f7bc 0193 8dbc
000003e0: 491c 7dbc ad76 863b cc24 2fbd 1618 1ebd
000003f0: dde4 6b3d d06f ea3d cbaf c13d 4bc6 6a3d
-0.023089882 -0.09220802 -0.08079751 -0.037844427 -0.010304934 -0.07988143 -0.03742005 -0.06919796
-0.04470362 -0.07491613 -0.058399335 -0.07307437 -0.09365141 -0.11703894 -0.07281621 -0.07696102
-0.037586916 -0.07789299 -0.0655621 -0.039352328 -0.096083276 -0.09196491 -0.031215245 -0.07689487
-0.08439308 -0.055249352 -0.05850703 0.060247075 0.05508892 0.08083062 0.06926091 0.11930349
0.05399508 0.085930645 0.022384254 0.01852163 -0.07118025 -0.09617559 -0.096957296 -0.11526899
-0.075229615 -0.069274075 -0.06249811 -0.036030326 -0.09139805 -0.0684541 -0.074636966 -0.07098833
-0.07794732 -0.025354024 -0.0735766 -0.11455077 -0.09504489 -0.04884424 -0.024320254 -0.017725702
-0.04048099 -0.05435517 -0.010813876 -0.035326205 -0.033835664 -0.084475406 -0.05006899 0.113876335
0.055450045 0.07877049 0.10002688 0.03961837 0.030937625 0.078011796 0.020659406 0.09785763
-0.047356687 -0.080656014 -0.09781621 -0.06941986 -0.07742546 -0.07995011 -0.08849198 -0.04027516
-0.08705285 0.005555994 0.083068304 0.06158211 -0.0039198427 0.04177137 0.0055910707 -0.01957752
0.04697631 -0.0063413247 -0.05494723 -0.021692848 -0.08209636 -0.05706331 -0.07781164 -0.05714851
-0.016175924 0.0023097403 -0.086373925 -0.070450544 -0.02599287 -0.0474655 -0.040396255 -0.023042236
-0.02987065 -0.096772455 -0.057207126 -0.041001752 0.06966141 0.06608868 0.033420872 0.090419255
0.06667042 0.09950476 0.0029887662 0.02652876 0.06851363 0.09324763 0.059842255 0.050284695
0.10100122 0.062367864 0.020178866 0.051846262 0.025748545 0.047654994 -0.054885853 -0.015612075
-0.018923292 -0.051859546 -0.040087942 -0.07410683 -0.07095149 -0.026957598 -0.06523615 -0.107697785
-0.057387784 -0.10434678 -0.04500582 -0.07321131 -0.09026819 -0.10559015 -0.10602224 -0.041644674
-0.06015942 -0.050076593 -0.042543072 -0.067774214 -0.089533 -0.066560455 -0.06635578 -0.056370392
-0.12264491 -0.0348928 -0.0460987 -0.06827372 -0.053324495 -0.02756323 -0.098689646 -0.07163964
-0.07517386 -0.088736914 0.004413593 -0.04027406 -0.03790645 -0.051501237 -0.02083029 -0.0064097657
-0.014106403 -0.07876938 -0.0021453337 -0.043051917 -0.0079730805 -0.07118945 -0.026761586 -0.05183645
-0.041696455 -0.03309787 0.01134084 -0.010801191 -0.0035339452 -0.04454989 -0.046844456 -0.035786692
0.0021101367 -0.048829436 -0.019927204 -0.03430349 -0.043702062 -0.05306819 -0.015796885 -0.07624114
-0.06627772 -0.06975828 -0.05273713 -0.014118352 -0.039753087 -0.03540494 -0.0006703667 0.08038641
0.06250263 0.025952747 0.010579311 0.06400044 0.03473175 0.060225625 0.03947617 -0.06764042
-0.09709399 -0.0713833 -0.09833835 -0.06145834 -0.09577765 -0.053333767 -0.11806676 -0.04191363
0.082345046 0.03458285 0.07028826 0.0045060385 0.021769121 0.023467468 0.07899462 -0.0041517857
0.0637063 -0.08501975 -0.08743457 -0.117119126 -0.07227371 -0.027474262 -0.06632247 -0.048594724
-0.071290515 -0.10196705 -0.04386219 -0.05104911 -0.06254845 -0.10085125 -0.04971377 -0.105062075
-0.09216904 -0.073802575 -0.0971877 -0.028463576 -0.039819952 -0.07823152 -0.030213496 -0.017282011
-0.015448638 0.0041035027 -0.0427597 -0.03859719 0.057591308 0.11447108 0.09457358 0.057318013

encoder.4.bias f4 [32]
00000000: 3195 3abd 75f8 853d 1139 283d bcca 79bc
00000010: f6be 743d 8f3a 743d 270d 5a3d 3991 cabd
00000020: 6fba bc3c 6c9d 5cbc d66c 7d3d 27c5 82bd
00000030: 0390 893d d38d c93c 79b0 0fbd 9ba2 67bd
00000040: 36d8 62bd e226 88bc f41d 173d 9bd4 8239
00000050: 4ad9 49bc 2b8c 22bb 6640 42bd 4475 d23d
00000060: b048 2dbc 6844 34bd 050a 1ebd 6cb8 bc3d
00000070: e082 e23c 2882 8fbd 12db d5bd 6c09 d93d
-0.045552436 0.0654153 0.041070048 -0.01524609 0.059752427 0.05962616 0.0532352 -0.0989098
0.023038117 -0.013465267 0.061871372 -0.0638526 0.06716921 0.02460376 -0.035080407 -0.056551557
-0.055381976 -0.016620103 0.0368938 0.00024953936 -0.012319872 -0.0024802785 -0.047424696 0.10276273
-0.010576412 -0.04401055 -0.038583774 0.09214863 0.027650297 -0.07007247 -0.10442175 0.105975

encoder.5.weight f4 [32]
00000000: de56 6d3f 50ec 4b3f ebb1 453f 4f76 5d3f
00000010: c78a 483f 1c54 313f 059e 443f e75c 413f
00000020: f7a2 5e3f 3dc7 513f afb2 453f cd11 523f
00000030: f373 353f 12bd 1c3f 1c3f 463f 110e 553f
00000040: 37b0 1e3f a620 683f 7bd2 443f 221a 393f
00000050: 70f5 2e3f 2226 503f efa5 633f 7cf1 433f
00000060: da33 523f 7d34 623f a96b 6c3f 97cd 633f
00000070: c6fe 4e3f 2c3e 523f 5cae 443f 2e65 663f
0.92710674 0.7965746 0.77224606 0.8650865 0.7833676 0.69268966 0.7680362 0.7553238
0.86967415 0.8194464 0.77225775 0.8205841 0.7088005 0.61226 0.7744005 0.8322459
0.6198763 0.9067482 0.7688367 0.723055 0.6834326 0.81308186 0.8892507 0.7654035
0.8211037 0.8836134 0.92351776 0.8898558 0.80857503 0.82126117 0.7682855 0.8999814

encoder.5.bias f4 [32]
00000000: a0b2 dabd 9a88 75be 53ee 69be 6b4e 46be
00000010: 33af 7dbe 9221 5abe 0e57 56be 9817 94be
00000020: 6c36 14be 9959 45be c958 8ebe c973 7cbe
00000030: d8c1 93be 5975 96be c6fa 80be b148 4bbe
00000040: c5a9 aabe 0775 28be aab1 78be 54c9 7abe
00000050: 862b aabe bf55 43be 2d10 51be 55dc 8cbe
00000060: 3f22 1abe 401e 1dbe ccd3 d0bd b8cd 0dbe
00000070: 842e 07be a0fd 7ebe dcba 7fbe fa2f 0fbe
-0.10678601 -0.2397789 -0.2284482 -0.19365852 -0.24773864 -0.21301869 -0.20931646 -0.2892425
-0.14473885 -0.1927246 -0.27802113 -0.24653544 -0.2885883 -0.29386404 -0.25191325 -0.19851948
-0.3333265 -0.16450892 -0.24286523 -0.24490863 -0.3323633 -0.19075678 -0.20416327 -0.2751185
-0.15052126 -0.1534357 -0.10196647 -0.13848007 -0.13201338 -0.24901438 -0.24973625 -0.13983145

encoder.5.running_mean f4 [32]
00000000: ec14 a4c0 7701 3d40 486e c0bf 520e bac0
00000010: eb6e 82c0 541b 1f40 1d16 c6c0 8b9a e2c0
00000020: 22de 50c0 f94a 04c1 f233 8fc0 20a9 40c0
00000030: d1f6 17c0 4aed d940 1152 03c1 4b4c 8ebf
00000040: 04fd 9e40 66cc 56c0 621b e4c0 9ca3 a5c0
00000050: f338 9f40 31c5 3940 7d20 27c0 103b ffc0
00000060: c643 1141 5240 95c0 1ad3 93c0 ce02 94c0
00000070: 25fa 9ec0 4ff4 b7c0 9965 11c1 7463 95c0
-5.127554 2.9532144 -1.5033655 -5.814248 -4.07604 2.486043 -6.1901994 -7.081365
-3.263558 -8.268304 -4.475091 -3.0103226 -2.3744395 6.810216 -8.207536 -1.1117033
4.9683857 -3.3562255 -7.1283426 -5.176222 4.975702 2.9026606 -2.611358 -7.97596
9.079046 -4.6641016 -4.619519 -4.6253424 -4.968035 -5.748573 -9.087304 -4.6683903

encoder.5.running_var f4 [32]
00000000: 8e95 1943 7e6c ce42 4fcd 5a42 0284 4b43
00000010: c032 d842 464c 7342 e0ba 9143 96d0 6443
00000020: beaa fc42 c413 3343 5d73 2043 b711 0e43
00000030: a973 2141 b078 b342 4c9f 9343 6066 9b42
00000040: d5ee 3f43 5ae5 8943 8a00 4843 71f4 da42
00000050: b052 8742 cd0e ae42 24df 6243 d87a 4943
00000060: 929d 0b43 cf3a 6e43 41c5 1943 4bf4 2143
00000070: 917b fb42 ce2e 1c43 586b 9f43 0284 8443
153.5842 103.2119 54.700497 203.51566 108.09912 60.824486 291.45996 228.81479
126.33348 179.07721 160.45064 142.0692 10.090737 89.73572 295.2445 77.69995
191.93294 275.7918 200.0021 109.477425 67.6615 87.02891 226.87164 201.47986
139.61551 238.22972 153.77052 161.95427 125.74134 156.18283 318.83862 265.0313

encoder.7.weight f4 [64, 32, 3, 3]
00000000: 1543 b9bc fcb4 d03d be50 23bd e205 1f3d
00000010: b3c3 623b b278 593c 03a6 c23d 4504 da3d
00000020: 9ade b53d 5bd3 143e 7ae8 8f3d d647 f73d
00000030: 75ce 033e 405b 913d b1a3 f53c f7ad f83d
00000040: 3356 d53d 61ae 073e 4593 9ebd b8f2 ad3d
00000050: 5bab 87ba 0c99 dfbd 2c87 fc3b c33b 3ebb
00000060: e6f5 86bc 443b 203d b994 d0bd 087d 283e
00000070: 8a71 0f3e 5525 b93d f3ac cc3d 6ab7 91bc
00000080: 9f6d 05bc 2096 aa3d 63c3 083d db6e e23d
00000090: 66cb ba3c b9a1 9d3c b557 49bd 3c2c 103d
000000a0: 3edb 4abd 728b 5abd eb67 4abd 9d91 813b
000000b0: 2418 7abd f78b df3c 87cf 84bd 8ae6 f2bd
000000c0: 0a3b b5bd c5fd acbd 7cc0 1bbe f51e 443d
000000d0: 00a7 96bd e086 4abd 399e 093e faff 333e
000000e0: 8cd1 d43d c3f4 7c3d 74f6 183e 51e5 5abc
000000f0: 96f1 0d3e 6fcf 843d d45a bc3d 70d4 d63d
00000100: 0ae8 d73d c295 b43d 73fa aa3c 26ef 89bd
00000110: aed6 97bd 2687 a53d 4eca b9bc c66e d3bd
00000120: 3339 f83c 3887 6e3c 9901 dbbb 5398 00bc
00000130: b73c 4abd 5fb2 bcbd 27eb a23d 67ad 6f3d
00000140: 39bf 14ba 9a55 4b3d 60ea d53d f200 c03d
00000150: ee28 233d f2af 893b 981c 86bb 65e2 243e
00000160: b151 0a3e 213e 74bd 0214 bdbc 3aef ac3d
00000170: da5b 9bbd 596a b8bd 966a 8ebd 6ec7 c5bd
00000180: 01b3 813d e4cc 043c 7356 c8bd 89d7 d13c
00000190: a31a f93d 3558 9f3d e89e 403d 6d96 3cbd
000001a0: 345d 97bd 77c2 983d 101a 53bd 497d 90bb
000001b0: fa27 513b 661f ea3c 13e8 823c a710 bebd
000001c0: f823 05be eadf 49bd d376 cb3d 0553 de3d
000001d0: d695 81bd 3dc0 003d fd9f b13c 4297 52bb
000001e0: 13fd 553b 01da 283d a999 bbbc d913 613d
000001f0: 6c8c 243d e309 c73c 01e1 703d 3846 233d
00000200: 77dd 113d 4b08 a53b e3c7 6c3c c086 fc3b
00000210: f064 fa3d 9c2c 8a3d 612e f73d 75b0 d0bc
00000220: 7487 0d3e 42be 8c3d cc40 84bd 728d 363d
00000230: fa60 60bb 30fa eb3d 0449 9cbd 3750 663d
00000240: ee56 7b3d e526 383c a305 f13a 9d46 b83d
00000250: 17d9 0e3c d9a6 303c edb0 4b3d 770c 3e3d
00000260: aa50 e33d 238d 1a3d 306b 4d3d 9ccb 103d
00000270: 321d 85ba 63f0 113d 3216 83bd 4fea af3d
00000280: f3a7 743d 5547 643c 1947 ec3d 0acb 3b3d
00000290: 803a 6c3d 31dd a13d 9f0b 913d 350e b83d
000002a0: 6c6e f73d 5c6e a93d bc62 d63d 8b6e 8a3d
000002b0: 7887 603d 9fc5 cf3d b1d7 0bbc cfcd 973d
000002c0: f478 e3bc 6b10 a83d 6105 aa3c f2c2 f63c
000002d0: ffa0 ba3d 5df6 5fba 2cca bc3c 8d8d 0e3d
000002e0: ebb1 7a3d 6784 133d 0461 5a3d 0d1d 153d
000002f0: 8f5d 3c3c 6443 093b f534 40bc 4e53 ba3d
00000300: 617e e13d b613 d23d d63c 59bc 30dd e93d
00000310: f8ba 103d 9d90 993c 8439 77bc d493 4f3c
00000320: 4c3a 25bd 6012 cbbc 234a 81bc c4ce 0fbd
00000330: 2528 873c ffdb 963d 8d10 8dbd e9cb 2d3d
00000340: 4d74 533d bda3 813d 58fe 013d c169 0dbd
00000350: 72dc abbc 08cd 343d 4cc8 763d bda6 f53d
00000360: 8477 8c3d 80f1 cb3d de5c 0d3e 09ea bf3d
00000370: 768d c53d e651 e2bb 4ec2 a03d c8c1 0c3e
00000380: 4454 1d3e 0063 d33a 5438 f23d 5223 e43b
00000390: 9372 d0bb 55c6 67bd 0ca4 22bd dfac 4fbc
000003a0: de88 a5bc f16d 053b 3033 1a3d 2553 d33d
000003b0: 6ab4 bc3d f519 693d edd1 023e aed3 5c3c
000003c0: 622b eb3d c055 c83d 4b3e 243d 23e6 4ebd
000003d0: f276 c73d cd09 88bc de16 c1bd d159 9ebd
000003e0: 2a3b 3fbc 1da2 5ebd 32fb bd3a 0407 b0bd
000003f0: ed67 95bb 23e5 e1bc 0dca b73a ef15 50bc
-0.022614995 0.1019077 -0.039871924 0.03882397 0.003460151 0.013273405 0.095043205 0.106453456
0.088803485 0.1453375 0.07026763 0.120742485 0.12871726 0.07097483 0.02998528 0.12142556
0.10416832 0.13250114 -0.07742933 0.084935606 -0.001035075 -0.10917863 0.0077065434 -0.002902732
-0.016474675 0.03911902 -0.101846166 0.16453946 0.14008155 0.09040324 0.09993925 -0.017787654
-0.0081438115 0.08329415 0.03338946 0.110563 0.022802066 0.019242154 -0.04915591 0.035198435
-0.049525492 -0.05335564 -0.04941551 0.003954126 -0.06105818 0.02728842 -0.06484895 -0.11860378
-0.088491514 -0.0844684 -0.15210146 0.047881085 -0.073560715 -0.049445033 0.13439263 0.17578116
0.103915304 0.06175686 0.14937764 -0.013360337 0.13861689 0.06484877 0.091970116 0.10489738
0.10542305 0.088176265 0.020871377 -0.06735067 -0.07413994 0.08082418 -0.022679474 -0.10323863
0.030300712 0.014558606 -0.00668354 -0.007848817 -0.04937431 -0.09213709 0.07955008 0.05851498
-0.00056742463 0.049642183 0.10445094 0.0937518 0.039833955 0.0042018825 -0.004092764 0.16101988
0.13507725 -0.059629563 -0.02308083 0.08444066 -0.07585879 -0.09004659 -0.069539234 -0.09657179
0.063329704 0.00810549 -0.09782114 0.02561547 0.12163284 0.07780496 0.047026545 -0.046041895
-0.07390824 0.07458966 -0.051538527 -0.0044094664 0.0031914697 0.028579425 0.015979802 -0.0928052
-0.13002002 -0.049285807 0.09934773 0.108556785 -0.06327407 0.031433333 0.021682734 -0.0032133614
0.0032652065 0.04122353 -0.02290042 0.05495057 0.04017298 0.024296707 0.05880833 0.039861888
0.035611596 0.005036389 0.014451954 0.007706493 0.122262836 0.0674679 0.12069393 -0.025474766
0.13821203 0.06872226 -0.064576715 0.044568487 -0.003423749 0.11522329 -0.07631114 0.056228843
0.0613622 0.011239742 0.0018388521 0.089978434 0.00871875 0.010781967 0.049729276 0.046398606
0.1109937 0.037732255 0.05015105 0.035350427 -0.0010155796 0.03562964 -0.06400718 0.08589613
0.05973048 0.0139330225 0.11536998 0.04584793 0.057672977 0.07903517 0.07082295 0.08987085
0.12081608 0.082730025 0.10468051 0.06759366 0.054816693 0.10145115 -0.008535312 0.07412302
-0.027767636 0.082062565 0.020754518 0.030122254 0.09112739 -0.0008543486 0.023045622 0.034802962
0.061204832 0.03601494 0.053315178 0.036404658 0.0114969155 0.002094471 -0.011731376 0.0909792
0.11010433 0.10257666 -0.013259133 0.11419141 0.035334557 0.018745715 -0.015089396 0.012669522
-0.0403388 -0.024789035 -0.015782421 -0.035109296 0.016498635 0.0736618 -0.068879224 0.042430792
0.051624585 0.06330059 0.0317367 -0.034524683 -0.02097914 0.044140846 0.06024961 0.119946934
0.06858733 0.09958172 0.13804957 0.093708105 0.09646122 -0.0069067357 0.07849561 0.13745797
0.15364176 0.0016127527 0.1182715 0.0069622183 -0.0063613146 -0.05658563 -0.03970723 -0.012675493
-0.020206865 0.002035972 0.037646472 0.10318593 0.09214099 0.05690952 0.12775393 0.013478203
0.11482884 0.097819805 0.04009847 -0.050512444 0.09739484 -0.016606236 -0.0942819 -0.07731975
-0.011671821 -0.054353822 0.0014494418 -0.08595088 -0.004559508 -0.027575081 0.0014022008 -0.012700542

encoder.7.bias f4 [64]
00000000: 3805 783d 24cd 113e d789 27be dcf0 c7bb
00000010: 0d47 2cbd c403 0ebe 92f8 44ba 7f0f 86bd
00000020: 4023 53bc 21c4 88bc 793d 83bd 5fb8 10bd
00000030: 17ac a0bd 98aa c53d 3a0c 8dbd 3ba3 a93d
00000040: 3e7d 95bd c6a9 83bd 280a ef3d a607 c1bc
00000050: b62c 9ebc f9b2 bbbc 2059 233c 4350 d2bd
00000060: 2a0c febc 6b56 e0bc 5d62 4c3c 074b 84bc
00000070: 006d 323d 4456 99bd cf61 20bd 24ed bfbc
00000080: 2312 46bd 4366 b03d 49b3 13bd a5a6 93bc
00000090: a686 80bc ae45 f73d df95 1dbd 5e65 30bc
000000a0: e2fc 13bc 2838 203d c0da b83d 6018 4abd
000000b0: 6674 203d f9b5 dd3c 58e6 d9bc 8ce4 c0bd
000000c0: 2637 8a3c 9db3 803d d2df 683c 15f6 6a3d
000000d0: 1f59 bd3d 4736 8dba d426 99bd b8b8 45bd
000000e0: d48a 46bc 7eff 8ebd ee63 f2bb d32f cabd
000000f0: 9e7f 85bd c517 89bd db25 893d b7e6 b7bc
0.060551852 0.14238411 -0.16361175 -0.0061017107 -0.042059947 -0.13868624 -0.00075138465 -0.065459244
-0.012886822 -0.016695084 -0.06408209 -0.03533208 -0.078453235 0.09651679 -0.06887098 0.08283087
-0.07299279 -0.06428866 0.11671859 -0.023563217 -0.01930843 -0.02291249 0.0099699795 -0.10269215
-0.03101166 -0.027384957 0.0124746235 -0.016149057 0.04356098 -0.07487157 -0.039155778 -0.023428507
-0.04835714 0.08613255 -0.03605965 -0.018023798 -0.015689205 0.12073837 -0.038473006 -0.010766355
-0.00903246 0.039116055 0.09026098 -0.049339652 0.039173506 0.02706431 -0.026599094 -0.09418592
0.016872 0.062842585 0.014213519 0.05736359 0.09245514 -0.0010773622 -0.07478109 -0.048271865
-0.01211806 -0.06982325 -0.0073971665 -0.09872403 -0.06518482 -0.06693987 0.066966735 -0.02244888

encoder.8.weight f4 [64]
00000000: 7d64 9b3f d73d 543f f848 823f f702 8e3f
00000010: 3cee 7a3f 5857 833f a407 6b3f 0af2 8b3f
00000020: f53a 833f 8409 703f c8f1 763f 6a38 683f
00000030: 0b50 893f a70d 853f 7e4c 683f 334a 8d3f
00000040: 3f95 783f 22fe 753f 94e5 673f 8dd7 753f
00000050: dfa2 783f bc28 8d3f 2a67 803f 21c8 7d3f
00000060: c43c 853f c416 863f 235d 6f3f ed0b 813f
00000070: f8cc 823f d86b 803f 97a7 823f 5c70 883f
00000080: 063b 883f 495c 633f db94 523f c80e 843f
00000090: 68e5 693f 358f 723f b60a 883f 1277 6b3f
000000a0: ac5b 6b3f 666c 5a3f e53d 863f 611f 7e3f
000000b0: 0ce2 a73f 57a9 763f 9293 683f ba07 723f
000000c0: 80b2 813f d06a 9e3f 61d8 713f 94f3 7a3f
000000d0: ed3c 7f3f 111f 863f 9a05 563f b60f 793f
000000e0: 2072 8e3f 72ce 813f bb66 7f3f 15b7 8b3f
000000f0: 846d 8a3f 569b 533f e3bb 783f 3ce5 6a3f
1.2140042 0.8290686 1.0178518 1.1094655 0.98019767 1.026103 0.91808534 1.093324
1.0252367 0.9376452 0.9646268 0.9071108 1.0727552 1.0394791 0.9074172 1.1038269
0.9710273 0.960909 0.90584683 0.9603203 0.9712352 1.1028056 1.0031483 0.991335
1.0409169 1.0475698 0.9350149 1.0081764 1.0218801 1.0032911 1.0207394 1.0659289
1.0643013 0.8881269 0.82258385 1.0317011 0.9136567 0.94749767 1.0628269 0.9197856
0.91936755 0.8532165 1.0487639 0.9926663 1.3115859 0.9635214 0.90850174 0.9454304
1.0132599 1.2376347 0.94470793 0.9802792 0.9970234 1.0478231 0.836023 0.972896
1.1128578 1.0141127 0.9976613 1.0915247 1.0814672 0.826589 0.9716169 0.91756034

encoder.8.bias f4 [64]
00000000: 7725 d4be 054c 8abd 49e4 aebc 876f 96be
00000010: a921 f9bc ed20 833d f5db 5fbd af3f aebe
00000020: 2fe1 71be a576 f6bd 32d8 bdbd d232 05be
00000030: 6089 4bbe d710 183d 9967 99bd f74b 26be
00000040: 0159 cbbd a8b3 8fbd eb7f 2fbe 18a9 84be
00000050: 1b24 81bd eee5 43be 351a cdbd 4b71 29be
00000060: 9ee1 84be d115 b2bc e495 09be ec69 b73c
00000070: a7c5 2f3e 7bb4 09be b575 f6bd dedd 9ebe
00000080: e41c 253d 2c14 c8bd 0802 e6bd edb1 76be
00000090: d33b c8be da0a 92bd 5f13 953d f0f6 c2bd
000000a0: e0cf 87be b108 06bd b9f6 1fbf 10d7 94be
000000b0: e83d 7ebe 93fa dcbc cd6e e1bd 4d14 97bd
000000c0: 4ace 9d3c 2e83 183e 8a60 463c e37c 2f3d
000000d0: bf1f aebe 9cf1 81be 65fb f3bd 0ffe 3ebd
000000e0: a730 4dbe 7e59 073a f1dc b0be c84a 35be
000000f0: 6670 f9bd 789d abbd 6887 22be c5d1 33bd
-0.41434833 -0.06752781 -0.02134909 -0.29381964 -0.030411558 0.064027645 -0.054653127 -0.34032962
-0.23621057 -0.120343484 -0.092697516 -0.13007668 -0.19876623 0.037125435 -0.07490463 -0.16239916
-0.099290855 -0.070166886 -0.1713864 -0.25910258 -0.06305715 -0.1913068 -0.10014764 -0.16547124
-0.25953382 -0.021738918 -0.13436085 0.022389375 0.17165242 -0.13447754 -0.120341696 -0.31028646
0.040310755 -0.097694725 -0.11230856 -0.24091311 -0.39108142 -0.07130976 0.07279085 -0.09519756
-0.26525784 -0.032723133 -0.62485844 -0.2907033 -0.24828303 -0.026974952 -0.11007462 -0.07376919
0.019263405 0.14893791 0.012107978 0.04284371 -0.34008595 -0.25379646 -0.11913184 -0.046629008
-0.2003809 0.00051631767 -0.34543565 -0.17704308 -0.121796414 -0.08379644 -0.15871966 -0.043901224

encoder.8.running_mean f4 [64]
00000000: 5b87 3540 8d45 483f fbc1 73c0 011b 6240
00000010: e132 233f 320f 6bc0 0e07 88c0 ca27 2c40
00000020: 7f28 0740 7238 f83e 7e78 d0bf de32 66bf
00000030: 2db7 473f ebba edbf 5f58 65bf c822 8540
00000040: 09ba a73f 4519 aabf da0d 96be 7c8c e840
00000050: 259b 58c0 7f1c 053f cc7d 1340 2be2 4b40
00000060: 107f e53f 7022 2e40 7153 8c3f b569 c1bf
00000070: 510d 863f 9962 a240 e98b 7c40 f541 df3f
00000080: 5a2f 3cc0 e8c2 8cc0 6cd5 7440 14e0 1540
00000090: 32a1 9340 74cb 6240 1fd3 76c0 c0de 73c0
000000a0: 1a85 ca40 966c bd40 f622 7540 5640 c240
000000b0: e95c 4c40 8c91 7c3f b322 d940 5dba 86c0
000000c0: eb87 adbf a384 a0c0 6fb4 a8be a1f8 93c0
000000d0: b451 1f40 f9e6 bb3f 7ed9 c03f ba4d 07bf
000000e0: 8fc5 4b40 c233 1dc0 1413 923f 16f3 2240
000000f0: 4f93 9840 b44b 2ec0 c9ef e63f 9c6c 7940
2.8363864 0.78231126 -3.8087146 3.5328982 0.6374951 -3.6728024 -4.250861 2.6899285
2.1118467 0.48480564 -1.6286771 -0.8992137 0.7801388 -1.8572668 -0.8958797 4.1604958
1.3103648 -1.3288962 -0.29307443 7.267149 -3.3844693 0.51996607 2.304553 3.1856792
1.7929401 2.720852 1.0962964 -1.5110384 1.0472814 5.074536 3.9460394 1.7442003
-2.94039 -4.3987923 3.8255262 2.3418016 4.613427 3.5436678 -3.8566358 -3.8104706
6.3287477 5.919505 3.8302588 6.0703535 3.1931708 0.98659587 6.7854857 -4.2102494
-1.3557104 -5.016191 -0.3295016 -4.6241 2.4893618 1.4679862 1.5066373 -0.52852976
3.183933 -2.456284 1.1412072 2.5460868 4.767982 -2.7233706 1.8041927 3.897254

encoder.8.running_var f4 [64]
00000000: 11dc 7240 8625 0f41 ee17 5b41 b384 3d41
00000010: a12d 4541 c997 d741 7dd0 d340 9706 f040
00000020: 7362 0741 3c93 0a40 ddea 6d40 ea3f 8441
00000030: 2474 0f40 e59f 5441 42d2 a540 8ee7 3541
00000040: dc61 b440 f94a f33f bf47 b840 4285 8141
00000050: da48 d940 b326 a03e 989b c640 2cbf 4141
00000060: 8a00 c140 0a16 4441 21d4 4741 aeeb 9a41
00000070: 42d6 3741 8f4c dc41 bcee 2c41 22a0 ed3f
00000080: 1277 9441 3b2f 4141 d2bf 9c40 0e0a a840
00000090: 76c1 5241 40c8 b540 a998 6a41 1bd3 f640
000000a0: 15f8 6541 866f 1541 0a19 cf40 3472 6441
000000b0: f558 2f41 4bc2 e840 63ff 5e41 0802 cf40
000000c0: 7e5d b841 7078 5241 0d49 7c41 e01d b841
000000d0: be81 8040 aaf4 3640 96eb b540 3f28 df40
000000e0: 0143 7941 6358 5d41 169d d13f d219 a040
000000f0: 56a5 f740 06be 4140 2ad7 aa40 d504 c140
3.7946818 8.946661 13.693342 11.844897 12.32364 26.949114 6.6192 7.5008044
8.461535 2.1652365 3.71746 16.531208 2.2414637 13.289037 5.181916 11.369032
5.6369457 1.9007255 5.758758 16.190067 6.790143 0.31279525 6.2064934 12.109173
6.031316 12.255381 12.489289 19.365078 11.489809 27.537382 10.808285 1.8564494
18.55814 12.074031 4.8984156 5.2512274 13.172232 5.6806946 14.662271 7.7132697
14.373067 9.339727 6.4718065 14.277882 10.959218 7.2737174 13.93735 6.468998
23.04565 13.154404 15.767835 23.014587 4.0158377 2.858683 5.685008 6.973663
15.578858 13.834079 1.6376064 5.003152 7.7389326 3.027223 5.338765 6.03184
